day2/domain_adaptation/revgrad_2.pt (torch_old, 91045 bytes, 8 tensors)

feature_extractor.0.weight f4 [10, 3, 5, 5]
0	0x3d3a7369	0.04552022
1	0xbdb64d83	-0.08901503
2	0xbc81697c	-0.01579737
3	0xbca1ad52	-0.019735966
4	0xbd907053	-0.07052674
5	0xbdc1ae9d	-0.09457133
6	0xbe683e2e	-0.2267997
7	0xbe250d7d	-0.16118427
8	0xbea4bf85	-0.32177368
9	0xbe1829c7	-0.14859687
10	0xbe294d4d	-0.16533394
11	0xbe8c1be6	-0.27365035
12	0xbe9da332	-0.3078857
13	0xbdeb299a	-0.11482544
14	0x3d2e15c2	0.04250122
15	0xbea40015	-0.32031313
16	0xbe2f2cf5	-0.17106993
17	0xbe1a607b	-0.15075867
18	0xbd14c724	-0.036322728
19	0xbe269ffb	-0.16271965
20	0xbde97743	-0.113997005
21	0xbe10c5e8	-0.14137995
22	0x3cf22936	0.029560667
23	0xbd4053ec	-0.046955034
24	0xbd9f5410	-0.077797055
25	0xbc131d66	-0.008979177
26	0xbddfaf6d	-0.10922132
27	0xbe348e45	-0.17632397
28	0xbd8f7600	-0.070049286
29	0x3c44ad63	0.012004229
30	0xbe8f1b47	-0.27950498
31	0xbdb111c8	-0.0864597
32	0xbe1415b8	-0.1446141
33	0xbe4e477d	-0.20144458
34	0xbd395071	-0.04524273
35	0xbd94b781	-0.07261563
36	0xbe77e3dc	-0.24208015
37	0xbdf0f548	-0.11765534
38	0xbd644065	-0.055725474
39	0x3d919f34	0.07110444
40	0xbe129bfe	-0.14317319
41	0xbe1e3043	-0.15448098
42	0xbdad3a88	-0.084584296
43	0xbe4fcd8f	-0.20293258
44	0xbbdce972	-0.006741696
45	0xbe8457b2	-0.25848156
46	0xbdf697fa	-0.12040706
47	0xbdcfa864	-0.1013954
48	0xbdda454a	-0.10657747
49	0x3cc86594	0.024462499
50	0xbe177923	-0.14792304
51	0x3e022f70	0.12713408
52	0xbc832a90	-0.016011506
53	0x3de93db2	0.113887206
54	0xbd82ce15	-0.06386963
55	0x3ddf17bd	0.108931996
56	0x3ecce568	0.40018773
57	0x3e98603d	0.29760924
58	0x3dbf23d9	0.09333009
59	0x3c3c4882	0.011491897
60	0x3edf605f	0.43628213
61	0x3efa106a	0.48840648
62	0x3f02f2ed	0.51151925
63	0x3f1307d8	0.57433844
64	0x3ea11964	0.31464684
65	0x3ed84a99	0.42244413
66	0x3f07f78b	0.53112096
67	0x3f21d29b	0.63211983
68	0x3ed38d3c	0.4131869
69	0x3ea2a671	0.3176761
70	0x3eaf4e8c	0.34239614
71	0x3efd7ea4	0.49510682
72	0x3e9eb354	0.30996192
73	0x3eccb8f3	0.39984855
74	0x3e87b4dd	0.26505175
75	0x3d2ea221	0.042635087
76	0x3e1aeb29	0.15128769
77	0x3d742058	0.059601158
78	0x3bd29301	0.0064262156
79	0xbdad3c1c	-0.084587306
80	0x3dd3b844	0.1033788
81	0x3d941ad6	0.07231681
82	0xbce97d38	-0.028502092
83	0x3c2a5f8d	0.010398758
84	0xbdb2fcdd	-0.08739636
85	0x3e2a286f	0.16616987
86	0xbc7479f7	-0.014921657
87	0x3d81ebf1	0.063438304
88	0xbe2f8551	-0.171407
89	0xbe5c23ec	-0.21498078
90	0xbd100e83	-0.03517009
91	0xbd4c7516	-0.04991635
92	0xbd732443	-0.059360754
93	0xbe019eab	-0.12658183
94	0xbd54cd5f	-0.05195367
95	0x3d94d06d	0.072663166
96	0x3d5be230	0.053682506
97	0xbde038af	-0.109483115
98	0xbd72ee67	-0.05930939
99	0xbd3778c1	-0.044792894
100	0x3df53f30	0.11974943
101	0x3e00bea3	0.12572722
102	0x3e210a67	0.15726624
103	0xbbd1c064	-0.0064011086
104	0x3cb7cdbd	0.02243697
105	0x3df1d41b	0.11808034
106	0xbd15c644	-0.036566034
107	0x3de23c5c	0.11046669
108	0x3d238548	0.03992203
109	0xbdd3d266	-0.10342865
110	0x3c5e83e0	0.013581246
111	0x3d92689c	0.07148859
112	0xbddf51e9	-0.10904295
113	0xbd28c86e	-0.04120677
114	0xbd882321	-0.06647325
115	0x3ccd15c1	0.025034787
116	0x3db223f3	0.08698263
117	0xbdf4c9b2	-0.11952533
118	0x3d293ba8	0.04131666
119	0xbe4349d5	-0.19071133
120	0x3d86bfe1	0.06579567
121	0x3ddf0e52	0.10891403
122	0xbda96dbf	-0.082728855
123	0x3db4d333	0.088293456
124	0xbd9da71e	-0.07697891
125	0x3e86fdc5	0.26365486
126	0x3e0d4aaa	0.13798013
127	0x3cdb660b	0.026782056
128	0x3e0d2c5b	0.13786452
129	0xbe824cd1	-0.2544923
130	0x3e75b0fc	0.23993295
131	0x3e181a2f	0.14853738
132	0x3dcb3748	0.099226534
133	0xbe3dc7ba	-0.18533221
134	0xbe85c915	-0.26129976
135	0x3e6159b9	0.22006883
136	0x3e395030	0.18096995
137	0x3deb3b6e	0.11485945
138	0xbe9d5dbf	-0.30735585
139	0xbed88cab	-0.4229482
140	0x3e19938d	0.14997692
141	0x3e62d34b	0.22150914
142	0xbd8b942e	-0.068153724
143	0xbe378d1a	-0.1792492
144	0xbe995a6a	-0.29951793
145	0x3d502938	0.05082056
146	0x3ceb67a1	0.028735938
147	0xbc7e8cfb	-0.015536542
148	0xbdd3b5ce	-0.10337411
149	0xbe3b4bc0	-0.18290615
150	0x3e07a2c9	0.13245691
151	0x3d02024c	0.03174047
152	0x3d81e28c	0.063420385
153	0x3dc52dfe	0.09627913
154	0xbd581098	-0.0527502
155	0xbd0865c5	-0.03330018
156	0xbd03c8d1	-0.032173935
157	0xbe04a4de	-0.12953517
158	0x3d553a42	0.052057512
159	0xbe1cbf02	-0.15307239
160	0xbe8bbb57	-0.27291366
161	0xbe5919e0	-0.21201277
162	0xbdec4408	-0.115364134
163	0xbd809648	-0.06278664
164	0xbdef78a6	-0.11692934
165	0xbe932ec8	-0.2874663
166	0xbd1019ff	-0.03518104
167	0xbe148f32	-0.1450775
168	0x3d15ba0e	0.03655439
169	0xbe2fda99	-0.17173232
170	0xbdde2495	-0.10846821
171	0xbd04b6b8	-0.032400817
172	0xbdb69a48	-0.089161456
173	0x3d938af6	0.07204239
174	0xbb79c7ae	-0.0038113403
175	0x3dae4372	0.08508958
176	0x3c3df851	0.011594848
177	0x3d5f9e82	0.054594524
178	0xbd695f47	-0.05697563
179	0xbdcc8a74	-0.09987345
180	0xbd3d2687	-0.04617932
181	0xbe209687	-0.15682422
182	0xbdef1083	-0.11673071
183	0xbe143f0e	-0.14477178
184	0xbd8657d6	-0.06559722
185	0xbe763d5e	-0.24046847
186	0xbd161e60	-0.03665006
187	0xbe1e5254	-0.15461093
188	0xbdabc6e7	-0.08387547
189	0xbe78f2d6	-0.24311385
190	0xbe4dc02a	-0.20092836
191	0xbda0a245	-0.078434505
192	0x3d44c9a2	0.048043855
193	0xbb83a125	-0.0040170127
194	0xbe440ce6	-0.19145545
195	0xbe90ec87	-0.28305456
196	0xbd451e20	-0.048124433
197	0xbe08eb85	-0.13371094
198	0x3c5df217	0.013546488
199	0x3cb0da85	0.021588573
200	0x3e9f73a0	0.31142902
201	0x3eb8c932	0.36091
202	0x3c943b39	0.018094646
203	0x3e6aad73	0.22917728
204	0x3d57431b	0.05255423
205	0x3e3d1466	0.18464813
206	0x3e28df86	0.16491517
207	0x3e47b203	0.195015
208	0x3e6b8204	0.22998816
209	0xbddcb6e5	-0.10777072
210	0x3e4a4f62	0.19756845
211	0x3ea2d93e	0.31806368
212	0x3e946060	0.28979778
213	0x3eb07807	0.34466574
214	0x3db3d230	0.087803245
215	0x3e240c6e	0.16020367
216	0x3ec47db8	0.38377166
217	0x3e89b25f	0.268939
218	0x3e9706ae	0.29497284
219	0x3d98579b	0.074385844
220	0x3d8b9ffe	0.068176255
221	0x3e031b48	0.12803376
222	0x3e0a8dd7	0.1353067
223	0x3e5c7575	0.21529181
224	0x3ddc388a	0.107529715
225	0xbe0935a4	-0.13399369
226	0xbda85fc4	-0.08221391
227	0xbd01ced3	-0.031691384
228	0xbd9e1b65	-0.07720069
229	0xbd0433a9	-0.03227583
230	0x3da5cf6e	0.08096205
231	0xbc3bfc73	-0.011473763
232	0x3c9d7d91	0.019224914
233	0x3c66caae	0.014086409
234	0xbda0c574	-0.07850161
235	0xbe13c5a4	-0.14430863
236	0xbd7c62df	-0.06161773
237	0x39b1e14d	0.00033927933
238	0x3d88740e	0.06662761
239	0xbd87a2c1	-0.0662284
240	0xbbb00c12	-0.0053725326
241	0x3b04d8fd	0.0020270937
242	0xbd20e63a	-0.03928206
243	0x3dbace8a	0.091214254
244	0xbd91da97	-0.07121771
245	0xbd06287e	-0.03275346
246	0x3d1927b7	0.03739139
247	0xbe066bc5	-0.13127048
248	0xbc44e632	-0.012017773
249	0xbc912025	-0.017715523
250	0x3d8fa5c6	0.07014041
251	0xbc53678a	-0.012903104
252	0xbd545b81	-0.051845077
253	0xbcee2575	-0.029070595
254	0xbd940db5	-0.07229177
255	0xbd8e02bc	-0.06934115

feature_extractor.0.bias f4 [10]
0	0xbe7ba5d4	-0.24574977
1	0xbe2e9bee	-0.1705167
2	0xbec37e10	-0.38182116
3	0xbdb1a420	-0.086738825
4	0xbe2ffa64	-0.1718536
5	0xbe45ad75	-0.1930445
6	0xbcc5aa66	-0.024129104
7	0xbc2c5c29	-0.01052002
8	0xbe9f4da6	-0.3111393
9	0x3dc51b13	0.096243046

feature_extractor.3.weight f4 [20, 10, 5, 5]
0	0x3e1d4b2a	0.15360704
1	0x3e39e357	0.1815313
2	0x3d98a7d6	0.07453887
3	0xbe543696	-0.20723948
4	0xbe3ec550	-0.18629956
5	0x3cf5229a	0.029923726
6	0x3e675716	0.22591814
7	0x3e4b0206	0.1982499
8	0xbad09e49	-0.0015916313
9	0xbe6092d1	-0.21931006
10	0xbe4f299c	-0.20230716
11	0xbc0bc2b9	-0.008530312
12	0x3e610925	0.21976145
13	0x3e1c12ac	0.15241498
14	0x3da645e9	0.08118803
15	0xbeb3835e	-0.35061163
16	0xbe67a698	-0.22622144
17	0x3d075c09	0.033046756
18	0x3d89fda9	0.06737835
19	0x3c6bebc9	0.014399477
20	0xbc4caff7	-0.012493125
21	0x3b2aab96	0.0026042215
22	0xbcbeaf7a	-0.023277033
23	0xbcef1c52	-0.029188309
24	0xbdcf94dd	-0.10135815
25	0x3cfd27c8	0.030902758
26	0x3bf1de45	0.007381233
27	0x3deb2b7f	0.114829056
28	0xbdfbde10	-0.122982144
29	0x3ca180d6	0.019714754
30	0x3b553224	0.0032531107
31	0xbdb0a21a	-0.086246684
32	0xbd8f5fd5	-0.070007004
33	0xbd86c780	-0.0658102
34	0xbcb1663e	-0.021655198
35	0xbe1169bd	-0.14200492
36	0xbe49641b	-0.19667093
37	0xbd81ca12	-0.0633737
38	0xbda58889	-0.08082683
39	0xbcab1983	-0.020886188
40	0xbde70ad4	-0.11281362
41	0xbe052903	-0.13003926
42	0xbce64220	-0.028107703
43	0x3cc4ce17	0.024024053
44	0xbcad0722	-0.021121565
45	0xbc921b17	-0.017835183
46	0xbd24df0f	-0.040251788
47	0xbd32f8be	-0.04369425
48	0x3bec2741	0.007206828
49	0xbd38d544	-0.04512526
50	0x3c4685a7	0.012116826
51	0x3d364380	0.044497967
52	0xbd98384a	-0.07432611
53	0xbdfd0342	-0.12354137
54	0xbd9c4bba	-0.07631631
55	0x3e9c7a92	0.30562264
56	0x3ebe0ec5	0.37120643
57	0x3e97e421	0.29666236
58	0x3e7d6530	0.24745631
59	0x3dc4fc6a	0.09618457
60	0xbd236448	-0.039890558
61	0x3e5b00b0	0.21386981
62	0x3e64c243	0.2233973
63	0x3e83818e	0.2568478
64	0x3e1c8617	0.15285526
65	0xbe82affc	-0.2552489
66	0xbdaef614	-0.085430294
67	0x3ce082bd	0.02740609
68	0x3e110f2f	0.14165948
69	0x3d950aaa	0.07277425
70	0xbe4dfeeb	-0.20116775
71	0xbe3e7b60	-0.18601751
72	0xbe25030d	-0.16114445
73	0xbd92cbc2	-0.0716777
74	0xbd3ee220	-0.04660237
75	0xbb3d388b	-0.0028872814
76	0xbd147916	-0.03624829
77	0xbc6768e2	-0.014124127
78	0x3d138a51	0.03602058
79	0x3d44c166	0.048036
80	0x3d800f80	0.062529564
81	0x3c8df111	0.017326863
82	0xbc8218f8	-0.015881047
83	0xbd0bc604	-0.03412439
84	0x3cc10142	0.02356017
85	0xbd75af5f	-0.0599817
86	0xbd2b7bd0	-0.041866124
87	0x3ca392ea	0.019967515
88	0x3cddfa28	0.027096823
89	0xbd66a689	-0.056311164
90	0x3d0b4eba	0.034010626
91	0xbd3c5177	-0.04597613
92	0x3d6a34f3	0.057179403
93	0x3c72af79	0.014812344
94	0xbcd92a4a	-0.026509423
95	0x3c41d7ce	0.011831237
96	0xbbe252ed	-0.006906858
97	0xbd229932	-0.03969688
98	0xbc31ed2c	-0.010859769
99	0x3c884201	0.016633036
100	0xbd361e60	-0.04446256
101	0xbddda96b	-0.108233295
102	0xbd9e5dda	-0.077327445
103	0xbdc5eec3	-0.09664681
104	0xbd726207	-0.059175517
105	0xbd472299	-0.04861698
106	0x3d4620f2	0.048371263
107	0xbe65d3ab	-0.22444026
108	0xbe1e04a5	-0.15431459
109	0xbe231101	-0.15924455
110	0x3d5ece45	0.054395933
111	0x3e2e5061	0.1702285
112	0x3d3c7563	0.046010386
113	0x3be25edc	0.006908281
114	0xbde8edae	-0.11373459
115	0xbce1ebf2	-0.027578328
116	0x3d09f0de	0.033676974
117	0x3dca34b0	0.098733306
118	0x3d3da225	0.04629721
119	0x3db6dafc	0.08928487
120	0xbdd5d81b	-0.104416095
121	0xbd923fa9	-0.071410485
122	0xbb34e272	-0.0027600792
123	0x3ce95584	0.02848316
124	0x3c25bfc9	0.010116526
125	0xbddd9344	-0.10819104
126	0xbcbbc421	-0.02292067
127	0x3df094dd	0.117471434
128	0x3d3b6f20	0.045760274
129	0x3e2b3fb6	0.16723523
130	0xbe1721c1	-0.1475897
131	0xbdc5a445	-0.096504726
132	0xbd9a4005	-0.07531742
133	0x3def7ed1	0.1169411
134	0x3dabad1d	0.08382628
135	0x3e1a8c49	0.15092577
136	0x3e3b0308	0.18262875
137	0x3d2a013b	0.04150508
138	0xbc7039e4	-0.01466224
139	0x3d81ce6c	0.063382
140	0x3e27d0f7	0.16388308
141	0x3e822e23	0.25425825
142	0x3e757b7d	0.23972888
143	0x3c77bdc2	0.015120925
144	0xbcadb772	-0.021205638
145	0x3d519684	0.051168934
146	0xbc0bf907	-0.008543259
147	0x3caeeeed	0.021354163
148	0xbd795a49	-0.06087712
149	0x3d8a6324	0.06757191
150	0xbd0545a5	-0.03253712
151	0xbd9c142e	-0.076210365
152	0x3d9876dd	0.07444546
153	0x3c3e5745	0.011617486
154	0x3dc84f6b	0.09780773
155	0x3da63904	0.081163436
156	0x3d08f2b0	0.03343457
157	0xbcfe341e	-0.03103071
158	0xbde164ae	-0.11005531
159	0xbd98090c	-0.074236006
160	0x3e38034a	0.17970005
161	0x3e539e20	0.20665789
162	0x3e21cf94	0.15801841
163	0xbd1065da	-0.035253383
164	0xbd360954	-0.04444249
165	0x3ceceeab	0.0289224
166	0x3e1ef084	0.15521437
167	0x3dc567be	0.09638928
168	0x3d85914d	0.065218545
169	0xbd3335d5	-0.04375251
170	0x3cbf57a2	0.023357216
171	0x3d6b9807	0.05751803
172	0xbd93a0e9	-0.072084256
173	0x3c45770a	0.012052307
174	0xbd0e91d3	-0.034807038
175	0x3d3dc9a8	0.046334893
176	0xbd946c7a	-0.07247253
177	0xbd57cb03	-0.05268384
178	0x3d876788	0.06611544
179	0x3da6dc4a	0.081474856
180	0x3d024a45	0.03180911
181	0x3b45bb19	0.0030171333
182	0xbd8f1bd1	-0.069877274
183	0xbd745bdb	-0.059657913
184	0x3d2694db	0.040669303
185	0xbcb2e56d	-0.021837914
186	0x3d936c0b	0.07198342
187	0x3db85945	0.09001402
188	0x3daf5174	0.08560458
189	0xbdaa379e	-0.083113894
190	0x3d5db837	0.05413076
191	0x3dec121c	0.115268916
192	0x3e1cdf4a	0.15319553
193	0x3c5a466c	0.013322454
194	0xbd8f539d	-0.0699837
195	0x3e0dabf9	0.13835134
196	0x3dda91ae	0.106723174
197	0xbd5ea3f5	-0.05435558
198	0x3c9f8407	0.019472135
199	0xbd76d593	-0.060262274
200	0xbd23a3a5	-0.039950985
201	0xbb0f7540	-0.0021889955
202	0x3c6c63bf	0.014428078
203	0xbe726fb1	-0.2367542
204	0xbdd7f248	-0.10544258
205	0x3c38fadc	0.011290278
206	0x3df72c56	0.12069003
207	0x3e48372d	0.19552298
208	0x3dcaa373	0.09894457
209	0xbd32fdf9	-0.04369924
210	0x3e17557b	0.14778702
211	0x3ca61a6e	0.020276275
212	0x3dd3e7f8	0.10346979
213	0x3df723fc	0.1206741
214	0x3dec69e3	0.11543634
215	0x3be502f8	0.0069888793
216	0xbcc4bba0	-0.024015248
217	0xbd3e224d	-0.04641943
218	0x3bc95f8e	0.006145424
219	0x3b4f08bc	0.00315909
220	0x3c693f11	0.014236228
221	0xbdda32d0	-0.10654223
222	0xbdf12a6d	-0.1177567
223	0xbd30be3b	-0.043150168
224	0xba903866	-0.0011003136
225	0x3d8dd06c	0.06924519
226	0x3cd2e5fd	0.025744433
227	0x3c86c757	0.016452475
228	0xbbb181fa	-0.0054171057
229	0x3dae99df	0.08525442
230	0x3da21d0c	0.079156965
231	0x3ca8c92a	0.020603735
232	0xbc7e17b1	-0.015508578
233	0x3e6fe056	0.23425421
234	0x3e69275e	0.22768924
235	0x3d145543	0.036214124
236	0xbd4cb635	-0.049978454
237	0xbe29a61c	-0.16567272
238	0x3c27501d	0.010211972
239	0x3e390251	0.1806729
240	0xbde9506d	-0.11392293
241	0x3d3cecfc	0.046124443
242	0x38675d40	5.5161538e-05
243	0x3e45626e	0.19275829
244	0x3e11ef6e	0.14251491
245	0xbde23be2	-0.11046578
246	0x3d8e5331	0.06949461
247	0x3e20da7f	0.1570835
248	0x3e14ba49	0.14524187
249	0xbd8cdfbc	-0.068786114
250	0x3e84d8dd	0.25946704
251	0x3dba13d1	0.09085811
252	0xbe76af6b	-0.24090354
253	0xbe5c2d86	-0.21501741
254	0xbcaa2572	-0.020769808
255	0x3e1181f9	0.14209737

feature_extractor.3.bias f4 [20]
0	0xbe54f465	-0.20796354
1	0x3df9fc88	0.1220637
2	0xbe0d54c4	-0.13801867
3	0x3d23525b	0.039873462
4	0xbdcf67c7	-0.10127216
5	0xbe4496ef	-0.19198202
6	0xbe240411	-0.16017176
7	0xbe272c8c	-0.16325587
8	0xbdb007cc	-0.08595237
9	0x3d2554fa	0.040364243
10	0xbde001ad	-0.1093782
11	0x3d0ce402	0.034397133
12	0xbe5a1c80	-0.21299934
13	0xbe665051	-0.22491576
14	0x3e5690ae	0.20953628
15	0x3dfdb938	0.12388843
16	0x3e3b9126	0.18317088
17	0xbe07affe	-0.1325073
18	0x3de1e3cb	0.11029776
19	0x3c83e813	0.016101873

classifier.0.weight f4 [50, 320]
0	0xbe1e6d33	-0.15471344
1	0xbdcaeada	-0.09908076
2	0xbd5a9507	-0.05336478
3	0x3cd6531f	0.026162682
4	0xbe1e7f0a	-0.15478149
5	0xbe002fb0	-0.12518191
6	0xbcb3d704	-0.021953113
7	0xbb9cd8f4	-0.004786605
8	0x3dad5176	0.08462803
9	0x3cab14b3	0.020883894
10	0x3d1d481c	0.038398847
11	0xbcc45f58	-0.023971245
12	0xbb68838e	-0.0035478803
13	0x3cf934ff	0.030420778
14	0xbd04f546	-0.032460473
15	0x3e0b0b36	0.13578495
16	0x3d18dd62	0.037320502
17	0x3cf35113	0.029701745
18	0xbd99813d	-0.07495353
19	0xbcf6468f	-0.030062942
20	0x3ceae8e6	0.028675508
21	0x3d629263	0.055315387
22	0x3e006013	0.1253665
23	0xbcc0a8b2	-0.02351794
24	0x3c5a134d	0.013310266
25	0x3c853ce2	0.016264383
26	0xbca6471f	-0.020297585
27	0x3b8217cb	0.0039701215
28	0xbd829046	-0.06375174
29	0xbd207930	-0.039178073
30	0xbd94a09b	-0.072571956
31	0xbc2c3816	-0.010511419
32	0xbdb26255	-0.087101616
33	0x3e0f1447	0.13972579
34	0xbc9fef89	-0.019523399
35	0xba98b30a	-0.0011650037
36	0xbcfa5cbe	-0.030561801
37	0x3d7c3f46	0.06158378
38	0xbdd0814f	-0.10180914
39	0x3ca7ddee	0.020491567
40	0xbcd35faf	-0.025802461
41	0x3cbc8ce5	0.023016402
42	0x3e02f3d7	0.1278833
43	0xbc41a229	-0.011818447
44	0xbce4527e	-0.027871367
45	0x3d4e9519	0.05043516
46	0x3ccea9f1	0.025227519
47	0xbd79ec2f	-0.061016258
48	0x3c82a056	0.015945595
49	0xbd77c28c	-0.06048827
50	0x3d29bc64	0.04143943
51	0x3c952983	0.01820827
52	0xbb9712b8	-0.0046103857
53	0x3d022f84	0.031783596
54	0xbdbc98da	-0.092088416
55	0x3c85e278	0.01634334
56	0x3bcc02be	0.006225913
57	0xbdefa57c	-0.117014855
58	0xbc8c9867	-0.017162515
59	0x3d900e7b	0.07034012
60	0xbd221e6b	-0.03957979
61	0xbbdaf51c	-0.0066820513
62	0xbd62e087	-0.055389907
63	0xbd8f3dff	-0.06994247
64	0xbd88af26	-0.06674032
65	0xbc82e1f8	-0.01597689
66	0x3dd8b453	0.10581269
67	0x3cd8c403	0.026460653
68	0x3cb4e549	0.022081988
69	0x3e00d377	0.12580667
70	0xbd916d74	-0.07100955
71	0x3cfcdfb7	0.030868394
72	0x3d30b598	0.04314193
73	0xbb2c65fd	-0.0026305907
74	0x3d963d27	0.07335883
75	0x3d997831	0.07493628
76	0xbd5bf789	-0.053702865
77	0xbd44a2ff	-0.048007008
78	0x3c8a404f	0.016876368
79	0xbdcf39cd	-0.101184465
80	0xbda35e92	-0.07977022
81	0xbd23652a	-0.0398914
82	0xbd6da096	-0.058014475
83	0xbd165f38	-0.0367119
84	0xbcd2cc4c	-0.025732182
85	0xbce95e3c	-0.028487317
86	0x3dcc50db	0.099763595
87	0xbcdad7ed	-0.02671429
88	0x3db4722e	0.088108405
89	0x3d9e4596	0.07728116
90	0x3ce9e9be	0.02855384
91	0x3cbfc68a	0.0234101
92	0xbcb6c2c2	-0.022309665
93	0xbd3a5245	-0.045488615
94	0xbc56eaa7	-0.013117469
95	0x3cb116d2	0.021617327
96	0xbcded886	-0.027202856
97	0x3b785cd6	0.0037897131
98	0xbd16e593	-0.036840033
99	0xbe0c6f2b	-0.13714282
100	0xbd247011	-0.040145937
101	0xbe06fd0f	-0.13182472
102	0xbcbe6e9a	-0.023246098
103	0xbd912eb7	-0.07088988
104	0x3d48ac0c	0.0489922
105	0x3d095c40	0.033535242
106	0x3d994f80	0.074858665
107	0x3d7a3fbe	0.061095946
108	0x3c1f79f5	0.009733667
109	0xbc088a7a	-0.008333797
110	0x3d47e753	0.048804592
111	0xbb60397b	-0.0034213949
112	0xbcee0f42	-0.02906001
113	0xbd0df331	-0.034655754
114	0x3bbc3c6e	0.0057445085
115	0x3d4e8e2b	0.05042855
116	0xbdb2b8b2	-0.08726634
117	0xbd39dd62	-0.045377143
118	0xbcd3f0eb	-0.025871715
119	0xbdeb5902	-0.11491586
120	0xbd11d967	-0.03560772
121	0xbcded045	-0.02719892
122	0xbd190bda	-0.03736482
123	0xbdc0aac2	-0.094075695
124	0xbd98ce29	-0.07461197
125	0x3cde0df5	0.027106265
126	0x3cfd540d	0.030923868
127	0x3cd6bcf7	0.026213152
128	0xbd1ea177	-0.038728204
129	0xbca3898b	-0.019963047
130	0x3cdab156	0.026695888
131	0xbd0ef1c5	-0.03489854
132	0xbdef1d4d	-0.116755106
133	0xbbe833a0	-0.0070862323
134	0xbd92bd4b	-0.07165011
135	0xbddbef31	-0.107389815
136	0x3c6642cc	0.014054012
137	0x3da92818	0.082596004
138	0x3d60b6ea	0.05486194
139	0x3cdeec53	0.027212298
140	0xbc0db1ba	-0.00864833
141	0x3d98fdc3	0.07470276
142	0x3d418bba	0.047252394
143	0x3d0666a6	0.032812737
144	0x3cc333e9	0.023828464
145	0x3dfda68b	0.12385281
146	0x3dad641f	0.08466362
147	0x3d004ae0	0.031321406
148	0x3d9d375f	0.07676577
149	0xbd67aa9c	-0.05655919
150	0xbc85e618	-0.016345069
151	0x3df28af4	0.118429095
152	0xbe171eb2	-0.14757803
153	0xbdfe9a34	-0.12431756
154	0x3d8898b7	0.06669753
155	0xbd89e89c	-0.0673382
156	0xbbd29fdb	-0.0064277477
157	0x3d7450e7	0.059647467
158	0xba83d502	-0.0010057988
159	0x3c6c14cd	0.014409256
160	0x3d8ab09d	0.067719676
161	0xbc76a342	-0.015053572
162	0xbcfa2b3c	-0.030538194
163	0xbd248a50	-0.040170968
164	0x3d29b6a5	0.04143395
165	0x3c2e2ced	0.010630828
166	0x3d77bc5b	0.060482364
167	0x3e3c7fb6	0.18408093
168	0xbdd2662b	-0.10273393
169	0xbce49bf9	-0.027906405
170	0xbca43823	-0.0200463
171	0xbe273290	-0.16327882
172	0xbdbc1102	-0.091829315
173	0xbca67a6f	-0.020322053
174	0xbd1d481a	-0.03839884
175	0xbe0316a9	-0.12801613
176	0xbc0a785b	-0.008451547
177	0x3d3c7445	0.04600932
178	0x3d1888ce	0.037239842
179	0xbce93677	-0.028468354
180	0xbdb55b60	-0.08855319
181	0xbd4217f3	-0.04738612
182	0xbc1b2e9f	-0.009471565
183	0xbdeda2aa	-0.11603291
184	0xbcc1eabc	-0.0236715
185	0xbc9aace8	-0.018881276
186	0xbd679425	-0.056537766
187	0x3bd0b40f	0.006369121
188	0x3dd4ea62	0.103962675
189	0x3e018d84	0.1265164
190	0x3d188e56	0.037245117
191	0x3c9c507d	0.019081349
192	0xbddc2a6c	-0.10750279
193	0x3c636dd4	0.0138811655
194	0xbdbe3a54	-0.09288469
195	0xbd8ddb92	-0.06926645
196	0xbc0dee4b	-0.0086627705
197	0xbd387e3a	-0.045042254
198	0xbd002f87	-0.031295326
199	0x3e0c9d4d	0.1373188
200	0xbbfeae00	-0.0077722073
201	0x3db97d6d	0.09057126
202	0x3cb86cda	0.022512842
203	0xbc792031	-0.015205429
204	0xbd847417	-0.06467455
205	0xbd9fa122	-0.077944055
206	0xbd91b511	-0.07114614
207	0xbe2185b4	-0.1577366
208	0x3c27264e	0.010202004
209	0xbdf35a45	-0.11882452
210	0xbd9b08e3	-0.075700544
211	0x3cbaecfc	0.022818081
212	0x3b9976eb	0.0046833656
213	0x3e33fc61	0.17576744
214	0xbc03b51b	-0.008038784
215	0x3ddfccf9	0.10927767
216	0xbcb1cc14	-0.021703757
217	0x3d38006f	0.04492229
218	0x3b1f941f	0.0024349762
219	0x3bad8eaa	0.005296548
220	0xbd9cbb9d	-0.07652972
221	0xb9222fdc	-0.00015467353
222	0xbdeb7806	-0.11497502
223	0x3b94a281	0.0045359735
224	0x3dc06b19	0.09395427
225	0xbd5e63a5	-0.054294247
226	0x3d021170	0.03175491
227	0x3e07a6d3	0.13247232
228	0xbd96760a	-0.07346733
229	0x3cdc38e4	0.026882596
230	0x3d39fe10	0.04540831
231	0xbe051fe2	-0.13000444
232	0xbd8e92b3	-0.069615744
233	0xbc297115	-0.010341902
234	0x3a1662cc	0.0005736768
235	0xbdbc0041	-0.09179736
236	0x3d88784a	0.06663568
237	0x3d504645	0.050848264
238	0x3d3f2079	0.046661828
239	0x3da12cef	0.078698985
240	0x3e0a049f	0.13478325
241	0x3d216a25	0.039407868
242	0x3d8f51ba	0.0699801
243	0x3d474460	0.04864919
244	0x3ca145b1	0.019686552
245	0xbca186c6	-0.019717585
246	0xbc34a4a1	-0.011025579
247	0xbcda5fdf	-0.026657043
248	0xbda4fea9	-0.08056385
249	0xbde6fe14	-0.1127893
250	0x3cbc11ee	0.022957768
251	0xbcd94f0a	-0.026526947
252	0x3d7c8408	0.061649352
253	0x3d28f57c	0.041249737
254	0x3d287cab	0.041134518
255	0x3d67d0d1	0.056595627

classifier.0.bias f4 [50]
0	0x3da4268f	0.08015167
1	0xbb6624f2	-0.0035117236
2	0x3dea623a	0.114445165
3	0x3dba8a7c	0.09108445
4	0x3e422a28	0.18961394
5	0x3e290a34	0.16507798
6	0xbdb92534	-0.09040299
7	0x3cdcb618	0.026942298
8	0x3d57d02c	0.052688763
9	0x3d1c634b	0.03818063
10	0x3c2539b2	0.010084556
11	0xbe218aba	-0.15775576
12	0xbd803954	-0.062609345
13	0x3d905433	0.0704731
14	0x3db09f70	0.0862416
15	0x3dcdd663	0.10050657
16	0xbc953535	-0.018213848
17	0x3bad254b	0.0052839867
18	0x3daa3d85	0.08312515
19	0x3e137f81	0.14404108
20	0x3dd0f916	0.10203759
21	0x3e0ff3df	0.14057873
22	0x3bc21264	0.0059226025
23	0x3e2500c9	0.16113581
24	0x3e03d842	0.12875465
25	0x3deef115	0.116670765
26	0x3dcf9601	0.10136033
27	0x3d3d45c1	0.0462091
28	0x3db2f992	0.08739008
29	0xbc2be557	-0.010491691
30	0x3d81e4e7	0.06342488
31	0xbcb4a383	-0.022050625
32	0xbdaf7f9a	-0.0856926
33	0x3d78cacf	0.06074029
34	0x3e40c7b3	0.18826179
35	0x3d26ea8c	0.040751025
36	0x3e7299cb	0.2369148
37	0x3e683d08	0.22679532
38	0x3ce2162d	0.027598465
39	0x3d99201a	0.07476826
40	0x3d9f1424	0.077675134
41	0x3e082e4f	0.13298915
42	0x3dd2596b	0.102709614
43	0x3e874605	0.26420608
44	0xbccd272c	-0.025043093
45	0xbddedb98	-0.10881728
46	0xbc960599	-0.018313216
47	0x3cf35cbd	0.029707307
48	0xbd804d05	-0.0626469
49	0x3c9290f9	0.017891394

classifier.3.weight f4 [10, 50]
0	0x3c2b9ae5	0.010473941
1	0xbeb1ce5b	-0.3472775
2	0x3de0b96c	0.109728664
3	0x3e1a7776	0.15084633
4	0xbd1edb42	-0.03878332
5	0xbe0cbef7	-0.13744722
6	0xbd8edc08	-0.069755614
7	0x3ddcf8cb	0.10789641
8	0xbe1344a8	-0.14381659
9	0x3e62e4c9	0.22157587
10	0x3d942c22	0.0723498
11	0x3de74f2a	0.11294396
12	0xbe2aacd9	-0.16667499
13	0xbea62030	-0.32446432
14	0x3e0e0839	0.13870324
15	0x3d95906b	0.07302936
16	0x3dd858fc	0.105638474
17	0xbeb41669	-0.35173348
18	0xbe2f9411	-0.17146327
19	0x3e171f2f	0.1475799
20	0x3e5902a3	0.21192412
21	0x3e4de01f	0.20105027
22	0xbd5348fc	-0.051583275
23	0xbe2b2f7e	-0.16717336
24	0xbdcd9493	-0.10038104
25	0xbdb6dcd0	-0.089288354
26	0x3e69e22a	0.22840181
27	0xbdfb933a	-0.122839406
28	0xbe1d1555	-0.15340169
29	0xbe68c036	-0.22729573
30	0xbe891da4	-0.26780427
31	0x3def51d4	0.11685529
32	0x3e643ddd	0.22289224
33	0xbdb7092a	-0.08937295
34	0xbe955065	-0.291629
35	0x3e22a3e9	0.1588284
36	0xbebae191	-0.3650022
37	0xbe7d3fbb	-0.24731342
38	0x3e387aaa	0.18015543
39	0xbe7528a7	-0.23941289
40	0x3de6b185	0.11264328
41	0xbe82316a	-0.25428325
42	0x3c985349	0.018594401
43	0xbe2853a2	-0.16438153
44	0x3e391dc1	0.18077756
45	0xbe2a423a	-0.16626826
46	0x3dfa7a83	0.122303985
47	0xbe8a2150	-0.2697854
48	0xbe949273	-0.29017982
49	0x3decd651	0.11564315
50	0xbe9b0d3c	-0.30283535
51	0xbe09a1ac	-0.13440579
52	0xbe256d10	-0.16154885
53	0x3cd098bb	0.025463453
54	0x3ea4fa28	0.32222104
55	0x3ea57915	0.3231894
56	0x3cca1d34	0.024672128
57	0xbe6fa95f	-0.23404454
58	0x3e3d0836	0.18460163
59	0xbd8de572	-0.06928529
60	0xbdf51c4a	-0.11968286
61	0xbe986761	-0.29766372
62	0xbdeea92d	-0.116533615
63	0xbdad3eb5	-0.08459226
64	0x3c095405	0.008381848
65	0x3e14e462	0.14540246
66	0xbea7e900	-0.32794952
67	0xbe17c7d8	-0.14822328
68	0x3e317203	0.17328648
69	0xbe946a67	-0.2898743
70	0x3e65497c	0.22391313
71	0x3e29456d	0.1653039
72	0xbe1fb1f0	-0.15595222
73	0xbe3d8638	-0.18508232
74	0xbbbacb9a	-0.0057005407
75	0x3e84a1e6	0.2590477
76	0x3e5d2163	0.21594767
77	0x3df9a158	0.12188977
78	0x3e06c1dc	0.13159889
79	0x3cbb3e85	0.02285696
80	0xbe569652	-0.2095578
81	0xbe865c08	-0.2624209
82	0xbe45b6d1	-0.1930802
83	0xbe5c5e80	-0.21520424
84	0x3e7cb043	0.24676614
85	0xbe669cd2	-0.2252076
86	0x3e72c925	0.23709543
87	0x3e4da394	0.20081931
88	0xbdd9fbab	-0.10643705
89	0x3e627c22	0.22117665
90	0xbea920a3	-0.33032712
91	0x3e3638b6	0.17795071
92	0x3e426b79	0.1898631
93	0x3e8ba645	0.2727529
94	0xbe62a553	-0.22133379
95	0xbdf25f85	-0.11834625
96	0xbe64f6e9	-0.22359814
97	0xbe7bc98f	-0.24588607
98	0xbe8f1812	-0.27948052
99	0xbb254742	-0.0025219475
100	0x3e22174c	0.158292
101	0xbdf6c4ab	-0.1204923
102	0xbe607567	-0.21919785
103	0x3e010cfd	0.12602611
104	0xbe5f1027	-0.21783505
105	0x3bfa4ac7	0.0076383087
106	0xbe0ba236	-0.13636097
107	0xbd254d43	-0.040356886
108	0x3e55ec1b	0.20890848
109	0x3e8473d5	0.25869623
110	0x3e2e1d3a	0.17003337
111	0x3e02b035	0.1276253
112	0x3e3418df	0.17587613
113	0xbd85efb7	-0.065398626
114	0x3e21563a	0.15755549
115	0xbd0aa51e	-0.033848874
116	0x3dcede68	0.101010144
117	0xbdb6239a	-0.08893509
118	0x3e0ab298	0.1354469
119	0xbe3e57be	-0.18588158
120	0xbe90c734	-0.2827698
121	0x3dad33c1	0.08457137
122	0x3d964215	0.07336823
123	0xbdb0ed37	-0.08638995
124	0x3e30a93b	0.17252056
125	0xbe57e0bd	-0.21081825
126	0x3e748f4e	0.23882791
127	0x3e260647	0.16213332
128	0x3e3c5983	0.18393521
129	0x3e41a37d	0.18910022
130	0xbdcdd30b	-0.10050019
131	0x3d9dac7e	0.07698916
132	0xbe1293c3	-0.14314179
133	0x3e036e3c	0.1283502
134	0xbe75437a	-0.23951522
135	0xbe23e5e8	-0.16005671
136	0x3e367eee	0.17821857
137	0x3cb68e8e	0.022284772
138	0x3e2b5d48	0.16734803
139	0xbe49f1ae	-0.197211
140	0xbd9ff3b1	-0.07810152
141	0x3e51c2b7	0.20484434
142	0xbe61261b	-0.21987192
143	0xbe261727	-0.1621977
144	0x3db797d5	0.089645065
145	0xbe765209	-0.24054731
146	0xbdb4f61a	-0.08836003
147	0xbe2dc1d0	-0.16968465
148	0xbe05108e	-0.12994596
149	0xbe2212ba	-0.15827456
150	0xbe1f3e07	-0.15551005
151	0xbb1ec858	-0.00242283
152	0xbe65fdb5	-0.22460063
153	0x3e037a84	0.12839705
154	0xbe9dae76	-0.30797166
155	0xbe9ae128	-0.30249906
156	0x3e6a0a47	0.22855483
157	0x3e388c5f	0.18022297
158	0x3e6c23f1	0.23060586
159	0xbd81ba15	-0.063343205
160	0xbe031b63	-0.12803416
161	0x3e4a090d	0.19730015
162	0x3de737ba	0.11289926
163	0x3e13342d	0.14375372
164	0x3e023fc8	0.12719643
165	0xbe526607	-0.20546733
166	0xbddc80eb	-0.10766777
167	0x3e3dd77d	0.18539234
168	0xbe087d68	-0.13329089
169	0xbe354872	-0.17703417
170	0xbe7af30a	-0.24506775
171	0x3e120be5	0.1426235
172	0xbc8530bb	-0.016258588
173	0x3e2a6788	0.16641057
174	0xbdeffeb2	-0.11718501
175	0xbdcfd38f	-0.101477735
176	0xbc022e5f	-0.007945626
177	0x3d8fa87b	0.07014557
178	0xbe328869	-0.17434849
179	0x3e2d7c4c	0.16941947
180	0xbc9ae675	-0.018908719
181	0x3d8d6d86	0.069056556
182	0xbd85a655	-0.06525866
183	0xbde0fb4c	-0.10985431
184	0xbdb6ad91	-0.08919824
185	0xbe135b28	-0.14390242
186	0xbd145a07	-0.03621867
187	0x3e64bf70	0.22338653
188	0xbc3edee2	-0.011649819
189	0x3e37a644	0.17934519
190	0xbd175612	-0.036947317
191	0x3e4bcb31	0.1990173
192	0xbe81295a	-0.2522686
193	0xbdd66082	-0.10467626
194	0xbd276063	-0.040863406
195	0x3e2882d4	0.16456157
196	0xbe8230a1	-0.25427726
197	0xbe393911	-0.18088175
198	0x3e140056	0.14453253
199	0xbe42a683	-0.19008832
200	0x3e4c2e49	0.19939531
201	0xbcee97c6	-0.029125106
202	0x3e1f25ae	0.15541717
203	0xbeb2754f	-0.34855124
204	0x3e7fdefb	0.24987404
205	0xbd48f803	-0.049064647
206	0xbc99fe2b	-0.018797955
207	0xbe88b86b	-0.267032
208	0xbe225849	-0.1585399
209	0x3d64f29c	0.055895433
210	0x3e3ab3cf	0.18232654
211	0xbd88cd33	-0.06679764
212	0x3cd571eb	0.026055297
213	0x3e3c578d	0.18392773
214	0xbe031177	-0.12799631
215	0x3e1fa734	0.15591127
216	0x3dabec8c	0.08394727
217	0x3e3746ba	0.17898074
218	0x3d96f3f8	0.07370752
219	0x3d132cc3	0.03593136
220	0xbdc388a4	-0.095475465
221	0xbe1f356c	-0.15547723
222	0x3e4c31bc	0.19940847
223	0x3d58cae6	0.052927874
224	0x3de497d9	0.11161775
225	0x3e443f1d	0.19164701
226	0xbe3f595b	-0.1868643
227	0xbe7a791a	-0.24460259
228	0xbe3aa7d2	-0.18228081
229	0xbe815a90	-0.25264406
230	0x3e0db99a	0.13840333
231	0xbebd83ba	-0.37014562
232	0x3c93bab3	0.018033361
233	0x3e4fd0db	0.20294516
234	0x3e66792c	0.22507161
235	0xbe7f5353	-0.2493413
236	0xbe524f0b	-0.20537965
237	0xbd25ce2b	-0.04047982
238	0xbe73f779	-0.23824872
239	0xbdc9aabf	-0.0984702
240	0xbe31f5f0	-0.17378974
241	0xbe2c06b4	-0.16799432
242	0xbdba3a10	-0.09093106
243	0x3e7be034	0.24597245
244	0xbe9ab640	-0.3021717
245	0xbcb3da20	-0.021954596
246	0xbe9119a2	-0.2833987
247	0x3e1e3d10	0.15452981
248	0x3dd686f1	0.10474957
249	0x3e29ca4d	0.16581078
250	0x3c3b40b3	0.011429
251	0xbe495f1f	-0.19665192
252	0xbe3037b4	-0.17208749
253	0x3ddd1b6c	0.10796246
254	0xbdef8120	-0.116945505
255	0xbe1239b2	-0.14279822

classifier.3.bias f4 [10]
0	0xbb15065c	-0.0022739386
1	0x3ec38ff2	0.3819576
2	0xbe0977b6	-0.13424572
3	0xbcf74e97	-0.030188842
4	0xbdb7c1fb	-0.08972546
5	0xbd6b5c97	-0.057461347
6	0xbd7ab1b0	-0.061204612
7	0xbde67ea2	-0.11254622
8	0x3dc3931d	0.09549544
9	0xbcc2f923	-0.023800438
