day2/domain_adaptation/revgrad_30.pt (torch_old, 91045 bytes, 8 tensors)

feature_extractor.0.weight f4 [10, 3, 5, 5]
000000 ff 0e 61 3e 36 5a 11 3d 80 85 21 3c cb 66 1b 3e
       0.21978377 0.035486422 0.009858489 0.15175931
000010 4b 5c 88 bb 17 e3 53 be 7f 68 67 be eb 3a e0 bd
       -0.004161393 -0.20692097 -0.22598456 -0.10948738
000020 44 36 a3 be 38 f4 34 be ea 0d 50 be e9 71 5c 3d
       -0.3187734 -0.17671287 -0.20317808 0.05381957
000030 9e 58 a9 bd b6 10 9a 3c 39 12 08 3e 0c c5 39 be
       -0.082688555 0.018806797 0.13288201 -0.18141574
000040 bd a5 88 3c fa c8 29 bd da 61 47 3e 9e 71 8c 3d
       0.016680593 -0.04145143 0.19470921 0.06857608
000050 da 8e 45 bd d0 0d c8 3c 22 ca 62 3e fa 7f 34 3e
       -0.048231937 0.024420649 0.2214742 0.17626944
000060 ba a8 13 3b 01 bf a2 3e dc 9a fd 3d 51 3d 60 bd
       0.0022530989 0.3178635 0.12383053 -0.054745976
000070 08 d1 99 3d c4 d9 69 3d ce 58 65 be ee 02 7f bd
       0.07510573 0.057092443 -0.22397158 -0.062258653
000080 0d 86 b9 bd eb 94 85 be d1 2e 33 be d4 db 51 be
       -0.09058771 -0.26090178 -0.17498328 -0.20494014
000090 cd d5 d9 bd 01 56 e7 bd 2c 04 48 be 07 92 11 be
       -0.106364824 -0.11295701 -0.19532841 -0.14215861
0000a0 84 7d 99 be 13 2c 7a be c7 54 65 be 77 cc 90 be
       -0.29978573 -0.24430875 -0.22395621 -0.28280994
0000b0 32 44 2b be 61 5c e8 be f9 04 7f be 86 20 34 be
       -0.16725233 -0.4538298 -0.2490424 -0.17590532
0000c0 e2 a6 47 be d8 10 74 be 41 0e a4 be 85 77 83 be
       -0.19497254 -0.2383455 -0.32042125 -0.25677124
0000d0 7e ab b8 be c1 3e 28 bd 1e 14 b1 3d cb a2 e4 3d
       -0.36068338 -0.04107547 0.08646415 0.11163863
0000e0 ca fb f6 3d 55 06 4c 3e 74 92 86 3e 77 84 81 3e
       0.12059744 0.1992429 0.2628361 0.25296375
0000f0 a7 fb b3 3e 36 b7 e1 3e 1f 12 e5 3e c5 c7 c7 3e
       0.35152933 0.4408509 0.44740388 0.390196
000100 23 8b 09 3e 1b fe ee 3e 48 5d fa 3e b9 4e f7 3e
       0.13431983 0.46678242 0.48899293 0.48302248
000110 1f 62 8b 3e 32 7f e0 3d dc 26 0c 3f 6c 09 0d 3f
       0.27223298 0.109617606 0.54746795 0.550925
000120 f1 6a 9e 3e 06 0e 91 3e 10 ba fa 3d d2 fb 57 bd
       0.30940965 0.28331012 0.1224252 -0.05273039
000130 88 db 85 bd 13 6b 8b bd 9d 9e 40 be 42 f1 23 be
       -0.06536013 -0.06807532 -0.18810506 -0.16010001
000140 4d 36 90 3d 16 56 a7 bd db 5d 3c bd 38 eb 4e be
       0.07041607 -0.081707165 -0.045987945 -0.20206916
000150 6e c8 47 bc 3a c1 3c 3e db 50 07 be 53 77 15 3e
       -0.012193782 0.18433085 -0.13214438 0.145963
000160 31 41 71 be 96 f1 4e 3e 65 46 44 3d cd 2c c0 bd
       -0.23560025 0.20209345 0.047918696 -0.09383545
000170 6d 7a f7 bc ad 52 8e be 83 31 2e 3e 29 0b f5 3b
       -0.030209744 -0.27797452 0.17011075 0.007478137
000180 e6 0f f5 bc 0f 1b 5b be 36 c9 fa bc 66 56 d1 3d
       -0.029914808 -0.21397041 -0.030613523 0.10221557
000190 1a c7 b8 bd 63 67 25 be ae 1e 5c 3c 30 e2 f1 bd
       -0.090223506 -0.1615272 0.013435049 -0.1181072
0001a0 5f e2 01 3e 13 80 a7 bd 4f 85 9a be 1f 22 7e bb
       0.1268401 -0.08178725 -0.3017983 -0.0038777662
0001b0 ae b6 cd bd 5a 9a 14 3e 89 e1 0b be c6 d1 15 be
       -0.10044609 0.14512005 -0.13660254 -0.14630803
0001c0 d5 90 13 be 52 2f 0f 3b e5 ee d0 3e 9a c1 a9 bd
       -0.14410718 0.0021848273 0.40807262 -0.0828888
0001d0 ce cb 88 bd 7c ea c5 bd 4b 5f e6 3d d5 b8 2a 3e
       -0.06679498 -0.09663865 0.112486444 0.1667207
0001e0 ec 70 2a be ac 17 e1 bc eb ed b4 bd e4 f7 90 3e
       -0.16644639 -0.027477108 -0.08834442 0.28314126
0001f0 00 95 72 3e d7 bc f1 3e 6e 05 8d 3e 86 dd 86 3e
       0.23689651 0.47214386 0.27543205 0.26340884
000200 e0 89 97 3e bc b2 ce bd 77 ca a5 3e 3a ae 72 3e
       0.29597378 -0.100926846 0.3238103 0.23699275
000210 09 3d a1 3e c6 94 1e bd 19 6e 95 be ed 0c 94 3e
       0.3149188 -0.0387161 -0.2918556 0.28916112
000220 de 16 72 3e b8 00 8a 3e bc 16 8e be fa 7a 5a bf
       0.23641536 0.26953673 -0.2775172 -0.853439
000230 57 db 93 3e a2 72 a6 3e 24 6e 34 3e 5e 91 51 be
       0.2887828 0.32509333 0.1762014 -0.2046561
000240 8d db 2b bf 96 bd 07 3e 6f 6d 1d 3e f4 d7 13 3e
       -0.6713188 0.13255915 0.15373777 0.14437848
000250 fe b6 05 be 84 89 a4 be 82 c3 bb bd e2 c1 82 bd
       -0.13058087 -0.32136166 -0.091681495 -0.063846365
000260 9f 36 c3 3c ea 48 ac 3d c4 ac d5 3d 9f c6 3c 3b
       0.023829756 0.08412345 0.10433343 0.002880491
000270 8c 7c eb 39 f7 91 61 be fe 65 5b 3e d9 bb c0 bd
       0.00044915488 -0.22028337 0.21425626 -0.09410829
000280 0c cd df 3c e6 8f 39 bd 64 af 53 be 47 1f 5d 3e
       0.027319454 -0.045303248 -0.20672375 0.21593963
000290 0c 66 7d 3d 9a d3 42 bb fb 18 ec 3d 14 4a 92 be
       0.061864898 -0.0029728175 0.11528202 -0.28572142
0002a0 b5 0f ca 3d b3 e9 cf 3c 2c f3 36 3e fd 04 0b 3e
       0.09866277 0.025379991 0.178662 0.13576122
0002b0 48 ad d9 bd 05 69 6a bc ec 25 e1 bd 5b b0 89 be
       -0.10628754 -0.014307265 -0.10993561 -0.2689236
0002c0 df f4 2a be 48 78 be bc 5e cd bb bd 0b 9c 77 3d
       -0.16694973 -0.023250714 -0.0917003 0.06045155
0002d0 11 e7 25 be e3 a8 5d be 0a ce 72 be 23 5c 89 bd
       -0.16201426 -0.21646456 -0.2371141 -0.06707027
0002e0 4b 61 38 bd 4d b5 11 be 87 1f 25 3c 0c 97 7f be
       -0.04501466 -0.14229317 0.0100783175 -0.24959964
0002f0 5d 26 cc 3d a8 62 2f be 46 a5 f4 bd ce fe f2 bc
       0.09968255 -0.17127478 -0.11945586 -0.029662516
000300 31 a4 e4 bd 99 b8 ea b8 56 20 c6 bd f2 d9 2c be
       -0.111641295 -0.000111923735 -0.09674136 -0.16880015
000310 a2 de 98 3b f7 9b 30 be 5b b6 f2 bd a2 db 1a be
       0.004665212 -0.17246996 -0.11851188 -0.15122846
000320 c0 e9 fd 3e f0 32 06 3f 7a ad 6e 3e 22 4f 0e 3e
       0.495924 0.52421474 0.23308364 0.13897374
000330 20 d1 d2 bd 79 58 84 3e aa 56 a6 3e a8 99 95 3e
       -0.10293794 0.2584875 0.32487994 0.29218793
000340 0a d2 17 3e 8e 97 bc be 2c bf ed 3d 34 cc 7d 3e
       0.14826217 -0.36834377 0.11608729 0.24784929
000350 f9 af 9f 3e 2f ae a1 3e e7 e9 ce bd 9c 1a 7e be
       0.31188944 0.31578204 -0.10103207 -0.24814838
000360 d3 ee 22 3e 8a 02 92 3e 6b 9d b6 3e 67 64 87 3e
       0.15911417 0.28517562 0.35666975 0.26443788
000370 c9 be ae be d6 be fa bb 4d 23 df 3e 5c 88 eb 3e
       -0.34129933 -0.007652144 0.4358162 0.4600247
000380 17 b8 da 3e a4 35 09 be c4 5f a8 bd d3 ce 01 bd
       0.42718574 -0.13399369 -0.08221391 -0.031691384
000390 65 1b 9e bd a9 33 04 bd 6e cf a5 3d 73 fc 3b bc
       -0.07720069 -0.03227583 0.08096205 -0.011473763
0003a0 91 7d 9d 3c ae ca 66 3c 74 c5 a0 bd a4 c5 13 be
       0.019224914 0.014086409 -0.07850161 -0.14430863
0003b0 df 62 7c bd 4d e1 b1 39 0e 74 88 3d c1 a2 87 bd
       -0.06161773 0.00033927933 0.06662761 -0.0662284
0003c0 12 0c b0 bb fd d8 04 3b 3a e6 20 bd 8a ce ba 3d
       -0.0053725326 0.0020270937 -0.03928206 0.091214254
0003d0 97 da 91 bd 7e 28 06 bd b7 27 19 3d c5 6b 06 be
       -0.07121771 -0.03275346 0.03739139 -0.13127048
0003e0 32 e6 44 bc 25 20 91 bc c6 a5 8f 3d 8a 67 53 bc
       -0.012017773 -0.017715523 0.07014041 -0.012903104
0003f0 81 5b 54 bd 75 25 ee bc b5 0d 94 bd bc 02 8e bd
       -0.051845077 -0.029070595 -0.07229177 -0.06934115

feature_extractor.0.bias f4 [10]
000000 b9 60 0a bf d2 a3 36 be e0 68 87 bf 20 a4 b1 bd
       -0.5405384 -0.1783593 -1.057888 -0.086738825
000010 25 8e 2a bf 5e ff f6 be a2 00 8d be b1 2e 00 be
       -0.66623145 -0.48241705 -0.27539545 -0.12517811
000020 d8 2e 1e bf aa a6 73 bb
       -0.6179023 -0.0037178197

feature_extractor.3.weight f4 [20, 10, 5, 5]
000000 45 a5 dd 3e 37 e3 94 3e 4b 82 37 3e 9f c2 32 be
       0.43290153 0.290796 0.17920797 -0.17457055
000010 e5 30 75 bd 22 0d 25 be 97 35 a9 3d 01 50 24 3e
       -0.059861083 -0.16118291 0.082621746 0.16046144
000020 2b 12 e7 3d fe f9 8b be 4b da e2 be d2 c0 83 bd
       0.11282762 -0.27339166 -0.4430717 -0.06433262
000030 43 da 8f 3e ea ee 0b 3f ff fe 3d 3e 48 8b 5e be
       0.28096208 0.5466143 0.18554305 -0.21732819
000040 c0 1b d2 be 49 80 97 be e6 73 d9 3d 53 92 05 bd
       -0.41036797 -0.2959006 0.10617809 -0.03261025
000050 89 88 83 3e a4 d5 fd 3d 08 04 cf 3d d4 c3 0c bd
       0.25690106 0.12394264 0.10108191 -0.034366444
000060 1c d8 a2 3d b6 cd 69 3c 7c 3a 86 3b 29 13 ee 3c
       0.07951376 0.014270237 0.0040963273 0.02906187
000070 e4 03 90 be 78 eb 4e be 1f ba 39 3e eb fb 13 be
       -0.28127968 -0.20207012 0.18137406 -0.14451568
000080 89 b2 04 3e 78 25 f8 bd 5b 7d 94 bd 43 34 8a be
       0.12958731 -0.121165216 -0.07250472 -0.26992998
000090 f8 d3 db bd 4c d7 9a 3d 08 d7 51 3d 8b 52 ee 3d
       -0.10733789 0.07560596 0.05123046 0.116368376
0000a0 88 05 cd be 77 f6 0e bd 14 55 69 3e b3 32 87 bd
       -0.40043283 -0.034903016 0.22786361 -0.06601467
0000b0 7b 0e 59 bd e8 4b 36 3e a4 92 89 3c e3 b1 b4 bd
       -0.052992325 0.17802393 0.016793557 -0.08822992
0000c0 94 cd b0 bb e3 18 0e 3e 6c 42 33 3e 6f aa 16 be
       -0.0053956006 0.13876681 0.17505807 -0.14713453
0000d0 b4 07 1b bf e6 75 01 bf d6 24 c9 3e 1b aa 1f 3e
       -0.6055863 -0.50570524 0.39285916 0.15592234
0000e0 c1 9e d4 3e ce 00 ad 3e ed 03 12 3e 1a 88 b9 3e
       0.4152737 0.33789676 0.1425931 0.3623665
0000f0 09 9c 02 be 99 a9 c3 3e 89 1f 92 3e 9f 2a ca 3e
       -0.12754835 0.3821533 0.28539684 0.39485642
000100 28 74 94 be 5b ad b7 be 70 f0 3a 3e 83 48 77 3e
       -0.2899487 -0.35874447 0.18255782 0.24148755
000110 8d 5e 95 bd a4 9c 94 be c2 ab f7 3d e0 d0 d6 be
       -0.07293425 -0.29025757 0.12093307 -0.41956234
000120 e7 b8 fd bd e6 c7 8e be 6b af 81 3c 8b 38 3d bb
       -0.12388783 -0.27886885 0.015830716 -0.0028872814
000130 16 79 14 bd e2 68 67 bc 51 8a 13 3d 66 c1 44 3d
       -0.03624829 -0.014124127 0.03602058 0.048036
000140 80 0f 80 3d 11 f1 8d 3c f8 18 82 bc 04 c6 0b bd
       0.062529564 0.017326863 -0.015881047 -0.03412439
000150 42 01 c1 3c 5f af 75 bd d0 7b 2b bd ea 92 a3 3c
       0.02356017 -0.0599817 -0.041866124 0.019967515
000160 28 fa dd 3c 89 a6 66 bd ba 4e 0b 3d 77 51 3c bd
       0.027096823 -0.056311164 0.034010626 -0.04597613
000170 f3 34 6a 3d 79 af 72 3c 4a 2a d9 bc ce d7 41 3c
       0.057179403 0.014812344 -0.026509423 0.011831237
000180 ed 52 e2 bb 32 99 22 bd 2c ed 31 bc 01 42 88 3c
       -0.006906858 -0.03969688 -0.010859769 0.016633036
000190 42 16 0b be eb 2c e4 bd b2 85 af 3c a5 5a a7 3e
       -0.1358271 -0.1114138 0.021426056 0.32686344
0001a0 58 6c 21 be e4 09 2a 3e c0 1e a0 be 42 29 1f bf
       -0.15763986 0.16605335 -0.3127346 -0.6217233
0001b0 32 ea 1a be e8 76 44 3e ad e3 3c be 84 01 0d 3e
       -0.15128401 0.19185984 -0.18446226 0.1377011
0001c0 4d 1a 20 be d6 5a a1 be 02 98 b2 bd cf 68 de bc
       -0.15635033 -0.31514615 -0.087203994 -0.027149586
0001d0 e5 2f 84 3d c3 1f 56 bd eb b4 a1 3d 69 d7 a3 bc
       0.06454448 -0.052276384 0.078958355 -0.020000177
0001e0 84 cf 6c 3e 20 49 f6 3c 8d 43 fd bd 05 4e cf 3d
       0.23126036 0.030064166 -0.123664 0.10122303
0001f0 d3 d7 b5 bc a2 fd 89 bd 16 01 91 bc b9 9d 6c be
       -0.02219764 -0.0673783 -0.017700713 -0.23107041
000200 33 ff 46 be c0 28 0c 3f 95 15 13 be 96 c6 9d bd
       -0.19433288 0.5474968 -0.14363702 -0.07703893
000210 4a 03 a4 bc 60 43 3f 3e f1 7f 0f bf 98 e3 6a bd
       -0.0200211 0.18678045 -0.560546 -0.057345957
000220 92 1b bd 3d 67 fe 22 3d 88 bf b1 3e a2 ca 3a 3e
       0.09233774 0.0397934 0.3471644 0.18241361
000230 f9 f9 b7 3e 40 49 90 3b 7f 97 f9 bd dd 5a 23 bd
       0.35932902 0.0044032633 -0.12187099 -0.039881576
000240 f7 1e 6a be 60 6d af 3d 2b 29 73 bd dc 9d a4 be
       -0.22863375 0.085657835 -0.059365433 -0.32151687
000250 d7 1c f1 bc aa 93 13 3e 9b d0 e8 3e 09 07 8c 3e
       -0.029432697 0.14411798 0.45471653 0.27349117
000260 5c f0 fe bd 29 76 46 3e 10 a8 7c be 1f 77 f8 3d
       -0.12448189 0.19381012 -0.24673486 0.121320955
000270 6d 2c 37 3e a3 bb 77 bf 56 49 6b be c8 95 45 bc
       0.17888041 -0.96770686 -0.22977194 -0.012059636
000280 c2 02 8f bc ae d8 ea 3e e2 a9 da 3e 87 4b bd be
       -0.01745737 0.45868438 0.42707735 -0.36971685
000290 14 97 a0 be cc 3f 15 be 13 1a 6e be f6 9b a2 3d
       -0.31365263 -0.14575118 -0.23252134 0.079399034
0002a0 52 48 6f 3d b0 f3 d7 3b 8f e9 e4 be 91 34 4d 3e
       0.05841858 0.006590329 -0.4470944 0.20039584
0002b0 1e d2 23 bd 71 1d b9 3d 45 cd 95 3b 78 45 38 be
       -0.039995305 0.09038819 0.004571589 -0.1799525
0002c0 d8 a8 6f be ad 7a c8 3d 2f 7d a8 3e 84 aa 82 3e
       -0.23404253 0.097890235 0.32908008 0.25520718
0002d0 86 00 92 bc ee ae 50 be e6 ca 97 bc d5 06 f3 be
       -0.017822515 -0.2037923 -0.018529367 -0.4746615
0002e0 da cc 46 bd f1 17 2b bd 93 48 52 3e 1c 0b ed 3e
       -0.048535205 -0.04177088 0.20535497 0.46297538
0002f0 ad 66 1b 3e d4 71 95 be 28 22 ed 3e c2 b6 91 ba
       0.15175886 -0.29188406 0.46315122 -0.0011117088
000300 6f 9b 07 3e 0e 4b 8d bd ca c4 74 be 5a 52 bf 3e
       0.13242887 -0.06899081 -0.23903194 0.37367517
000310 59 41 95 3d 9b 04 fe bb 88 a5 13 bd d3 cb 9a 3c
       0.07287855 -0.007752014 -0.036046535 0.01889602
000320 4c 47 a9 be c9 1a f7 bd 5b 7d 18 3d 43 c5 75 bd
       -0.33062208 -0.12065656 0.037228923 -0.060002577
000330 1e 2a 88 bd 10 a2 ca 3d 4f 92 82 bd d0 3d 1d 3e
       -0.06648658 0.09894192 -0.063755624 0.15355611
000340 40 51 93 3d c1 e0 55 3e 82 fa 6b 3e bf 74 8a be
       0.071932316 0.20886518 0.2304478 -0.27042195
000350 d6 ab 66 bd 7f fe 75 be 20 06 ee 3d 70 f3 2e 3e
       -0.05631622 -0.24022864 0.11622262 0.17085052
000360 8e 09 8a 3e 51 71 6c be 75 d5 cf bd 4e 37 47 bd
       0.26960415 -0.23090102 -0.101481356 -0.048636727
000370 dd 87 61 be 2b fb 10 be df 05 70 3e cb e6 f2 3d
       -0.22024484 -0.14158313 0.2343974 0.118604265
000380 da fa 44 3e 0c 96 5b 3d d3 86 05 be 92 33 23 3d
       0.19236317 0.053609893 -0.13039713 0.039844103
000390 70 69 99 be ba b8 b7 3e a7 e9 0a bf 26 7e 66 bd
       -0.29963255 0.35883123 -0.54262775 -0.05627265
0003a0 20 ae 26 3e 9a 18 ff 3c 37 dd ff bd 1b 3f 54 bd
       0.16277361 0.03113966 -0.12493365 -0.051817995
0003b0 6a cb 36 be b1 78 53 bf 8c fc df be 49 7e 78 bd
       -0.17851034 -0.82606035 -0.43747365 -0.06066731
0003c0 14 75 a9 3d d9 5a 5d be a1 d2 86 be 4e 7a e0 3e
       0.08274284 -0.21616687 -0.26332572 0.4384331
0003d0 0a 87 09 3e 8f e5 ad 3e a9 6d 1d 3d c1 a1 8a 3c
       0.1343042 0.33964202 0.03843466 0.016922833
0003e0 4a a9 14 3e f4 dc 5e bd fd 5c ea 3e 67 5c d3 bc
       0.14517704 -0.054409936 0.4577407 -0.025800897
0003f0 9a d9 70 be 50 53 48 be 40 46 39 3d 35 f4 fb 3d
       -0.23520508 -0.19563031 0.04523301 0.12302438

feature_extractor.3.bias f4 [20]
000000 22 9b e4 be 60 58 55 bc 93 3e a1 be 19 ab 6e 3e
       -0.44649607 -0.0130215585 -0.31493053 0.23307456
000010 08 e5 40 bf 40 c6 20 bd f3 b9 07 bf 2a b5 4d be
       -0.75349474 -0.039251566 -0.5301811 -0.2008864
000020 75 28 b4 bd 37 ce 93 3d 62 ee 48 be 46 b6 91 bd
       -0.08796779 0.07217067 -0.19622186 -0.07114844
000030 e1 f7 e4 be f3 ee 85 be 8e b5 99 bc d1 63 cf 3c
       -0.44720367 -0.26158866 -0.01876333 0.02531615
000040 7e 28 0c 3e 80 d0 bd bd 0b 39 c2 3d f4 90 e9 bd
       0.13687322 -0.09268284 0.09483536 -0.11404601

classifier.0.weight f4 [50, 320]
000000 00 7f 5d ba 60 d6 9f bd 8d b6 14 be c2 2f e6 bd
       -0.00084494054 -0.07804561 -0.14522763 -0.11239578
000010 09 9a 5b be e1 3d a2 be ee 1c 29 be 69 7b 7e 3e
       -0.21445478 -0.31687835 -0.16514942 0.24851765
000020 4d 1f ba bd 4d be 98 3d 17 aa f2 3d 55 c0 50 bc
       -0.090880014 0.07458172 0.11848848 -0.012741168
000030 c6 d2 67 3c 06 de c3 3d 28 14 70 be 33 47 cb 3d
       0.014149373 0.09563832 -0.23445189 0.099256895
000040 66 f2 7d bd 18 45 71 3b e8 e4 e3 bd 7f f7 29 be
       -0.061998747 0.0036814865 -0.11127645 -0.16598319
000050 39 4d 76 3e cb 2d 85 3e 41 91 9b 3d 25 bf 87 3d
       0.24052896 0.260115 0.07596064 0.06628255
000060 78 a9 0d 3e df 80 45 3e 82 04 87 3d 09 c3 80 be
       0.13834178 0.19287442 0.06592657 -0.251488
000070 eb 3e 84 be 57 85 83 be 89 44 13 be 19 ae 85 bd
       -0.25829253 -0.25687668 -0.14381613 -0.06527347
000080 44 8d 82 3d 9b 22 88 3e c8 e7 56 be e2 54 2d 3d
       0.063746005 0.26588902 -0.20986855 0.04231728
000090 91 a9 9d be 3a 32 92 3c dd bc 38 be d2 7f ea bd
       -0.3079343 0.017846216 -0.18040796 -0.11450161
0000a0 ea 29 29 be a1 42 1c be 9e ab 8c 3e a5 11 6b be
       -0.16519895 -0.15259792 0.27474684 -0.2295595
0000b0 e6 28 0d 3d 11 8c 80 3e f8 6e 5a bb 67 f7 d7 bd
       0.034462832 0.25106862 -0.0033330303 -0.10545235
0000c0 fd 73 1a 3e 83 af 0b bd 33 e4 69 3d bf 81 3f 3e
       0.15083309 -0.034102928 0.057102393 0.18701838
0000d0 c6 d8 64 be e1 a9 db 3d d9 ac 04 be 52 64 7a 3d
       -0.22348318 0.10725761 -0.12956561 0.06113083
0000e0 ca 4f cf 3d 4b eb 4d bb ba 2e c8 bd f5 04 36 3d
       0.101226404 -0.0031420763 -0.097745374 0.04443832
0000f0 f7 ed 6c be c5 98 00 3e b1 7a a5 bd 3d d6 90 bd
       -0.23137651 0.12558277 -0.08080042 -0.07072113
000100 23 6f 38 3e 59 b8 cb bc 97 05 51 bd 59 c1 9b 3d
       0.18011145 -0.024868177 -0.05103072 0.076052375
000110 0e 3d de 3d fd 43 c1 3e 30 78 99 3d 05 6d 2c be
       0.10851489 0.37747183 0.07493627 -0.16838463
000120 d4 c5 31 3e 39 e6 1e 3e 94 6a 68 3d 67 36 82 3e
       0.17360622 0.1551751 0.056742266 0.2543213
000130 61 a7 97 be 06 82 09 bd 65 af 52 bc 85 d3 85 be
       -0.29619887 -0.033571266 -0.0128592 -0.2613794
000140 a7 62 04 bf 86 fd 71 be cb dc 6b 3d 34 54 85 be
       -0.5171303 -0.23631868 0.05758361 -0.26040804
000150 7c 95 96 be 89 69 38 bd 6f 9d 8e 3d 53 57 79 bc
       -0.29410923 -0.04502252 0.06963622 -0.015218574
000160 56 c5 54 3d db f8 dc 3d 48 79 18 3e a8 3e 9a bd
       0.051946007 0.10789653 0.14890015 -0.07531482
000170 a8 8d 87 bd a9 f5 15 bd 43 d4 cd bd 3c 46 c0 3e
       -0.06618816 -0.036611233 -0.10050251 0.37553585
000180 43 49 6d bc 05 79 3a 3e 35 9e a6 bc 03 8f 25 3d
       -0.014482799 0.18210228 -0.02033911 0.04041959
000190 eb 5d cc be d9 aa 1e be 7f 23 52 bd 3c df 8e be
       -0.39915404 -0.1549486 -0.051303383 -0.2790469
0001a0 0a 1c 16 3d 45 d2 e2 bd bc 7e d3 ba 68 19 80 3e
       0.036647834 -0.11075262 -0.0016135792 0.25019383
0001b0 b5 6e 6c be 05 81 b5 3d 5e f4 5e bc 25 93 c0 bc
       -0.23089106 0.08862499 -0.013608066 -0.023507664
0001c0 40 4c fd 3c 3b 81 b8 bc f8 fa 76 bd 1b ea fb 3d
       0.030920148 -0.02252256 -0.060297936 0.123005114
0001d0 6c 46 d6 bd af 49 c1 bb 34 18 d2 bc e0 48 9d be
       -0.10462651 -0.0058986763 -0.025646307 -0.30719662
0001e0 55 2b d3 be 40 34 65 3c db 3e 52 3e 60 52 6d bd
       -0.41243997 0.013989508 0.2053179 -0.057939887
0001f0 af 18 b3 bd 66 b4 05 3e 93 99 a4 3c 36 e3 ab 3e
       -0.087449424 0.13057098 0.020092761 0.33571786
000200 71 a6 53 be 0c cc 26 3d db a8 67 bd 5c 87 17 be
       -0.20668961 0.040721938 -0.056557517 -0.14797729
000210 c3 25 ae be 04 b9 e3 bd 95 d9 88 be 4f 75 c0 be
       -0.34013185 -0.11119273 -0.26728502 -0.375895
000220 8b a3 23 3c 36 19 3c 3e 8d 7f 1e 3e 55 e5 1f be
       0.009987722 0.18368992 0.15478344 -0.15614827
000230 d7 ce 29 3d 0e 1f 1a 3e 8b 02 5a 3e 4d 4a 62 bc
       0.041457023 0.15050909 0.21290033 -0.01381166
000240 f7 68 ef bd 81 52 b3 3d 0f 45 2a 3e 97 a3 12 3e
       -0.11689942 0.08755971 0.16627906 0.14320217
000250 a6 b4 e4 3e 2e 29 0d be 20 7e 48 bd 05 24 12 3d
       0.44669074 -0.1378524 -0.048948407 0.035678882
000260 28 88 bf 3d 5b 61 8f be d0 7e 7b be ed 25 70 bd
       0.093521416 -0.28003964 -0.24560094 -0.05862992
000270 34 31 cd bc c0 c7 43 3e 7c ee 45 3d d7 1a 95 bb
       -0.025047876 0.19119167 0.04832314 -0.0045503187
000280 88 ca 21 3e 11 f1 47 bd 29 d4 da bc da dc 3d be
       0.15799916 -0.048813883 -0.026712494 -0.1854128
000290 dc 01 8f bd 46 85 04 3e e5 cd 4b 3d 84 40 80 3e
       -0.069827765 0.12941465 0.049756903 0.25049222
0002a0 9e 6f bc be 31 8a a4 bd 07 f9 81 bd 5b 87 68 bd
       -0.36803907 -0.080341704 -0.06346326 -0.05676971
0002b0 0b 72 f9 be 20 06 00 be 1e 66 91 bd e0 bd fd be
       -0.4871982 -0.12502337 -0.070995554 -0.49558926
0002c0 25 98 2b bc 39 37 03 3e 95 c3 17 3e eb 7c ac 3e
       -0.010473286 0.12814035 0.14820702 0.33689055
0002d0 1f d5 c2 be 23 a2 98 be 20 51 8d 3d ef 16 4d be
       -0.38053223 -0.298112 0.06900239 -0.2002828
0002e0 9d a9 02 bf eb bd 4c be cd a0 2f be cf f0 85 be
       -0.5104006 -0.19994323 -0.17151184 -0.26160285
0002f0 0a 4e e8 3d 58 38 b6 3e 5f 03 b3 3e fa 8c f9 3d
       0.1134301 0.35589862 0.3496351 0.12185092
000300 38 d0 c4 be e8 ff 6f bd 92 45 a3 3d c2 5c 9e be
       -0.38440108 -0.05859366 0.07972254 -0.30930144
000310 2d 33 83 bd 39 9c 73 3d c3 a7 86 3e ab 11 c3 3d
       -0.064062454 0.059475157 0.26299867 0.09524854
000320 51 84 6f bd 91 a8 33 3e f9 82 74 3e c3 96 1f 3c
       -0.058475796 0.17544772 0.23878087 0.009740534
000330 3b 3f b3 be 01 9f bc bc e8 75 5c bd 06 bc 94 be
       -0.3500918 -0.023025038 -0.05382338 -0.290497
000340 cb 1e c7 bd 52 e8 1b be f5 2d fc bd 51 3c fe 3d
       -0.0972267 -0.15225342 -0.12313453 0.12413848
000350 bf b4 23 be e2 cf 36 3e 50 eb da 3d ba aa a7 3d
       -0.15986918 0.17852738 0.106894135 0.081868604
000360 f6 a1 3f be e4 dd 35 3e 10 a8 0b 3e c4 85 30 3d
       -0.18714127 0.17760426 0.1363833 0.04309632
000370 7a 57 a9 be 2b 27 1c 3e 9d 56 d4 be 90 42 4a bd
       -0.33074552 0.15249316 -0.4147233 -0.049379885
000380 c7 d6 c8 3e 65 ca 13 bc 1c f4 a3 3d 86 db 89 3e
       0.39226362 -0.009020423 0.080055445 0.26925296
000390 0a dd 5a be b5 b2 c1 3d c8 c6 9e bd 1e 2f 41 3d
       -0.21373382 0.09457914 -0.07752758 0.047164075
0003a0 c7 d2 ab be 98 a0 24 be 62 6d 50 be c6 91 a9 be
       -0.33559248 -0.16076887 -0.20354226 -0.3311903
0003b0 63 8d 4b 3e 54 18 a8 3d 31 ca 21 3e fa 79 3e bd
       0.19878154 0.08207765 0.15799786 -0.046503045
0003c0 4b 9d ac 3e e9 4f 86 3d b1 23 f4 3d d9 32 40 3d
       0.33713755 0.065582104 0.1192087 0.046923492
0003d0 c5 c9 4a 3e bc bc 55 bd a8 3d ca bc 09 54 5e 3c
       0.19803531 -0.052181944 -0.024687603 0.01356984
0003e0 c6 e9 61 be f2 36 8d be 82 fa 4c bb 43 87 97 3d
       -0.22061834 -0.27580982 -0.0031277244 0.07398846
0003f0 c1 f2 3f 3e b6 6e ca 3b 02 9f f4 3b 5f 9d 1a be
       0.18744947 0.0061777486 0.0074652443 -0.15099095

classifier.0.bias f4 [50]
000000 21 1c 06 3d 7a c2 c1 3d 9c 81 0d 3e c2 e5 48 3e
       0.03274167 0.094609216 0.13818973 0.19618896
000010 54 9e b0 3e 9d 9f b9 3e 58 ca e4 be 88 05 f7 bd
       0.34495795 0.36254588 -0.44685626 -0.12061602
000020 4d ab 57 3e 29 5d 1c 3d eb a8 84 3e 30 d2 b7 be
       0.2106144 0.038174782 0.25910124 -0.35902548
000030 bd b0 46 be ac 7c 04 3f da d9 9f 3e 8e f5 15 3d
       -0.19403358 0.51752734 0.31220895 0.036611132
000040 bf 9a 48 3d 56 da 44 be 01 0b f1 3e 77 2f 32 bd
       0.048975702 -0.19223914 0.47078708 -0.043502297
000050 d8 48 c5 3e 2d 65 ba 3e ba e7 62 be 81 f3 c2 3e
       0.38532138 0.36405316 -0.22158709 0.38076404
000060 2a 4c 99 3e c5 10 dd 3c 05 8a 96 3e 1c 36 ab 3d
       0.2994092 0.026985535 0.29402176 0.0835993
000070 61 25 1a 3f 1f 6c b8 bc f6 e2 01 3f 6d 53 9a bd
       0.60213286 -0.022512494 0.5073694 -0.075354435
000080 89 71 c7 be b8 3d 9a be e8 da 9e 3e fc dc ad 3e
       -0.38953808 -0.30125213 0.31026387 0.3395766
000090 8d 6f 25 3f 6a 82 02 3f 2d f7 69 3e 7a f5 8a be
       0.6462334 0.50980246 0.22848196 -0.2714041
0000a0 15 f2 c8 3e 29 4d bf 3e 51 bd c6 3e 61 1b 41 3f
       0.39247194 0.37363556 0.38816312 0.754324
0000b0 ed c5 5a 3d 8f bf 27 bf 48 f8 d9 bd 1d fb f6 bd
       0.053411413 -0.6552667 -0.10643059 -0.12059615
0000c0 44 7d ed be 26 1f ee 3e
       -0.46384633 0.4650814

classifier.3.weight f4 [10, 50]
000000 a4 02 e9 3d 30 4b c3 be 3f 7a a0 be 12 8d bb 3d
       0.11377457 -0.381433 -0.31343266 0.091577664
000010 e1 79 b1 be f8 c5 33 be 9a 3c e5 3d c7 24 8c bd
       -0.346633 -0.17555988 0.111931995 -0.06842952
000020 8d 76 38 be c0 6c c2 3d b0 17 c1 bb 31 27 e6 3d
       -0.18013974 0.09493399 -0.0058927163 0.11237944
000030 81 1c d2 bc 02 23 94 be 77 60 06 be 81 d7 9f 3d
       -0.025648357 -0.2893296 -0.13122736 0.07804776
000040 c9 1b c2 3d 95 77 8c be de 98 03 be c0 b3 a6 3d
       0.09477956 -0.27434984 -0.12851283 0.08139753
000050 6a a3 b5 3d 29 5a 09 3e c9 a2 66 bd f9 11 70 be
       0.088690594 0.134133 -0.056307588 -0.23444356
000060 e4 e0 60 be 3a 05 35 be 36 ba 0f 3e 87 d5 80 bb
       -0.21960789 -0.17677775 0.14035878 -0.0039317044
000070 83 a9 2a be 2a fb 36 be 42 84 8d be 4c 74 ec 3d
       -0.16666226 -0.17869249 -0.27639967 0.11545619
000080 78 09 e4 3d d6 01 e8 bd 2e 81 a0 be 9a b8 c7 3d
       0.111346185 -0.11328475 -0.31348556 0.09752007
000090 b7 83 83 be a3 a3 1b be 09 54 82 3d 79 b3 4e be
       -0.25686428 -0.15199141 0.06363685 -0.20185651
0000a0 5b 27 3c 3d b9 47 fe bd 9b 7d 2a bc 86 fa 15 bf
       0.04593597 -0.12416024 -0.010405923 -0.58585393
0000b0 26 a8 d3 3d 82 1b cd bd 1e 8a 54 3d 5f ae d9 bd
       0.10334806 -0.10015012 0.05188953 -0.10628962
0000c0 91 1e 82 be 59 e5 86 bd fd b5 2c be ce 40 ad 3d
       -0.25413945 -0.06586713 -0.16866298 0.08459626
0000d0 28 5b 98 bd c4 63 8a bc 8c 35 fd 3d bd 0e c5 3d
       -0.07439262 -0.016893275 0.12363729 0.09621952
0000e0 93 83 02 3d 23 f8 e4 bd 39 7b 00 3e 02 4b e0 3d
       0.03186376 -0.11180141 0.12547006 0.109518066
0000f0 a7 a8 5f bc 01 17 a8 bd 72 93 16 bd ae 37 fa bc
       -0.01365105 -0.08207513 -0.03676171 -0.030544128
000100 96 f3 9f 3c 7a e1 ef 3d 57 0a 9a bd 5b a6 18 bd
       0.01952533 0.11712928 -0.075215034 -0.037268024
000110 95 3e d8 3d 6c 5c 93 be 54 78 f8 3d 3a d5 92 3d
       0.105588116 -0.2878145 0.12132326 0.07169576
000120 9e c8 0d be f2 59 cb bd 46 92 5d 3c 1e 87 31 3e
       -0.1384606 -0.09929265 0.013523644 0.173367
000130 69 ab e0 3d 36 b0 58 3d f7 5b 3d 3d b7 07 0d bd
       0.10970194 0.052902423 0.046230283 -0.034431186
000140 fd 11 49 be 7b 15 4d be cd 30 b5 bd ba 3b 29 be
       -0.19635768 -0.20027725 -0.08847199 -0.1652669
000150 67 07 04 3e f1 c1 a1 bd c3 4b 23 3e aa 6c 87 3d
       0.12893449 -0.078983195 0.1594687 0.06612523
000160 5e 40 3a bd a5 63 19 3e 63 68 d2 be c3 bc 14 3e
       -0.04547154 0.14979418 -0.41095266 0.14525132
000170 5d cc 0d 3e 49 2a 51 3e 4b dd 55 be 66 bb 2b be
       0.1384749 0.20426287 -0.20885198 -0.16770706
000180 e9 60 b8 be 71 e7 9f be 69 a9 c8 bd 5e 72 15 3e
       -0.36011437 -0.31231263 -0.097979374 0.14594409
000190 d6 5e 04 3e a6 cd 94 bd d6 3f 9c bd 70 54 d9 3d
       0.12926802 -0.07265787 -0.07629363 0.10611808
0001a0 03 5b 39 bd c2 b8 56 bd 34 23 f9 3b e4 b7 9a bd
       -0.04525281 -0.052422293 0.0076030735 -0.075546056
0001b0 60 f5 24 3e bf 5c c3 3d f0 6c b0 3d 56 d0 d8 3d
       0.16109228 0.09539174 0.08614528 0.10586612
0001c0 06 6a 0d 3e c8 ce c5 bc 83 78 ca 3d 13 2c 15 be
       0.13809976 -0.024146453 0.09886267 -0.14567594
0001d0 04 ff 66 3d 2a 45 25 3d fe cf 02 3e 57 f3 c1 bd
       0.056395546 0.040349163 0.12774655 -0.094702415
0001e0 ce 4f 82 be 6e 0c 7a 3d 23 5e 5b bd f5 d1 1a 3d
       -0.2545151 0.06104701 -0.053556573 0.037797887
0001f0 20 f2 2e 3d e8 76 c5 bd 6b 57 ba 3d fe c2 f5 3d
       0.042711377 -0.0964182 0.09098705 0.120000824
000200 7b 6b c9 3d e2 89 fb 3d 8f 16 c1 bc de be 1d 3d
       0.098349534 0.122821584 -0.023570327 0.038512103
000210 80 16 06 be 36 0e be 3d 41 a7 bb bd 49 7b 19 be
       -0.1309452 0.09280054 -0.091627605 -0.14988436
000220 98 af 12 3e 55 3f 88 3d 0e 35 97 3d b3 8e 8f bd
       0.14324796 0.066527046 0.07383166 -0.070096396
000230 0b 3a 7a bd da 78 2a 3e 5d 3c 98 bd bc 3a 2b bd
       -0.06109051 0.16647664 -0.074333884 -0.04180406
000240 4c fd d1 3d e8 a1 9f bd 3b ee 74 be 4f a2 22 be
       0.10253391 -0.07794553 -0.23919003 -0.15882228
000250 6e 8d 59 bd 04 e4 da bc b6 9f ab bd 7b ed d8 bc
       -0.053113393 -0.026720054 -0.08380072 -0.026480427
000260 86 91 01 be 3c 7f 04 3c f8 df 8a be c6 a1 a8 be
       -0.12653169 0.008086976 -0.27124 -0.32935923
000270 0c 5e 18 3e 70 5f 10 3e 4c e3 21 3e 56 58 fa bd
       0.14879626 0.14098907 0.15809363 -0.1222388
000280 17 e2 ca bd 54 9a d2 3d d0 cf 1d 3e 92 d2 07 3e
       -0.099064045 0.10283342 0.15411305 0.1326392
000290 e5 b1 fa 3d 1e ca ff bd f1 ae d6 bd 5b f4 07 3e
       0.12240962 -0.12489723 -0.10482586 0.13276808
0002a0 54 04 7a bd 98 24 d8 bd c5 27 af bd 25 ff 03 3e
       -0.061039284 -0.10553855 -0.08552507 0.12890299
0002b0 57 3e b6 ba 27 7e ec 3d e0 18 64 bd 9a 87 ff bd
       -0.0013904077 0.11547499 -0.055687785 -0.12477036
0002c0 0f 17 9b bd 23 f8 b3 3d a3 75 a8 bd 78 06 f5 3d
       -0.075727575 0.08787563 -0.082255624 0.119641244
0002d0 17 88 ef bb b7 57 be 3d 28 04 95 bd 9f c1 aa bd
       -0.0073099243 0.09294074 -0.07276183 -0.083377115
0002e0 d8 ca fa bd ce 97 3c bd d8 41 54 3b d6 16 c5 3d
       -0.122457206 -0.04604321 0.0032387879 0.09623496
0002f0 5d e5 5e bb a0 0a d6 3d be 61 81 bd d6 46 05 3e
       -0.0034011223 0.10451245 -0.06317471 0.13015303
000300 de 2c 85 bd 99 e4 a1 bc 8a e7 32 3d 4e 6e d0 3d
       -0.06502698 -0.019762324 0.043677844 0.10177289
000310 16 5d 2d be 4a f4 24 be 55 4b ed 3d 34 04 8d bd
       -0.1693004 -0.16108814 0.11586634 -0.06885567
000320 d6 be 1f 3e d3 59 8a bc 80 7f dd 3d be cb 25 be
       0.15600142 -0.016888535 0.10815334 -0.16191003
000330 cf e4 1f 3e fa 3a b9 3d 1e 6b 33 bd fb 39 ca bd
       0.15614627 0.09044452 -0.043803327 -0.0987434
000340 6d 7f b0 bd ed 01 9f 3b b5 9f c9 3d 9e c5 de 3d
       -0.086180545 0.0048525245 0.09844915 0.10877536
000350 6c 9c d7 bc 9c 07 26 3e b5 48 9f 3d 6f 32 dc 3d
       -0.026319705 0.1621384 0.0777754 0.10751807
000360 f7 11 6e 3d 41 0e 0a 3e 67 81 1b 3d 5d 71 58 bd
       0.0581226 0.13482 0.037965205 -0.052842487
000370 17 ae 19 be 35 6b b5 bd 17 94 d3 3d 4a 47 8f 3d
       -0.15007816 -0.08858339 0.1033098 0.06996019
000380 29 ca 53 3d 62 5a 0f 3e b0 ce 12 be 35 70 0d be
       0.051706467 0.13999322 -0.14336658 -0.13812335
000390 b3 ef 00 be bc 85 e7 bd 7d e1 d7 3d cd 84 41 be
       -0.12591438 -0.11304805 0.10541055 -0.18898316
0003a0 17 d2 c6 3c fe 65 f1 3d 5b d0 01 3e d8 17 28 be
       0.0242701 0.117870316 0.12677138 -0.16415346
0003b0 cb 52 bd bd 00 5c 05 be 02 d9 05 be 62 6a b4 bd
       -0.09244307 -0.13023376 -0.13071063 -0.088093534
0003c0 1f ec cc bd 4b 88 a6 bd be db 0c bd df b4 55 3e
       -0.10005974 -0.081314646 -0.03438925 0.20869778
0003d0 4a 64 40 bd 9e 6a 6b 3d 8b 7b 37 be 8c 0a 82 3d
       -0.046970643 0.057474725 -0.17918222 0.06349668
0003e0 b6 f1 c7 3d ee 49 02 3e f6 fe 92 3c 99 36 5a bd
       0.097628996 0.12723514 0.01794384 -0.053274725
0003f0 ab a8 28 be 0d cc ef 3d 20 c9 99 be 91 5b a7 bd
       -0.16470592 0.117088415 -0.3003626 -0.08171762

classifier.3.bias f4 [10]
000000 f7 43 71 3f 54 f5 24 3f 78 cd b4 be a9 5c c3 bd
       0.9424433 0.6443684 -0.3531301 -0.09539158
000010 28 de de be e4 7f 08 be dd aa 11 bd 93 3e 00 bf
       -0.43528867 -0.13330036 -0.03556334 -0.5009548
000020 29 06 c7 3e 38 2c 7e be
       0.38871887 -0.24821556
