day2/domain_adaptation/revgrad_35.pt (torch_old, 91045 bytes, 8 tensors)

feature_extractor.0.weight f4 [10, 3, 5, 5]
0.18841545 0.047290925 0.04140312 0.16638102 0.016973495 -0.21909574 -0.2582345 -0.11597551
-0.32334375 -0.14225654 -0.17109768 0.04874996 -0.07521644 0.01735214 0.1880037 -0.18055697
0.036582254 -0.074915804 0.19028907 0.065935574 -0.0597167 0.05442393 0.19627105 0.19275635
0.0026033586 0.28986877 0.14582819 -0.023059534 0.07506238 0.054244537 -0.20984891 -0.07822082
-0.08604882 -0.2700811 -0.17124465 -0.16913101 -0.11506239 -0.11055938 -0.22541372 -0.1362867
-0.33028424 -0.2384173 -0.26874164 -0.3104834 -0.22065477 -0.5059706 -0.24930798 -0.22253963
-0.21248764 -0.2873903 -0.38480663 -0.28584635 -0.3643542 -0.06395826 0.09537518 0.1691994
0.107385494 0.19391076 0.29016826 0.3027454 0.4234946 0.42535752 0.4466834 0.36047646
0.17137952 0.46406627 0.4960372 0.43684855 0.24829654 0.093090564 0.5006909 0.5338352
0.2569432 0.2661158 0.120810546 -0.031363927 -0.05918155 -0.04414272 -0.17181116 -0.123452455
0.1074266 -0.05474755 0.005120959 -0.18939182 -0.03148713 0.19778126 -0.116826035 0.18718995
-0.2759133 0.18412133 0.053371254 -0.08507196 -0.045287594 -0.29557624 0.1522011 0.013941123
-0.045701016 -0.2462415 -0.056749605 0.049320992 -0.10508481 -0.18358232 0.017868526 -0.0993921
0.18121016 -0.08565385 -0.30999064 0.011696237 -0.088881776 0.14846198 -0.15560201 -0.15763925
-0.121712044 -0.0058089523 0.4129746 -0.113612264 -0.0775398 -0.10897983 0.12968688 0.1491278
-0.18736504 -0.044490736 -0.10166274 0.28152373 0.20022845 0.48983714 0.30002996 0.298728
0.34487262 -0.034824163 0.34118062 0.2620636 0.34439072 0.015183101 -0.29945552 0.2901427
0.24984628 0.2918408 -0.26522523 -0.9291415 0.28619793 0.3459636 0.18949714 -0.18362558
-0.7737898 0.16387519 0.18947187 0.16636096 -0.13923202 -0.37659726 -0.06817737 -0.08212229
0.0015881974 0.06263772 0.078025274 0.03072248 -0.0136422925 -0.25377598 0.20926835 -0.12529023
0.052187353 -0.053881396 -0.24185273 0.15459289 0.057014033 0.035506777 0.12401616 -0.30083203
0.067281164 0.03952353 0.19675359 0.14577831 -0.123965174 -0.03774038 -0.13528264 -0.2658361
-0.18428653 -0.03106872 -0.08345385 0.07223163 -0.15024292 -0.22438832 -0.24962784 -0.053780284
-0.024211632 -0.12957372 0.0089531345 -0.25543642 0.061808545 -0.13910347 -0.08511258 -0.012985488
-0.10257281 -0.012738023 -0.060662307 -0.13878995 0.01795019 -0.17523332 -0.12934686 -0.16296844
0.5296617 0.5394682 0.26868272 0.15321922 -0.109473795 0.26641223 0.339057 0.32586303
0.15180427 -0.3430871 0.10484373 0.24914011 0.34534025 0.2582541 -0.0675783 -0.25878426
0.15115689 0.31748238 0.33860925 0.31080374 -0.38333493 -0.04022172 0.45273402 0.47915882
0.46685597 -0.13399369 -0.08221391 -0.031691384 -0.07720069 -0.03227583 0.08096205 -0.011473763
0.019224914 0.014086409 -0.07850161 -0.14430863 -0.06161773 0.00033927933 0.06662761 -0.0662284
-0.0053725326 0.0020270937 -0.03928206 0.091214254 -0.07121771 -0.03275346 0.03739139 -0.13127048
-0.012017773 -0.017715523 0.07014041 -0.012903104 -0.051845077 -0.029070595 -0.07229177 -0.06934115
00000000: fbef 403e 21b4 413d 5196 293d c95f 2a3e
00000010: 000c 8b3c a25a 60be 5037 84be 9184 edbd
00000020: 508d a5be b3ab 11be 3b34 2fbe 0aae 473d
00000030: 140b 9abd 1326 8e3c 0b84 403e ede3 38be
00000040: 46d7 153d 756d 99bd 23db 423e 3b09 873d
00000050: 8099 74bd a0eb 5e3d 47fb 483e ec61 453e
00000060: 1c9d 2a3b ae69 943e fc53 153e 59e7 bcbc
00000070: 4eba 993d 852f 5e3d a2e2 56be 3d32 a0bd
00000080: 5d3a b0bd 1248 8abe c25a 2fbe ae30 2dbe
00000090: d5a5 ebbd f56c e2bd dbd2 66be be8e 0bbe
000000a0: 041b a9be aa23 74be 8198 89be aef7 9ebe
000000b0: 53f3 61be 4a87 01bf 974a 7fbe 6ee1 63be
000000c0: 5c96 59be d224 93be 6005 c5be 745a 92be
000000d0: a28c babe 8cfc 82bd 1054 c33d 9c42 2d3e
000000e0: edec db3d 8b90 463e ef90 943e 7201 9b3e
000000f0: 49d4 d83e 76c8 d93e b0b3 e43e 5f90 b83e
00000100: 1d7e 2f3e 189a ed3e 96f8 fd3e 9daa df3e
00000110: 7341 7e3e 44a6 be3d 472d 003f 6ca9 083f
00000120: 0f8e 833e 5540 883e 856b f73d 7677 00bd
00000130: 5a68 72bd ffce 34bd 44ef 2fbe a4d4 fcbd
00000140: 7a02 dc3d f83e 60bd b8cd a73b eeef 41be
00000150: a6f8 00bd 2c87 4a3e 7d42 efbd b9ae 3f3e
00000160: 8244 8dbe 4d8a 3c3e d19b 5a3d 353a aebd
00000170: 7c7f 39bd c555 97be 9bda 1b3e 4f69 643c
00000180: fd30 3bbd bb26 7cbe 4672 68bd cf04 4a3d
00000190: b436 d7bd 01fd 3bbe 0461 923c 168e cbbd
000001a0: 288f 393e 496b afbd 18b7 9ebe 93a1 3f3c
000001b0: a607 b6bd 6b06 183e 2256 1fbe 2f6c 21be
000001c0: 2a44 f9bd 0659 bebb 6871 d33e 8cad e8bd
000001d0: 30cd 9ebd d130 dfbd a3cc 043e f5b4 183e
000001e0: 9fdc 3fbe eb3b 36bd 8e34 d0bd e123 903e
000001f0: b008 4d3e efcb fa3e 879d 993e e0f2 983e
00000200: 2593 b03e c8a3 0ebd 3aaf ae3e 332d 863e
00000210: fb53 b03e 8bc2 783c 3c52 99be 958d 943e
00000220: b4d7 7f3e 286c 953e 9acb 87be 38dc 6dbf
00000230: 8988 923e 2422 b13e 8a0b 423e 5808 3cbe
00000240: 1717 46bf e6ce 273e ea04 423e 875a 2a3e
00000250: d792 0ebe 5bd1 c0be 94a0 8bbd bb2f a8bd
00000260: 102b d03a 3448 803d b7cb 9f3d b6ad fb3c
00000270: ec83 5fbc edee 81be 714a 563e 154c 00be
00000280: 68c2 553d bdb2 5cbd 3ea8 77be 994d 1e3e
00000290: 8c87 693d 8e6f 113d 2ffc fd3d a806 9abe
000002a0: b5ca 893d 6de3 213d c679 493e e946 153e
000002b0: 74e1 fdbd a895 1abd 8887 0abe ab1b 88be
000002c0: 9cb5 3cbe d483 febc dae9 aabd 2dee 933d
000002d0: 48d9 19be 0dc6 65be 719e 7fbe b748 5cbd
000002e0: 7957 c6bc f9ae 04be 2bb0 123c 90c8 82be
000002f0: f52a 7d3d 2471 0ebe 814f aebd 16c1 54bc
00000300: b211 d2bd 24b3 50bc 0a79 78bd f41e 0ebe
00000310: 470c 933c 5d70 33be 8173 04be 33e1 26be
00000320: e997 073f 971a 0a3f c890 893e 80e5 1c3e
00000330: cc33 e0bd 2f67 883e e198 ad3e 85d7 a63e
00000340: 9472 1b3e 1da9 afbe 4fb8 d63d 961e 7f3e
00000350: 70d0 b03e e239 843e 7e66 8abd 5f7f 84be
00000360: dfc8 1a3e 0d8d a23e 315e ad3e ab21 9f3e
00000370: 7a44 c4be 88bf 24bd c1cc e73e 4e54 f53e
00000380: bf07 ef3e a435 09be c45f a8bd d3ce 01bd
00000390: 651b 9ebd a933 04bd 6ecf a53d 73fc 3bbc
000003a0: 917d 9d3c aeca 663c 74c5 a0bd a4c5 13be
000003b0: df62 7cbd 4de1 b139 0e74 883d c1a2 87bd
000003c0: 120c b0bb fdd8 043b 3ae6 20bd 8ace ba3d
000003d0: 97da 91bd 7e28 06bd b727 193d c56b 06be
000003e0: 32e6 44bc 2520 91bc c6a5 8f3d 8a67 53bc
000003f0: 815b 54bd 7525 eebc b50d 94bd bc02 8ebd

feature_extractor.0.bias f4 [10]
-0.5667139 -0.17550674 -1.1340681 -0.086738825 -0.69947696 -0.54331636 -0.3271081 -0.12704422
-0.6312423 0.03178621
00000000: 2a14 11bf 0ab8 33be 2529 91bf 20a4 b1bd
00000010: ec10 33bf c816 0bbf b67a a7be e117 02be
00000020: 1899 21bf 4232 023d

feature_extractor.3.weight f4 [20, 10, 5, 5]
0.51357186 0.31459028 0.18275283 -0.15479802 -0.10708491 -0.1278174 0.0423043 0.1466722
0.1392134 -0.28215364 -0.46694192 -0.16765992 0.22827636 0.57623416 0.1367713 -0.26082724
-0.47676262 -0.3620319 0.10412729 -0.01466242 0.15189286 0.090308174 0.09874936 -0.09199834
0.10525635 0.0374051 0.045101352 0.004693503 -0.3285191 -0.24932857 0.14305887 -0.12628365
0.14002296 -0.1416898 -0.045024585 -0.3060028 -0.116651446 0.05734055 0.015012145 0.06559914
-0.48425677 -0.10493481 0.22014669 -0.15098965 -0.10876369 0.082474284 -0.048453916 -0.045490142
-0.050231155 0.10734015 0.29385367 -0.19771318 -0.5766856 -0.471896 0.31254354 0.3082642
0.44613808 0.43563586 0.14207515 0.2966274 -0.12323987 0.35327193 0.34798732 0.3343452
-0.3432216 -0.3894877 0.16273059 0.2701753 -0.00057917135 -0.29338372 0.104652666 -0.4507312
-0.22753736 -0.2994238 0.045969643 -0.0028872814 -0.03624829 -0.014124127 0.03602058 0.048036
0.062529564 0.017326863 -0.015881047 -0.03412439 0.02356017 -0.0599817 -0.041866124 0.019967515
0.027096823 -0.056311164 0.034010626 -0.04597613 0.057179403 0.014812344 -0.026509423 0.011831237
-0.006906858 -0.03969688 -0.010859769 0.016633036 -0.17997546 -0.018801915 0.065438025 0.3564143
-0.28777742 0.17391698 -0.24053812 -0.5478201 -0.14778778 0.10009701 -0.21325281 0.09647252
-0.20774956 -0.44254166 -0.15593433 0.071624376 0.033212524 -0.1589858 -0.027975947 -0.07343207
0.27663743 -0.00021219905 -0.16634314 0.11865544 -0.06553314 -0.09530654 -0.108260706 -0.26716474
-0.29423898 0.46461865 -0.2912353 -0.13966179 -0.0664408 0.20770736 -0.6107631 -0.16920924
0.012497998 -0.09020243 0.42356178 0.20762202 0.4251081 0.07246238 -0.16339312 0.06187268
-0.20892847 0.09189578 0.039053705 -0.2667745 0.00445261 0.18137343 0.31452864 0.10437007
-0.083336666 0.3787881 -0.14663239 -0.07551186 0.20752347 -0.8474658 -0.18333416 0.082292855
-0.21888249 0.52625316 0.47936347 -0.31655937 -0.35746512 -0.14311972 -0.30919412 0.0696837
0.1596402 0.048115157 -0.5405297 0.26787427 0.10150204 0.12603202 0.09227075 -0.16249412
-0.28645834 0.042653345 0.29745397 0.24551961 0.08646082 -0.21556155 0.07052492 -0.4617926
-0.013344144 -0.07262467 0.146015 0.5142102 0.17173256 -0.32106528 0.40441382 -0.06941883
0.033626206 -0.19104859 -0.26640493 0.3191844 -0.060017876 -0.12898047 -0.08379743 0.047398914
-0.4332259 -0.15510035 -0.092223376 -0.07118852 -0.07976854 0.10311629 -0.03747589 0.14536238
0.1908079 0.20350693 0.23451337 -0.28537858 -0.025919214 -0.19839856 0.0707719 -0.022220377
0.31714416 -0.124564685 -0.0844665 -0.19279802 -0.29619828 0.011416033 0.25292358 0.025751974
0.15247664 0.2261658 -0.2744434 -0.06688787 -0.5053059 0.27157596 -0.5172247 -0.1163736
0.13001959 0.08050932 -0.13000122 0.06360739 -0.31094274 -0.72016144 -0.4063518 -0.10341978
0.0191016 -0.3100135 -0.21187113 0.4689204 0.16131681 0.12477372 0.013639425 0.060921885
0.095793575 -0.10130731 0.49690187 -0.03989745 -0.2939357 -0.29780728 0.016837463 0.16171743
00000000: 7279 033f fa11 a13e 8f23 3b3e 5f83 1ebe
00000010: 554f dbbd 91e2 02be 4647 2d3d 3d31 163e
00000020: f58d 0e3e 7176 90be 0313 efbe 0baf 2bbe
00000030: 47c1 693e 1584 133f c70d 0c3e 268b 85be
00000040: 3b1a f4be 3f5c b9be b040 d53d a63a 70bc
00000050: cd89 1b3e 7ef3 b83d 1b3d ca3d a069 bcbd
00000060: a490 d73d 1736 193d 32bc 383d f5cb 993b
00000070: a833 a8be fd4f 7fbe 067e 123e 8050 01be
00000080: 2e62 0f3e 2217 11be b36b 38bd 66ac 9cbe
00000090: f4e6 eebd eddd 6a3d 80f5 753c d858 863d
000000a0: 81f0 f7be 10e8 d6bd 226e 613e 089d 1abe
000000b0: 7fbf debd 47e8 a83d 9d77 46bd df53 3abd
000000c0: 2fbf 4dbd 27d5 db3d fd73 963e 5375 4abe
000000d0: aba1 13bf 5a9c f1be b505 a03e ced4 9d3e
000000e0: 366c e43e aa0b df3e 267c 113e 8cdf 973e
000000f0: 2f65 fcbd 0fe0 b43e 652b b23e 4b2f ab3e
00000100: beba afbe ef6a c7be d9a2 263e 6b54 8a3e
00000110: 88d3 17ba 6436 96be 2354 d63d 3dc6 e6be
00000120: 8eff 68be 144e 99be aa4a 3c3d 8b38 3dbb
00000130: 1679 14bd e268 67bc 518a 133d 66c1 443d
00000140: 800f 803d 11f1 8d3c f818 82bc 04c6 0bbd
00000150: 4201 c13c 5faf 75bd d07b 2bbd ea92 a33c
00000160: 28fa dd3c 89a6 66bd ba4e 0b3d 7751 3cbd
00000170: f334 6a3d 79af 723c 4a2a d9bc ced7 413c
00000180: ed52 e2bb 3299 22bd 2ced 31bc 0142 883c
00000190: 7d4b 38be 7906 9abc 5f04 863d ef7b b63e
000001a0: 9057 93be 4b17 323e a04f 76be f03d 0cbf
000001b0: ae55 17be a9ff cc3d f25e 5abe 6293 c53d
000001c0: 4dbc 54be d294 e2be 40ad 1fbe cdaf 923d
000001d0: db09 083d 2ccd 22be d02d e5bc 8e63 96bd
000001e0: 6ca3 8d3e c081 5eb9 db55 2abe a001 f33d
000001f0: 3d36 86bd 1330 c3bd cab7 ddbd d1c9 88be
00000200: 7ea6 96be 7fe2 ed3e cb1c 95be 8003 0fbe
00000210: 1d12 88bd 3db1 543e f85a 1cbf 3045 2dbe
00000220: 67c4 4c3c 0dbc b8bd 17dd d83e de9a 543e
00000230: c5a7 d93e 2867 943d 8750 27be 356e 7d3d
00000240: 58f1 55be db33 bc3d c7f6 1f3d ab96 88be
00000250: 33e7 913b f5b9 393e e609 a13e fabf d53d
00000260: 6aac aabd 84f0 c13e cd26 16be f6a5 9abd
00000270: 0881 543e 85f3 58bf f3bb 3bbe 2889 a83d
00000280: bb22 60be 87b8 063f 216f f53e 1214 a2be
00000290: ab05 b7be fa8d 12be b14e 9ebe 54b6 8e3d
000002a0: b878 233e 6614 453d 2860 0abf d126 893e
000002b0: 4de0 cf3d 8a0e 013e 72f8 bc3d dc64 26be
000002c0: abaa 92be 46b5 2e3d e34b 983e 7e69 7b3e
000002d0: 5f12 b13d 2bbc 5cbe 5f6f 903d 1470 ecbe
000002e0: 66a1 5abc 3ebc 94bd f584 153e 48a3 033f
000002f0: a9da 2f3e ab62 a4be 540f cf3e 762b 8ebd
00000300: a2bb 093d 3ea2 43be 3a66 88be 236c a33e
00000310: 4ed5 75bd 7513 04be fd9d abbd 5d25 423d
00000320: c9cf ddbe a0d2 1ebe 9cdf bcbd 49cb 91bd
00000330: b05d a3bd a22e d33d 5280 19bd e0d9 143e
00000340: 2563 433e 1f64 503e 4624 703e 241d 92be
00000350: 8854 d4bc fe28 4bbe dcf0 903d 8207 b6bc
00000360: b860 a23e c51b ffbd c6fc acbd d86c 45be
00000370: 4da7 97be 500a 3b3c 337f 813e cef5 d23c
00000380: d622 1c3e 0298 673e d883 8cbe 82fc 88bd
00000390: ba5b 01bf 010c 8b3e d768 04bf 4855 eebd
000003a0: db23 053e 12e2 a43d 0a1f 05be 9744 823d
000003b0: e333 9fbe 805c 38bf 580d d0be c0cd d3bd
000003c0: f57a 9c3c 17ba 9ebe bff4 58be 5616 f03e
000003d0: 3c30 253e 5d89 ff3d e577 5f3c 3a89 793d
000003e0: 6c2f c43d 357a cfbd ec69 fe3e 826b 23bd
000003f0: bd7e 96be 327a 98be b8ee 893c 4199 253e

feature_extractor.3.bias f4 [20]
-0.48039353 -0.02273345 -0.36358264 0.21361227 -0.7879519 0.0025465821 -0.6244452 -0.2308583
-0.1361555 0.1390108 -0.23893598 -0.0770626 -0.40371537 -0.26745015 -0.050767 0.020383019
0.2624773 -0.037907325 0.082719475 -0.03625059
00000000: 24f6 f5be 803b babc 8127 babe 2dbd 5a3e
00000010: 37b7 49bf 8fe4 263b a4db 1fbf 1e66 6cbe
00000020: 596c 0bbe d958 0e3e a2ab 74be ffd2 9dbd
00000030: c8b3 cebe 3aef 88be 0ff1 4fbd 4afa a63c
00000040: 6d63 863e b644 1bbd d468 a93d 807b 14bd

classifier.0.weight f4 [50, 320]
0.042699777 -0.040290628 -0.16831727 -0.1451885 -0.23607726 -0.26991498 -0.13317215 0.21432708
-0.13335723 0.100812525 0.13988784 0.07696063 -0.009893392 0.04904999 -0.2388578 0.06472548
-0.15470052 -0.017921979 -0.0957598 -0.07903486 0.21243876 0.19067444 0.113964595 0.09729693
0.1435481 0.11286976 0.090913996 -0.27190688 -0.3143189 -0.27382314 -0.024787886 -0.12323628
0.08515601 0.28772098 -0.13525255 0.10195 -0.2964195 0.07184858 -0.1470998 -0.18050951
-0.16222577 -0.13676274 0.26502317 -0.22411884 0.056711916 0.23898149 -0.014913412 -0.033754546
0.15260693 -0.0031876648 -0.0041930564 0.10334348 -0.2956478 0.10456154 -0.068200566 0.1284382
0.10449473 0.058916252 -0.075797155 0.029829502 -0.1942552 0.16593684 -0.115521975 -0.0819042
0.1701985 -0.051180482 -0.10267405 0.10188295 0.052473888 0.38651904 0.03899805 -0.15401085
0.2538257 0.2115342 -0.008799109 0.23990484 -0.3246358 0.041016303 -0.05147083 -0.2973288
-0.48754936 -0.15326762 0.031471733 -0.2549375 -0.26426283 -0.07675211 0.022705598 -0.13633883
0.17188464 0.24581902 0.21960682 -0.11329812 -0.039106984 -0.07421658 -0.05276432 0.4950668
0.13606139 0.17476442 -0.062023666 0.004271973 -0.37552252 -0.05943548 -0.06680571 -0.38252074
0.15086204 -0.03143265 -0.018835718 0.28443372 -0.12899621 0.12837058 0.010847099 0.035044916
0.03522743 -0.030958122 0.018580811 0.17924769 -0.1582751 -0.07005197 0.057310592 -0.2131288
-0.31828606 0.07300448 0.101107165 -0.23788258 -0.0271463 0.20015821 -0.0058137383 0.32680306
-0.33250555 0.023693832 -0.1328816 -0.2248872 -0.33653492 -0.067235455 -0.22715163 -0.38148528
0.053138044 0.14378795 0.00886477 -0.24739443 0.1307199 0.19360514 0.19436453 0.08588422
-0.09390951 0.12921253 0.2688395 0.10189205 0.5240081 -0.19976279 -0.017713962 0.004237218
0.17138575 -0.32387406 -0.2665037 0.010517732 -0.13909745 0.17317061 -0.02842035 -0.048024286
0.25676546 -0.042470425 0.11166412 -0.0939768 -0.032246523 0.23201218 0.022243138 0.14034213
-0.46656483 -0.1840938 -0.092351004 -0.076044135 -0.39815155 -0.15091659 -0.15219928 -0.4980151
-0.02308306 0.14675939 0.10278756 0.38361448 -0.46276605 -0.33698463 0.11047111 -0.24571699
-0.5044642 -0.29172736 -0.22983812 -0.2941045 0.11491779 0.3331738 0.20891462 0.029829765
-0.37956545 -0.10063959 0.018785683 -0.33442464 -0.05554643 0.032693483 0.26337433 0.052294564
-0.0065536085 0.23167081 0.22841622 -0.01377493 -0.29063094 -0.03454735 -0.08761972 -0.25701597
-0.11892778 -0.26753998 -0.13314371 0.08848431 -0.22396821 0.07824821 0.13584511 0.13688195
-0.09975876 0.2931318 0.26888418 0.09880902 -0.49086618 0.14628726 -0.2947004 0.047299054
0.3284421 -0.0037979719 0.16815995 0.3745364 -0.26580477 0.04789329 -0.23790815 -0.19226907
-0.4069671 -0.09688477 -0.22926947 -0.43723634 0.16450234 0.012827853 0.060656637 -0.10407942
0.34113243 0.069403864 0.14942123 0.033831004 0.17642699 -0.016605644 0.040940627 -0.0517486
-0.22656846 -0.33362925 -0.057029665 0.042462446 0.23599757 -0.040734354 -0.09457688 -0.18708654
00000000: f6e5 2e3d c907 25bd 5d5b 2cbe 4bac 14be
00000010: 3dbe 71be 4c32 8abe 485e 08be 8f78 5b3e
00000020: cc8e 08be cc76 ce3d c23e 0f3e 899d 9d3d
00000030: e517 22bc a4e8 483d 2497 74be cb8e 843d
00000040: d069 1ebe 1dd1 92bc b71d c4bd 07dd a1bd
00000050: 8c89 593e 2940 433e 4566 e93d 9d43 c73d
00000060: 46fe 123e 4328 e73d 1e31 ba3d 6137 8bbe
00000070: 68ee a0be 8c32 8cbe f70f cbbc 4e63 fcbd
00000080: 4666 ae3d 2a50 933e a57f 0abe 29cb d03d
00000090: 4cc4 97be 5925 933d 54a1 16be 7cd7 38be
000000a0: 831e 26be 880b 0cbe 1eb1 873e 697f 65be
000000b0: c14a 683d 90b7 743e 6257 74bc 3542 0abd
000000c0: fe44 1c3e 24e8 50bb e865 89bb bfa5 d33d
000000d0: 265f 97be 5c24 d63d bdac 8bbd 4e85 033e
000000e0: 5501 d63d 2b52 713d 8a3b 9bbd 005d f43c
000000f0: d6ea 46be 59eb 293e c996 ecbd 64bd a7bd
00000100: 8448 2e3e a0a2 51bd c646 d2bd 02a8 d03d
00000110: dcee 563d d3e5 c53e 6bbc 1f3d 05b5 1dbe
00000120: 71f5 813e 6c9c 583e 232a 10bc 9da9 753e
00000130: aa36 a6be b600 283d 14d3 52bd 7b3b 98be
00000140: 12a0 f9be 30f2 1cbe 81e8 003d 2b87 82be
00000150: 754d 87be 3630 9dbd 1701 ba3c 689c 0bbe
00000160: 8702 303e fbb7 7b3e 9ce0 603e d808 e8bd
00000170: a52e 20bd ddfe 97bd 661f 58bd 6579 fd3e
00000180: ad53 0b3e 72f5 323e 870c 7ebd e8fb 8b3b
00000190: 7d44 c0be 9e72 73bd 6fd1 88bd c2d9 c3be
000001a0: 947b 1a3e 86bf 00bd 5d4d 9abc 4ca1 913e
000001b0: 9517 04be 9473 033e 08b8 313c 428b 0f3d
000001c0: a34a 103d e39b fdbc c936 983c b58c 373e
000001d0: de12 22be 6877 8fbd 83be 6a3d 703e 5abe
000001e0: 64f6 a2be 5f83 953d 4611 cf3d 7e97 73be
000001f0: eb61 debc 46f6 4c3e 2c81 bebb bb52 a73e
00000200: 2b3e aabe 9119 c23c 1d12 08be d548 66be
00000210: 4e4e acbe beb2 89bd 709a 68be 0a52 c3be
00000220: 47a7 593d 263d 133e 8a3d 113c f754 7dbe
00000230: 70db 053e 6d40 463e 7f07 473e 11e4 af3d
00000240: a153 c0bd 4a50 043e 55a5 893e c7ac d03d
00000250: 6525 063f 9e8e 4cbe df1c 91bc 5cd8 8a3b
00000260: bf7f 2f3e d2d2 a5be 2c73 88be 9152 2c3c
00000270: 906f 0ebe a353 313e cbd1 e8bc 1db5 44bd
00000280: c376 833e 78f5 2dbd 28b0 e43d e976 c0bd
00000290: ee14 04bd 9a94 6d3e 3e37 b63c d9b5 0f3e
000002a0: 96e1 eebe 1683 3cbe 8622 bdbd 07bd 9bbd
000002b0: 85da cbbe e189 1abe 21da 1bbe d6fb febe
000002c0: af18 bdbc 1848 163e 4982 d23d 1e69 c43e
000002d0: acef ecbe 4089 acbe ad3e e23d 3c9d 7bbe
000002e0: 9124 01bf 4a5d 95be af5a 6bbe dd94 96be
000002f0: 055a eb3d c295 aa3e b7ed 553e 8d5d f43c
00000300: 6756 c2be 211c cebd 6fe4 993c b539 abbe
00000310: a784 63bd 9ae9 053d 00d9 863e d332 563d
00000320: a7bf d6bb 1d3b 6d3e f1e5 693e 3eb0 61bc
00000330: 94cd 94be 8681 0dbd f871 b3bd 9997 83be
00000340: 6890 f3bd 00fb 88be d356 08be 4337 b53d
00000350: ec57 65be 9940 a03d fb1a 0b3e c82a 0c3e
00000360: 524e ccbd 5f15 963e 30ab 893e 625c ca3d
00000370: d052 fbbe 54cc 153e f9e2 96be a7bc 413d
00000380: 9029 a83e 65e7 78bb 1f32 2c3e 3cc3 bf3e
00000390: 9017 88be c12b 443d 329e 73be 2fe2 44be
000003a0: fe5d d0be 866b c6bd 9ec5 6abe 71dd dfbe
000003b0: 4d73 283e ea2b 523c 1873 783d 9727 d5bd
000003c0: e9a8 ae3e 9d23 8e3d e101 193e 6192 0a3d
000003d0: 47a9 343e 8f08 88bc 5cb1 273d 57f6 53bd
000003e0: 9001 68be 74d1 aabe f097 69bd 1aed 2d3d
000003f0: 59a9 713e 11d9 26bd 86b1 c1bd 9d93 3fbe

classifier.0.bias f4 [50]
0.058999095 0.12895647 0.06802282 0.22442842 0.38888982 0.38105276 -0.46819475 -0.07426662
0.24905193 0.17749578 0.29779702 -0.36890134 -0.2526271 0.52684814 0.31166697 0.054541428
0.11540197 -0.14378886 0.54355234 -0.13734896 0.45745394 0.31482643 -0.16862307 0.43485403
0.39916694 -0.023699064 0.3867578 0.065185495 0.692198 -0.04390302 0.53385353 -0.051923256
-0.40256703 -0.3177702 0.36024547 0.33087644 0.69871265 0.55345017 0.29306197 -0.2323194
0.40056944 0.430184 0.43632987 0.79355973 -0.014622749 -0.70407975 -0.038540058 -0.07057649
-0.53390056 0.5651874
00000000: 09a9 713d 2a0d 043e 8c4f 8b3d 90d0 653e
00000010: 911c c73e 5919 c33e 39b7 efbe 1919 98bd
00000020: 7807 7f3e 74c1 353e da78 983e a3e0 bcbe
00000030: 5758 81be 85df 063f d092 9f3e d566 5f3d
00000040: de57 ec3d 633d 13be 3f26 0b3f 35a5 0cbe
00000050: 6737 ea3e ee30 a13e 87ab 2cbe 30a5 de3e
00000060: 9c5f cc3e 8a24 c2bc 1e05 c63e f97f 853d
00000070: e333 313f a7d3 33bd a0aa 083f 7bad 54bd
00000080: 441d cebe c7b2 a2be 1872 b83e a368 a93e
00000090: d5de 323f e9ae 0d3f 380c 963e 23e5 6dbe
000000a0: 7017 cd3e 1441 dc3e a166 df3e bb26 4b3f
000000b0: 4194 6fbc 923e 34bf 2edc 1dbd 688a 90bd
000000c0: b5ad 08bf 1fb0 103f

classifier.3.weight f4 [10, 50]
0.12081191 -0.3902642 -0.2852048 0.13586289 -0.2761034 -0.11501428 0.09659859 -0.11380617
-0.098567076 0.059166696 -0.071322694 0.0899374 -0.008172892 -0.3093293 -0.0905353 0.08203293
0.08225481 -0.22629541 -0.13160521 0.080467105 0.12035885 0.1451225 -0.081747144 -0.20381014
-0.119551145 -0.16293015 0.1280572 -0.028222896 -0.12017753 -0.22577995 -0.23893322 0.07578384
0.0836332 -0.05969984 -0.30348566 0.09356474 -0.21308473 -0.17230326 0.06725098 -0.2149092
0.04670563 -0.09975884 0.01269409 -0.5826584 0.10126701 -0.03964001 0.022136472 -0.109395124
-0.22726537 -0.054435436 -0.18336524 0.08225807 -0.00935624 -0.06760355 0.11066331 0.06324184
0.066605926 -0.120364055 0.13147683 0.10751423 -0.026527263 -0.024272656 -0.06483735 -0.06442719
0.0015261348 0.109025754 -0.07351316 -0.0047098743 0.08834704 -0.27102995 0.097861975 -0.018940864
-0.16879345 -0.10444081 -0.036930375 0.1603498 0.09934199 0.059190154 0.03856922 -0.0007100045
-0.18691663 -0.27020314 -0.122203164 -0.2257988 0.13564987 -0.1364562 0.13292089 0.06407989
-0.11964403 0.11807621 -0.35968685 0.13190487 0.13888767 0.17672786 -0.19244325 -0.17133673
-0.3652997 -0.2785449 -0.08492981 0.15630962 0.09344117 -0.07732568 -0.09124857 0.10026398
-0.07220097 -0.062614605 -0.0038765687 -0.09179605 0.16659354 0.08079929 0.07384414 0.09367749
0.14838366 -0.012085345 0.098840676 -0.12991376 0.053109623 0.04898397 0.14053406 -0.12624454
-0.18150334 0.074414164 -0.052540235 0.007099707 0.05738756 -0.07202502 0.12548245 0.11779458
0.07197446 0.11260276 -0.016661426 0.04810248 -0.086975515 0.07423183 -0.07973985 -0.098946
0.12223124 0.06232637 0.08101837 -0.06958833 -0.13618478 0.1380953 -0.055522017 -0.04346372
0.106703036 -0.10075873 -0.24815199 -0.14342977 -0.067244604 -0.042227376 -0.123347655 -0.008338527
-0.11046449 -0.029893296 -0.2545617 -0.29781684 0.1230501 0.099432275 0.15082549 -0.09103114
-0.1265801 0.12060984 0.13871849 0.15650001 0.1120641 -0.119229525 -0.11340631 0.11684236
-0.088116705 -0.10583516 -0.17462383 0.1400573 -0.029623695 0.11293058 -0.08429159 -0.09124971
-0.058720905 0.11933363 -0.072428234 0.14104535 -0.030801516 0.090756044 -0.048079208 -0.10892829
-0.101981975 -0.10279493 -0.008978485 0.06567431 -0.024254099 0.08333968 -0.038183834 0.13334008
-0.041418698 -0.0048749787 0.028582066 0.09827725 -0.14475028 -0.15986675 0.09816591 -0.063590504
0.14948127 -0.034853008 0.10175395 -0.15854187 0.119752586 0.10413185 -0.040615305 -0.049231946
-0.13182217 0.04647629 0.09486356 0.11829945 -0.059031367 0.13174264 0.08899903 0.094425224
0.07270812 0.12672238 -0.0020365794 -0.020657238 -0.15822098 -0.10926303 0.09437634 0.0759046
0.049482763 0.16755329 -0.13738231 -0.091837466 -0.12757023 -0.09942829 0.10481074 -0.18996157
0.03683045 0.104619846 0.12478204 -0.16547106 -0.042137053 -0.11208657 -0.054001197 -0.085310645
-0.11175046 -0.071553655 -0.09005784 0.19547166 0.010847414 -0.0008422199 -0.18217462 0.06338795
0.13911626 0.13343498 0.022223968 -0.03413806 -0.14854603 0.11977341 -0.31879625 -0.10954253
00000000: 3c6c f73d b6d0 c7be 5d06 92be a41f 0b3e
00000010: 6d5d 8dbe 9b8c ebbd 7bd5 c53d 3613 e9bd
00000020: 89dd c9bd c758 723d a211 92bd 1931 b83d
00000030: 98e7 05bc 6960 9ebe 926a b9bd e100 a83d
00000040: 3675 a83d fcb9 67be 84c3 06be f0cb a43d
00000050: b37e f63d fe9a 143e 0c6b a7bd 9bb3 50be
00000060: 3bd7 f4bd 29d7 26be 6d21 033e b433 e7bc
00000070: a31f f6bd dc32 67be e9aa 74be 8f34 9b3d
00000080: e247 ab3d d287 74bd 7962 9bbe df9e bf3d
00000090: e232 5abe 4470 30be e2ba 893d 2811 5cbe
000000a0: 674e 3f3d 5d4e ccbd dffa 4f3c 1a29 15bf
000000b0: 1465 cf3d 905d 22bd 8c57 b53c 8d0a e0bd
000000c0: 41b8 68be b1f7 5ebd 19c4 3bbe eb76 a83d
000000d0: ea4a 19bc bb73 8abd 72a3 e23d f084 813d
000000e0: b068 883d 6e81 f6bd dda1 063e 6c30 dc3d
000000f0: b44f d9bc 73d7 c6bc 72c9 84bd 67f2 83bd
00000100: 9608 c83a e548 df3d 118e 96bd 4a55 9abb
00000110: 4bef b43d 70c4 8abe dc6b c83d df29 9bbc
00000120: 31d8 2cbe 10e5 d5bd 4e44 17bd bd32 243e
00000130: d073 cb3d 6071 723d c2fa 1d3d 981f 3aba
00000140: 1367 3fbe 1158 8abe a745 fabd cd37 67be
00000150: cde7 0a3e 2dbb 0bbe 6a1c 083e 513c 833d
00000160: ee07 f5bd f1d1 f13d e028 b8be 1212 073e
00000170: 9238 0e3e 26f8 343e d80f 45be e572 2fbe
00000180: 9008 bbbe 709d 8ebe aeef adbd a10f 203e
00000190: 165e bf3d ed5c 9ebd 88e0 babd 3457 cd3d
000001a0: 1ade 93bd 163c 80bd 080e 7ebb 91ff bbbd
000001b0: 7f97 2a3e 197a a53d 993b 973d fcd9 bf3d
000001c0: e3f1 173e 9c01 46bc fb6c ca3d 1d08 05be
000001d0: 7a89 593d 6aa3 483d 29e8 0f3e 4046 01be
000001e0: 03dc 39be 7466 983d 6e34 57bd a9a4 e83b
000001f0: 380f 6b3d db81 93bd 797e 003e 493e f13d
00000200: 5867 933d 479c e63d 8b7d 88bc 1b07 453d
00000210: 3820 b2bd dc06 983d a54e a3bd 33a4 cabd
00000220: 5f54 fa3d f049 7f3d f6ec a53d 5484 8ebd
00000230: 0674 0bbe db68 0d3e 0e6b 63bd 0307 32bd
00000240: 1f87 da3d 985a cebd 8e1b 7ebe 41df 12be
00000250: 8ab7 89bd 9df6 2cbd b29d fcbd 519e 08bc
00000260: 353b e2bd c9e2 f4bc e955 82be 737b 98be
00000270: b101 fc3d 26a3 cb3d ff71 1a3e 896e babd
00000280: 379e 01be 4b02 f73d 380c 0e3e 8a41 203e
00000290: dd81 e53d 9c2e f4bd 9141 e8bd 0c4b ef3d
000002a0: 8876 b4bd 1bc0 d8bd 97d0 32be 2e6b 0f3e
000002b0: 64ad f2bc 2648 e73d 12a1 acbd 21e1 babd
000002c0: 5585 70bd 3165 f43d 4155 94bd 316e 103e
000002d0: 7653 fcbc 4ede b93d b4ee 44bd cc15 dfbd
000002e0: eddb d0bd 2686 d2bd 7f1a 13bc 4180 863d
000002f0: 88b0 c6bc ffad aa3d a766 1cbd 4d8a 083e
00000300: a7a6 29bd 49be 9fbb f024 ea3c 9545 c93d
00000310: 6b39 14be 1cb4 23be 350b c93d bd3b 82bd
00000320: 9e11 193e 07c2 0ebd 6064 d03d cd58 22be
00000330: d840 f53d 1443 d53d 3c5c 26bd 70a7 49bd
00000340: 64fc 06be ec5d 3e3d d347 c23d fb46 f23d
00000350: e0ca 71bd 8be7 063e 2045 b63d 0362 c13d
00000360: ffe7 943d 83c3 013e 2278 05bb 5e39 a9bc
00000370: ae04 22be 4cc5 dfbd 6248 c13d df73 9b3d
00000380: 70ae 4a3d 1793 2b3e f3ad 0cbe 4815 bcbd
00000390: c5a1 02be 0fa1 cbbd 03a7 d63d 4985 42be
000003a0: 87db 163d ee42 d63d ba8d ff3d 3f71 29be
000003b0: e797 2cbd a58d e5bd 5c30 5dbd 59b7 aebd
000003c0: 6ddd e4bd b98a 92bd 3f70 b8bd b929 483e
000003d0: 5ab9 313c 6cc8 5cba fc8b 3abe 8bd1 813d
000003e0: 7e74 0e3e 2ea3 083e 0a0f b63c 5ad4 0bbd
000003f0: 731c 18be c34b f53d 4339 a3be d557 e0bd

classifier.3.bias f4 [10]
0.9249943 0.6648554 -0.28896296 -0.061681125 -0.5643818 -0.087241955 -0.051413566 -0.63387877
0.42307281 -0.18534195
00000000: 6dcc 6c3f f733 2a3f f4f2 93be 59a5 7cbd
00000010: 537b 10bf e9ab b2bd 0897 52bd e145 22bf
00000020: 009d d83e 48ca 3dbe
