day2/domain_adaptation/revgrad_36.pt (torch_old, 91045 bytes, 8 tensors)

feature_extractor.0.weight f4 [10, 3, 5, 5]
00000000: 873e 593e 11a2 363d 1fe9 56bc 449c 093e
00000010: 4d38 993b aa29 6cbe e9ea 88be 91d7 f1bd
00000020: 5124 abbe ae18 09be 6a91 45be dc93 573d
00000030: 96f9 9cbd cc0c a53b 2f7c 523e 9266 33be
00000040: 12c1 023d 3138 92bd 3392 413e ba74 ad3d
00000050: 15cb 24bd 6426 803d aa5d 503e b661 3f3e
00000060: 815b 203c 1a88 a13e f0fd 193e 9c2e 91bd
00000070: 4a00 323d 1b6e 2c3d 1109 5abe 3fd3 a5bd
00000080: f84d abbd f4aa 90be 9c92 2abe e877 3ebe
00000090: 6b96 e4bd 8807 e6bd 7fa4 7abe 3729 febd
000000a0: c9ef a7be c6f3 7bbe fc70 87be 36ca a1be
000000b0: 4ac0 56be 3b75 fcbe bb6d 7abe b2f4 5dbe
000000c0: d813 62be 4a84 91be b887 babe d882 8ebe
000000d0: b3ab cbbe 219f a2bd f89f ca3d 4b3e 2d3e
000000e0: 95c5 d53d 083c 4b3e 49f3 933e 3d85 a23e
000000f0: 6474 d23e c5a5 d93e d7fd e13e 10cb ac3e
00000100: c1f5 3a3e 7b4f ef3e 9d14 f73e 5353 de3e
00000110: db13 743e e675 d63d a8c8 013f 6a11 073f
00000120: 07b3 833e ea36 823e 0ba2 083e 0639 40bd
00000130: feb9 67bd 0933 5bbd 94c1 47be 1c36 06be
00000140: f955 d23d ced1 38bd 391a c639 7aa4 44be
00000150: 50d5 eabc a68c 563e 5f22 ddbd d67f 383e
00000160: 2d80 96be 6ef6 4d3e 62e8 6e3d a70f b3bd
00000170: fdc0 4bbd 7cff 93be 7bf3 453e 3dc3 c13c
00000180: ec78 32bd 04ff 6ebe a1da 16bd b7cf b43d
00000190: 12b3 01be 7796 3dbe 44aa ad3b db49 f9bd
000001a0: 4549 363e b8a3 c5bd 6020 9cbe b9c6 0c3b
000001b0: f8e7 b5bd 04d5 213e f609 19be 4ff4 1abe
000001c0: 550d 05be 83b5 8bbc cbe2 de3e 018b edbd
000001d0: a078 aabd 7510 e7bd 9409 113e 238f 443e
000001e0: e0f7 3bbe 4dce 30bd acb7 afbd b2be 9b3e
000001f0: 2cb1 753e 46f4 f23e fc36 9d3e bed4 953e
00000200: bb5b a73e f70f 16bd 5694 ab3e ec01 8b3e
00000210: d5f5 ab3e 499f b73c 7172 94be a020 993e
00000220: 1688 843e 5580 903e ba8a 8fbe f159 6dbf
00000230: 0cff 923e f10e af3e 04b5 393e c033 40be
00000240: bc16 41bf 796b 2f3e 3a2d 433e d078 333e
00000250: 1d76 08be d17f b3be 03c2 87bd 2716 acbd
00000260: 76e8 093c 8eb7 583d b014 4c3d a51a 013d
00000270: 4d35 0cbc a2d3 84be 10f8 4b3e 6a09 27be
00000280: efec 993d d6c6 27bd ad04 74be 4bb3 173e
00000290: 4e64 203d 59b5 183d 858d 043e b9cd 99be
000002a0: 61a8 893d 3b2e 1b3d 19fa 353e c199 0f3e
000002b0: 60b7 02be 9bcb 09bd 78cf 1ebe 5622 87be
000002c0: 4ca4 3dbe f212 a1bc 6745 b2bd 113f 4e3d
000002d0: ab22 18be 0c6e 5cbe 19e2 7fbe 33bd 7cbd
000002e0: 8772 5ebd a46d dbbd aa1b b73c aa29 7ebe
000002f0: 0a40 683d bc45 1ebe ef81 afbd 0ad0 30bc
00000300: 2572 cfbd 640c 4cbc c9fe 7fbd 28fa 20be
00000310: 99ff 0d3c 67db 38be aca1 00be f55a 3bbe
00000320: 895c 093f f71d 0a3f 18f3 8f3e 7c4c 133e
00000330: 5330 11be 8da5 883e a756 b33e 65df a83e
00000340: 9ea1 0d3e 5998 c2be 298a f93d 6179 853e
00000350: 2f42 b53e fd8d 7b3e a613 b8bd bfaf 8cbe
00000360: ef5d 113e e123 a33e 31af aa3e 9096 9a3e
00000370: 5ee0 d0be 9504 56bd c9bd e73e 7c6c f93e
00000380: b7f0 e63e a435 09be c45f a8bd d3ce 01bd
00000390: 651b 9ebd a933 04bd 6ecf a53d 73fc 3bbc
000003a0: 917d 9d3c aeca 663c 74c5 a0bd a4c5 13be
000003b0: df62 7cbd 4de1 b139 0e74 883d c1a2 87bd
000003c0: 120c b0bb fdd8 043b 3ae6 20bd 8ace ba3d
000003d0: 97da 91bd 7e28 06bd b727 193d c56b 06be
000003e0: 32e6 44bc 2520 91bc c6a5 8f3d 8a67 53bc
000003f0: 815b 54bd 7525 eebc b50d 94bd bc02 8ebd
0.21215259 0.044588152 -0.013117104 0.13438517 0.004675901 -0.23062769 -0.26741722 -0.11808694
-0.33426145 -0.13388321 -0.19293752 0.052631244 -0.07664792 0.005036926 0.20555185 -0.17519596
0.031922407 -0.07139624 0.18903427 0.084695294 -0.040232737 0.062573224 0.2034823 0.18689618
0.009787441 0.3154915 0.15038276 -0.07088968 0.043457307 0.042097192 -0.21292521 -0.080969326
-0.08364481 -0.28255427 -0.1665749 -0.18600428 -0.111615025 -0.11231905 -0.24476813 -0.12410205
-0.3280013 -0.24604711 -0.26453388 -0.31599587 -0.2097179 -0.4930819 -0.24455921 -0.21675375
-0.22077882 -0.2842124 -0.3643167 -0.278342 -0.39779434 -0.07940508 0.09893793 0.16918294
0.104380764 0.19847119 0.2889655 0.31742278 0.41104424 0.42509285 0.44138977 0.33748674
0.1825781 0.46740326 0.48257914 0.43422946 0.238357 0.10471706 0.506968 0.52760947
0.25722525 0.2543252 0.13343064 -0.04692938 -0.05657386 -0.053515468 -0.19507438 -0.13106579
0.10270304 -0.04512196 0.0003778504 -0.19203368 -0.028666168 0.2095209 -0.107975714 0.18017516
-0.29394665 0.20113537 0.058327086 -0.0874322 -0.049744595 -0.28905857 0.19331162 0.023652667
-0.04357235 -0.23339468 -0.036829595 0.08828681 -0.12665966 -0.18514429 0.0052998383 -0.1217229
0.17801388 -0.096503675 -0.3049345 0.0021480753 -0.08882135 0.15803915 -0.14945206 -0.15132259
-0.12993367 -0.017054325 0.43532404 -0.115987785 -0.08323789 -0.11282436 0.1416381 0.19195227
-0.18356276 -0.043165494 -0.085799545 0.30418926 0.23993367 0.4745199 0.30706012 0.29263872
0.32687172 -0.03663632 0.3351161 0.27149904 0.33585992 0.02241482 -0.28993562 0.29907703
0.25885075 0.2822291 -0.28035527 -0.92715365 0.2871021 0.34191087 0.18135458 -0.18769741
-0.75425315 0.17130841 0.19060221 0.17526555 -0.13326307 -0.35058454 -0.06628802 -0.08402663
0.008417239 0.052909426 0.049824417 0.03151955 -0.00855763 -0.25942713 0.19918847 -0.16312185
0.075158946 -0.04096111 -0.23829909 0.14814489 0.039158158 0.03728232 0.1294461 -0.30039766
0.06721569 0.037885886 0.17771186 0.14023496 -0.12765265 -0.03364144 -0.1550883 -0.26393384
-0.18519706 -0.019662354 -0.08704644 0.050353114 -0.14856975 -0.21526355 -0.24988593 -0.061703872
-0.05430844 -0.10714272 0.022352058 -0.24820581 0.056701697 -0.15456289 -0.08569705 -0.010791788
-0.10129193 -0.012454126 -0.06249884 -0.15720427 0.008666896 -0.18052445 -0.12561673 -0.18296416
0.5365682 0.5395197 0.28115153 0.14384645 -0.1417859 0.26688805 0.35027048 0.32982937
0.13831183 -0.38006857 0.12184555 0.26069167 0.35402057 0.24565883 -0.08988123 -0.27477834
0.14195989 0.3186331 0.33336785 0.30192995 -0.4079618 -0.052250464 0.45261982 0.4871558
0.45105526 -0.13399369 -0.08221391 -0.031691384 -0.07720069 -0.03227583 0.08096205 -0.011473763
0.019224914 0.014086409 -0.07850161 -0.14430863 -0.06161773 0.00033927933 0.06662761 -0.0662284
-0.0053725326 0.0020270937 -0.03928206 0.091214254 -0.07121771 -0.03275346 0.03739139 -0.13127048
-0.012017773 -0.017715523 0.07014041 -0.012903104 -0.051845077 -0.029070595 -0.07229177 -0.06934115

feature_extractor.0.bias f4 [10]
00000000: d7dc 12bf cd96 45be 5260 93bf 20a4 b1bd
00000010: 33b0 31bf 0565 12bf af63 b8be 373f 16be
00000020: 1efb 28bf 617e 93bc
-0.57368225 -0.19295807 -1.151377 -0.086738825 -0.69409484 -0.57185394 -0.36013553 -0.14672552
-0.66008174 -0.018004598

feature_extractor.3.weight f4 [20, 10, 5, 5]
00000000: 29a9 033f 9752 993e b6de 213e f866 debd
00000010: 1660 81bd c0d1 d7bd a403 a73d 290f 4a3e
00000020: 627b 4a3e 4798 72be a79b cebe eb27 05be
00000030: d25f 833e d86d 173f 825d 2b3e f7ac 53be
00000040: bc87 e2be f8db b5be df8f dd3d 575b b7bb
00000050: a1c8 1f3e a1fe cc3d 519e d63d 719f bdbd
00000060: a618 b93d 0149 e63d 1480 f33d ba29 313c
00000070: 9ebd c1be 39dc 6fbe 88ee 423e c53e c2bd
00000080: 0a5f de3d cd30 39be 31e9 4f3c e83a 82be
00000090: 6a88 d5bd 5647 443d 2e46 1d3d b946 f33d
000000a0: 2fb4 dfbe eb00 a2bd dbc8 783e d8ef 02be
000000b0: ef42 b5bd 0429 0d3e 35ff b8bb 9064 d5bc
000000c0: 708e 0cbd 03a3 013e 8cd0 923e a5fc 60be
000000d0: c81b 1cbf 2b85 d5be c45c be3e 1e4b b33e
000000e0: ef6e ea3e 0b66 db3e 4165 203e ad63 b03e
000000f0: 3c41 c8bd 2bf1 b43e d554 a73e f643 a23e
00000100: 2f6d b1be acd6 b8be 9a9a 1e3e a942 7c3e
00000110: dacd a3bc 948c aabe 24d5 a13d e88d eabe
00000120: 186f 41be f6a2 9bbe 29bb 4c3d 8b38 3dbb
00000130: 1679 14bd e268 67bc 518a 133d 66c1 443d
00000140: 800f 803d 11f1 8d3c f818 82bc 04c6 0bbd
00000150: 4201 c13c 5faf 75bd d07b 2bbd ea92 a33c
00000160: 28fa dd3c 89a6 66bd ba4e 0b3d 7751 3cbd
00000170: f334 6a3d 79af 723c 4a2a d9bc ced7 413c
00000180: ed52 e2bb 3299 22bd 2ced 31bc 0142 883c
00000190: ae81 52be 44c5 01bd 8067 743d 0cb0 b93e
000001a0: 93aa 97be 5c74 1e3e 71c2 7dbe 1679 09bf
000001b0: 16a0 fabd 07c3 253e 4250 6cbe 8b5d ef3d
000001c0: da45 21be e402 ccbe dc9e c1bd f31b c83d
000001d0: 723f 8b3d afff 22be f0d3 79bc 1256 06bd
000001e0: 0b71 b33e caa0 6a3d 690b 16be e6c1 0e3e
000001f0: da04 b9bd dc06 f1bd 1bc9 1dbe 44a7 8cbe
00000200: b4f9 97be 568c ea3e d3b1 89be a7e4 e3bd
00000210: c3fe e2bc ced2 373e 1493 24bf f957 d8bd
00000220: 08e0 4a3d 9d6e a2bd de50 ca3e 467b 4e3e
00000230: 8695 f63e 4519 063e ac1d 3bbe 082c 7c3c
00000240: 7921 84be eff0 973d 9c22 983d a9ff 88be
00000250: 7ad3 bc3c da50 2a3e e872 c93e 1a34 ca3d
00000260: 3913 eebd 5b43 953e 824b 01be 59b2 bdbc
00000270: 2429 1d3e d718 65bf 224e 0fbe 1125 d73d
00000280: c4fa 2ebe 8807 023f c1d2 d13e a99e 86be
00000290: 4e54 b5be 10b7 e3bd 71a8 a6be 94f3 723c
000002a0: fdde 183e a265 a63d 088a 03bf 302a 963e
000002b0: 4afc 533d 3027 193d d794 e23d 3ba4 20be
000002c0: 238a 91be c8ba 463d d623 a13e a599 7b3e
000002d0: b8e1 9b3d 34d1 8ebe 956e 003d e45f f7be
000002e0: 8289 08bc 3e9f 60bd ca1f ee3d f379 013f
000002f0: e48a 343e b142 a4be 2210 f33e 4cd9 eaba
00000300: ddd8 c53d 945b 12be 87a3 69be fe14 ba3e
00000310: 7f77 3ebd 6185 edbd 82fb 80bd df44 9a3d
00000320: 7266 edbe 13ca 1cbe 4cab 21be 34c9 f2bd
00000330: 7648 71bd 4c0e 943d 7abe 29bd 844b b03d
00000340: 26cf 2c3e bf89 743e 8a13 773e 7c17 8fbe
00000350: 53ef a7bd e6bc 81be 23c4 dd3d 4011 ebbc
00000360: 4ca9 983e 3683 2cbe 3f70 febd d241 22be
00000370: be19 c0be b284 a3bc 6256 793e 24a1 7b3d
00000380: 2c33 4b3e 39fa 8c3e 6f1e 64be dba7 dfbc
00000390: f633 e6be caed 713e 4312 00bf 16d4 dbbd
000003a0: 67ba 423e 86f1 353e de06 21be 9acc 643d
000003b0: 36d0 babe 2473 30bf 7478 c1be 4ab1 02be
000003c0: 7897 3d3d 750b b2be 09cc 91be 0ccb f33e
000003d0: ee1e 553e ed1f 0a3e f0e0 aabb d6ad 873d
000003e0: 4c7c f13d 16dd 93bd 5fb9 0e3f 1bf2 1b3b
000003f0: a07f 96be 4a30 8dbe e177 333d 585a 573e
0.5142999 0.29945824 0.15807614 -0.108594835 -0.06317155 -0.105380535 0.08154991 0.19732346
0.1977363 -0.23690902 -0.40353128 -0.13003509 0.25659043 0.59151983 0.16734889 -0.2067145
-0.44244182 -0.35519385 0.10818457 -0.0055956054 0.15603878 0.10009504 0.10479415 -0.09258927
0.090379044 0.11244393 0.11889663 0.010813171 -0.3783998 -0.23423852 0.19036305 -0.094846286
0.10857971 -0.18085022 0.0126898745 -0.25435567 -0.104264095 0.047919594 0.038397007 0.11878724
-0.43692157 -0.07910331 0.2429537 -0.12786806 -0.08850657 0.13785177 -0.0056456574 -0.026048928
-0.034315526 0.1265984 0.28674734 -0.21971376 -0.6097989 -0.41703162 0.3718015 0.35018247
0.4578776 0.4285129 0.15663625 0.34451047 -0.097780675 0.35340247 0.3268191 0.31692475
-0.34653613 -0.36101282 0.15488663 0.24634804 -0.019995619 -0.33310378 0.079019815 -0.4581139
-0.18890035 -0.30397767 0.049983177 -0.0028872814 -0.03624829 -0.014124127 0.03602058 0.048036
0.062529564 0.017326863 -0.015881047 -0.03412439 0.02356017 -0.0599817 -0.041866124 0.019967515
0.027096823 -0.056311164 0.034010626 -0.04597613 0.057179403 0.014812344 -0.026509423 0.011831237
-0.006906858 -0.03969688 -0.010859769 0.016633036 -0.20557281 -0.031682268 0.059669018 0.36267126
-0.29622325 0.15474075 -0.24781205 -0.5370039 -0.12237565 0.16187678 -0.23077491 0.11687764
-0.15749303 -0.39845955 -0.09454128 0.09770956 0.067992106 -0.15917848 -0.015248284 -0.032796927
0.35047182 0.057282247 -0.1465279 0.13941154 -0.090341285 -0.117688864 -0.15408747 -0.27471364
-0.29682696 0.45810193 -0.26893482 -0.11127596 -0.02770937 0.1795151 -0.64286923 -0.105636545
0.04953006 -0.07931254 0.39514822 0.20164213 0.48160952 0.13095577 -0.18273038 0.015391357
-0.25806788 0.07419001 0.07428476 -0.26757553 0.023050059 0.16632405 0.3934548 0.09873219
-0.1162476 0.2915295 -0.1262646 -0.023156332 0.15347725 -0.8949103 -0.13994649 0.10505117
-0.17087847 0.5079274 0.40981105 -0.26292923 -0.35415882 -0.11118901 -0.32550386 0.014828581
0.14928813 0.08124854 -0.51382494 0.29329062 0.051754273 0.037390888 0.11063545 -0.15687649
-0.28425702 0.048517972 0.31472653 0.2457033 0.07611412 -0.27893984 0.03135546 -0.48315346
-0.008333566 -0.054839365 0.11627157 0.50576705 0.17631108 -0.32082132 0.47473246 -0.0017917543
0.09660504 -0.14292747 -0.22816287 0.3634414 -0.04650068 -0.11597706 -0.06297971 0.07532667
-0.46367222 -0.1531146 -0.15788001 -0.11854783 -0.058906995 0.072292894 -0.04144142 0.086081535
0.16875896 0.23880671 0.24128547 -0.27947605 -0.08199944 -0.2533943 0.10828426 -0.028694749
0.29816663 -0.16846928 -0.12423753 -0.15845421 -0.3751964 -0.019960735 0.24349359 0.061432973
0.1984374 0.27534655 -0.22277234 -0.02730172 -0.44961518 0.23625866 -0.50027865 -0.107338116
0.1901642 0.17767915 -0.15725276 0.055859186 -0.36486977 -0.6892569 -0.3778721 -0.12762943
0.04628703 -0.34774366 -0.2847598 0.4761585 0.2081258 0.13488741 -0.005214803 0.066249534
0.11791286 -0.07219903 0.55751604 0.002379543 -0.29394245 -0.27575904 0.043815497 0.21030557

feature_extractor.3.bias f4 [20]
00000000: f733 d7be 5bc7 82bc cc55 c5be e78d 653e
00000010: ef05 43bf 754e a4bc 01c5 1bbf fcb7 89be
00000020: 8f40 05be dc14 373e aa37 90be f531 78bd
00000030: af4b d1be 8ab8 84be 8964 72bd 91be 733c
00000040: 1677 643e 470e 91bc 1ea8 b33d c44e f2bc
-0.42031834 -0.0159642 -0.3854202 0.22417413 -0.7618093 -0.020056942 -0.6084748 -0.2689818
-0.13012908 0.17879051 -0.28167468 -0.060594518 -0.40878054 -0.25922042 -0.05917791 0.014876978
0.22311053 -0.017707003 0.087723 -0.029578574

classifier.0.weight f4 [50, 320]
00000000: 9beb 1bbb 10a0 fbbd b825 06be 0afa 07be
00000010: 8013 a5be bf81 72be 4e97 26be 93f0 4e3e
00000020: b641 35be f0d3 223e 4d22 283e ff58 6b3b
00000030: 825f 17bd aaa0 d6ba 080a 43be b9ca ba3d
00000040: a0fb 4bbe 9406 4abd 5507 1cbe 2f58 d0bd
00000050: 3d14 2c3e 92bb 553e 8f28 333d de8d b33c
00000060: 11a0 b13d bbe0 1b3e 13de 253d 32f9 a9be
00000070: 99bd a2be 9efc 8bbe 0563 59bd 6f84 ddbd
00000080: b143 173e 5490 8b3e 6be7 4dbe f3a0 643c
00000090: 48a7 9abe 1e44 313d c1ae 29be 7a99 7fbe
000000a0: b50b b3bd b4da 0bbe a4bc 6e3e ed40 82be
000000b0: 6e81 123d bba3 643e c399 10bd 0323 8fbd
000000c0: decf bc3d bfcf 26bd 19b2 73bb bc83 863d
000000d0: 2fbd 92be 7559 813d ed0f 95bd ff03 fe3d
000000e0: b7e2 ae3d 72b9 363d 1827 c3bd 4ad2 7bbc
000000f0: c213 82be 6add 263e 36bc 0dbe fd4b acbd
00000100: 2480 533e 928a 7fbd 018e 24be ddfe a43d
00000110: 48b2 c3bc 72f9 b23e b8ff 853d 3335 0fbe
00000120: 8cd2 483e dd33 633e 97bf 863c 104e 653e
00000130: 5889 97be 1b80 833b 7609 90bd ef99 8abe
00000140: 740c ebbe c588 08be ef71 c33d 0089 56be
00000150: 2986 83be 8c61 98bc 283d 17bb c80d 0cbe
00000160: 6db9 4a3e 86b4 803e 8d1a 733e 0d0a 04be
00000170: f2d5 5cbc 25bd 4cbd c2e4 8bbd ce2a ed3e
00000180: 3662 273e 4d39 2b3e 01f4 8cbd c042 8e3c
00000190: 97dc c2be 05c9 30bd 0e08 2cbd 71a0 c3be
000001a0: 7350 633e 5b33 30bb cc26 86bd 6525 a43e
000001b0: 0b6a 0dbe 2cfe e93d 5e99 a4bc f53e 003d
000001c0: eb6d 7a3d 1f87 d53c 8d06 293c 2dc2 443e
000001d0: d4e8 0bbe 33bc f7bc 642e 953d 5e9f 7cbe
000001e0: 9fc9 9dbe c458 993d f4ee f63d c858 7fbe
000001f0: 09e3 2dbd 778f 293e 19ce 42bd 2053 9d3e
00000200: 8e17 a5be a6f8 6c3d b72e b5bd 66a4 55be
00000210: 6602 b8be c7e7 85bd 3c77 80be e0ff c1be
00000220: ed2c a03d 9074 3a3e 6e78 5b3d 2c99 72be
00000230: a9bf 173e cf9f 453e 3680 353e 2b47 ec3d
00000240: ba31 11be 124c d63d 24ea 883e aee1 d93d
00000250: d84f f73e a7ba 4abe 9b6d 943b 4ca7 e7bc
00000260: 355e 2f3e 7855 9ebe 57eb 91be ba42 42bb
00000270: 1f56 0fbe b5cf 423e 5aed 073d 26c5 94bd
00000280: 9683 803e 5750 c0bb 2015 e63d 8604 15be
00000290: f408 f2bc 9a35 5d3e 4bb4 1a3c e6a6 b43d
000002a0: 2e9e edbe da22 35be b0b9 b8bd fdc6 bebd
000002b0: 2ac4 cbbe 68d4 29be 3b4b f6bd 1539 01bf
000002c0: 7552 313d c204 583e 6624 bd3d 01d1 bd3e
000002d0: 9734 f1be cc82 86be ee17 ad3d 84d4 7ebe
000002e0: 98c2 0fbf 83be 93be adeb 6dbe 1139 94be
000002f0: 08fd 093e 7873 8b3e f4fa 783e 161b f03d
00000300: 13a0 c8be c3b4 dbbd 5365 003d 32b6 9ebe
00000310: a3fd 0bbd 2e86 d239 54a8 843e 4f99 883d
00000320: bf78 8c3c ad01 793e fe85 483e 4d10 e43c
00000330: 70b8 7ebe 56eb 143b 0d17 e0bd ceed 84be
00000340: 86f5 40be a767 a7be c0be 4abe 2ea7 0c3d
00000350: c255 55be 77a3 b53d ed28 8b3d b739 fd3d
00000360: 8004 29be bd18 6d3e 5992 613e 7d55 e73d
00000370: aaaf ffbe 5af5 da3d 7a79 b3be 90d6 7a3c
00000380: 7ca4 a93e 57f8 84bc 48be 3b3e a255 bd3e
00000390: c604 7ebe de49 fb3d dec7 73be 8db9 19be
000003a0: baf0 d4be 3401 97bd 08f0 6dbe 37e8 d0be
000003b0: fd0f b63d acab d3bc b3e9 c63d 0740 debc
000003c0: 2a15 b43e 5593 f93d fd45 d63d 830a 903c
000003d0: 6ef0 2e3e 5074 1a3d a59b 853d cbbe 79bd
000003e0: 935c 39be 72fe a4be 7d92 93bd b4ea 433d
000003f0: 0d9b 8a3e 830c 70bd fbbd 7ebd 45bf 2dbe
-0.0023791555 -0.12286389 -0.13100326 -0.13278976 -0.3224144 -0.23682307 -0.16268656 0.2020896
-0.17700848 0.1590116 0.16419335 0.00359112 -0.036956318 -0.0016374786 -0.19046795 0.091206975
-0.19920206 -0.04932268 -0.15237172 -0.1017307 0.16804595 0.20872334 0.04373985 0.021918233
0.08673108 0.15222447 0.04049499 -0.33197933 -0.31785277 -0.2734117 -0.053072948 -0.10816275
0.14771916 0.2725855 -0.2010781 0.013954389 -0.3020575 0.043277852 -0.1657057 -0.2496089
-0.08742467 -0.13657647 0.23314148 -0.2544016 0.035767965 0.22328083 -0.03530289 -0.069891
0.09219335 -0.040725466 -0.0037185012 0.06568095 -0.2865996 0.06315891 -0.07278428 0.12403106
0.08539336 0.04461045 -0.09528941 -0.015369961 -0.254057 0.162954 -0.13841328 -0.08412931
0.2065435 -0.06238801 -0.16069795 0.08056424 -0.023888722 0.34955937 0.06542915 -0.13985138
0.19611567 0.22187753 0.016448779 0.2239306 -0.29596972 0.004013074 -0.070330545 -0.27070567
-0.45907938 -0.13333423 0.095432155 -0.20950699 -0.25688294 -0.018601201 -0.0023077223 -0.13677132
0.19797297 0.25137728 0.23740597 -0.12894459 -0.013478743 -0.04998507 -0.068307415 0.4632172
0.16346058 0.16721077 -0.068824776 0.017365813 -0.38058922 -0.043160457 -0.04199987 -0.38208345
0.22198658 -0.002688608 -0.06550369 0.3205978 -0.13809983 0.114254326 -0.020092662 0.03131004
0.061139982 0.026065407 0.010316503 0.19214697 -0.13663036 -0.030241108 0.07284239 -0.24670169
-0.30817887 0.07487634 0.120572954 -0.24936211 -0.042452846 0.16558634 -0.04755983 0.30727482
-0.32244533 0.057854317 -0.08846801 -0.20863494 -0.3593933 -0.06538349 -0.2509097 -0.3789053
0.07821069 0.18208528 0.053581648 -0.23691243 0.14819206 0.19299243 0.1772469 0.11537012
-0.14179125 0.10463728 0.26741135 0.10638748 0.48303103 -0.19797765 0.0045296676 -0.028278016
0.17125781 -0.30924582 -0.28499863 -0.0029641823 -0.13997696 0.19024546 0.03318534 -0.072641656
0.25100392 -0.0058689523 0.11234498 -0.14552507 -0.029545285 0.21602479 0.009442399 0.08820896
-0.46409744 -0.17689076 -0.09019792 -0.09315298 -0.397981 -0.16584933 -0.12026068 -0.50477725
0.043291528 0.21095565 0.09235458 0.3707352 -0.47110435 -0.26271665 0.0845183 -0.24885756
-0.561563 -0.28856286 -0.23234434 -0.28949788 0.1347543 0.27236533 0.24314481 0.11723916
-0.39184627 -0.10727837 0.03134663 -0.3099838 -0.034177434 0.00040154293 0.25909674 0.06669866
0.01714742 0.24317046 0.19582364 0.027839804 -0.24875045 0.002272328 -0.109418966 -0.2596268
-0.1884366 -0.32696268 -0.19799328 0.034339122 -0.20833495 0.08869069 0.06794915 0.12364524
-0.16505623 0.23153968 0.22028483 0.112956025 -0.4993871 0.10691328 -0.35053617 0.015309945
0.33133304 -0.016231699 0.18334305 0.36979395 -0.24806508 0.122699484 -0.23806712 -0.15012188
-0.4158991 -0.07373276 -0.23236096 -0.40802166 0.08889768 -0.025838695 0.09712543 -0.02713014
0.35172397 0.121863045 0.10462568 0.017583137 0.17083904 0.03770858 0.065238275 -0.06097297
-0.1810172 -0.32225376 -0.07205675 0.047831252 0.2707142 -0.058605682 -0.0621929 -0.16967495

classifier.0.bias f4 [50]
00000000: 8b28 583d a8e3 f63d 1d9d 9a3d a479 493e
00000010: afed bc3e 1758 ce3e 17bb fabe e005 e3bd
00000020: cb18 733e a52d 5d3e 8b7b aa3e 32ad babe
00000030: 58b5 93be 9734 033f 5b44 973e e9d0 463d
00000040: 967f 043e 5ffc 20be e6ee 113f 8005 26be
00000050: 94d8 f23e 99c4 983e 9436 35be 9451 cc3e
00000060: b0b8 d93e 57d0 8cbc 0fed c23e c46c 1d3d
00000070: 7a15 3b3f 3069 67bd a463 053f 42b6 9bbd
00000080: 25f8 d2be 959b 97be 30b9 a83e 6fa4 b03e
00000090: 9195 3f3f 00b7 113f 1f42 8c3e 1f27 85be
000000a0: 715f d33e 1390 f63e b946 dd3e db3b 453f
000000b0: 7255 52bc 3d57 39bf 5bcb 113b 304e d9bd
000000c0: 27f3 0fbf e1af 163f
0.05277304 0.12055141 0.07549498 0.19675308 0.36900088 0.40301582 -0.48970863 -0.11085105
0.23739927 0.21599443 0.3329738 -0.36460263 -0.28849292 0.5125212 0.2954434 0.048539076
0.12939295 -0.15721272 0.57005155 -0.16213036 0.4743086 0.29837492 -0.17696601 0.3990599
0.42523718 -0.017189188 0.38071486 0.038433805 0.73079646 -0.0564968 0.52105165 -0.07603122
-0.41204944 -0.29610887 0.32953787 0.34500453 0.74837595 0.5691986 0.27394196 -0.2600641
0.41283754 0.48156795 0.4321802 0.7704446 -0.012837755 -0.7239874 0.0022246453 -0.10610616
-0.56230396 0.5886212

classifier.3.weight f4 [10, 50]
00000000: ffed cf3d 097f b9be 3a61 83be ea31 ea3d
00000010: f3be 95be 7602 97bd 5dcb ba3d cef3 c3bd
00000020: 5a0f 01be 1fd8 c03d 7beb 69bd c53c fd3d
00000030: 9db9 a6bb 2456 97be 1332 06be 846a 4d3d
00000040: e76c 973d b5e2 27be 7d09 d5bd 3bb1 de3d
00000050: aa2c a33d 2df9 023e bc4e 9dbd b4c7 2dbe
00000060: 14ae 1fbe 89f4 52be 75aa fe3d b2de 8d3b
00000070: fcf7 f1bd 2238 50be e5f6 7bbe 2cfd d23d
00000080: f98c cb3d 9d98 3dbd e619 8ebe 62ba a53d
00000090: 0739 59be 5fa7 06be 1dfb 803d 6421 25be
000000a0: 24b1 503d 2934 b2bd 9436 dd3a 671c 1dbf
000000b0: 421e fd3d c6ef b6bc 28bb 073d d9fc b6bd
000000c0: 597a 87be a48d 15bd efeb 0bbe 8064 ab3d
000000d0: f075 25bb 2700 7abd 42e2 cd3d 3701 723d
000000e0: 641d 4d3d 7a0f b3bd a7cd f43d e6d0 a53d
000000f0: b2d5 73bc 982b 0cbd 92ed 03bd bea2 42bd
00000100: 247a 82bc 7a8c d63d 1a39 8dbd a0c8 03bd
00000110: e234 023e 5fb4 57be 4eed c93d dfce 493d
00000120: cc6f 09be d2fb d6bd 5d39 d5bd 6613 1f3e
00000130: 888a d53d fc1b f13c a8c7 e73c 5721 9fbc
00000140: 4c7e 21be 299b 71be 684d debd d3af 45be
00000150: 200c 043e 0a3a f6bd 621a 103e dfca 613d
00000160: ce1c 0dbe f452 c63d f340 cabe 3be9 ff3d
00000170: 60b3 003e f81a 4b3e 4da1 20be 5153 54be
00000180: f8e7 d3be d437 92be b8bd cebd b8cc 133e
00000190: 29ae e83d 2c18 d4bd fc2a 0bbe 498a d13d
000001a0: 3cb2 30bd 9b8b 57bd 9344 c13c fd75 83bd
000001b0: 8226 1e3e ebbb ba3d 4c87 c13d 1192 b63d
000001c0: 1e6e 1a3e 4743 c1bc 2f96 d63d c5fb fcbd
000001d0: 4534 2a3d bea5 a43b 5790 fb3d f8c6 e7bd
000001e0: 1e00 33be 685c 8a3d 5e48 74bd 3067 27bc
000001f0: f756 c43d 1262 b0bd 2515 b73d e187 e13d
00000200: 0c0f aa3d 6882 fb3d 1c1c 983c 8e65 ad3d
00000210: ff32 bbbd 5d2f aa3d 2954 cbbd a248 babd
00000220: 6786 073e bb8b 7b3d e482 963d b5c7 4ebd
00000230: 95c5 9bbd 1916 073e 1728 1fbd 169b a9bc
00000240: bc1d d23d d2a9 64bd 6d7f 59be 0bbd 4abe
00000250: 02de a0bd 8642 5cbd aa8f debd d3df a6bc
00000260: bca4 07be c3d5 bdbc d046 8fbe 7cd6 9bbe
00000270: 5cca 033e e4ce d83d 14a8 183e 111b b3bd
00000280: e765 f4bd 9db9 e93d ebac 0a3e 256c 193e
00000290: 1a71 d73d 6c7a eabd 3468 d2bd 6d32 193e
000002a0: 2e39 4cbd ccd2 a9bd 618e febd dd57 083e
000002b0: 4619 00bd 5bb1 de3d 21e3 f1bd e790 e0bd
000002c0: 2dc3 96bd a23f e33d 4b61 9cbd 7722 0a3e
000002d0: cdab bcbc 8453 9e3d 0def b3bc 8f01 0abe
000002e0: c704 c0bd 8473 acbd 7af0 89bc e0c4 593d
000002f0: 7b95 23bd 854b c63d 6ec8 0fbd 579c 063e
00000300: 2d1e 82bd 7497 39b9 c608 4a3c 7b88 ce3d
00000310: f382 13be eb99 32be 4554 d23d 4563 4fbd
00000320: 81be 173e 664c aebc ea7b e13d 76b4 22be
00000330: 6c0e bd3d 51e7 813d cb7e efbc 375c 7ebd
00000340: 934d 06be a09d ba3b ae55 d83d 6ed1 e83d
00000350: b8d2 2ebd 63fb 1a3e bc53 c33d efa2 bc3d
00000360: 65b5 893d 9b7d 043e 6178 b23c d30e 45bd
00000370: 819a 07be fced 08be 7e03 bf3d 2aa5 c33d
00000380: 3a34 703d 4087 203e 0afb 06be 15ec f1bd
00000390: ac6c d5bd cd2f 82bd 4f27 e03d e860 2abe
000003a0: d6ea e93c 74e1 c43d 5f35 f23d 0ebe 03be
000003b0: 9be1 a0bd fe21 9abd fb84 80bd 82e6 06be
000003c0: 5dc4 bfbd a282 d2bd 4520 febc ec3f 3d3e
000003d0: 3c29 31bd 6e21 b5bb de0a 0ebe 04fb 783d
000003e0: 513f e63d d22a 0b3e 9ebd 523c b099 82bd
000003f0: 64ea 00be 5111 033e 66d7 b6be a398 ffbd
0.10152816 -0.36229733 -0.25660115 0.114353016 -0.29247245 -0.07373516 0.0912082 -0.095679864
-0.12603512 0.09416222 -0.057109337 0.123651065 -0.005088045 -0.29557908 -0.1310504 0.05015041
0.07393818 -0.16395076 -0.104022 0.10873648 0.07967503 0.12790366 -0.07681033 -0.16970712
-0.1559375 -0.20601095 0.12434856 0.004329526 -0.118148774 -0.20333913 -0.24605902 0.10302195
0.09938998 -0.04628812 -0.27754134 0.0809219 -0.2121316 -0.13149785 0.06297896 -0.16126019
0.050950184 -0.08701355 0.0016877227 -0.61371464 0.12359287 -0.02233113 0.03313747 -0.089349456
-0.2646053 -0.036512032 -0.1366422 0.08368778 -0.0025247298 -0.0610353 0.10052921 0.05908319
0.050076857 -0.08743186 0.119532876 0.08096485 -0.014882492 -0.03422126 -0.032208987 -0.047518484
-0.015927382 0.104760125 -0.06895657 -0.032173753 0.12715486 -0.210649 0.098597154 0.049269553
-0.13421553 -0.1049725 -0.10411332 0.15534744 0.10426813 0.02943229 0.028293446 -0.019425077
-0.15770835 -0.23594345 -0.10854608 -0.19305353 0.1289525 -0.12022789 0.14072564 0.055125114
-0.1378052 0.09683791 -0.39502677 0.12495657 0.12568426 0.19834507 -0.15686531 -0.20734908
-0.41387916 -0.28558218 -0.1009478 0.14433563 0.113613434 -0.10356173 -0.13590616 0.10231454
-0.043138728 -0.052623373 0.023592269 -0.06418989 0.15444377 0.09117874 0.09449634 0.08914579
0.15081069 -0.02359165 0.10477864 -0.12352709 0.041553754 0.005024641 0.1228339 -0.11317247
-0.17480513 0.06755906 -0.059639327 -0.010217473 0.095869 -0.086124554 0.0893958 0.11012245
0.08303651 0.122807324 0.018568091 0.08466636 -0.09140586 0.08309815 -0.09928162 -0.09095885
0.13234864 0.061412554 0.07349184 -0.050483424 -0.07606045 0.13192023 -0.038856592 -0.020703834
0.10259578 -0.055826016 -0.21240015 -0.19798677 -0.07854845 -0.05377438 -0.108672455 -0.0203704
-0.13246435 -0.023173219 -0.27983713 -0.30437076 0.12870163 0.10586336 0.14907867 -0.08745397
-0.11933499 0.11412356 0.13542525 0.1498266 0.10519619 -0.11449131 -0.102737814 0.14960642
-0.04985922 -0.082921594 -0.124295 0.13314767 -0.031274103 0.108736716 -0.118108995 -0.10965138
-0.073614456 0.11096121 -0.07635745 0.1348971 -0.02303114 0.07730773 -0.021964574 -0.13477157
-0.09375911 -0.0842047 -0.016838301 0.05316627 -0.039937478 0.09682373 -0.035103254 0.13145576
-0.06353412 -0.00017699396 0.012331193 0.10084625 -0.14405422 -0.17441528 0.102699794 -0.05063178
0.14818765 -0.021276664 0.11009963 -0.15889153 0.092312664 0.06342948 -0.029235264 -0.06209966
-0.1311553 0.00569506 0.10563217 0.113680705 -0.042681426 0.15134959 0.095374554 0.092107646
0.067240514 0.1293854 0.021785917 -0.04810984 -0.13242532 -0.13372034 0.09326838 0.09552987
0.058643557 0.15676594 -0.13181701 -0.11812607 -0.10421118 -0.063567735 0.109449975 -0.1663853
0.028554361 0.09613314 0.11826586 -0.12865469 -0.07855531 -0.07526015 -0.06275364 -0.13173869
-0.09363625 -0.102788225 -0.031021247 0.18481416 -0.043252215 -0.005527667 -0.13871333 0.060786262
0.112425454 0.13590553 0.012862591 -0.0637697 -0.12589413 0.12799574 -0.3571121 -0.12480285

classifier.3.bias f4 [10]
00000000: 7b83 743f f1ad 2e3f d0c0 8bbe 40cd 2fbd
00000010: 31ca 12bf 7067 d3bd f941 73bd c1e1 26bf
00000020: b0dd db3e 5845 58be
0.95513123 0.68234164 -0.27295542 -0.04292035 -0.5733977 -0.103224635 -0.05938909 -0.65188223
0.42942572 -0.21120203
