day2/domain_adaptation/revgrad_14.pt (torch_old, 91045 bytes, 8 tensors)

feature_extractor.0.weight f4 [10, 3, 5, 5]
0	0x3e40c0c6	0.18823537
1	0x3c9f3c09	0.019437807
2	0x3d0de6a6	0.03464379
3	0x3df4fc14	0.119621426
4	0x3d181780	0.037131786
5	0xbd1a32a7	-0.037645962
6	0xbe3a35fa	-0.18184653
7	0xbdf3ff13	-0.11913886
8	0xbe94c6a9	-0.29057816
9	0xbe17990e	-0.1480448
10	0xbe1758ce	-0.1477997
11	0x3bd5842e	0.006516001
12	0xbde09a9b	-0.10966989
13	0xbd05c41b	-0.032657724
14	0x3e08ec57	0.13371406
15	0xbe3ab625	-0.18233545
16	0xbd252a2f	-0.040323433
17	0xbd968387	-0.073493056
18	0x3d4b0fec	0.04957573
19	0xbc1805c3	-0.009278717
20	0xbdaa19c2	-0.08305694
21	0xbdd64f13	-0.10464301
22	0x3e18d053	0.1492322
23	0x3d3e8598	0.046514124
24	0xbd6998fa	-0.057030655
25	0x3e406095	0.18786843
26	0x3c077bb9	0.008269244
27	0xbe04d5f9	-0.12972249
28	0x3c4cbc45	0.012496059
29	0x3db84be6	0.089988515
30	0xbe4a2893	-0.1974204
31	0xbdd66404	-0.10468295
32	0xbe366cee	-0.17814991
33	0xbe78f72f	-0.24313043
34	0xbdda8dec	-0.10671601
35	0xbe2b0cfa	-0.16704169
36	0xbe00f514	-0.1259349
37	0xbdaeeffb	-0.085418664
38	0xbe0d1078	-0.13775814
39	0x3bbbaf45	0.005727681
40	0xbe402085	-0.18762405
41	0xbe4de322	-0.20106176
42	0xbe30ec91	-0.17277743
43	0xbe964241	-0.29347423
44	0xbd2be839	-0.04196951
45	0xbeb75976	-0.3581044
46	0xbe76f459	-0.24116649
47	0xbe04890b	-0.12942903
48	0xbe398c4f	-0.1811993
49	0xbdf1ea5f	-0.11812281
50	0xbe8dbc05	-0.2768251
51	0xbe11347d	-0.14180179
52	0xbe8079aa	-0.25092822
53	0x3b69390a	0.0035586976
54	0x3ccc4ef2	0.024939988
55	0x3de6c616	0.11268251
56	0x3e3c0899	0.18362655
57	0x3e4a62dc	0.19764274
58	0x3e1857cd	0.14877243
59	0x3dec494f	0.1153742
60	0x3e8e9c47	0.27853605
61	0x3ef24743	0.47319993
62	0x3f094670	0.53623104
63	0x3ef5f66a	0.48039562
64	0x3e507266	0.2035614
65	0x3ecee8d1	0.40412
66	0x3f043945	0.51649886
67	0x3f11d0cb	0.5695922
68	0x3e973b21	0.295373
69	0x3e521000	0.20513916
70	0x3ede1a5e	0.43379492
71	0x3f0769fb	0.5289609
72	0x3ebe150f	0.3712544
73	0x3ea98bf3	0.33114585
74	0x3e2436fd	0.16036601
75	0xbdef0028	-0.11669952
76	0xbc9f1c3a	-0.01942264
77	0xbd1c3e5d	-0.03814541
78	0xbd6797ea	-0.05654136
79	0xbde326c6	-0.1109138
80	0x3c812120	0.015762866
81	0xbd8c7276	-0.06857769
82	0xbdc9164c	-0.09818706
83	0xbd2a9096	-0.041641794
84	0x3c11af99	0.008891963
85	0x3e155b51	0.14585616
86	0xbdf1519d	-0.117831446
87	0x3db429b9	0.087970205
88	0xbd822a86	-0.06355767
89	0xbba08b63	-0.0048994287
90	0xbccf9bd6	-0.025342863
91	0xbd839906	-0.06425671
92	0x3d0fd2c7	0.035113122
93	0xbd43bf9b	-0.04779015
94	0x3dbf9c19	0.09355945
95	0x3c56faa1	0.013121278
96	0x3d3537b2	0.04424257
97	0xbdb5d349	-0.0887819
98	0x3d13fcb6	0.036129676
99	0x3dd2d4ac	0.1029447
100	0xbd5da837	-0.0541155
101	0xbd560984	-0.05225517
102	0x3d9d6ad2	0.0768639
103	0xbc8a2eea	-0.016868073
104	0x3dbbc8af	0.09169137
105	0xbc77add0	-0.015117124
106	0xbe50b137	-0.20380102
107	0x3cd9ee9f	0.026603041
108	0x3c98d283	0.018655067
109	0x3d5fba62	0.054621108
110	0xbd9687cc	-0.0735012
111	0xbd99900e	-0.074981794
112	0xbe1a0040	-0.15039158
113	0x3ca83976	0.020535212
114	0x3d8d04d0	0.068856835
115	0xbd7c18b4	-0.061546996
116	0xbbbac271	-0.0056994488
117	0xbdb0cfca	-0.086333826
118	0x3dd8d493	0.1058742
119	0xbd963222	-0.07333781
120	0xbdc97c73	-0.0983819
121	0x3c9152cc	0.017739676
122	0xbdc6aa01	-0.097003944
123	0x3e2913df	0.16511486
124	0x3d88b3b7	0.06674903
125	0x3ecb5240	0.3971119
126	0x3e6cd561	0.23128273
127	0x3e506ad3	0.2035325
128	0x3e9c16c8	0.3048613
129	0xbe1ce075	-0.15319999
130	0x3eac0fb3	0.33605728
131	0x3e6553b2	0.22395208
132	0x3e8cccc3	0.2749997
133	0xbd41d378	-0.047320813
134	0xbe8b506e	-0.272098
135	0x3ea180d5	0.31543604
136	0x3e7394d0	0.23787236
137	0x3e807dfc	0.25096118
138	0xbe97a01b	-0.29614338
139	0xbf3df9c5	-0.74209243
140	0x3e71cd06	0.23613366
141	0x3e9085f1	0.2822719
142	0x3d9891e4	0.074497014
143	0xbe84e9cb	-0.2595962
144	0xbf10a127	-0.564959
145	0x3d8e6834	0.06953469
146	0x3d60b04d	0.054855634
147	0xba4c7382	-0.00077991944
148	0xbe51574f	-0.20443462
149	0xbe9eda7d	-0.31026068
150	0xbd8398cf	-0.0642563
151	0xbcb457fb	-0.022014609
152	0x3dc32449	0.09528405
153	0x3e145771	0.14486481
154	0x3d9fd093	0.07803454
155	0xbcdbf637	-0.026850803
156	0x3d9b7b15	0.075918354
157	0xbdb7637f	-0.08954524
158	0x3e2cf87d	0.16891666
159	0xbd62c143	-0.05536009
160	0xbd50e150	-0.050996125
161	0x3cd3a8b9	0.02583729
162	0xbd86906c	-0.06570515
163	0x3e263cdc	0.16234154
164	0x3c3f5ec8	0.011680312
165	0xbca5f059	-0.020256208
166	0x3e0e7f88	0.13915837
167	0xbe33cb74	-0.1755808
168	0x3e215965	0.15756758
169	0xbd1745d4	-0.036931828
170	0x3de3a74f	0.11115896
171	0x3ddcc9d5	0.10780684
172	0xbd45f92a	-0.048333324
173	0x3dacaa33	0.084309004
174	0xbd200113	-0.039063524
175	0xbe290a5e	-0.16507861
176	0xbdde6cb0	-0.10860574
177	0x3c838fa9	0.016059713
178	0xbdbfaffc	-0.09359738
179	0xbd421d29	-0.04739109
180	0xbe15a360	-0.14613104
181	0xbe2cdea3	-0.16881804
182	0xbe3feda0	-0.1874299
183	0xbe2f18b5	-0.17099269
184	0xbdef265a	-0.11677237
185	0xbe4f995a	-0.20273343
186	0x3d21ec36	0.03953191
187	0xbe6526eb	-0.22378127
188	0xbcce662e	-0.025195207
189	0xbe9a9a83	-0.30196008
190	0xbe0af828	-0.13571227
191	0xbd5096c2	-0.050925024
192	0xbdc1552c	-0.09440073
193	0xbbe9e4fe	-0.0071378937
194	0xbe48418e	-0.19556257
195	0xbe7b6317	-0.24549519
196	0xbd2e60e9	-0.04257289
197	0xbe3b5491	-0.18293978
198	0xbd8b9eb9	-0.06817383
199	0xbdcfd869	-0.10148699
200	0x3eb5fa66	0.355426
201	0x3ebcbbc5	0.36862007
202	0x3d9e7593	0.07737269
203	0x3e1b7730	0.15182185
204	0xba9fad49	-0.001218238
205	0x3e49f123	0.19720893
206	0x3e6c627c	0.23084444
207	0x3e4b79af	0.19870637
208	0x3e0d81d7	0.13819061
209	0xbe7bf205	-0.24604042
210	0x3e1558db	0.14584677
211	0x3e8e919d	0.2784547
212	0x3e63f252	0.22260407
213	0x3ea12592	0.31473976
214	0xbd51a4dc	-0.051182613
215	0xbce5f443	-0.028070575
216	0x3e83cf96	0.25744313
217	0x3e3f99d8	0.1871103
218	0x3eabea58	0.33577228
219	0x3e3f0904	0.18655783
220	0xbde3bde7	-0.111202054
221	0x3db2a9df	0.087238066
222	0x3e96d17b	0.29456696
223	0x3ebf0409	0.37307766
224	0x3e9fc1c8	0.3120253
225	0xbe0935a4	-0.13399369
226	0xbda85fc4	-0.08221391
227	0xbd01ced3	-0.031691384
228	0xbd9e1b65	-0.07720069
229	0xbd0433a9	-0.03227583
230	0x3da5cf6e	0.08096205
231	0xbc3bfc73	-0.011473763
232	0x3c9d7d91	0.019224914
233	0x3c66caae	0.014086409
234	0xbda0c574	-0.07850161
235	0xbe13c5a4	-0.14430863
236	0xbd7c62df	-0.06161773
237	0x39b1e14d	0.00033927933
238	0x3d88740e	0.06662761
239	0xbd87a2c1	-0.0662284
240	0xbbb00c12	-0.0053725326
241	0x3b04d8fd	0.0020270937
242	0xbd20e63a	-0.03928206
243	0x3dbace8a	0.091214254
244	0xbd91da97	-0.07121771
245	0xbd06287e	-0.03275346
246	0x3d1927b7	0.03739139
247	0xbe066bc5	-0.13127048
248	0xbc44e632	-0.012017773
249	0xbc912025	-0.017715523
250	0x3d8fa5c6	0.07014041
251	0xbc53678a	-0.012903104
252	0xbd545b81	-0.051845077
253	0xbcee2575	-0.029070595
254	0xbd940db5	-0.07229177
255	0xbd8e02bc	-0.06934115

feature_extractor.0.bias f4 [10]
0	0xbf10fd75	-0.56636745
1	0xbe3e7cbf	-0.18602274
2	0xbf585ef4	-0.84519887
3	0xbdb1a420	-0.086738825
4	0xbf028aea	-0.50993216
5	0xbec98d12	-0.3936544
6	0xbcbf9c9a	-0.023390103
7	0xbdda0335	-0.10645143
8	0xbef1f8c0	-0.47260094
9	0x3ac7a6d0	0.0015232209

feature_extractor.3.weight f4 [20, 10, 5, 5]
0	0x3ec0a64a	0.37626868
1	0x3e958e9c	0.29210365
2	0x3dee9287	0.116490416
3	0xbe5352b0	-0.20637012
4	0x3d6431e0	0.055711627
5	0xbda3a066	-0.07989578
6	0x3e7717b8	0.24130142
7	0x3e7548f1	0.23953606
8	0x3ce75d04	0.028242595
9	0xbe934b7c	-0.28768528
10	0xbec6f8c0	-0.38861656
11	0xbd67bf8f	-0.05657917
12	0x3e7889a8	0.24271262
13	0x3ead1f95	0.33813158
14	0x3db8184e	0.08989011
15	0xbe9684f5	-0.29398313
16	0xbea960f1	-0.33081773
17	0xbe191925	-0.14950998
18	0x3cde5eee	0.027144875
19	0xbcf1ba35	-0.029507736
20	0x3e0f2ec4	0.13982683
21	0x3c5d40af	0.013504191
22	0xbc095335	-0.0083816545
23	0x3d5acfc4	0.053420797
24	0x3d935d7b	0.07195564
25	0x3d09f80e	0.03368383
26	0x3d8e5ff7	0.069518976
27	0x3dc9bdc4	0.09850648
28	0xbe9aaa52	-0.3020807
29	0xbd93fbfc	-0.072257966
30	0x3db52049	0.088440485
31	0xbd828ca6	-0.06374483
32	0x3d3bd3d2	0.045856304
33	0xbe3408c5	-0.1758147
34	0xbd398717	-0.045294847
35	0xbe537ba9	-0.20652641
36	0xbe4db7e8	-0.20089686
37	0xbce5184f	-0.027965693
38	0x3c80aa5c	0.015706234
39	0x3ce32504	0.027727611
40	0xbe4a9656	-0.19783911
41	0xbe2903ca	-0.16505352
42	0x3d002596	0.031285845
43	0xbc91d10e	-0.01779988
44	0x3acac0e2	0.001546886
45	0x3d21f4f3	0.039540242
46	0xbd9b6067	-0.07586747
47	0xbd14ab4a	-0.036296166
48	0x3cb5f8fb	0.02221345
49	0x3d6c02a3	0.057619702
50	0x3d1e5cbf	0.03866267
51	0xbd8fbdfb	-0.07018658
52	0xbec20507	-0.3789446
53	0xbeda2808	-0.42608666
54	0x3e9bb165	0.3040878
55	0x3e1777d3	0.14791803
56	0x3eb8fdd8	0.36131167
57	0x3e54acb3	0.20769005
58	0xbd38f161	-0.045152072
59	0x3df8cd38	0.12148517
60	0xbe281536	-0.16414341
61	0x3e851443	0.2599202
62	0x3e7fed52	0.24992874
63	0x3ea67bf9	0.3251646
64	0xbe063716	-0.13106951
65	0xbe4662ea	-0.1937367
66	0x3d59ce3a	0.05317519
67	0x3dd20eb5	0.102567114
68	0xbd1732c5	-0.036913652
69	0xbe2c480e	-0.16824362
70	0x3dd0ecb8	0.102014005
71	0xbe53905c	-0.20660537
72	0xbe362cad	-0.1779048
73	0xbe0f622a	-0.1400229
74	0xbac96596	-0.0015365358
75	0xbb3d388b	-0.0028872814
76	0xbd147916	-0.03624829
77	0xbc6768e2	-0.014124127
78	0x3d138a51	0.03602058
79	0x3d44c166	0.048036
80	0x3d800f80	0.062529564
81	0x3c8df111	0.017326863
82	0xbc8218f8	-0.015881047
83	0xbd0bc604	-0.03412439
84	0x3cc10142	0.02356017
85	0xbd75af5f	-0.0599817
86	0xbd2b7bd0	-0.041866124
87	0x3ca392ea	0.019967515
88	0x3cddfa28	0.027096823
89	0xbd66a689	-0.056311164
90	0x3d0b4eba	0.034010626
91	0xbd3c5177	-0.04597613
92	0x3d6a34f3	0.057179403
93	0x3c72af79	0.014812344
94	0xbcd92a4a	-0.026509423
95	0x3c41d7ce	0.011831237
96	0xbbe252ed	-0.006906858
97	0xbd229932	-0.03969688
98	0xbc31ed2c	-0.010859769
99	0x3c884201	0.016633036
100	0x3c9472d1	0.018121155
101	0xbe156c3e	-0.14592072
102	0x3d6f98f8	0.05849549
103	0x3e819f66	0.25316924
104	0x3e32594a	0.17416874
105	0x3e05132f	0.12995599
106	0xbde63b9a	-0.11241837
107	0xbf1a3221	-0.6023274
108	0xbeb107d4	-0.34576285
109	0x3da5786f	0.080796115
110	0xbcc4d27b	-0.024026146
111	0x3e872099	0.26392058
112	0xbdeb10f6	-0.114778444
113	0xbeb20297	-0.347676
114	0xbe85d12c	-0.26136148
115	0xbd2f3869	-0.042778406
116	0x3db61f1c	0.088926524
117	0x3d1d950a	0.038472213
118	0x3d6c0e62	0.057630904
119	0x3d326b72	0.0435595
120	0x3e9afbdb	0.30270275
121	0x3c90e65d	0.01768797
122	0x3c9bfd85	0.019041786
123	0xbd6fa294	-0.058504656
124	0x3c441a6e	0.011969192
125	0xbd988cb1	-0.0744871
126	0x3c614de8	0.013751484
127	0xbcc58177	-0.024109585
128	0xbe0359fe	-0.12827298
129	0x3ef8573e	0.4850406
130	0xbc80cfc9	-0.01572408
131	0x3b993b85	0.0046762847
132	0xbd0ef70d	-0.034903575
133	0x3df0e2fa	0.11762042
134	0xbe94b5f0	-0.29045057
135	0xbe14e690	-0.14541078
136	0xbda4fd5d	-0.08056138
137	0x3cdf1f10	0.027236491
138	0x3ea8f0fd	0.3299636
139	0x3e83a1ce	0.25709385
140	0x3e0b1392	0.13581684
141	0x3e09839e	0.13429114
142	0x3d2f7baf	0.042842563
143	0xbdc7fd1a	-0.09765072
144	0xbe18a9cd	-0.14908524
145	0x3dca4f42	0.098783985
146	0x3c7b08fc	0.015321966
147	0xbc72f72e	-0.01482944
148	0xbe067e1b	-0.13134043
149	0x3b7cb025	0.0038557139
150	0x3e8235df	0.25431725
151	0x3e2d2c20	0.16911364
152	0xbe006156	-0.1253713
153	0x3cc34c42	0.023840073
154	0xbf054941	-0.520649
155	0xbcba52c4	-0.022744544
156	0x3dcc2aef	0.099691264
157	0xbe526632	-0.20546797
158	0xbc173033	-0.0092278
159	0xbd93d115	-0.072176136
160	0x3dae8b9a	0.08522721
161	0x3e9747f2	0.29547077
162	0x3e1e3e64	0.15453488
163	0xbe2ecfba	-0.17071429
164	0xbde16a15	-0.11006562
165	0xbea82090	-0.32837343
166	0x3dac3a8d	0.08409605
167	0x3e4bd923	0.1990705
168	0xbc54b3c8	-0.012982316
169	0x3dbd456b	0.09241756
170	0xbf082a86	-0.53189886
171	0x3e838a50	0.25691462
172	0xbd53ab9f	-0.051677343
173	0x3d6f77a2	0.0584637
174	0xbdf98c20	-0.1218493
175	0xbdf42bac	-0.11922392
176	0xbdf6178b	-0.12016209
177	0x3e017d1e	0.12645385
178	0x3e0bb3fb	0.13642876
179	0x3e0d60b9	0.13806428
180	0xbc246d92	-0.010035889
181	0xbd229dd3	-0.039701294
182	0xbe3ec763	-0.18630747
183	0xbec428b2	-0.38312298
184	0xbd066c18	-0.03281793
185	0xbe16c690	-0.14724183
186	0x3df73ce1	0.120721586
187	0x3e784400	0.2424469
188	0x3df1941a	0.11795826
189	0xbe037b09	-0.12839903
190	0x3ddf11b2	0.10892047
191	0x3d1b4cf5	0.03791519
192	0x3e2233bb	0.15840046
193	0xbd97d426	-0.07413511
194	0xbe40935c	-0.18806213
195	0x3eaaa8eb	0.33332
196	0x3dfab96e	0.12242399
197	0x3c6171c5	0.013760035
198	0xbda40e27	-0.08010512
199	0xbde80c79	-0.11330504
200	0xbe953ee1	-0.29149535
201	0xbe183d61	-0.14867164
202	0xbddc4e20	-0.10757089
203	0xbe08335d	-0.13300844
204	0xbebd8884	-0.37018216
205	0xbdad93bd	-0.084754445
206	0xbda8ef2c	-0.082487434
207	0x3cbfd535	0.023417095
208	0x3dc16d38	0.0944466
209	0x3bf034e4	0.007330524
210	0x3e5ccb7a	0.21561995
211	0xbe814529	-0.25248078
212	0x3d40451d	0.04694091
213	0x3d74f980	0.059808254
214	0x3c05169b	0.008123065
215	0x3e5e135a	0.2168707
216	0x3d949712	0.07255377
217	0xbe0d58a3	-0.13803343
218	0xbc211395	-0.009831329
219	0xbb627afc	-0.0034558168
220	0xbcf0bae4	-0.029385991
221	0xbe36f2c3	-0.17866044
222	0x3c227aa5	0.009916936
223	0xbcc3b711	-0.023891004
224	0x3cbf1293	0.023324287
225	0xbdc27458	-0.09494847
226	0x3dd0be0d	0.10192499
227	0x3e1a2267	0.15052186
228	0xbe9fcd2c	-0.3121122
229	0x3e8111bb	0.2520884
230	0xbef37efe	-0.47557825
231	0x3d23fc71	0.04003567
232	0x3b22ccaa	0.0024841228
233	0x3db72d7e	0.08944224
234	0x3ca073c6	0.019586455
235	0xbe852623	-0.26005659
236	0xbe625c28	-0.22105467
237	0xbf37ba51	-0.7176867
238	0x3da0d381	0.07852841
239	0x3e59022d	0.21192236
240	0xbe279f1d	-0.1636929
241	0xbcaef339	-0.021356212
242	0x3d781369	0.060565386
243	0x3f0db57f	0.55355066
244	0x3dbdf42d	0.092750885
245	0x3ec97275	0.39345136
246	0x3e9fee49	0.31236485
247	0xbe09c18a	-0.13452736
248	0xbdf5c14c	-0.11999759
249	0xbcb4ee71	-0.022086354
250	0x3ea3dfc3	0.32006654
251	0x3bf2719c	0.007398797
252	0xbeb79bb4	-0.3586098
253	0xbe8f5bfe	-0.27999872
254	0xbd26c178	-0.04071185
255	0x3e02297a	0.12711135

feature_extractor.3.bias f4 [20]
0	0xbef9a561	-0.48758987
1	0x3e3134e4	0.17305332
2	0xbe8e373c	-0.27776515
3	0x3dc20922	0.09474398
4	0xbf07cb02	-0.5304414
5	0xbea39a75	-0.3195378
6	0xbed4683d	-0.41485777
7	0xbe56b98a	-0.20969215
8	0xbe749a78	-0.2388705
9	0xbe2867f8	-0.16445911
10	0xbe402d45	-0.18767269
11	0x3d854129	0.06506569
12	0xbe8d29be	-0.2757091
13	0xbe74dcd4	-0.23912364
14	0x3dd7a672	0.10529794
15	0x3b923fd5	0.004463176
16	0x3e62eaa3	0.2215982
17	0xbdb06295	-0.08612553
18	0x3e858f97	0.26086113
19	0x3deb9671	0.11503304

classifier.0.weight f4 [50, 320]
0	0xbe10d696	-0.14144358
1	0xbe183112	-0.14862469
2	0xbd5ab51b	-0.053395372
3	0xbd5dd112	-0.054154463
4	0xbe9b0b62	-0.30282122
5	0xbe52ed96	-0.20598444
6	0x3cca0cfd	0.024664396
7	0x3e7c80be	0.24658486
8	0x3df2dc00	0.11858368
9	0x3e063f3e	0.13110062
10	0x3dad13c4	0.084510356
11	0x3be44714	0.006966481
12	0x3d416f4e	0.04722529
13	0x3dd50088	0.10400492
14	0xbe559039	-0.20855798
15	0x3e550b15	0.20805009
16	0xb9cd3b99	-0.0003914505
17	0xbccd2e9d	-0.025046641
18	0xbd3127e1	-0.043250922
19	0xbdad8b34	-0.084738165
20	0x3dceeedc	0.101041526
21	0x3cdb68af	0.026783315
22	0x3dc2d054	0.09512392
23	0xbb8a1a50	-0.0042145625
24	0x3dba5f16	0.091001675
25	0xbd3e8dbb	-0.046521883
26	0x3dd5bc66	0.10436325
27	0xbdbcec13	-0.09224715
28	0xbe44c25b	-0.19214766
29	0xbdeef6a4	-0.11668137
30	0xbdd7a149	-0.105288096
31	0xbd6c815e	-0.05774056
32	0xbd292648	-0.041296273
33	0x3e3c0738	0.18362129
34	0xbdaec0c1	-0.08532859
35	0x3d812ed9	0.063077636
36	0xbe8b8aa8	-0.27254224
37	0x3d561958	0.052270263
38	0xbe074389	-0.13209356
39	0xbdff9ecd	-0.12481461
40	0xbd9aeb26	-0.07564382
41	0xbcafdf7f	-0.021468876
42	0x3e315ce6	0.17320594
43	0xbea0cc3f	-0.31405827
44	0xbd1110da	-0.03541646
45	0x3e07f007	0.13275157
46	0xbd2f87a4	-0.042853966
47	0xbe3baf6a	-0.18328634
48	0x3c99435e	0.018708881
49	0xbda10714	-0.07862678
50	0x3c8f6aa6	0.017506909
51	0x3d6cbdf1	0.05779833
52	0xbe349da9	-0.17638268
53	0x3dda8e8b	0.10671719
54	0xbd85d065	-0.06533889
55	0x3e23a8bd	0.15982337
56	0x3e3089c2	0.1724005
57	0x3d2cce39	0.042188857
58	0xbd2fb885	-0.04290058
59	0x3de8e3d5	0.113715805
60	0xbe3a6f52	-0.18206528
61	0x3ddd8d41	0.10817958
62	0xbca06a6f	-0.019582001
63	0xbda6f013	-0.08151259
64	0xbd142663	-0.03616942
65	0x3af72083	0.0018854294
66	0x3dfe3b73	0.12413683
67	0x3dca478c	0.09876928
68	0x3c91b59f	0.017786799
69	0x3eb4c420	0.35305882
70	0x3cc6cc43	0.024267321
71	0xbd370a59	-0.044687603
72	0x3d95dafc	0.073171586
73	0x3e3f7d19	0.18700065
74	0x3cf97caf	0.030454962
75	0x3e18035d	0.14845033
76	0x3b6e404c	0.0036354242
77	0xbe3d956b	-0.1851403
78	0xbe0648a2	-0.13113645
79	0xbe8aca49	-0.27107456
80	0xbe88f025	-0.26745716
81	0xbcaac45a	-0.02084558
82	0x3d4d10ad	0.05006473
83	0xbe548b6a	-0.20756307
84	0xbe225040	-0.15850925
85	0x3cf27ac6	0.029599559
86	0x3dd777c5	0.10520891
87	0x3d451c97	0.04812297
88	0x3e77d9ad	0.2420413
89	0x3e177a62	0.14792779
90	0x3d9123a7	0.07086878
91	0x3d1aa1d9	0.037752006
92	0xbe02fab4	-0.12790948
93	0xbdd6f510	-0.10495961
94	0xbd9eff22	-0.077635065
95	0x3e4125a0	0.18862009
96	0x3d1f3e3d	0.038877714
97	0x3e1aa51d	0.15102048
98	0xbd048763	-0.032355677
99	0xbdcbe37d	-0.09955499
100	0xbd8d939c	-0.0691292
101	0xbdb242df	-0.08704161
102	0xbd12c41b	-0.035831552
103	0xbe5eccd2	-0.2175782
104	0x3d73a21f	0.059480783
105	0x3dc26c4d	0.09493313
106	0x3e603a2b	0.2189719
107	0x3da606e4	0.08106783
108	0xbdc6a9ae	-0.097003326
109	0x3dc16880	0.0944376
110	0x3d6fe13f	0.05856442
111	0xbc68de63	-0.014213177
112	0x3d9b5ffd	0.07586668
113	0x3c85dd50	0.016340882
114	0xbd922a27	-0.07136946
115	0x3ded8cb8	0.115991056
116	0xbd9e6cef	-0.07735621
117	0xbd5e244c	-0.054233834
118	0xbc0921e7	-0.008369899
119	0xbeb3685d	-0.3504056
120	0xbe6a2335	-0.22864993
121	0x3cfe95a4	0.031077214
122	0x3dccc8a2	0.09999205
123	0xbe5dafa2	-0.2164903
124	0xbca9e28d	-0.02073791
125	0x3e25da3c	0.16196531
126	0x3cf8cc8c	0.030370973
127	0x3e449768	0.19198382
128	0xbdabde93	-0.08392062
129	0xbc6ee782	-0.014581563
130	0x3d0c8177	0.034303155
131	0xbdbe9884	-0.09306434
132	0xbe01c014	-0.12670928
133	0xbdba9160	-0.09109759
134	0xbdb84c4f	-0.0899893
135	0xbe5d6a5d	-0.21622606
136	0x3c0e0daa	0.00867025
137	0xbc994d5f	-0.018713651
138	0x39f23fec	0.00046205462
139	0x3baf5fca	0.005351995
140	0x3d09e374	0.03366418
141	0x3e050e7a	0.12993804
142	0x3dd91a68	0.1060074
143	0xbceffb66	-0.02929468
144	0xbd5c6f10	-0.053816855
145	0x3e3d4fb4	0.18487436
146	0x3e14fa26	0.14548549
147	0x3e16ad9c	0.14714664
148	0x3e8c496b	0.27399763
149	0xbd952f63	-0.07284429
150	0x3d419c7f	0.047268387
151	0x3df98805	0.12184147
152	0xbe19a742	-0.1500521
153	0xbe63c0ae	-0.2224147
154	0xbdbde7b5	-0.0927271
155	0xbdd4aeb5	-0.10384885
156	0x3daea396	0.08527295
157	0x3d1dc0f8	0.038514107
158	0xbc9972cb	-0.018731495
159	0x3e038ac1	0.12845899
160	0xbd0348d5	-0.03205188
161	0xbd5a97d9	-0.05336747
162	0x3cfb882a	0.030704577
163	0xbd97945c	-0.07401344
164	0x3db7f84d	0.089829065
165	0x3e0b0d45	0.1357928
166	0x3df2ba7a	0.11851974
167	0x3e7bd6db	0.2459368
168	0xbe8c2e1c	-0.2737893
169	0xbda5de1b	-0.08099004
170	0xbdca23f8	-0.09870142
171	0xbe618aea	-0.22025648
172	0xbebb9614	-0.36637938
173	0x3b456392	0.0030119163
174	0xbd833b8a	-0.064078405
175	0xbea85f3a	-0.32885152
176	0x3e3f3228	0.18671477
177	0x3e0841d6	0.13306364
178	0x3dae718e	0.085177526
179	0x3e2d753d	0.16939254
180	0xbe6accdd	-0.22929712
181	0xbe789da5	-0.24278887
182	0xbc0d359d	-0.008618739
183	0xbe3a6cd1	-0.18205573
184	0xbe962afa	-0.29329664
185	0xbe3cb659	-0.18428935
186	0xbdc8eda4	-0.09810951
187	0xbe37148b	-0.1787893
188	0x3e337496	0.17524943
189	0x3e9bb8f9	0.3041456
190	0x3e02133a	0.12702647
191	0x3da9b078	0.08285612
192	0xbe912281	-0.28346637
193	0xbdecf99a	-0.11571045
194	0xbd663168	-0.05619946
195	0xbe84041a	-0.2578438
196	0x3da51b24	0.08061817
197	0xb989274b	-0.00026159952
198	0x3daaddee	0.08343111
199	0x3e7486e8	0.23879588
200	0x3db712a4	0.08939102
201	0x3e280599	0.16408385
202	0x3df4f596	0.11960904
203	0xbd12f53b	-0.0358784
204	0xbe0b18b8	-0.13583648
205	0xbca3b4aa	-0.019983608
206	0xbe11185b	-0.14169447
207	0xbe86235a	-0.26198846
208	0xbe231a52	-0.15928009
209	0xbe6ab7cf	-0.2292168
210	0xbe027617	-0.1274036
211	0x3be57d76	0.0070034815
212	0xbe0d9533	-0.13826446
213	0x3e47b12c	0.1950118
214	0xbc121207	-0.008915431
215	0x3e57cca0	0.21074152
216	0x3cdd121a	0.02698617
217	0x3e1e3275	0.15448935
218	0x3d84c7db	0.06483432
219	0x3d74a76d	0.059729982
220	0xbeadf4e8	-0.3397591
221	0xbda39f99	-0.07989425
222	0xbee99186	-0.45618838
223	0xbd04ec60	-0.032451987
224	0x3e336ca3	0.1752191
225	0xbd8cda3a	-0.06877561
226	0x3e2627a4	0.16226059
227	0x3ea97ffb	0.33105454
228	0xbda1ea32	-0.07905997
229	0xbbeb050f	-0.007172234
230	0xbd9bd332	-0.07608642
231	0xbc0416af	-0.008062049
232	0xbe85cdf0	-0.2613368
233	0xbd104c4d	-0.035229016
234	0xbdf148b7	-0.117814474
235	0xbec6458d	-0.38724938
236	0x3ded00e0	0.115724325
237	0xbca0ba06	-0.019619953
238	0x3cde8dfa	0.02716731
239	0xbd2eb9e9	-0.042657766
240	0x3e558d10	0.20854592
241	0x3dd2b461	0.10288311
242	0x3e2993a6	0.1656023
243	0x3e0afa9b	0.13572161
244	0x3d6d0be8	0.057872683
245	0xbde200f5	-0.11035339
246	0x3cbb8678	0.022891268
247	0xbd91b133	-0.07113876
248	0xbe92658c	-0.285931
249	0xbdffaa88	-0.12483698
250	0xbc25b281	-0.010113359
251	0xbda8b199	-0.08236999
252	0x3de5d444	0.11222127
253	0x3c4ff310	0.012692228
254	0x3ce9a608	0.028521553
255	0xbd759d14	-0.059964254

classifier.0.bias f4 [50]
0	0x3d2736ea	0.040823855
1	0xbdba8ff3	-0.091094874
2	0x3df48d29	0.11940987
3	0x3e2df1a3	0.16986708
4	0x3e498863	0.19680934
5	0x3de40cdc	0.11135265
6	0xbe8cbc65	-0.27487484
7	0xbd1a69a6	-0.03769841
8	0x3e179520	0.1480298
9	0xbd85ce8e	-0.06533538
10	0x3e2b892a	0.16751543
11	0xbeb32374	-0.34987986
12	0xbdb34484	-0.08753303
13	0x3e80514f	0.25062034
14	0x3e494fd5	0.1965936
15	0x3e42fe40	0.19042301
16	0xbd902185	-0.07037643
17	0xbe26e30d	-0.1629755
18	0x3e5aca13	0.21366148
19	0xbbbf8e88	-0.0058458485
20	0x3e7d49a0	0.24735117
21	0x3ea280ac	0.31738794
22	0xbe7249fb	-0.23661034
23	0x3e86334b	0.26211008
24	0x3e23fadc	0.16013664
25	0x3d2dc1f0	0.04242128
26	0x3df505af	0.11963975
27	0x3e3040fb	0.17212288
28	0x3e6830f9	0.22674932
29	0x3c377210	0.011196628
30	0x3e890d46	0.2676794
31	0x3c11abf4	0.0088910945
32	0xbe8beeb0	-0.27330542
33	0xbdf81c54	-0.12114778
34	0x3e8bb6e4	0.27287972
35	0x3e61fabd	0.22068305
36	0x3e8eee7d	0.27916327
37	0x3e6b6549	0.22987856
38	0x3d28d795	0.04122122
39	0xbdbbd787	-0.09171968
40	0x3e35cf85	0.17754944
41	0x3e73b288	0.23798573
42	0x3e5aae20	0.21355486
43	0x3ed63a52	0.4184137
44	0xbd5238f3	-0.051323842
45	0xbec3f391	-0.38271764
46	0xbd9b4b79	-0.07582755
47	0xbe097591	-0.13423754
48	0xbe5ff836	-0.21872029
49	0x3e3c4330	0.18385005

classifier.3.weight f4 [10, 50]
0	0x3df38cc3	0.118920825
1	0xbef59a16	-0.4796912
2	0xbe6d51ae	-0.2317569
3	0x3de1ee30	0.11031759
4	0xbe7a4978	-0.24442089
5	0xbd93a90b	-0.07209977
6	0x3e0a62f1	0.13514306
7	0xbd23e9f6	-0.040018044
8	0xbe86a6b6	-0.26299065
9	0x3e04e865	0.12979276
10	0xbcc49948	-0.023998871
11	0x3e0279f6	0.12741837
12	0xbd19d715	-0.037558634
13	0xbecb30fc	-0.3968581
14	0x3d3d44ba	0.04620812
15	0x3dbc3d97	0.09191435
16	0x3ddfa80f	0.109207265
17	0xbe833a83	-0.25630578
18	0xbe302268	-0.17200625
19	0x3de03e5b	0.10949393
20	0x3e05f432	0.13081434
21	0x3e247da0	0.16063547
22	0xbc054b8d	-0.0081356885
23	0xbe666c61	-0.22502281
24	0xbe4c90d7	-0.19977127
25	0xbe8cbc57	-0.27487442
26	0x3e41d748	0.1892978
27	0xbd9abfb6	-0.07556097
28	0xbe40018e	-0.18750593
29	0xbe872d2f	-0.2640166
30	0xbeda1eed	-0.4260172
31	0x3dd71cbd	0.10503528
32	0x3e203ca0	0.15648127
33	0xbd9cacae	-0.076501235
34	0xbed80612	-0.4219213
35	0x3e0c065d	0.13674302
36	0xbe82d4bd	-0.2555293
37	0xbe75307b	-0.23944275
38	0x3dc449ab	0.095843635
39	0xbe32ec35	-0.17472918
40	0x3dc66ebd	0.096890904
41	0xbe257349	-0.16157259
42	0x3daca3ca	0.08429678
43	0xbf103957	-0.56337494
44	0x3e29525b	0.16535322
45	0xbd1c3f7f	-0.038146492
46	0x3db11b71	0.08647812
47	0xbe1fa148	-0.15588868
48	0xbea720ff	-0.32642362
49	0xbe063292	-0.13105229
50	0xbed09350	-0.4073739
51	0x3db5446f	0.08850943
52	0xbe18522a	-0.14875093
53	0xbdee293a	-0.11628957
54	0x3e6eab73	0.2330759
55	0x3e21840e	0.15773031
56	0xbce91fdf	-0.02845758
57	0xbe2643fd	-0.16236873
58	0x3e300853	0.17190675
59	0x3de215ea	0.11039336
60	0xbd4cbcbf	-0.04998469
61	0xbe05c5ba	-0.13063708
62	0xbdd82342	-0.105536
63	0xbde600b7	-0.11230605
64	0x3d3eb156	0.04655584
65	0x3e11d43f	0.14241122
66	0xbe01e99f	-0.12686776
67	0xbc18a7cf	-0.009317352
68	0x3dfdd91e	0.123949274
69	0xbe77dae7	-0.24204598
70	0x3e187139	0.14886941
71	0x3e03a618	0.12856328
72	0xbe1ea3b9	-0.15492143
73	0xbe42c0b2	-0.1901882
74	0xbce8d71a	-0.02842288
75	0x3e3a554f	0.18196605
76	0x3e1a83e7	0.15089379
77	0x3daac219	0.083378024
78	0x3dcdd2e2	0.10049988
79	0xbd782cc6	-0.060589574
80	0xbe20453c	-0.15651411
81	0xbea915b2	-0.33024365
82	0xbdaf4c03	-0.0855942
83	0xbe8d6fb0	-0.27624273
84	0x3e36e108	0.1785928
85	0xbe0fe257	-0.14051186
86	0x3e3a07e7	0.18167077
87	0x3dfd0c14	0.12355819
88	0xbdc33244	-0.09531072
89	0x3e2d5bea	0.16929594
90	0xbef9049e	-0.48636335
91	0x3dfcf481	0.12351323
92	0x3e1f4efb	0.15557472
93	0x3e4c963b	0.19979183
94	0xbe3a8b75	-0.18217261
95	0xbe381365	-0.17976148
96	0xbec276c2	-0.3798123
97	0xbea500d1	-0.32227185
98	0xbe2df7fb	-0.16989128
99	0x3dce49d7	0.100726776
100	0x3e159330	0.14606929
101	0xbd553543	-0.052052747
102	0xbe12db77	-0.14341532
103	0x3e06c9fd	0.1316299
104	0xbdc51e3e	-0.09624909
105	0xbd5aa74b	-0.0533822
106	0x3c69c274	0.014267553
107	0xbdd2691d	-0.10273955
108	0x3e406d6b	0.1879174
109	0x3dffa2c5	0.12482218
110	0x3e09b56e	0.13448116
111	0x3dfe7696	0.12424962
112	0x3e1f8ffd	0.15582271
113	0xbd3d42b3	-0.046206187
114	0x3de18c4c	0.11013088
115	0xbdc52c61	-0.09627605
116	0x3db4d653	0.088299416
117	0x3c963558	0.018335983
118	0x3e15e1e6	0.14636955
119	0xbdd6be71	-0.104855426
120	0xbe963183	-0.2933465
121	0x3de5e70e	0.11225711
122	0xbc6b02b5	-0.014343907
123	0x3cb66ab2	0.022267673
124	0x3daf4b99	0.08559341
125	0xbe0e9810	-0.13925195
126	0x3e23f262	0.1601043
127	0x3e0bc324	0.13648659
128	0x3df616a3	0.12016036
129	0x3e0cb2ab	0.13740031
130	0xbd6859a0	-0.056726098
131	0x3dbc5c0c	0.09197244
132	0xbe095826	-0.13412532
133	0x3e0817b8	0.13290298
134	0xbde7f359	-0.11325712
135	0xbdcad284	-0.09903434
136	0x3e398570	0.18117309
137	0x3d990716	0.07472055
138	0x3dec3d5d	0.115351416
139	0xbe2442ba	-0.16041079
140	0xbe17a5d6	-0.14809355
141	0x3e396e3a	0.18108454
142	0xbe18fbdf	-0.14939831
143	0xbd7784c5	-0.060429353
144	0x3dd05bf7	0.10173791
145	0xbe11acf3	-0.14226131
146	0xbe614fd9	-0.22003116
147	0xbe0f1c89	-0.13975729
148	0xbe13b45d	-0.14424272
149	0xbd6ff23d	-0.058580626
150	0xbde5e050	-0.11224425
151	0xbcf5cbf9	-0.030004488
152	0xbe4094ad	-0.18806715
153	0x3dbcab90	0.092124104
154	0xbea988b3	-0.33112106
155	0xbeb2c592	-0.3491636
156	0x3e2e5e8a	0.17028251
157	0x3e3b5985	0.18295868
158	0x3e4ff21f	0.20307206
159	0xbe48378c	-0.1955244
160	0xbdd3f58a	-0.10349567
161	0x3e0a420f	0.13501762
162	0x3e26f34e	0.16303751
163	0x3e1c5d50	0.15269971
164	0x3e06bfe0	0.13159132
165	0xbe419530	-0.18904567
166	0xbe04031d	-0.12891813
167	0x3e279933	0.16367035
168	0xbd548b20	-0.051890492
169	0xbe0cf692	-0.13765934
170	0xbe301fe9	-0.17199673
171	0x3e172b16	0.1476253
172	0x3d2fbb6a	0.04290334
173	0x3df56ec6	0.11984019
174	0xbde96964	-0.11397055
175	0xbdbb63af	-0.091498725
176	0xbdbf6df2	-0.09347142
177	0x3df5bbc2	0.119987026
178	0xbddbeb6e	-0.10738264
179	0x3e239bd1	0.15977408
180	0xbda2d1a8	-0.07950145
181	0x3d9edc1f	0.077568285
182	0xbe24418f	-0.16040634
183	0xbdbb9f8b	-0.0916129
184	0xbe2b4d9a	-0.16728821
185	0xbe268b8e	-0.16264173
186	0xbb4e3cb3	-0.0031469285
187	0x3deecf40	0.116606236
188	0xbb90132c	-0.0043968167
189	0x3e1d43e5	0.15357931
190	0xbd911bfa	-0.07085414
191	0x3e19bba4	0.15012985
192	0xbe5618b8	-0.20907867
193	0xbbea9d79	-0.0071598855
194	0x3cc13cc4	0.023588546
195	0x3de7d742	0.11320354
196	0xbe53f955	-0.20700581
197	0xbe0517ac	-0.12997311
198	0x3dfe1268	0.124058545
199	0xbda51551	-0.080607064
200	0x3e22baa0	0.15891504
201	0x3bb0fccc	0.0054012295
202	0x3e10f7b1	0.14156987
203	0xbe86d416	-0.26333684
204	0x3e41b31a	0.18915978
205	0x3dae49fd	0.08510206
206	0x3c97111b	0.018440774
207	0xbe11ba16	-0.14231142
208	0xbe0ecffc	-0.13946527
209	0x3e03df31	0.1287811
210	0x3e167f37	0.14696966
211	0x3dbe0dfd	0.09280012
212	0xbd73e4dd	-0.059544433
213	0x3e15d346	0.14631376
214	0x3d4fda49	0.050745282
215	0x3dff7887	0.12474161
216	0x3db753d4	0.08951536
217	0x3e0d1109	0.1377603
218	0xbcedbfa1	-0.02902204
219	0xbbcae02a	-0.006191273
220	0xbd692423	-0.05691923
221	0xbe079e2e	-0.13243935
222	0x3e231722	0.15926793
223	0x3d331a32	0.043726154
224	0x3dc793e2	0.09745003
225	0x3e3b81df	0.1831126
226	0xbdf54264	-0.11975554
227	0xbe33a238	-0.1754235
228	0xbe137968	-0.14401782
229	0xbe82275c	-0.25420654
230	0x3e1bca63	0.15213923
231	0xbe4b0367	-0.19825517
232	0x3d6afaf4	0.057368234
233	0x3e1596cc	0.14608306
234	0x3e2ea804	0.1705628
235	0xbe43cacc	-0.1912033
236	0xbddfdb78	-0.10930532
237	0xbd8d6ce9	-0.069055386
238	0xbe77d2f8	-0.24201572
239	0xbdec16fd	-0.11527822
240	0xbde01cd7	-0.10943001
241	0xbd184165	-0.03717174
242	0xbda41bf2	-0.08013143
243	0x3e5d05ec	0.2158429
244	0xbe2a390e	-0.16623327
245	0xbd5e95c9	-0.054342065
246	0xbe8ca264	-0.27467644
247	0x3dfdb263	0.1238754
248	0x3e205141	0.15655996
249	0x3e361482	0.1778126
250	0x3d02609a	0.031830408
251	0xbd6e60e7	-0.058197882
252	0xbdea36cf	-0.11436235
253	0x3e130b07	0.14359675
254	0xbe3cc808	-0.18435681
255	0xbe06b1a0	-0.13153696

classifier.3.bias f4 [10]
0	0x3ef97b0c	0.4872669
1	0x3f1dceb0	0.61643505
2	0xbe96975e	-0.2941236
3	0xbde15e13	-0.11004271
4	0xbe23845c	-0.1596846
5	0xbe2e1905	-0.17001732
6	0xbdec6330	-0.11542356
7	0xbe81d58b	-0.25358233
8	0x3e875ba2	0.26437098
9	0xbe2eaa64	-0.17057186
