day2/domain_adaptation/revgrad_8.pt (torch_old, 91045 bytes, 8 tensors)

feature_extractor.0.weight f4 [10, 3, 5, 5]
00000000: 32f6 4b3e 3a3f 433d 00a0 7f3d 069f ef3d
00000010: 808a 9c3b 58b1 a93b 8694 2abe 67bf f3bd
00000020: 2503 7bbe c883 13be 24d0 f4bd ab6f bbbd
00000030: 0aad 42be ab74 d7bc 90ba b63d 121b 76be
00000040: 92d6 aabd 6b19 cbbd 01e5 843a b002 04be
00000050: fb12 debd 6039 0ebe d696 e43d e7bc 4c3c
00000060: c275 cabd 99b4 e33d f621 08bd c667 23be
00000070: d633 00bb 658f 363d 2e5f 71be 7e36 f4bd
00000080: 4a7e 46be 798b 4dbe 30db d3bd f115 11be
00000090: 7780 40be 0d9c ffbd e695 acbd cb52 7c3c
000000a0: 201e 4abe 4f1a 45be 6e38 1bbe 5698 90be
000000b0: 51e0 abbd ab23 b0be 78d8 5ebe 052d efbd
000000c0: 2908 1bbe 4f7a b6bd bc40 84be 5103 92bd
000000d0: 1cf0 5dbe beb2 ae3c 02a8 cdbd 0e95 a23d
000000e0: 56cb 813e 931f 623e a15e f13d 00e2 4ebc
000000f0: 1507 a43e 1a9d 033f 6dc4 0c3f cb1b 113f
00000100: 9dee 6c3e 78e9 c53e 795c 103f 4264 223f
00000110: f923 b63e 6268 543e 73d5 b23e df1f 033f
00000120: 9277 c33e 02e0 c33e da29 203e c922 b7bd
00000130: ba2e 033d a070 9bbc 6894 b3bc da22 0abd
00000140: be34 373d 8be4 0abd 7a37 f7bd 2bf0 88bc
00000150: aa50 003d 10b6 223e eb5f ddbd 2184 6f3d
00000160: cb67 18bd f498 71bc 9b8a 6cbd 21b9 aebd
00000170: 2efc 553c 912b 9b3c 1c4a 1b3e 29f8 d33a
00000180: 4031 2e3d a29d 25bd 85c1 9f3d ba95 183e
00000190: 9a5d 8abc cf01 893b f6e3 af3d bac3 90bc
000001a0: c33d ce3d d1a6 2c3d c8c1 1bbe 1c99 493c
000001b0: 3689 543c 8e7b 873c 5731 debc 725e 43bd
000001c0: 6ab1 21be d696 d43c 856b 153d d21b 54bd
000001d0: 876e 18bb 7321 e1bd f7f2 eb3d 9835 94bd
000001e0: cfc5 87bd 8caf 0f3d 408d 92bd 4b31 233e
000001f0: 15f2 703d 1bb1 ac3e eb6d 4a3e 83cc fe3d
00000200: 312d 723e f6f5 48be 311b ac3e 28a6 4c3e
00000210: 4ab5 383e f497 f5bd 592c 8fbe e012 a53e
00000220: b23e 543e c352 4e3e bcb5 91be fa0f 20bf
00000230: 3e2f 503e a146 753e 912e a5bb 4ed9 82be
00000240: d666 f5be c283 483d 937d b73c e0c5 d1bc
00000250: 5c0a 51be 6db6 8dbe 826b 993c 699b 973b
00000260: 93b0 b03d 153f 113e cfb6 d13c 9109 1b3c
00000270: 57ec 2f3d 2148 ddbd a6de 1b3e 620f 43bd
00000280: 26a1 f8bd c784 e8bc f136 75bd 1d35 ba3d
00000290: 2ed9 1ebc 51bc b7bd e825 ae3d 68fb 10be
000002a0: 9009 1a3e 2b84 58bd 4683 8a3d 489a 6e3d
000002b0: 86f9 acbd c463 ce3d 5e20 e3bc b228 96bd
000002c0: 2226 92bd 10ec ba3b cf52 c2bd 404a e0bd
000002d0: a2bb b4bd 7523 3fbe f9b3 54be 646a 32be
000002e0: 68d1 d5bd 9f7e 75be 5bdf d33b ec8a 60be
000002f0: cdaf 96bd 9ff6 98be 3c87 2bbe 6724 b8bd
00000300: d9d6 6fbd 2a55 d1bb 7811 47be 89ed 7dbe
00000310: 898c 8dbd 5706 5bbe efa7 33bd 5f3c a4bd
00000320: e6c3 883e 9a7e a83e ad68 633c 9f0d 2d3e
00000330: 67dc e8bb a3ab 453e 980c 443e 3219 263e
00000340: a577 303e 9c76 5bbe 3455 303e 3cfe a83e
00000350: 5339 753e 11a2 a03e 5e34 17bd 90e6 b63d
00000360: bd2a a33e 1a58 483e 232b 9e3e 1f30 dd3d
00000370: 2fed c83c cf79 e13d dae7 3a3e 18d5 983e
00000380: 395c 353e a435 09be c45f a8bd d3ce 01bd
00000390: 651b 9ebd a933 04bd 6ecf a53d 73fc 3bbc
000003a0: 917d 9d3c aeca 663c 74c5 a0bd a4c5 13be
000003b0: df62 7cbd 4de1 b139 0e74 883d c1a2 87bd
000003c0: 120c b0bb fdd8 043b 3ae6 20bd 8ace ba3d
000003d0: 97da 91bd 7e28 06bd b727 193d c56b 06be
000003e0: 32e6 44bc 2520 91bc c6a5 8f3d 8a67 53bc
000003f0: 815b 54bd 7525 eebc b50d 94bd bc02 8ebd
0.19918135 0.04766772 0.062408447 0.11700253 0.0047772527 0.0051786117 -0.1665822 -0.119017415
-0.24512918 -0.1440574 -0.11953762 -0.09152158 -0.19011322 -0.026300749 0.08922303 -0.24033764
-0.08341707 -0.099169575 0.0010139049 -0.1289165 -0.10843464 -0.13889074 0.11161582 0.01249621
-0.09885742 0.11118431 -0.033235513 -0.15957555 -0.0019562147 0.044570345 -0.23571464 -0.11924456
-0.19384113 -0.20072736 -0.10344541 -0.14168526 -0.18799005 -0.12480936 -0.08427028 0.015400599
-0.19738054 -0.19248317 -0.15158245 -0.28241223 -0.08392394 -0.34402213 -0.21762264 -0.11678509
-0.15139832 -0.08910047 -0.25830638 -0.07129539 -0.21673626 0.021325465 -0.100418106 0.07938586
0.25350446 0.22082357 0.11785627 -0.012627125 0.32036653 0.5141159 0.5498722 0.56683034
0.23137899 0.38654685 0.563911 0.6343423 0.3557432 0.20742944 0.34928474 0.51220506
0.38177162 0.38256842 0.15640965 -0.089421816 0.032026984 -0.018974602 -0.021921352 -0.033724643
0.044728033 -0.03390936 -0.12071128 -0.016716084 0.031326927 0.15889764 -0.108093105 0.058475617
-0.03720836 -0.0147459395 -0.057749372 -0.08531404 0.013060613 0.018941673 0.15164989 0.001617198
0.042527437 -0.040433533 0.07800583 0.14900866 -0.016890336 0.004181124 0.08588402 -0.017671455
0.10070374 0.042151276 -0.1521064 0.0123045705 0.012972167 0.016538408 -0.027123136 -0.047697492
-0.15790334 0.02595083 0.03647949 -0.051784344 -0.0023259239 -0.10992708 0.11520951 -0.07236785
-0.06629526 0.035079524 -0.071558475 0.15936773 0.058824617 0.3372887 0.19768493 0.12441351
0.23650052 -0.19625077 0.33614495 0.19985259 0.18037906 -0.119918734 -0.27963522 0.32240963
0.20727041 0.20148759 -0.28458965 -0.6252438 0.20330521 0.23952724 -0.0050409515 -0.25556415
-0.4793002 0.04895378 0.022398746 -0.02560705 -0.20414108 -0.27678242 0.018728022 0.0046266806
0.08627429 0.1418422 0.025599865 0.00946273 0.04295 -0.10804773 0.15221652 -0.047622092
-0.121401116 -0.028383626 -0.05986685 0.09092162 -0.009695334 -0.089714654 0.08503324 -0.14158404
0.1504271 -0.05286042 0.0676332 0.058252603 -0.0844603 0.100776225 -0.027725395 -0.07331981
-0.071361795 0.0057044104 -0.09488451 -0.10951662 -0.088248506 -0.1866587 -0.20771779 -0.17423397
-0.10440332 -0.23974083 0.006465835 -0.21927994 -0.0735775 -0.29875657 -0.16750807 -0.08991318
-0.058554504 -0.006388326 -0.19440258 -0.24797644 -0.069115706 -0.21389137 -0.043861326 -0.08019327
0.2671196 0.3290909 0.013879937 0.16899727 -0.007106352 0.19303755 0.19145429 0.16220549
0.17233141 -0.21431965 0.17220002 0.33006465 0.23947649 0.31373647 -0.036915176 0.08930695
0.31868544 0.19564858 0.30892286 0.10800194 0.02452716 0.11009561 0.18252507 0.29850078
0.17710961 -0.13399369 -0.08221391 -0.031691384 -0.07720069 -0.03227583 0.08096205 -0.011473763
0.019224914 0.014086409 -0.07850161 -0.14430863 -0.06161773 0.00033927933 0.06662761 -0.0662284
-0.0053725326 0.0020270937 -0.03928206 0.091214254 -0.07121771 -0.03275346 0.03739139 -0.13127048
-0.012017773 -0.017715523 0.07014041 -0.012903104 -0.051845077 -0.029070595 -0.07229177 -0.06934115

feature_extractor.0.bias f4 [10]
00000000: c2ce ddbe f76b 4cbe 8ffb 2bbf 20a4 b1bd
00000010: 6486 c3be f49d 8abe daab cfbc 7ebc 7abd
00000020: 7cca d5be 7c71 e0bb
-0.43321806 -0.1996306 -0.6718072 -0.086738825 -0.3818847 -0.27073634 -0.0253505 -0.061214916
-0.41756046 -0.006849466

feature_extractor.3.weight f4 [20, 10, 5, 5]
00000000: f0ad 883e da87 4c3e 1f61 b93d 07a2 60be
00000010: 4874 2dbd f383 a03c eb2d 9a3e 4d3b 7b3e
00000020: a16d 1b3c 1b7a 81be 75d8 aebe ff76 47bd
00000030: 0bee 9f3e caae 8d3e 369d 593d d8e7 c0be
00000040: ac09 95be 4a79 cdbd 0fd0 52bc d11d d7bc
00000050: 9098 cc3d 522f 5a3d 6639 903c abcc c83d
00000060: dea8 973d a2ea 3e3d 908c 143d f44c c83d
00000070: e0b7 79be a6a8 33bd e342 f53b 81d1 edbd
00000080: 96d8 1fbd 13c8 09be b1ee 31bd be9d 28be
00000090: ed53 75be 6ace 85bd 0f97 a1bc 925f df3c
000000a0: e509 16be 85a7 4fbe 921e 00bc 0674 023d
000000b0: 53fb 0d3d 9c19 86bd 1a50 c8bd 1105 923c
000000c0: 5fd3 8b3d a596 253d 276d a93c 1306 54bd
000000d0: 1f08 98be 431f 51be cc14 223e b7b2 8c3e
000000e0: 593c b73e 34a2 3d3e 6e52 413d 2c92 5e3d
000000f0: 3b99 79bd 2dbc 473e 0bb6 413e bee4 7a3e
00000100: 80fc 6dbc 372c dbbd a2d5 1a3d 6a28 543c
00000110: 958b 003d ba46 fbbd 4e45 ac3d 8fd4 ebbd
00000120: 83a3 83be 65d8 c5bd d407 16bc 8b38 3dbb
00000130: 1679 14bd e268 67bc 518a 133d 66c1 443d
00000140: 800f 803d 11f1 8d3c f818 82bc 04c6 0bbd
00000150: 4201 c13c 5faf 75bd d07b 2bbd ea92 a33c
00000160: 28fa dd3c 89a6 66bd ba4e 0b3d 7751 3cbd
00000170: f334 6a3d 79af 723c 4a2a d9bc ced7 413c
00000180: ed52 e2bb 3299 22bd 2ced 31bc 0142 883c
00000190: 45a8 88bd ed1f f8bd e584 0c3e aa9b 933e
000001a0: 7aee a43e 3845 52bd 410f 5bbd 2c2f c1be
000001b0: ee1e 9ebe d92c b7bd 4f94 28bb e072 7d3e
000001c0: b770 dfbb 6e34 44be 9cb9 7cbe a170 42bd
000001d0: 0310 2b3d 7729 cc3d c491 a93d 46b9 eb3d
000001e0: 2a38 e23c bc65 1abd 3bfb a93c a0c7 8dbd
000001f0: 56c0 0a3d 6ff7 c3bd 777b ecbc 5775 41bd
00000200: 49ec 90bd 4401 a43e b5c0 a5bd 4ccc 853c
00000210: fddf 1e3c 14c3 233e ac59 4ebd a6ce ca3c
00000220: ff64 773b 4864 4f3d 1430 593e c2f5 3c3e
00000230: 782a 073e c6b1 9a3e 3587 0f3e ed66 7ebd
00000240: 5829 02be 8b9f 64bc bcc8 193d 7d84 873d
00000250: 8fba 5bbe dd7f 9bbc e593 9a3e 4871 ff3d
00000260: 510b c23d aee1 21be 11a9 26be cd18 063c
00000270: 21d3 e03c 8355 773b b629 bbbd 4447 333c
00000280: 9ce4 9a3d 5b03 693e 8243 783d be5c 5ebe
00000290: 0c81 8cbd 4351 1ebe 0f08 cc3d 21f8 333d
000002a0: 259e 13be 7a40 6c3d ac3b 47be 6110 383e
000002b0: 86f1 9d3c 1b3d 403d eb77 bdbc dc92 02be
000002c0: 451c d0bd 78b6 393d 3319 0f3e 8c1c f63d
000002d0: 2496 513d 6531 233c 4af3 25be 572b 4ebe
000002e0: 5339 273d 2e25 78bc 0a58 173e 993b 4e3e
000002f0: edf0 f63d 2f20 89bd 7bd5 c13c e33f af3d
00000300: 157a 483e 0f48 97bc 683d c6bd 9a69 643e
00000310: f2ef 103e 5b00 563c 1a96 d8bc f1a7 d1bd
00000320: c438 84bd 2560 77bd 3b33 19be 37bb b8be
00000330: 9315 81be 624f a33a 2915 df3d 5ace 153e
00000340: 439e 293b 1322 8dbd af1e 093e 9bfa b3bd
00000350: dfbb 1d3e 5740 323e 9ff0 e43c 3176 87bc
00000360: c3e9 55be 93f1 0ebe 89a7 033e f833 213d
00000370: 25fc 7cbd 6408 b5be 6ad6 61be b40a 8abc
00000380: 5f56 abbc 5491 51bc 7252 203d aefb 17bd
00000390: 9d49 1dbe 5300 5c3e 7f17 bfbd 8320 923d
000003a0: 73a7 4e3d b542 553e 8bd3 0b3e 18ae e0bd
000003b0: 9ff6 0dbe 3e5a a8be 860d 0f3e 428d d13e
000003c0: 04d0 2bbe a443 213e c9e9 e93d 9c21 e03e
000003d0: bd86 653e cd20 5f3e 4037 173e 6f77 2fbd
000003e0: d0f2 5e3d 666d d1bd 2cff 9b3e cc53 223d
000003f0: b90e 9fbe b737 79be 4799 24bc 8444 323e
0.26695204 0.19973698 0.090517275 -0.21936809 -0.042347223 0.019594168 0.30113158 0.2453434
0.009486587 -0.25288472 -0.3414952 -0.048697468 0.312363 0.27672416 0.053128444 -0.37676883
-0.29108942 -0.100329 -0.012866988 -0.026259335 0.099900365 0.053267784 0.017605495 0.09804662
0.07405256 0.046610482 0.036266863 0.09780303 -0.24386549 -0.043862008 0.00748478 -0.11612225
-0.03902491 -0.13455229 -0.043440524 -0.16466424 -0.23957796 -0.06533511 -0.01972535 0.027267251
-0.14652212 -0.20278747 -0.0078197885 0.03184893 0.03466351 -0.06547853 -0.09780903 0.017824681
0.06827425 0.04042687 0.02068193 -0.051763605 -0.29693696 -0.20422082 0.15828246 0.274801
0.3578823 0.18518907 0.04719775 0.05433862 -0.060937148 0.19505377 0.189171 0.2450132
-0.014525533 -0.10701793 0.037801392 0.012949089 0.031383116 -0.122693494 0.08411656 -0.11515152
-0.25710687 -0.096604146 -0.00915714 -0.0028872814 -0.03624829 -0.014124127 0.03602058 0.048036
0.062529564 0.017326863 -0.015881047 -0.03412439 0.02356017 -0.0599817 -0.041866124 0.019967515
0.027096823 -0.056311164 0.034010626 -0.04597613 0.057179403 0.014812344 -0.026509423 0.011831237
-0.006906858 -0.03969688 -0.010859769 0.016633036 -0.0667272 -0.12115464 0.1372257 0.288297
0.32213193 -0.051335543 -0.053481344 -0.37731302 -0.30882972 -0.08944101 -0.0025723164 0.24750853
-0.0068188566 -0.19160625 -0.2468018 -0.047470693 0.041763317 0.09968846 0.08279756 0.115099475
0.027614672 -0.037694678 0.020749679 -0.06922841 0.033874832 -0.095686786 -0.028867466 -0.047231045
-0.07076318 0.32032216 -0.080933966 0.016332768 0.009696958 0.15992385 -0.050378487 0.02475674
0.0037749407 0.050632745 0.21209747 0.18453124 0.13199794 0.30213755 0.14016421 -0.062109876
-0.12711084 -0.013954054 0.03754495 0.06617067 -0.21457885 -0.018981868 0.3019096 0.124727786
0.09474815 -0.15808746 -0.16275431 0.008184624 0.027444424 0.0037740178 -0.09138815 0.010942284
0.07563135 0.22755186 0.060611255 -0.21715066 -0.06860551 -0.15460686 0.099624746 0.043937806
-0.14415796 0.057678677 -0.19456357 0.17974998 0.019280206 0.046933275 -0.02312847 -0.12751335
-0.10161642 0.04534003 0.13974456 0.12017164 0.051168576 0.009960507 -0.16206089 -0.2013372
0.040826153 -0.015145583 0.14779678 0.20139922 0.12057672 -0.06695592 0.023661366 0.08557107
0.1957782 -0.018466977 -0.09679681 0.22305909 0.14154032 0.013061608 -0.026438762 -0.102371104
-0.0645614 -0.060394425 -0.14960949 -0.36080334 -0.25211772 0.0012459571 0.10892708 0.14629498
0.0025881685 -0.06891265 0.13390611 -0.087880336 0.15403698 0.17407356 0.027946768 -0.01653585
-0.20889954 -0.13959341 0.12856878 0.039356202 -0.0617639 -0.35357964 -0.22054449 -0.016850807
-0.020915208 -0.012790997 0.039141126 -0.037105255 -0.15360112 0.21484499 -0.093306534 0.07135107
0.05045266 0.20826228 0.13654916 -0.10970706 -0.1386361 -0.3288135 0.13970003 0.40928084
-0.1677857 0.15748459 0.11421544 0.43775642 0.2241468 0.21789856 0.1476717 -0.04283851
0.054430783 -0.10225944 0.30468118 0.039630696 -0.3106592 -0.2433766 -0.01004631 0.17408949

feature_extractor.3.bias f4 [20]
00000000: 6630 e1be 20fb 6d3e 6500 83be 8056 2b3d
00000010: a7d3 b5be 3273 80be 493a 86be d44a 3bbe
00000020: 6531 4fbe 06bc 87bd 5141 4abe b171 253e
00000030: e972 7ebe e7e1 81be 9ab1 273e 3a06 533e
00000040: 00f6 c23e e925 34be 04dc 993e db85 793d
-0.43982238 0.23240328 -0.25586239 0.04183054 -0.3551304 -0.25087887 -0.26216343 -0.18290263
-0.20233686 -0.066276595 -0.19751479 0.16156651 -0.24848522 -0.25367662 0.16376343 0.20607844
0.38078308 -0.17592587 0.3005067 0.06091867

classifier.0.weight f4 [50, 320]
00000000: d66e 49be 73bc 15be 3530 a3bd 59a9 ecbd
00000010: 9436 aebe 32b0 6cbe 9481 f2bd c633 7d3a
00000020: 6097 f73d 714c c33d 6774 933d c946 343d
00000030: 32c2 a63d dcc2 c43d 8975 1cbe e357 903e
00000040: e109 cd3b 35f7 fcbc 0f16 4ebd d6c3 5bbc
00000050: 1b8f 8f3c 0722 fb3b 6780 b63d 6b0a 4d3d
00000060: 7d2a e63d c11b 82bd cbb5 c43d 0630 1abb
00000070: 4bf8 2fbe 70ca c8bd 5794 bdbd d4e1 c9bc
00000080: 480d c8bd 42f8 203e 3274 5bbd 1861 52bb
00000090: dc21 12be 1091 9d3d 5185 1ebe 14af 84bd
000000a0: 4369 62bd e3eb 1d3d 199f 093e 1d11 1abe
000000b0: 94ff 10bd bb9f f13c b014 2bbd fe7a 1dbe
000000c0: 95e0 e6bc 6df8 92bd bf63 e63c 3ff4 823d
000000d0: e9ef 03be 2d2f d53d 5acd c2bd 9c1b 643d
000000e0: eedf 393d 961a 0ebd c339 37bd bedb 9b3d
000000f0: 8dd5 dbbd d9be 163e 0038 19bd 9c97 e4bd
00000100: 7ffb d33c 1c51 07bd f41e 463d 8017 573d
00000110: 95a8 193c 9073 843e bf16 0c3d d415 98b8
00000120: 9548 373d 323d 923d c225 773b e75e 9e3d
00000130: 6391 eabc 65e8 20be 6494 043b 5879 5cbe
00000140: d487 2ebe 3c0a 81bd b475 a43c d4ac cebd
00000150: 3f07 31be c4cd 7fbd c29b e83d bad8 ce3c
00000160: 6e6b c13d cf48 cb3d a97e e83d 809c c43d
00000170: f76c 38bd 8119 a5bd e0ce 04be 4b16 dc3d
00000180: 821d 7bbb 8958 453c bb78 06be 21d0 94be
00000190: c3f4 abbd 66a8 3ebe c7e6 bcbd ad4b 39be
000001a0: 9f20 8e3d 956b 053d 2b04 f93d c9b6 d83d
000001b0: ef07 b2bd 062a 17bd 20b0 9bbb 85bc 36bc
000001c0: e1a4 8d3d 1e02 1fbd 1391 4abd 22b9 c83d
000001d0: 76d6 c1bd 82b7 66bd 5058 97bd 8099 7abe
000001e0: 6550 c8bd d1e6 64bd 64fe 383d 34e3 05be
000001f0: d5f5 15bd 8d15 a43d 99c8 643d db2f cd3d
00000200: 0760 2abd 9044 133c ca8a 9a3c a33f 81bb
00000210: 89d2 6dbe af32 babd 1b58 91bd 4463 23bd
00000220: d41e bbbc 51ba 8a3b fcc2 e83b e18d 0f3d
00000230: 44b6 6a3c 0158 7f3d f8b3 2e3d 788a cd3c
00000240: 83ed 8ebd 36ac 043e f076 203e 034b c43d
00000250: 86cb 073e 78af c8bd f533 783c 9490 903d
00000260: 302b dfbd d6cc 20be 1ccf eabb a353 0dbe
00000270: c2bd 013e 36bd d23d f8ca 033c 0dd3 813d
00000280: 320d 263d 74e5 aa3c d3d2 6d3d e91b cdbb
00000290: 2034 d53d 4d5c 073d 63c7 c43d 160f 893e
000002a0: ae9b 21be f458 6bbd 8a99 81bd e15a 6cbe
000002b0: 1328 8abe af80 babd 736f 1cbe 35bd 44be
000002c0: f7b8 913d 1b43 b03d 1923 e73d bf01 e53d
000002d0: 1d22 fbbd caf6 12be ceaf a0bb 6a26 21be
000002e0: 69ec 02be 00c3 e2bd b11e 95bd 0d36 85bd
000002f0: e928 fe3d 7b2f 9b3e 33b9 6c3e 44f2 4a3d
00000300: bfa6 12be e1dd 3a3c 509b d7bd 13a7 f1bd
00000310: 8345 8a3d 562e 0f3d 9fe4 1e3c bd8a 863e
00000320: 0373 1d3d 1b96 ef3d 5a54 bd3c 7943 d4bc
00000330: a070 e4bd 89cc abbd 8838 29be 4dfa 89be
00000340: 828a 233d c0b9 39be 7fe5 21be a0d9 5cbb
00000350: 127f ddbd 2ef3 783e 46ca d23d 4ebf 123e
00000360: 6651 0ebe bd9b 8ebc 468f 98bd 2e15 093d
00000370: 8bdf 9bbe 7b30 c0bd 4760 b2be c18e ac3c
00000380: 4d8f 293e ef1f 3fbd 1624 6d3d a87e 9d3e
00000390: ba0f 20be 37c0 713c eb52 5f3d 8adf 6dbd
000003a0: 2137 52be 19ee 7bbd 3bb4 a2bd 2428 55be
000003b0: 91ba 903d 87bb 6fbc da80 3b3c 37a9 a63d
000003c0: 9384 333e 4fa3 0b3e c4dd 2d3e 3555 173d
000003d0: 6448 1d3c 487e 7fbd 90fd 523d 20c2 4bbd
000003e0: 0b05 32be f33b ebbd b990 573c 9a05 e0bd
000003f0: e4cc d53d 2cc6 10bd f290 bab9 2a5e ddbc
-0.19671187 -0.14622669 -0.07968179 -0.11555738 -0.34026015 -0.23114088 -0.11841121 0.0009658899
0.12089419 0.095360644 0.07199936 0.04401282 0.081425086 0.09607479 -0.15279211 0.28192052
0.006257281 -0.030879596 -0.050314005 -0.01341339 0.017524293 0.0076639685 0.089112096 0.050058763
0.11238573 -0.0635295 0.09604987 -0.002352716 -0.1718456 -0.09804237 -0.09256809 -0.024643816
-0.09768158 0.15719703 -0.05357761 -0.003210133 -0.14270729 0.07693684 -0.15480544 -0.06478706
-0.055276167 0.038555037 0.13439597 -0.1504559 -0.03539999 0.02949511 -0.041767776 -0.15378949
-0.028183261 -0.0717629 0.028123735 0.063942425 -0.12884487 0.10409389 -0.09511824 0.055690393
0.04537957 -0.034693323 -0.04473282 0.07610272 -0.10734091 0.1472124 -0.03740692 -0.1116173
0.025876759 -0.033036336 0.048369363 0.052512646 0.009378572 0.25869417 0.03420138 -7.2519906e-05
0.044746954 0.07140578 0.0037711714 0.07732945 -0.028633779 -0.15713651 0.002023005 -0.21530664
-0.17044002 -0.0630078 0.020075656 -0.10091558 -0.1728792 -0.062452093 0.113578334 0.025249828
0.09444319 0.099259965 0.113522835 0.096001625 -0.045025792 -0.08061505 -0.12969542 0.107464395
-0.0038317149 0.012045034 -0.13131993 -0.2906504 -0.08396294 -0.18618926 -0.09223705 -0.18095274
0.06939816 0.0325733 0.12158998 0.105817385 -0.086929195 -0.03690531 -0.0047512203 -0.011153345
0.06916214 -0.03882038 -0.04945476 0.09800936 -0.09464733 -0.05632735 -0.07389891 -0.24472618
-0.09780959 -0.055884186 0.04516448 -0.13074952 -0.036611397 0.08011923 0.055855367 0.10018893
-0.041595485 0.008988515 0.018865008 -0.0039443537 -0.23224844 -0.090916984 -0.07096883 -0.03988959
-0.022841848 0.0042336364 0.007103322 0.035047416 0.014325682 0.062339786 0.0426521 0.025090441
-0.069788955 0.12956318 0.15670371 0.0958462 0.13261232 -0.09799093 0.015149106 0.07058826
-0.10896909 -0.15703139 -0.0071658026 -0.13801436 0.12670043 0.10289995 0.008043997 0.06339083
0.040539928 0.020861365 0.058062386 -0.0062594307 0.10410333 0.03304701 0.096083425 0.26769322
-0.15782043 -0.05745788 -0.063281134 -0.23081543 -0.269837 -0.09106576 -0.1527689 -0.19212802
0.07115357 0.08606549 0.11285991 0.11181974 -0.12262366 -0.14351955 -0.00490377 -0.1573731
-0.12785496 -0.110723495 -0.072812445 -0.0650445 0.12410147 0.30309662 0.23117523 0.04954745
-0.14321421 0.011405439 -0.105276704 -0.11799445 0.067515396 0.0349563 0.009698062 0.26277724
0.03843976 0.11698552 0.023111511 -0.02591108 -0.11154294 -0.08388621 -0.16525471 -0.26948777
0.039927013 -0.18137264 -0.15810202 -0.003369905 -0.10815252 0.24311516 0.10292487 0.1433079
-0.13898239 -0.017408246 -0.07449202 0.033467464 -0.30443987 -0.09384247 -0.3483908 0.021064164
0.16558571 -0.046661314 0.057895742 0.30760694 -0.15630999 0.0147553 0.054522436 -0.05807451
-0.20528843 -0.061506364 -0.079445325 -0.20816094 0.07066835 -0.014632112 0.011444295 0.08137744
0.17531042 0.13636516 0.16979128 0.036946494 0.009599779 -0.06237629 0.051511347 -0.04974568
-0.17384736 -0.11486044 0.013157063 -0.109385684 0.104394704 -0.03534524 -0.00035584677 -0.02702244

classifier.0.bias f4 [50]
00000000: d76c 0a3c 9c7f cbbd ca32 0b3e 654d 403e
00000010: 104c 493e 8e81 cf3d ee49 50be d060 e53c
00000020: 3095 003e 6703 afbd 78b1 f93d 2cbf 8fbe
00000030: c319 e7bd faa5 743e 9b9c 233e 8eb1 113e
00000040: 60cc 82bc 552b b8bd ea66 333e c251 b63d
00000050: 1eb8 5d3e 75a7 723e 425d 15be 82a2 713e
00000060: 6bf9 0c3e 15fe 853d 8413 133e 7194 0f3e
00000070: c886 163e d6de 783c 7a17 533e 4e87 f93c
00000080: b6ef 48be 2b40 9cbd 8801 753e fd6f 0e3e
00000090: 477f a03e 8f27 953e bbde 0f3d ccd4 63bc
000000a0: c7ec 083e d877 613e adf9 ca3d 83b2 aa3e
000000b0: a4c9 d2bc eebf 83be 709c 5abd 4ea7 50bd
000000c0: 3de9 20be 54aa c73d
0.008448801 -0.09936449 0.13593593 0.18779524 0.19657922 0.101321325 -0.20340702 0.028000265
0.1255691 -0.08545571 0.121920526 -0.2807554 -0.112842105 0.2389144 0.15977709 0.14227888
-0.015966594 -0.0899264 0.17519727 0.08902313 0.21652266 0.23696692 -0.14586356 0.23597148
0.1376702 0.06542603 0.14362913 0.1402147 0.14699852 0.015189847 0.20614424 0.030460026
-0.19622692 -0.076294266 0.23926365 0.13909908 0.31347105 0.29131743 0.03512452 -0.013905715
0.13371573 0.22018373 0.09910903 0.3333932 -0.025730915 -0.25732368 -0.053371847 -0.050940804
-0.15713973 0.097492844

classifier.3.weight f4 [10, 50]
00000000: 685d b53d 4bda e0be 081b 3dbc c8d9 1a3e
00000010: 878c 23be 634d 12be 5bca 4d3d e07b 4d3c
00000020: 6a87 66be f92b 2d3e 0b02 f63d cf71 2d3e
00000030: ec39 eebd 7b1d d3be 1387 d63d 6215 b83d
00000040: 359b d63d b437 a2be ef42 29be 7c8c 1a3e
00000050: 3043 2e3e dd53 343e 3389 7a3d 75da 39be
00000060: 4690 1dbe ac1f 94bd 98c3 423e c738 c5bd
00000070: 5a78 5cbe b4fe 4dbe 23d0 e6be 5812 f13d
00000080: 34c5 4c3e 9c19 00bd 104e bbbe f01a 133e
00000090: 74e3 c1be 7fc6 a7be b558 e63d c80b 3cbe
000000a0: 9047 f33d e241 61be b5ca 6f3d ae34 a6be
000000b0: 9ac6 233e 5d06 44bd 616a 9c3d f67e 3fbe
000000c0: f6b8 9bbe 63e4 72bd 499e b5be e617 443d
000000d0: 7e5f 2ebe 1a6d b0bd 6d3c 5d3e 67c2 4b3e
000000e0: e098 b5bd 4809 2ebe e885 193e 1e77 ce3d
000000f0: a7ad 1bbd 89e2 5cbe d7f8 acbd 6af0 dabc
00000100: e17e 2f3d cb49 123e 92ee 23be 0227 3dbe
00000110: 8dde 173e 9c69 b9be f4f6 4f3e 4768 1a3e
00000120: 0438 2dbe c6fa 37be 80f6 233c 7473 573e
00000130: b9f6 3c3e 9e63 a53d 4a98 e83d 8325 6eba
00000140: 65d8 54be 67fe a1be 0ab0 05be 1191 62be
00000150: 0fdb 533e 4d2f a6bd 652a 303e 6a73 333e
00000160: 02fd 8cbd b438 3a3e 6dd7 00bf f682 043e
00000170: 0ec5 543e e0b9 6c3e 7160 7cbe 70a6 29be
00000180: 7b0e 9fbe 4bfb 99be b102 07be 4ca8 8e3d
00000190: 8ecf 2f3e 2a1d 97bd 5523 48be 25ca e63d
000001a0: ed61 b0bd 751e ad3b 6165 05bd a240 8bbd
000001b0: 0aa8 4c3e 7fc0 263e 7b8a 023e f359 133e
000001c0: 2861 323e 0040 9ebd b652 0f3e 26c0 02be
000001d0: 9b27 903d c2f2 bdbc f490 123e bed7 dfbd
000001e0: 8eb4 99be 86b4 e13d 4796 223d 84cd 68bd
000001f0: f03b 093e 8b1b 33be fc0c 393e f463 f83d
00000200: ee11 113e 60c7 253e 0c92 37bd e4f7 c43d
00000210: 24d8 f4bd 7cc3 f53d 4795 cabd 84c9 18be
00000220: 2824 6c3e 3ec4 943d 678b f03d 7188 f6bd
00000230: 44d6 dbbd 904a 533e 9c45 36be 5dc4 18be
00000240: 7b77 c93d 669f 2dbe 4f9a 7abe 52c5 1abe
00000250: bc89 25be f6fc 8ebd 0567 22be eeba 3cbd
00000260: cfb6 22be be90 d83d 4175 9bbe a408 b7be
00000270: ec44 473e 64da 3a3e 310a 4b3e 3963 10be
00000280: b438 99bd 8c01 083e ffd6 113e b3fd 213e
00000290: e2a6 d93d 8480 94be fecd babd 2030 4f3e
000002a0: b577 9cbd 95dc acbd 5550 4fbe 490e 223e
000002b0: 6445 1abc 8650 1f3e f685 91bd d71e dcbd
000002c0: fc4a 10be e99e f63d 9b13 c6bd 8423 283e
000002d0: 8941 c0bc 7d1b ad3d f9c0 a5bd 4a7f f8bd
000002e0: 1944 1dbe 6e49 21be 81ca 96bc d802 1a3e
000002f0: e857 033d 1a66 3e3e e14c a7bd 7f2d 2f3e
00000300: 48c2 4bbe 9833 a4bc 16a8 dcbc 1073 0e3e
00000310: aac7 5dbe 0127 29be a75f 103e f893 c0bd
00000320: 8dff 423e d24c 463c d316 193e 59bf 9ebe
00000330: 87d0 493e 1487 823d d4dd ecbc acd1 9dbe
00000340: 8714 0ebe 4588 103e 5896 1e3e d271 bd3c
00000350: 4d21 b4bc ace9 303e 653d 353d ff8a 153e
00000360: 1c2b af3d b7f2 2a3e 510d 8b3b 3abf 15bd
00000370: 5b92 cebd f5a3 4abe 7d71 393e d9b2 bbbb
00000380: 0a10 ec3d ea0b 4f3e be50 03be 28d7 73be
00000390: 85fe 4ebe ce8c 57be d90e 163e dda7 58be
000003a0: dd4a aa3b 63e9 303e afe5 533e 2bc4 4fbe
000003b0: 64d3 0fbe c548 fcbd 8626 3cbe 5666 46be
000003c0: d86d 0abe 32ec 60bd a3b1 d9bd ca66 733e
000003d0: 4020 51be 686c 41bd 4583 76be eb35 083e
000003e0: 24ee ba3d 1c3d 383e 5b27 cd3b 081e f9bd
000003f0: b5de f5bd 08ac 0d3e 9439 5abe 6565 9fbd
0.088557065 -0.43916544 -0.011542089 0.1512214 -0.15971576 -0.14287333 0.05024181 0.012541741
-0.22512594 0.16911305 0.120121084 0.16937946 -0.116321415 -0.4123343 0.10474982 0.089884534
0.10478822 -0.31683123 -0.1652944 0.15092653 0.17017817 0.17610116 0.061166 -0.18149741
-0.15387067 -0.072326034 0.19019926 -0.0962997 -0.21530285 -0.20116693 -0.4508067 0.11771077
0.19997102 -0.031274423 -0.36582994 0.14365745 -0.37868845 -0.32768628 0.11247388 -0.18363869
0.11878884 -0.21997789 0.058542926 -0.32462066 0.15993729 -0.04785763 0.07637478 -0.18700776
-0.30414551 -0.059299838 -0.35472324 0.047874354 -0.17028615 -0.086145595 0.21605082 0.19898377
-0.08867049 -0.16995728 0.14992487 0.100813136 -0.038007405 -0.21570791 -0.084459 -0.026725966
0.04284561 0.14285962 -0.16008976 -0.18471912 0.1483099 -0.36213386 0.20309049 0.15078841
-0.169159 -0.17966756 0.010007501 0.21040136 0.18453492 0.08075641 0.11357172 -0.0009084569
-0.20785673 -0.31639406 -0.13055435 -0.22125651 0.20689033 -0.08114491 0.17203672 0.17524496
-0.06884195 0.18185693 -0.50328714 0.12940583 0.20778295 0.2311778 -0.24646164 -0.16567397
-0.31065735 -0.30074534 -0.1318462 0.06965694 0.1716902 -0.073786095 -0.19544728 0.11269025
-0.08612428 0.005283172 -0.032567386 -0.06799437 0.19985977 0.16284369 0.12748139 0.14389782
0.17419875 -0.07727051 0.13996395 -0.12768611 0.07038804 -0.023187045 0.14313108 -0.109298214
-0.30020565 0.1102076 0.039694097 -0.05683662 0.1340177 -0.17490976 0.1807136 0.121284395
0.14166996 0.16189337 -0.044817016 0.09617594 -0.11955288 0.12000176 -0.09891754 -0.14920622
0.23060668 0.07263993 0.11745339 -0.12037743 -0.10734227 0.20633912 -0.17799991 -0.14918657
0.09837242 -0.16955337 -0.24472927 -0.15114334 -0.16165823 -0.06981842 -0.15859611 -0.046076708
-0.15890048 0.105744824 -0.30362895 -0.3574878 0.19459885 0.18247372 0.19828106 -0.1410035
-0.074815184 0.1328184 0.14242171 0.15819435 0.106275335 -0.290043 -0.09121321 0.20233202
-0.0764002 -0.0844051 -0.20245488 0.15825762 -0.009415958 0.15558061 -0.07105629 -0.1074807
-0.14091104 0.120420285 -0.09671708 0.16419798 -0.02346875 0.084525086 -0.08093447 -0.121336535
-0.15358008 -0.15750667 -0.018407108 0.15040147 0.032066256 0.18593636 -0.0816896 0.17107199
-0.19898331 -0.020044133 -0.026935618 0.1391108 -0.21658197 -0.16518785 0.14098988 -0.09403223
0.19042797 0.012103276 0.14950113 -0.31005362 0.19708453 0.0637342 -0.02891437 -0.3082403
-0.13875018 0.14114483 0.15487039 0.023125563 -0.021988535 0.17276639 0.044248004 0.14603804
0.08553144 0.16694151 0.004243531 -0.03655932 -0.10086509 -0.19789107 0.18109699 -0.0057281074
0.11526497 0.20219389 -0.1282377 -0.23812544 -0.20214279 -0.21049806 0.14654101 -0.21157785
0.0051969127 0.1727653 0.20693086 -0.20289676 -0.14045483 -0.12318567 -0.1837407 -0.19374976
-0.13518465 -0.054912753 -0.10629585 0.2376968 -0.20422459 -0.047222525 -0.24073513 0.13301818
0.09127453 0.17992061 0.006260795 -0.12163931 -0.120053686 0.13835156 -0.21311027 -0.07783011

classifier.3.bias f4 [10]
00000000: 0887 2b3e 0e70 133f 2bc0 56be 559e 893d
00000010: 865a cbbd e89f 34be 5cd2 2cbe 1849 34be
00000020: f282 623e ad56 38be
0.16750729 0.57592857 -0.20971744 0.067196526 -0.09929375 -0.17639124 -0.1687712 -0.17606008
0.22120264 -0.18001814
