day2/domain_adaptation/revgrad_23.pt (torch_old, 91045 bytes, 8 tensors)

feature_extractor.0.weight f4 [10, 3, 5, 5]
0.16025136 0.0064103254 0.022589805 0.15016128 0.0071049184 -0.16554902 -0.21159114 -0.10592453
-0.29509255 -0.1339868 -0.16236864 0.043768752 -0.054581232 0.022038592 0.14989842 -0.22228798
0.023040455 -0.045483936 0.13160987 0.031169537 -0.08154804 -0.017234972 0.21370406 0.14305857
-0.033109095 0.23087482 0.07168322 -0.07321207 0.06362604 0.06230704 -0.22879814 -0.076785326
-0.123076685 -0.2445 -0.11539801 -0.15544479 -0.10489076 -0.0675442 -0.15361582 -0.07927464
-0.2872448 -0.20348385 -0.2041386 -0.30538338 -0.13193068 -0.42473632 -0.23402956 -0.14462268
-0.17880432 -0.20065732 -0.2842451 -0.19884433 -0.3262815 -0.05034218 0.035556838 0.13958716
0.15550858 0.18044497 0.19944559 0.22068506 0.38343304 0.46048915 0.4981393 0.42704314
0.14485365 0.43606564 0.5257738 0.5030211 0.25243762 0.11842013 0.5280926 0.5630304
0.32537848 0.29603446 0.11844266 -0.08004582 -0.055112746 -0.05099748 -0.13866319 -0.14459987
0.053447213 -0.07442149 -0.06535316 -0.10971141 0.020959442 0.17931716 -0.14543705 0.12145924
-0.14063914 0.1506348 0.013099032 -0.09857691 0.01730325 -0.18971361 0.16347012 -0.0025975148
-0.0026164856 -0.18918452 0.0014635281 0.1325726 -0.06897173 -0.11758273 0.05302437 -0.07542586
0.11119955 -0.04236569 -0.251857 0.021402415 -0.022841848 0.13153145 -0.09330591 -0.12901478
-0.13937998 0.022247504 0.28275087 -0.070575476 -0.051388584 -0.06692985 0.099831186 0.080133185
-0.1462499 -0.010817607 -0.11805776 0.2359902 0.19108118 0.4450066 0.24507697 0.24662164
0.29072264 -0.1253563 0.33600143 0.23720443 0.3125461 -0.024760691 -0.27299827 0.32093185
0.22906193 0.28000706 -0.2783317 -0.80882907 0.27559727 0.30186346 0.17379317 -0.23655681
-0.65214425 0.09513729 0.10792179 0.06700356 -0.16648577 -0.33779067 -0.074679926 -0.056389384
0.04884245 0.08068291 0.074553244 0.0055740676 0.047165085 -0.17057174 0.1684121 -0.09126896
0.011639865 0.00085222896 -0.14968006 0.18136732 0.055885166 0.011498316 0.1187848 -0.23137717
0.09914356 -0.023302067 0.16059378 0.107252374 -0.086047426 -0.00085235573 -0.09225311 -0.21397136
-0.14683159 -0.0056224996 -0.11397055 -0.0018320406 -0.14100067 -0.17678969 -0.20820332 -0.12573229
-0.09090872 -0.15756775 0.040859524 -0.23131254 0.037419125 -0.22173753 -0.11452453 -0.03835204
-0.091372326 -0.0240205 -0.16679314 -0.19863938 -0.02475406 -0.17318942 -0.11927546 -0.14531697
0.46907914 0.47079134 0.1854467 0.15438633 -0.042093553 0.2563083 0.30919778 0.27388215
0.15098572 -0.31819764 0.1202157 0.25956458 0.27530035 0.3115577 -0.07127024 -0.16779067
0.18758486 0.26154172 0.3397325 0.22551043 -0.2559603 0.033451293 0.40162218 0.42331365
0.38925743 -0.13399369 -0.08221391 -0.031691384 -0.07720069 -0.03227583 0.08096205 -0.011473763
0.019224914 0.014086409 -0.07850161 -0.14430863 -0.06161773 0.00033927933 0.06662761 -0.0662284
-0.0053725326 0.0020270937 -0.03928206 0.091214254 -0.07121771 -0.03275346 0.03739139 -0.13127048
-0.012017773 -0.017715523 0.07014041 -0.012903104 -0.051845077 -0.029070595 -0.07229177 -0.06934115
00000000: ef18 243e b50d d23b 410e b93c e1c3 193e
00000010: 60d0 e83b af85 29be 59ab 58be f6ee d8bd
00000020: 5f16 97be d633 09be f743 26be dd46 333d
00000030: 9290 5fbd 478a b43c f97e 193e 769f 63be
00000040: 56bf bc3c 5d4d 3abd bdc4 063e 4257 ff3c
00000050: a902 a7bd 5b30 8dbc 3dd5 5a3e f27d 123e
00000060: 679d 07bd 736a 6c3e a7ce 923d 36f0 95bd
00000070: 5f4e 823d ab35 7f3d 0f4a 6abe a041 9dbd
00000080: a10f fcbd 355e 7abe cb55 ecbd eb2c 1fbe
00000090: f7d0 d6bd 9d54 8abd 774d 1dbe be5a a2bd
000000a0: c011 93be 125e 50be b609 51be 365b 9cbe
000000b0: d618 07be 0a77 d9be 72a5 6fbe f817 14be
000000c0: 7b18 37be 1d79 4dbe 9388 91be d99d 4bbe
000000d0: 5e0e a7be 9a33 4ebd 0ca4 113d f0ef 0e3e
000000e0: a43d 1f3e 91c6 383e 773b 4c3e 44fb 613e
000000f0: 5651 c43e 3cc5 eb3e 1d0c ff3e 66a5 da3e
00000100: 8454 143e ff43 df3e 1d99 063f fec5 003f
00000110: 813f 813e 4186 f23d 1431 073f c322 103f
00000120: 0298 a63e d491 973e 1192 f23d 10ef a3bd
00000130: e7bd 61bd bce2 50bd b9fd 0dbe fd11 14be
00000140: 77eb 5a3d 4b6a 98bd e1d7 85bd 60b0 e0bd
00000150: 23b3 ab3c eb9e 373e 73ed 14be 9fbf f83d
00000160: b503 10be 0240 1a3e 539d 563c b1e2 c9bd
00000170: 8cbf 8d3c 4944 42be b664 273e 113b 2abb
00000180: 5879 2bbb 96b9 41be dbd3 bf3a 1dc1 073e
00000190: 0d41 8dbd 37cf f0bd 1530 593d e078 9abd
000001a0: 97bc e33d a587 2dbd 67f3 80be 1e54 af3c
000001b0: d41e bbbc 2eb0 063e 2b17 bfbd 731c 04be
000001c0: a0b9 0ebe 6640 b63c b9c4 903e e089 90bd
000001d0: d67c 52bd 8412 89bd 4b74 cc3d de1c a43d
000001e0: 89c2 15be 553c 31bc 44c8 f1bd 6aa7 713e
000001f0: c9aa 433e e8d7 e33e 75f5 7a3e 628a 7c3e
00000200: 99d9 943e 675d 00be 6108 ac3e b8e5 723e
00000210: 0b06 a03e efd6 cabc 6ec6 8bbe 2e51 a43e
00000220: 368f 6a3e 165d 8f3e 7e81 8ebe 6c0f 4fbf
00000230: 161b 8d3e d98d 9a3e d6f6 313e f33b 72be
00000240: edf2 26bf 57d7 c23d 1906 dd3d 2a39 893d
00000250: 3f7b 2abe e6f2 acbe caf1 98bd 8ef8 66bd
00000260: 050f 483d 153d a53d 5faf 983d aba6 b63b
00000270: 2d30 413d 5caa 2ebe 3974 2c3e 38eb babd
00000280: 22b5 3e3c 1e68 5f3a bb45 19be 5bb8 393e
00000290: d8e7 643d 6f63 3c3c 7245 f33d 23ee 6cbe
000002a0: c70b cb3d fae3 bebc b272 243e 22a7 db3d
000002b0: a239 b0bd a070 5fba 33ef bcbd 4f1b 5bbe
000002c0: 055b 16be f23c b8bb 6469 e9bd 1521 f0ba
000002d0: 7b62 10be 5b08 35be 4033 55be f7bf 00be
000002e0: 5a2e babd 7159 21be 515c 273d 32dd 6cbe
000002f0: cc44 193d 2a0f 63be d68b eabd 0717 1dbd
00000300: 6a21 bbbd a4c6 c4bc d2cb 2abe 1f68 4bbe
00000310: 07c9 cabc 9158 31be b146 f4bd f9cd 14be
00000320: 242b f03e 900b f13e bde5 3d3e 7317 1e3e
00000330: 4a6a 2cbd d73a 833e 2c4f 9e3e 483a 8c3e
00000340: 009c 1a3e cdea a2be a633 f63d a6e5 843e
00000350: 2bf4 8c3e 7e84 9f3e 22f6 91bd 51d1 2bbe
00000360: 3f16 403e cce8 853e 6bf1 ad3e 35ec 663e
00000370: 3a0d 83be 3904 093d 6ca1 cd3e 91bc d83e
00000380: c04c c73e a435 09be c45f a8bd d3ce 01bd
00000390: 651b 9ebd a933 04bd 6ecf a53d 73fc 3bbc
000003a0: 917d 9d3c aeca 663c 74c5 a0bd a4c5 13be
000003b0: df62 7cbd 4de1 b139 0e74 883d c1a2 87bd
000003c0: 120c b0bb fdd8 043b 3ae6 20bd 8ace ba3d
000003d0: 97da 91bd 7e28 06bd b727 193d c56b 06be
000003e0: 32e6 44bc 2520 91bc c6a5 8f3d 8a67 53bc
000003f0: 815b 54bd 7525 eebc b50d 94bd bc02 8ebd

feature_extractor.0.bias f4 [10]
-0.55676717 -0.16138023 -1.005242 -0.086738825 -0.59969103 -0.42996007 -0.21138358 -0.09426597
-0.54290605 -0.01116682
00000000: 4b88 0ebf dc40 25be c5ab 80bf 20a4 b1bd
00000010: 5a85 19bf ba23 dcbe f074 58be 840e c1bd
00000020: e4fb 0abf 0af5 36bc

feature_extractor.3.weight f4 [20, 10, 5, 5]
0.47951046 0.34233615 0.117906295 -0.23623419 -0.07845363 -0.10470735 0.14744484 0.19512053
0.05919531 -0.28263104 -0.46344486 -0.08654953 0.26225275 0.4801839 0.16002694 -0.22925098
-0.39368024 -0.2410613 0.07404031 -0.008550735 0.21500385 0.034822255 0.027183812 0.024213543
0.10511276 -0.02083429 -0.0030097598 -0.007851014 -0.30476797 -0.094063014 0.15420157 -0.08941729
0.08079891 -0.12131663 0.049308516 -0.26223236 -0.13662545 0.055361602 0.07193253 0.1586713
-0.4037021 -0.08815531 0.13829939 0.006959393 0.03381016 0.109874986 -0.049487345 -0.12043714
0.051886234 0.08982165 0.12801026 -0.042845525 -0.59063005 -0.63829505 0.32686245 0.12563176
0.4031881 0.2948817 0.06400833 0.22617748 -0.17426439 0.3203879 0.2687566 0.4281642
-0.19065247 -0.33503821 0.084139444 0.19008651 -0.08180924 -0.23021992 0.041301653 -0.3415458
-0.2024722 -0.22788355 0.002504768 -0.0028872814 -0.03624829 -0.014124127 0.03602058 0.048036
0.062529564 0.017326863 -0.015881047 -0.03412439 0.02356017 -0.0599817 -0.041866124 0.019967515
0.027096823 -0.056311164 0.034010626 -0.04597613 0.057179403 0.014812344 -0.026509423 0.011831237
-0.006906858 -0.03969688 -0.010859769 0.016633036 0.013629031 -0.11726012 -0.05496018 0.30867726
-0.03220771 0.26637515 -0.17615145 -0.6658185 -0.21322799 0.16278645 -0.09339567 0.16959272
-0.18966667 -0.34949937 -0.19740908 -0.11504806 0.122423254 0.0368851 0.11378863 -0.06623898
0.31841332 -0.011183806 -0.11363634 0.03282264 0.04995673 -0.077099755 0.039046742 -0.14514966
-0.10836177 0.4888215 -0.13051376 -0.0118535105 -0.017215552 0.11241731 -0.37819102 -0.1492556
0.10439196 0.044001207 0.3720471 0.28215128 0.28954026 0.10130693 -0.063598365 -0.080429696
-0.11975413 0.13636628 0.008305242 -0.1876494 -0.06302881 0.14967784 0.36100212 0.075098015
-0.2230879 0.13311274 -0.24545634 0.09700981 0.20567958 -0.6367441 -0.15198363 -0.06559537
0.057832435 0.36389595 0.32681572 -0.25259888 -0.23970409 -0.11156972 -0.06270191 0.11173259
-0.029168868 0.18780592 -0.32276115 0.25628874 -0.05773702 0.030783005 -0.14886571 -0.10527523
-0.20762415 0.064160965 0.22618438 0.22721857 -0.003147969 -0.09061587 -0.066024534 -0.46048966
-0.013856624 -0.07954034 0.2299148 0.45343965 0.120113395 -0.32235938 0.26359633 -0.079675265
0.1295718 -0.022777257 -0.25442627 0.34205586 0.06896296 -0.031479638 -0.11246327 -0.084732756
-0.35825735 -0.14339371 -0.05075061 -0.1352561 -0.20412311 0.028485356 -0.08147908 0.012361007
0.106887944 0.10618974 0.225024 -0.2656667 0.04499324 -0.02437212 0.100372404 0.20317806
0.30871493 -0.12519005 -0.12563746 -0.014374607 -0.2820095 -0.07054862 0.30508664 -0.02182139
0.16321576 -0.0058816224 0.019498484 0.02757443 -0.45396093 0.22794579 -0.6068128 -0.0879523
0.1066223 0.11271272 0.048629303 -0.17376374 -0.21534532 -0.7618088 -0.17999029 0.045144204
-0.1261072 -0.16527838 -0.16794184 0.4353664 0.1123136 0.39081025 0.1956978 -0.038588174
0.033578232 0.10952155 0.41602886 -0.010100333 -0.28497332 -0.23406261 0.056410242 0.16673695
00000000: 6582 f53e af46 af3e db78 f13d 60e7 71be
00000010: 4cac a0bd cf70 d6bd c8fb 163e adcd 473e
00000020: c876 723d 04b5 90be a548 edbe e140 b1bd
00000030: fe45 863e aada f53e 1ade 233e c5c0 6abe
00000040: 7590 c9be c6d8 76be 72a2 973d 6218 0cbc
00000050: f829 5c3e c8a1 0e3d 96b0 de3c 7b5b c63c
00000060: 5c45 d73d acac aabc 643f 45bb 8aa1 00bc
00000070: 8c0a 9cbe 1ca4 c0bd 04e7 1d3e 6a20 b7bd
00000080: e679 a53d da74 f8bd baf7 493d 5243 86be
00000090: 8be7 0bbe d9c2 623d 5d51 933d bb7a 223e
000000a0: 0bb2 cebe c58a b4bd 5b9e 0d3e 9f0b e43b
000000b0: 867c 0a3d 2306 e13d 3eb3 4abd bfa7 f6bd
000000c0: a986 543d 6af4 b73d 1f15 033e ca7e 2fbd
000000d0: 8833 17bf 4e67 23bf 845a a73e 9da5 003e
000000e0: ac6e ce3e bcfa 963e cd16 833d 129b 673e
000000f0: 5d72 32be e209 a43e 779a 893e 5738 db3e
00000100: 673a 43be 218a abbe 4d51 ac3d 0aa6 423e
00000110: 9a8b a7bd c5be 6bbe ec2b 293d 17df aebe
00000120: df54 4fbe 4e5a 69be 0927 243b 8b38 3dbb
00000130: 1679 14bd e268 67bc 518a 133d 66c1 443d
00000140: 800f 803d 11f1 8d3c f818 82bc 04c6 0bbd
00000150: 4201 c13c 5faf 75bd d07b 2bbd ea92 a33c
00000160: 28fa dd3c 89a6 66bd ba4e 0b3d 7751 3cbd
00000170: f334 6a3d 79af 723c 4a2a d9bc ced7 413c
00000180: ed52 e2bb 3299 22bd 2ced 31bc 0142 883c
00000190: 4d4c 5f3c 1326 f0bd ed1d 61bd f20a 9e3e
000001a0: 3bec 03bd 5362 883e 0c61 34be 1573 2abf
000001b0: 7058 5abe 7eb1 263e 3b46 bfbd b7a9 2d3e
000001c0: fb37 42be 95f1 b2be 9b25 4abe 519e ebbd
000001d0: 0bb9 fa3d d514 173d 030a e93d 4da8 87bd
000001e0: 1207 a33e 483c 37bc 2bba e8bd 0871 063d
000001f0: 6e9f 4c3d 7ae6 9dbd 7aef 1f3d 1da2 14be
00000200: c7ec ddbd d046 fa3e 66a5 05be 3a35 42bc
00000210: a107 8dbc 0c3b e63d 41a2 c1be 76d6 18be
00000220: 74cb d53d 9c3a 343d f57c be3e 2276 903e
00000230: 9f3e 943e 027a cf3d dc3f 82bd 53b8 a4bd
00000240: a741 f5bd 9aa3 0b3e b612 083c 2a27 40be
00000250: 4015 81bd 2645 193e 45d5 b83e fdcc 993d
00000260: 2871 64be b54e 083e e858 7bbe 14ad c63d
00000270: ab9d 523e a901 23bf 99a1 1bbe de56 86bd
00000280: b4e1 6c3d 9250 ba3e 6454 a73e a454 81be
00000290: fd74 75be aa7e e4bd dc69 80bd 0ed4 e43d
000002a0: 8df3 eebc 3250 403e f340 a5be 4738 833e
000002b0: a77d 6cbd a42c fc3c 4170 18be 8a9a d7bd
000002c0: 6d9b 54be d366 833d e19c 673e fcab 683e
000002d0: 284e 4ebb d094 b9bd df37 87bd 4dc5 ebbe
000002e0: e506 63bc 0ce6 a2bd c96e 6b3e 3e29 e83e
000002f0: 03fe f53d 4a0c a5be 19f6 863e c92c a3bd
00000300: 78ae 043e 5f97 babc 2944 82be f221 af3e
00000310: 743c 8d3d cbf0 00bd 2553 e6bd 5e88 adbd
00000320: 826d b7be cdd5 12be dfdf 4fbd 9380 0abe
00000330: a605 51be 1f5a e93c 81de a6bd d285 4a3c
00000340: 11e8 da3d 027a d93d b16c 663e 7705 88be
00000350: d54a 383d 0aa8 c7bc 0c90 cd3d e90d 503e
00000360: e20f 9e3e d231 00be 1ba7 00be 7983 6bbc
00000370: 8d63 90be cb7b 90bd 5134 9c3e c6c2 b2bc
00000380: 0822 273e a0ba c0bb 49bb 9f3c c5e3 e13c
00000390: 916d e8be 9f6a 693e 1558 1bbf 5620 b4bd
000003a0: cb5c da3d edd5 e63d 852f 473d 1fef 31be
000003b0: 7c83 5cbe e705 43bf 604f 38be 21e9 383d
000003c0: 3f22 01be bc3e 29be f2f8 2bbe 58e8 de3e
000003d0: ac04 e63d 4818 c83e 0165 483e a20e 1ebd
000003e0: 5489 093d d64c e03d bc01 d53e de7b 25bc
000003f0: 06e8 91be 1cae 6fbe 6d0e 673d 17bd 2a3e

feature_extractor.3.bias f4 [20]
-0.41875315 0.097993664 -0.2810623 0.17437975 -0.6126527 -0.07679452 -0.5653868 -0.19341417
-0.094307885 -0.034298677 -0.17237997 -0.017913818 -0.36144865 -0.30993024 -0.010914475 0.056840386
0.16477677 -0.08802998 0.15695232 -0.1171168
00000000: d066 d6be e7b0 c83d 66e7 8fbe 9b90 323e
00000010: cfd6 1cbf 7246 9dbd 30bd 10bf 5d0e 46be
00000020: 7e24 c1bd c57c 0cbd 6084 30be 00c0 92bc
00000030: cc0f b9be 2daf 9ebe a0d2 32bc 77d1 683d
00000040: 3ebb 283e 1049 b4bd 1cb8 203e efda efbd

classifier.0.weight f4 [50, 320]
-0.11982356 -0.24524496 -0.21853273 -0.07758902 -0.27708098 -0.30075124 -0.12828708 0.26612797
-0.0023233832 0.11323117 0.136571 -0.039785635 0.077523954 0.13293706 -0.25330964 0.113164045
-0.034680404 -0.04130984 -0.02875172 -0.05071146 0.19777699 0.25119862 0.12822245 0.017080558
0.126871 0.10488032 0.22441259 -0.2110913 -0.20728078 -0.24263887 -0.091588706 -0.08866683
0.029832225 0.20307538 -0.1863163 0.005400791 -0.33610556 0.064245544 -0.16899943 -0.2168101
-0.17645958 -0.057132892 0.28298753 -0.27595937 0.1407052 0.2116925 -0.040972725 0.016543826
0.16179384 0.053651206 0.11361138 0.12468412 -0.15473634 0.13825007 -0.053052727 0.087353975
0.19236873 -0.03575086 -0.13552338 0.02149478 -0.16183627 0.11600305 -0.033642694 -0.077020384
0.15629427 0.068587214 0.02526733 0.0075916965 0.15371963 0.40115282 0.02372471 -0.15088178
0.16047122 0.17569017 0.027740318 0.106992565 -0.19161627 -0.19199301 -0.07718862 -0.17708133
-0.3881392 -0.19416699 0.03435854 -0.24159957 -0.25776005 0.013079856 0.037989695 0.03620905
0.085885674 0.077683486 0.08132701 -0.1529643 -0.07118692 -0.059159543 -0.14261281 0.31904545
-0.0010067642 0.08444152 -0.08461411 0.0144167 -0.3301772 -0.094544776 0.04009814 -0.1742536
0.11415261 0.06150699 0.07371877 0.23581794 -0.19937652 0.04264907 0.03218642 -0.008957134
-0.014965251 -0.05561349 -0.05360789 0.199891 -0.100876756 -0.010051527 0.04885122 -0.20933494
-0.31905976 0.02209294 0.2079989 -0.095877655 -0.029702654 0.065822326 -0.040304877 0.3187952
-0.24701516 0.020613696 -0.008845315 -0.18133609 -0.21512748 -0.0014432844 -0.1187499 -0.4434783
0.019423585 0.098368935 -0.017309714 -0.214635 0.06346766 0.15651903 0.16402636 -0.00923936
-0.06784569 0.23543945 0.16732861 0.20353036 0.2861226 -0.10572739 -0.029647835 0.072911516
-0.09207204 -0.2500601 -0.23337814 -0.0743896 0.020742413 0.12185478 -0.012489911 0.033909705
-0.06465227 -0.12291681 0.05978917 -0.07408614 0.05789265 0.14800528 0.100883454 0.24409363
-0.48517007 -0.13464554 -0.097333685 -0.17622378 -0.4507757 -0.13227192 -0.16292474 -0.38184178
0.01832073 0.029662387 0.037970424 0.22814561 -0.4596164 -0.37839544 -0.09498769 -0.25174832
-0.44390482 -0.18863727 -0.19396634 -0.14406887 0.14418267 0.17145184 0.14893827 0.013990589
-0.34316796 -0.13061187 -0.0002994286 -0.26414037 0.020701833 0.12472417 0.19032131 0.124023296
0.0456227 0.2223977 0.12919605 -0.07566087 -0.30454764 -0.026274862 -0.125017 -0.2458452
-0.1254035 -0.2060114 -0.023773486 0.10315292 -0.20188442 0.17802112 0.040165626 0.15019241
-0.043285273 0.20075706 0.20088048 0.11809432 -0.40400195 0.04877928 -0.35689217 0.061322562
0.24738695 -0.04311732 0.07686612 0.23572041 -0.20027286 -0.0014004508 -0.12596089 -0.043289434
-0.35345954 -0.012133914 -0.13296923 -0.42271093 0.16597977 0.0511861 0.09136772 -0.021451114
0.2384822 0.095169 0.12082204 0.12807918 0.10356707 -0.0928729 -0.032975886 0.023464274
-0.20776813 -0.20443642 -0.03710159 0.0024154778 0.23609017 0.035538767 0.054399308 -0.2556762
00000000: 0e66 f5bd 7f21 7bbe 0bc7 5fbe fee6 9ebd
00000010: 8fdd 8dbe 11fc 99be b05d 03be ed41 883e
00000020: e743 18bb bee5 e73d 45d9 0b3e 43f6 22bd
00000030: e1c4 9e3d a720 083e cdb1 81be 8dc2 e73d
00000040: 0a0d 0ebd 8234 29bd ba88 ebbc d2b6 4fbd
00000050: 0d86 4a3e 1b9d 803e bf4c 033e 87ec 8b3c
00000060: 79ea 013e 7ecb d63d 6acc 653e 5128 58be
00000070: 6a41 54be 5376 78be dc92 bbbd f496 b5bd
00000080: b662 f43c fef2 4f3e b3c9 3ebe 1ef9 b03b
00000090: 0716 acbe 2b93 833d 300e 2dbe 7803 5ebe
000000a0: d2b1 34be 2e04 6abd bee3 903e 8c4a 8dbe
000000b0: 0615 103e ebc5 583e 04d3 27bd eb86 873c
000000c0: 49ad 253e 5ec1 5b3d 15ad e83d 635a ff3d
000000d0: 3473 1ebe 6d91 0d3e d14d 59bd a4e6 b23d
000000e0: 4ffc 443e 7e6f 12bd a4c6 0abe d215 b03c
000000f0: 68b8 25be 0293 ed3d eccc 09bd ddbc 9dbd
00000100: 9b0b 203e 7477 8c3d 6ffd ce3c c4c3 f83b
00000110: ae68 1d3e e763 cd3e 535a c23c c180 1abe
00000120: 9152 243e 20e8 333e aa3f e33c eb1e db3d
00000130: 0e37 44be d199 44be 1115 9ebd cf54 35be
00000140: 2eba c6be b6d3 46be 8abb 0c3d e165 77be
00000150: 20f9 83be e44c 563c 159b 1b3d f14f 143d
00000160: d4e4 af3d 8518 9f3d c78e a63d aca2 1cbe
00000170: 73ca 91bd 4751 72bd 1809 12be ed59 a33e
00000180: 67f5 83ba adef ac3d 2a4a adbd 0634 6c3c
00000190: fc0c a9be b1a0 c1bd f23d 243d 896f 32be
000001a0: d8c8 e93d c1ee 7b3d def9 963d 427a 713e
000001b0: 5c29 4cbe cbb0 2e3d e8d5 033d f1c0 12bc
000001c0: d030 75bc f9ca 63bd f293 5bbd 3ab0 4c3e
000001d0: 7998 cebd 29af 24bc 3818 483d e65b 56be
000001e0: cd5b a3be 41fc b43c aafd 543e 815b c4bd
000001f0: fb52 f3bc dbcd 863d ba16 25bd 2039 a33e
00000200: 8bf1 7cbe 0ede a83c f1eb 10bc 2bb0 39be
00000210: 614a 5cbe 972c bdba 2633 f3bd 960f e3be
00000220: 361e 9f3c a775 c93d 1acd 8dbc 47c9 5bbe
00000230: 55fb 813d 8646 203e 87f6 273e af60 17bc
00000240: aef2 8abd 0a17 713e 3158 2b3e 436a 503e
00000250: a97e 923e 9a87 d8bd 04e0 f2bc a252 953d
00000260: 4490 bcbd e107 80be aefa 6ebe 9359 98bd
00000270: feeb a93c 008f f93d 7ca2 4cbc e7e4 0a3d
00000280: 6968 84bd cfbb fbbd 7de5 743d 79ba 97bd
00000290: d820 6d3d b28e 173e fc9b ce3d aef3 793e
000002a0: 3668 f8be 85e0 09be e256 c7bd 0274 34be
000002b0: 13cc e6be 4a72 07be bed5 26be c480 c3be
000002c0: 5b15 963c 89fe f23c e086 1b3d 019f 693e
000002d0: d752 ebbe 0cbd c1be e888 c2bd 28e5 80be
000002e0: 7e47 e3be 212a 41be 1d9f 46be ca86 13be
000002f0: 9fa4 133e 1291 2f3e 4683 183e c938 653c
00000300: b6b3 afbe 1ebf 05be a0fc 9cb9 683d 87be
00000310: e496 a93c 636f ff3d 97e3 423e edff fd3d
00000320: dede 3a3d 39bc 633e f84b 043e 16f4 9abd
00000330: abed 9bbe 613e d7bc 7504 00be d8be 7bbe
00000340: c669 00be a7f4 52be 9dc0 c2bc d741 d33d
00000350: caba 4ebe 2b4b 363e b684 243d 0acc 193e
00000360: e64b 31bd 4293 4d3e 9db3 4d3e 6fdb f13d
00000370: 58d9 cebe c8cc 473d 92ba b6be 5e2d 7b3d
00000380: 0153 7d3e c99b 30bd fc6b 9d3d b160 713e
00000390: 5414 4dbe 558f b7ba e4fb 00be 4350 31bd
000003a0: a6f8 b4be 53cd 46bc 1629 08be 916d d8be
000003b0: 9af6 293e 84a8 513d 001f bb3d 3fba afbc
000003c0: ae34 743e f7e7 c23d 8c71 f73d 3027 033e
000003d0: f91a d43d 2634 bebd b911 07bd 2638 c03c
000003e0: 2bc1 54be c857 51be d6f7 17bd fe4c 1e3b
000003f0: 9fc1 713e 1991 113d cfd1 5e3d fee7 82be

classifier.0.bias f4 [50]
0.019869989 0.04402225 0.12371079 0.20210277 0.2578503 0.2444371 -0.36111686 -0.1306268
0.2346267 -0.015378096 0.21631204 -0.3011781 -0.13527192 0.38614437 0.2245529 0.105983384
-0.02263455 -0.25699916 0.3742583 0.022788284 0.44418177 0.4119183 -0.21383251 0.3596794
0.2657507 0.055223685 0.19713813 0.12380469 0.4031769 -0.02878445 0.4086087 0.01257279
-0.40210852 -0.26039395 0.26928362 0.28972954 0.46947086 0.35321128 0.1616199 -0.19028512
0.26409018 0.34421355 0.3728187 0.5770354 0.05195602 -0.5738519 -0.1504276 -0.14128104
-0.43004048 0.3470259
00000000: 63c6 a23c ad50 343d 155c fd3d 07f4 4e3e
00000010: f404 843e b84d 7a3e 4fe4 b8be 08c3 05be
00000020: fb41 703e 69f4 7bbc e780 5d3e 0434 9abe
00000030: b984 0abe b7b4 c53e 32f1 653e d10d d93d
00000040: 186c b9bc 6595 83be c99e bf3e 7fae ba3c
00000050: cb6b e33e f5e6 d23e e9f6 5abe e627 b83e
00000060: 7a10 883e 3b32 623d 94de 493e 508d fd3d
00000070: 346d ce3e 5ecd ebbc 2935 d13e 1afe 4d3c
00000080: 2be1 cdbe 5b52 85be 8bdf 893e 6e57 943e
00000090: 7c5e f03e 1cd8 b43e b07f 253e 1ada 42be
000000a0: d436 873e c23c b03e 18e2 be3e 98b8 133f
000000b0: d6cf 543d f5e7 12bf b109 1abe faab 10be
000000c0: 442e dcbe 61ad b13e

classifier.3.weight f4 [10, 50]
0.13222578 -0.38321456 -0.28843132 0.13002041 -0.32009512 -0.1382348 0.11611512 -0.08026601
-0.17179663 0.107586555 0.0022145244 0.12116387 -0.050633248 -0.33447957 -0.04887124 0.09361268
0.08796031 -0.2858976 -0.14933199 0.101180635 0.11336696 0.14113098 -0.062851146 -0.26133603
-0.19602118 -0.23702909 0.14461266 -0.036264826 -0.15053816 -0.24928764 -0.3194809 0.1125613
0.109151 -0.039675605 -0.35740218 0.08692236 -0.2255595 -0.1575437 0.06524685 -0.25286216
0.07594721 -0.070063956 0.050048176 -0.54516107 0.13745326 -0.032935437 0.04611765 -0.08859227
-0.22022982 -0.098044366 -0.29879162 0.09154631 -0.09941395 -0.04211925 0.15855107 0.0933009
0.047693904 -0.14863302 0.14764163 0.09494798 -0.044265445 -0.07042483 -0.053843644 -0.05679184
0.000810137 0.09469091 -0.10790601 -0.04188359 0.12004114 -0.31170112 0.15079242 0.11819179
-0.24397914 -0.11724684 -0.0022632976 0.1605944 0.14296922 0.05495481 0.06814632 -0.057130698
-0.2254777 -0.2220631 -0.053476986 -0.17230919 0.13938616 -0.07714136 0.15848954 0.07933277
-0.08228968 0.13858089 -0.47052994 0.14013547 0.17984378 0.21464664 -0.18702757 -0.22237164
-0.39674067 -0.33916828 -0.17428394 0.11839356 0.10484684 -0.08743914 -0.08775158 0.095997475
-0.0074536637 -0.06436209 0.03573107 -0.082544126 0.17473672 0.10503807 0.064319745 0.10667086
0.14014138 -0.029763523 0.13304465 -0.09674262 0.048473675 0.038862687 0.13172764 -0.07857757
-0.28490406 0.13167895 0.011627894 0.015733572 0.06695703 -0.08990635 0.12432962 0.12428295
0.090337865 0.14333692 0.0028721113 0.047258157 -0.10236964 0.12553558 -0.119665384 -0.13948372
0.13827877 0.05923044 0.09731024 -0.08640451 -0.09777995 0.1438131 -0.108002715 -0.048734285
0.115396634 -0.07134986 -0.18493149 -0.17290501 -0.11137938 -0.059972942 -0.053815693 -0.009063964
-0.11687689 0.02371797 -0.21308585 -0.32826784 0.14662766 0.15166444 0.17674328 -0.116360426
-0.046152506 0.124870606 0.13902271 0.15525107 0.1122032 -0.14535315 -0.14584616 0.15775074
-0.050410986 -0.09321338 -0.12718661 0.12925921 0.04741363 0.1157131 -0.10056845 -0.08277248
-0.13969196 0.097378716 -0.07537749 0.14227524 -0.0006601673 0.07685515 -0.15496026 -0.10281045
-0.12764545 -0.076039486 0.04012366 0.0939158 -0.007759878 0.13590178 -0.06825374 0.15332831
-0.067329414 -0.035345316 0.03810542 0.11710336 -0.14086117 -0.12521501 0.1270014 0.011945934
0.14586642 -0.026150025 0.09727363 -0.22886701 0.15074077 0.11212853 -0.02825531 -0.079690106
-0.049123425 0.08441337 0.14207567 0.11305763 -0.0067786467 0.15935469 0.06470286 0.121911466
0.08767785 0.11071493 0.0028579917 -0.033200562 -0.13019468 -0.110602066 0.11994101 0.10036651
0.099557735 0.16425449 -0.18443705 -0.14810538 -0.10649246 -0.15200213 0.12179787 -0.15134425
0.04720303 0.12286461 0.14747253 -0.17272905 -0.09146191 -0.16230422 -0.09995864 -0.12331751
-0.0817526 -0.025609372 -0.058603052 0.21603498 -0.071069345 -0.027680665 -0.19948712 0.0769132
0.12728953 0.13000205 0.041402746 -0.07901624 -0.19543636 0.13784446 -0.2111262 -0.06864548
00000000: 3266 073e b334 c4be 45ad 93be 1224 053e
00000010: 82e3 a3be 6c8d 0dbe c4cd ed3d 8162 a4bd
00000020: 75eb 2fbe 5756 dc3d 8e21 113b c324 f83d
00000030: cf64 4fbd e840 abbe 362d 48bd 01b8 bf3d
00000040: 8924 b43d 2c61 92be 7cea 18be cb37 cf3d
00000050: f02c e83d a484 103e 1ab8 80bd d6cd 85be
00000060: c7b9 48be c1b7 72be 5715 143e 6d8a 14bd
00000070: ad26 1abe 4245 7fbe 0093 a3be 8a86 e63d
00000080: 8f8a df3d e382 22bd 6bfd b6be 5a04 b23d
00000090: 12f9 66be 2353 21be 24a0 853d 2677 81be
000000a0: 368a 9b3d b17d 8fbd 51ff 4c3d ad8f 0bbf
000000b0: 8cc0 0c3e 4fe7 06bd dce5 3c3d dd6f b5bd
000000c0: ed83 61be 7ccb c8bd 37fb 98be a27c bb3d
000000d0: 8b99 cbbd 3c85 2cbd 365b 223e 8b14 bf3d
000000e0: af5a 433d 4133 18be 5e2f 173e 1674 c23d
000000f0: af4f 35bd e53a 90bd 278b 5cbd 8f9e 68bd
00000100: 605f 543a 4fed c13d d3fd dcbd 218e 2bbd
00000110: 21d8 f53d 4a97 9fbe 5469 1a3e 8a0e f23d
00000120: abd5 79be 1c1f f0bd d553 14bb dc72 243e
00000130: 8666 123e 4b18 613d 4c90 8b3d e101 6abd
00000140: a0e3 66be 8264 63be af0a 5bbd d271 30be
00000150: 3fbb 0e3e 4afc 9dbd 154b 223e 3879 a23d
00000160: 7e87 a8bd 26e8 0d3e 4de9 f0be ac7f 0f3e
00000170: f828 383e 54cc 5b3e 2884 3fbe 64b5 63be
00000180: 9821 cbbe 77a7 adbe 7d77 32be 5378 f23d
00000190: f1b9 d63d 4b13 b3bd 1ab7 b3bd 539a c43d
000001a0: dd3d f4bb 45d0 83bd be5a 123d e50c a9bd
000001b0: 2fee 323e 331e d73d 12ba 833d 4076 da3d
000001c0: 3981 0f3e a2d2 f3bc db3c 083e ff20 c6bd
000001d0: 558c 463d 7b2e 1f3d 9ce3 063e 47ed a0bd
000001e0: f2de 91be d9d6 063e ec82 3e3c b1e3 803c
000001f0: c420 893d d220 b8bd 87a0 fe3d 0f88 fe3d
00000200: 0f03 b93d eac6 123e 083a 3c3b c591 413d
00000210: 2ca7 d1bd 668c 003e 2013 f5bd d2d4 0ebe
00000220: f398 0d3e 9e9b 723d 974a c73d d9f4 b0bd
00000230: db40 c8bd be43 133e 8730 ddbd 9a9d 47bd
00000240: 1255 ec3d e01f 92bd ae5e 3dbe 030e 31be
00000250: df1a e4bd 30a6 75bd d86d 5cbd 0581 14bc
00000260: 275d efbd 304c c23c 2d33 5abe b912 a8be
00000270: 9025 163e ec4d 1b3e 31fc 343e 604e eebd
00000280: 690a 3dbd 29bc ff3d f85b 0e3e 23fa 1e3e
00000290: cbca e53d 75d7 14be b258 15be 6989 213e
000002a0: c07b 4ebd a8e6 bebd 353d 02be 875c 043e
000002b0: cb34 423d fdfa ec3d d5f6 cdbd 9e84 a9bd
000002c0: 690b 0fbe 7e6e c73d 835f 9abd 9ab0 113e
000002d0: 140f 2dba 3c66 9d3d e7ad 1ebe 498e d2bd
000002e0: 7db5 02be 97ba 9bbd b558 243d ed56 c03d
000002f0: 9346 febb d629 0b3e 9ec8 8bbd 1902 1d3e
00000300: 01e4 89bd 40c6 10bd 6e14 1c3d e3d3 ef3d
00000310: e93d 10be 5d38 00be a80c 023e e1b8 433c
00000320: 025e 153e 9438 d6bc 6637 c73d 1d5c 6abe
00000330: ca5b 1a3e a5a3 e53d ae77 e7bc 9134 a3bd
00000340: a535 49bd ebe0 ac3d 497c 113e c28a e73d
00000350: 691f debb e02d 233e ef82 843d b8ac f93d
00000360: 7290 b33d 82be e23d 254d 3b3b 50fd 07bd
00000370: c151 05be 5683 e2bd a2a3 f53d f58c cd3d
00000380: ede4 cb3d 5432 283e 11dd 3cbe f0a8 17be
00000390: b818 dabd 72a6 1bbe 2971 f93d fdf9 1abe
000003a0: f757 413d 71a0 fb3d 0a03 173e e2df 30be
000003b0: 6250 bbbd 1433 26be 1eb7 ccbd e48d fcbd
000003c0: e86d a7bd bfca d1bc c109 70bd 4638 5d3e
000003d0: ce8c 91bd 90c2 e2bc 5a46 4cbe ab84 9d3d
000003e0: 3058 023e 421f 053e ed95 293d 44d3 a1bd
000003f0: 7820 48be 1927 0d3e 7731 58be 0096 8cbd

classifier.3.bias f4 [10]
0.7210758 0.7445223 -0.33768997 -0.1479336 -0.3979582 -0.076241374 -0.12104613 -0.36098936
0.36787862 -0.2477569
00000000: 6c98 383f 0399 3e3f b3e5 acbe e87b 17be
00000010: 2dc1 cbbe 7024 9cbd 09e7 f7bd 99d3 b8be
00000020: 965a bc3e fcb3 7dbe
