day2/domain_adaptation/revgrad_12.pt (torch_old, 91045 bytes, 8 tensors)

feature_extractor.0.weight f4 [10, 3, 5, 5]
00000000: 0381 2c3e 025a c13c b367 383d 7f4e 083e
00000010: 53b3 f33c c8ff 4bbd f2a9 49be 78e7 f6bd
00000020: fb97 86be e30a 0cbe 571f 01be c626 aebc
00000030: 9c00 06be 97bc cbbc 419b f93d 8079 4bbe
00000040: f862 84bd a1a0 abbd 2851 cd3c 917a 59bd
00000050: 3f64 babd 215c c9bd 1c1e 1f3e 1431 763d
00000060: 02a0 81bd c3d3 123e 67ff 20bc 55dd 10be
00000070: 61f1 9f3c c5f9 9d3d fa7a 70be be64 08be
00000080: 4d1d 3fbe 5be0 61be 8f3d cabd fd28 16be
00000090: 422f 13be 48d7 c2bd 71b8 edbd 6602 3b3c
000000a0: d3dd 3fbe 8c1a 53be ec0e 2bbe b09c 98be
000000b0: a097 76bd d904 b3be 443b 59be 0c84 d5bd
000000c0: cb00 15be 4812 cfbd 334b 90be 6a1b ffbd
000000d0: 7e2b 7dbe 505d ab3c 61c5 3bbc edb6 a43d
000000e0: e1c4 3a3e 99aa 4f3e 2f47 193e adc1 a73d
000000f0: ff2b 993e d128 fa3e 6882 0c3f cab3 043f
00000100: 252e 5b3e 3f4d c93e 18eb 043f 97f0 163f
00000110: 0e31 9b3e fead 473e 284c d03e 1f9e 0b3f
00000120: 618d c93e 3cf5 bb3e 9a44 223e 2110 e1bd
00000130: c5a7 14bc 1f22 53bd 78f9 87bd fa14 d5bd
00000140: 5906 843c 861c 8fbd 4348 febd 027d 1bbd
00000150: e3a4 023d 9de5 1b3e 77d1 e2bd 4a98 a63d
00000160: 72e1 44bd 47d4 a43b e675 90bc 890f 3ebd
00000170: 6b5d 133d 7473 64bc 8c5f 143e 6e55 0c3d
00000180: 011c 783d 85f5 66bd cb98 933d 8060 133e
00000190: 7d46 1abd d9ff 15bd d42d 823d 8625 18bd
000001a0: 917d 973d 7102 383a 266a 48be 4ce4 c93b
000001b0: 1068 253c 290f 433d 5023 55bd 4435 75bd
000001c0: 5f4c 17be 9562 a33c ea2c 4a3d 8615 1cbd
000001d0: 82f9 a23c 5d52 b5bd 01f4 de3d 1118 7bbd
000001e0: d2f0 82bd 024f 1d3d 1091 9fbd c5b6 2f3e
000001f0: 5a52 993d 07e0 c73e 5f6c 663e 61e2 2f3e
00000200: e8a0 8c3e 0b59 34be 85a5 ad3e ec20 5b3e
00000210: 8e32 733e 8b9a 85bd 3052 85be 8363 a73e
00000220: 31f2 723e 317a 783e d977 96be fb12 38bf
00000230: 8320 7a3e f99f 933e ce0a 463d bf7d 8bbe
00000240: eae9 09bf 112d ac3d 4a02 5f3d 349a edba
00000250: b83c 51be aa9d 96be adc5 fdbc 7ffb 61bc
00000260: 0c35 b33d 5e85 133e 3c31 873d 1f4d 86bc
00000270: 9844 843d ced8 c6bd 3614 393e d15c 1fbd
00000280: b502 76bd 8ebe 013d 8914 59bd ff0d 253e
00000290: 8e8d a53c 1d8b 1ebd ebf4 003e a142 1dbe
000002a0: f26d 313e 940f 12bd 864c b73d b4c3 bb3d
000002b0: 75ca 68bd 058f c13d 1964 0dbd fc48 05be
000002c0: 7b02 d2bd caba dd39 80f8 d8bd f92c 8fbd
000002d0: 101e 08be 4cd4 3abe bb74 53be 61a5 2cbe
000002e0: 2fe6 debd a3e4 54be ca3b 343d 0c7d 63be
000002f0: 18d5 f0bc cb9a 96be 8692 17be ae3d 84bd
00000300: 353c a3bd 8ed8 9a3b 1ff7 45be 3202 84be
00000310: 6f1f 5bbd d10a 47be 035f 70bd fddf bfbd
00000320: 4e4b b23e 2278 b33e e927 253d d264 133e
00000330: b3dd d1ba 1b24 463e ba45 4c3e 268b 223e
00000340: 0563 133e fc21 6cbe 4a97 1e3e 4733 953e
00000350: 6720 573e e905 a23e e34c 19bd 0e7e 713b
00000360: 5cbb 883e 3840 393e 6cf0 ab3e 2a45 303e
00000370: a91c 95bd 4982 c13d 128b 833e 6473 b73e
00000380: 1494 913e a435 09be c45f a8bd d3ce 01bd
00000390: 651b 9ebd a933 04bd 6ecf a53d 73fc 3bbc
000003a0: 917d 9d3c aeca 663c 74c5 a0bd a4c5 13be
000003b0: df62 7cbd 4de1 b139 0e74 883d c1a2 87bd
000003c0: 120c b0bb fdd8 043b 3ae6 20bd 8ace ba3d
000003d0: 97da 91bd 7e28 06bd b727 193d c56b 06be
000003e0: 32e6 44bc 2520 91bc c6a5 8f3d 8a67 53bc
000003f0: 815b 54bd 7525 eebc b50d 94bd bc02 8ebd
0.16846089 0.02360249 0.04502077 0.13311194 0.029748594 -0.04980448 -0.19693735 -0.12055868
-0.26287827 -0.13676028 -0.12609611 -0.021258723 -0.1308617 -0.0248702 0.121878155 -0.19870567
-0.06464189 -0.08380247 0.025063112 -0.053095404 -0.09101152 -0.09832025 0.1553883 0.0601054
-0.06329347 0.14338593 -0.009826518 -0.14146931 0.019524278 0.077136554 -0.23484412 -0.1331968
-0.18663521 -0.22058241 -0.098750226 -0.14664073 -0.14373496 -0.09513718 -0.11607445 0.011414146
-0.18736963 -0.20615596 -0.16704911 -0.29807043 -0.060203195 -0.34964636 -0.21214014 -0.104255766
-0.14551084 -0.10110909 -0.28182372 -0.12456401 -0.24723622 0.020918518 -0.011460633 0.08042703
0.18239166 0.20279922 0.1496856 0.081912376 0.2991638 0.48859265 0.54886484 0.51836836
0.21404321 0.39316747 0.51921225 0.5896086 0.30310863 0.19499967 0.40683103 0.5453815
0.39365676 0.36710536 0.15846482 -0.109894045 -0.0090732025 -0.051546212 -0.06639379 -0.104043916
0.016116308 -0.06987862 -0.124161266 -0.037961014 0.03189553 0.1522431 -0.110751085 0.081345156
-0.048066564 0.0050301882 -0.017634343 -0.046401534 0.035977762 -0.013943542 0.14489573 0.03426116
0.06057358 -0.05638649 0.07206877 0.1439228 -0.03766488 -0.03662095 0.06356397 -0.03714516
0.07396997 0.0007019407 -0.19571742 0.0061612483 0.010095611 0.04762188 -0.05203563 -0.05986525
-0.14775227 0.019944469 0.04935924 -0.038106464 0.019894365 -0.088536 0.10886384 -0.06130225
-0.06393589 0.038405426 -0.0779134 0.17159565 0.074864104 0.39038107 0.22502278 0.171762
0.27466512 -0.17612092 0.33915344 0.21399277 0.23749754 -0.06523617 -0.26039267 0.3269311
0.23725201 0.24265362 -0.29388312 -0.7190396 0.24426465 0.28832987 0.048350148 -0.27244374
-0.5387255 0.08407033 0.054445542 -0.0018127621 -0.20433319 -0.29417163 -0.030978048 -0.0137928715
0.08750352 0.14406344 0.066011876 -0.016394196 0.06458396 -0.09709321 0.18074116 -0.038906876
-0.060061175 0.031675868 -0.0529981 0.1611862 0.0202091 -0.038706888 0.12593429 -0.15357448
0.17327097 -0.035659388 0.089501426 0.09168187 -0.056833703 0.09451107 -0.03451929 -0.13016123
-0.10254379 0.00042291573 -0.105942726 -0.06991 -0.13292718 -0.18245047 -0.20649998 -0.16859962
-0.10883748 -0.20790343 0.04400233 -0.2221567 -0.029398486 -0.29414973 -0.14801988 -0.06457077
-0.07970468 0.0047255224 -0.1933255 -0.25782925 -0.053496774 -0.1943772 -0.05868436 -0.09368894
0.34823078 0.35052592 0.040321264 0.14393929 -0.0016011506 0.1934971 0.19948474 0.15873393
0.14393242 -0.23059839 0.154874 0.29140684 0.21008454 0.31645134 -0.03742684 0.0036848816
0.26705444 0.18090904 0.33581865 0.17213884 -0.07280857 0.09448678 0.2569204 0.35830224
0.28433287 -0.13399369 -0.08221391 -0.031691384 -0.07720069 -0.03227583 0.08096205 -0.011473763
0.019224914 0.014086409 -0.07850161 -0.14430863 -0.06161773 0.00033927933 0.06662761 -0.0662284
-0.0053725326 0.0020270937 -0.03928206 0.091214254 -0.07121771 -0.03275346 0.03739139 -0.13127048
-0.012017773 -0.017715523 0.07014041 -0.012903104 -0.051845077 -0.029070595 -0.07229177 -0.06934115

feature_extractor.0.bias f4 [10]
00000000: f78a 07bf 3d14 2ebe 163f 4dbf 20a4 b1bd
00000010: 7cec ebbe 1157 bcbe 49ba 15bc d8ba c8bd
00000020: 1cf2 eebe 1630 513c
-0.5294642 -0.16999908 -0.80174387 -0.086738825 -0.4607886 -0.36785176 -0.009138652 -0.098012626
-0.4666909 0.012767812

feature_extractor.3.weight f4 [20, 10, 5, 5]
00000000: 29c7 b03e 8cac 813e dd2a ed3d 9d72 40be
00000010: f051 a23d 6242 82bd d014 6a3e 4802 5f3e
00000020: 2f37 e5bb 3c3c 95be ef1e c1be 62b3 38bd
00000030: 8245 8e3e 77d9 953e 282c da3c 01a1 6cbe
00000040: 06fb 8fbe b7c6 25be 7734 cabc 0895 d9bc
00000050: c21c 443e 2361 043d 91f5 b6bc fa8e 5f3d
00000060: e491 dd3d fabf 743d bb6e 613d 13b1 d93d
00000070: 1e80 81be 59f7 50bc dac8 d83d e4dd a8bd
00000080: e71b 1d3c 3391 37be 5cab 51bd 8c50 0dbe
00000090: 1c62 82be eea1 8bbd 3d02 fb3c ea51 203d
000000a0: c3ff 22be 8da9 52be f22b 703c 4511 a83c
000000b0: dc7a 1d3c 1a34 9c3c a714 02bd cbb7 08bc
000000c0: 2602 133d e1d4 533c f23f d13c afe0 75bd
000000d0: 18db a0be 96bc 9ebe e945 a33e bb51 143e
000000e0: 56bf b33e e424 5d3e e9d9 dabc c594 da3d
000000f0: 6fdf f2bd afb3 813e 6b13 8d3e 4e0f 963e
00000100: c600 81bd aaa1 abbd 7f93 563d d1f7 c73d
00000110: 3d78 81bc d6a7 07be e2d5 173e 3f22 1ebe
00000120: 9959 4abe 783b 0fbe 1db8 d93c 8b38 3dbb
00000130: 1679 14bd e268 67bc 518a 133d 66c1 443d
00000140: 800f 803d 11f1 8d3c f818 82bc 04c6 0bbd
00000150: 4201 c13c 5faf 75bd d07b 2bbd ea92 a33c
00000160: 28fa dd3c 89a6 66bd ba4e 0b3d 7751 3cbd
00000170: f334 6a3d 79af 723c 4a2a d9bc ced7 413c
00000180: ed52 e2bb 3299 22bd 2ced 31bc 0142 883c
00000190: e329 123d 2f46 c6bd 9d7e c63d c580 8e3e
000001a0: 0ffa 653e 643c c83d 7aa2 4ebd 0752 08bf
000001b0: 7a1d c6be d22d ec3c 78c8 fcbc 0bfd 4f3e
000001c0: 6d7a 11be 10af a4be c42b 85be 28d1 2ebd
000001d0: 549a a13d 97df 783d 2a81 9e3d c884 b93d
000001e0: a464 983e 1fbf 853d a730 5c3c 7875 a9bd
000001f0: 4c4a 9a3c 1fe1 8fbd b2f3 f33c 55b4 19bd
00000200: 9fa8 37be d365 e03e f91b 55bd 8208 28bc
00000210: f20e 53bd 2097 d63d a306 81be 8318 89bd
00000220: 67a7 25bd 779e 933d 4638 a03e 450a 373e
00000230: 5d2a 463e 49c7 543e 44e0 a63d 236e 28bb
00000240: 7247 21be ed84 ce3d 9f00 233d 7e58 393c
00000250: 7842 1cbe 66bd 09bd 6cec 773e 8bf8 423e
00000260: 5d51 82bd 7f03 56bd a309 f9be 7b1d 69bd
00000270: 024b c93c c33d 72bd a96f f3bd f49a e9bd
00000280: dbd0 ca3d 10cd 6b3e 8d72 c63d d0dc 53be
00000290: c33a 3dbe 963e aabe f353 953d 7061 f33d
000002a0: 358f d2bd 9c72 27bd 249c e6be 0ff4 873e
000002b0: 5132 b8bc 223c 9c3d e189 03be ff2e d0bd
000002c0: 3cd4 c3bd 78a3 1c3e 28cf 313e 386c 3a3e
000002d0: c1b9 1a3d 11dc 603d 4a41 16be 78b8 9dbe
000002e0: ff8f 513c 6967 06be 4c76 d33d 2df5 193e
000002f0: cd25 da3d f065 b3bd ed67 46ba b30c e03c
00000300: dc8b 1d3e af25 99bd 0c92 03be 67f7 a13e
00000310: bef1 143e 52fa 583c f917 a3bd 6bcc e9bd
00000320: 36dd 53be e021 34be 98bc 01be b807 39be
00000330: b9d3 b0be f0dc 8cbd 6956 78bd f686 9b3d
00000340: c0f6 473d 785f a4bc e96d 553e 6926 57be
00000350: 2619 b23d d168 4a3d d4eb fc3c 42e4 203e
00000360: b3ed 15bd 70ab efbd cf21 8a3c d2de 563d
00000370: 163b 143d 50b0 62be 7abd a2bd bcf2 9bbd
00000380: 8944 6f3d 6eb8 78bd 6ca1 e13d dd98 573d
00000390: 4dd6 9fbe 06e9 863e 352c eabe 8cc6 d73d
000003a0: 26ca e73d 16b4 ce3d 7677 30bd 7a55 99be
000003b0: 37e4 5bbe e5ba 14bf 263c c43d 47a4 823e
000003c0: 8da2 e3bd 9152 413d 8f27 aa3d f281 113f
000003d0: f80a 183e aa05 d03e db48 633e 4894 21be
000003e0: beb4 fcbb c33b 423d 2d0d 983e fc16 86bc
000003f0: 0a18 bfbe 8591 7dbe 085e 1ebc 1b11 143e
0.34526947 0.25326955 0.11580441 -0.18793721 0.079257846 -0.06360318 0.22859502 0.21778214
-0.006995104 -0.29147518 -0.37718913 -0.045092948 0.27787405 0.29267475 0.026632383 -0.23108293
-0.28121203 -0.16189085 -0.02468322 -0.026560321 0.19151595 0.0323192 -0.022333892 0.054579712
0.10818842 0.059753396 0.05503724 0.10629477 -0.25293058 -0.012754285 0.105851844 -0.08245447
0.009589172 -0.17926483 -0.05118881 -0.13800257 -0.25465477 -0.06817995 0.030640716 0.03914062
-0.15917878 -0.20572491 0.014658915 0.020516047 0.0096118115 0.019067813 -0.031757977 -0.008344601
0.03589072 0.012929172 0.025543187 -0.060028728 -0.31417155 -0.31003255 0.31889275 0.14484303
0.35106915 0.21596104 -0.026715236 0.10672907 -0.11859023 0.253324 0.27553877 0.29308552
-0.06298976 -0.08380444 0.052386757 0.09764064 -0.015804404 -0.13247618 0.14827684 -0.15442751
-0.19760741 -0.1398753 0.02657705 -0.0028872814 -0.03624829 -0.014124127 0.03602058 0.048036
0.062529564 0.017326863 -0.015881047 -0.03412439 0.02356017 -0.0599817 -0.041866124 0.019967515
0.027096823 -0.056311164 0.034010626 -0.04597613 0.057179403 0.014812344 -0.026509423 0.011831237
-0.006906858 -0.03969688 -0.010859769 0.016633036 0.035684478 -0.09681355 0.09692118 0.27832618
0.22458671 0.097771436 -0.05044792 -0.53250164 -0.38694364 0.028830443 -0.03085731 0.20311372
-0.14206858 -0.32164812 -0.26009953 -0.042679936 0.07890764 0.060760107 0.0773948 0.09058529
0.29764283 0.06530594 0.013439334 -0.082743585 0.018834256 -0.0702536 0.029779289 -0.037525494
-0.17935418 0.43827686 -0.05202863 -0.010255935 -0.051527925 0.104780436 -0.25200376 -0.06694128
-0.04044285 0.07207959 0.31292933 0.17875011 0.19352098 0.20779146 0.08148244 -0.0025700412
-0.1574991 0.10083947 0.039795514 0.011312602 -0.15259731 -0.03362789 0.24211282 0.19040124
-0.06363175 -0.052249428 -0.48640165 -0.05691288 0.0245719 -0.05914093 -0.11886532 -0.11406508
0.09903117 0.23027444 0.096898176 -0.20689702 -0.18479447 -0.33250874 0.07291403 0.11883819
-0.10281221 -0.040880784 -0.45041 0.2655339 -0.02248493 0.07628657 -0.12845565 -0.10165214
-0.09561965 0.15296733 0.1736418 0.18205345 0.037774805 0.05489737 -0.14673343 -0.308048
0.012790679 -0.13125385 0.10325298 0.15034933 0.10651741 -0.087596774 -0.0007568587 0.027349805
0.15385383 -0.07477891 -0.12848681 0.31634066 0.14545342 0.013243275 -0.07963557 -0.11415943
-0.20689854 -0.17591047 -0.12669599 -0.1806935 -0.34536532 -0.06878078 -0.060629282 0.07594101
0.048819304 -0.020065054 0.20842709 -0.21010746 0.08696203 0.049416367 0.03087417 0.15712073
-0.03660364 -0.11702621 0.016861824 0.05245859 0.03618916 -0.2213757 -0.07946296 -0.07614657
0.05841497 -0.06072276 0.11017117 0.052636016 -0.31218186 0.26349658 -0.45736852 0.10535917
0.11317854 0.100929424 -0.043082677 -0.29948026 -0.21473776 -0.5809768 0.09581785 0.2551596
-0.111149885 0.047197882 0.083083265 0.56838906 0.14847934 0.4062932 0.22195761 -0.15779221
-0.007711976 0.047420274 0.29697552 -0.016368382 -0.37323028 -0.24762543 -0.0096659735 0.1445965

feature_extractor.3.bias f4 [20]
00000000: 97ef 00bf ff72 883e fefe a0be a7e9 0e3d
00000010: 2b9a f4be b35e 9ebe 3cce 98be 5014 4cbe
00000020: 229d 80be 4075 0fbe e9a4 5ebe 927d e13d
00000030: 8822 8fbe b15a 7fbe d279 183e 5084 913c
00000040: 3ba2 783e 7a6e 1bbe f863 843e 11d7 293d
-0.50365585 0.26650235 -0.31444544 0.034890797 -0.4777387 -0.30931625 -0.29844844 -0.19929624
-0.25119883 -0.14009571 -0.21742596 0.11010279 -0.27956033 -0.2493694 0.14890221 0.017763287
0.24280636 -0.15178862 0.2585752 0.04146487

classifier.0.weight f4 [50, 320]
00000000: cbcb 0bbe 8b33 22be 0697 efbd d0ad b4bd
00000010: 945f b8be 595e 84be 526a 66bd ea74 0e3e
00000020: 329f fb3d 4698 be3d bf72 b23d c8a7 b93b
00000030: 4365 4c3c 6a48 033e de24 5cbe 725e 413e
00000040: c852 533d de27 ed3c 0793 cebc e0a1 03bc
00000050: 5664 143e 6dd0 353c ac47 ae3d 957a 0b3c
00000060: ed64 1d3e 9687 e5bc 3ec0 a23d 62fe 6fbc
00000070: ac22 6cbe ed81 b4bd f9e9 c8bd 529d 8c3c
00000080: be49 c2bd 8ada 1e3e d21c 06be 0bf7 1dbc
00000090: 6da0 5ebe 6a8d 8d3d 4c58 dbbd f453 89bd
000000a0: d3c4 d93a 1bda c3bc 7532 243e 6482 2dbe
000000b0: 09d6 a0bd a62c 983d b4b2 83bd 508a 2fbe
000000c0: 698d 733c 45a3 c4bd d143 413d 6f2d 843d
000000d0: 66cd 34be b7fe c33d aebe 70bd f81e ac3d
000000e0: 6b45 1c3e bb77 e5bc 4a1c f3bd d698 8a3d
000000f0: 0142 03be e763 a63d 2e11 00bd 6bf2 e2bd
00000100: c805 413d 8650 3bbd 5971 113d ef7e 513d
00000110: 2b93 f83c 7c31 8f3e 091d 303c 16f7 3bbd
00000120: c508 333d 40d1 e43d 7c51 93ba c647 8d3d
00000130: 7377 d3bd 6fb4 6dbe 1b2c c0bd a500 a8be
00000140: d748 8bbe 7920 8bbd 6e8d 033d 5ace bebd
00000150: 09b8 15be f028 cbbb 2dce 973d d311 1f3d
00000160: e7c1 633e cb31 1a3e ad4a b03d 4f9a 2f3d
00000170: ef2d a0bd 53ea c3bd 1c17 c4bd 5aef c43d
00000180: 045f 24bc 3232 a63d c18a 393c e36c dfbd
00000190: d358 cfbc 83c1 61bd 2c59 1abc de15 2fbe
000001a0: 8562 653d cb0c 403d 7821 683e efb7 dc3d
000001b0: 4943 2abe 6cdf 023d 841e dc3c daaf 75bd
000001c0: 4bbd a63d 5cf4 34bc af63 9dbd 2568 b33d
000001d0: 0b22 efbd 8d57 19bd 9315 823c eea6 69be
000001e0: e261 e6bd e5fb 163d d53f 203e e02d 2fbe
000001f0: 4196 c5bc 37b0 0d3e e9e4 933d c43c 443e
00000200: 886a bebd 435d e0bb 9145 2e3c 1e71 90bc
00000210: 7250 13be a50b 58bd a4da 94bc 79ca 8abd
00000220: 0a48 a43d 4316 4b3d e089 d43c 72b4 493d
00000230: d03c 493d 289d 1c3e 6b24 943d e918 d2bc
00000240: 367d 9bbd bd19 403e 4b1f 133e 2215 003e
00000250: 0700 5a3e 7b3c 84bd 290a d5bc 3e16 803d
00000260: 8e59 19be 3197 2fbe 110b f6bd 0f5f 39be
00000270: 10d1 0b3e aeae 883d 3ca5 ddbc c665 c93d
00000280: 4d61 d73c c4f5 173c 63da 8e3d bd1e ba3c
00000290: 28b0 c63d 24f7 e13d 5de6 203e 8a08 7b3e
000002a0: 3509 8fbe eeb4 a3bd 8ebe a7bd c1ec 81be
000002b0: 5ec3 94be f47d 513d 3b22 0fbd 0526 9fbe
000002c0: aced bb3d cc0b 4d3c af1c db3d 99f8 123e
000002d0: 58d2 60be 74ff 61be 5c6a 5f3c 561e 46be
000002e0: bd20 84be 1c8c 15be d8e3 3dbd c1b4 2cbe
000002f0: 634f 433e d2c0 963e 94af 2f3e d408 f03c
00000300: 7025 89be bcd0 e5bd 6bf2 98bd 0464 3fbe
00000310: 8f71 f53d 19ba fbbc dc58 d83c 49f0 8d3e
00000320: 41dd 6e3d f3da 963d 580b 7b3d acd5 92bd
00000330: c24c 0cbe dfec a5bd efb2 31be a1d8 82be
00000340: 1e03 e9bd 1dd9 7ebe 9817 2abe 4c86 af3c
00000350: cda9 e8bd 2073 6b3e 45be cb3d d0fd 3b3e
00000360: 49b1 fabc cb0c fa3d b227 183d 2f95 6e3d
00000370: 769a a9be 97c1 bdbc cb7d c8be 5558 35bc
00000380: f26a 1e3e c84d a9bd df8a b43d 3262 823e
00000390: 1ade f2bd d3ed 133d 771b b73c 201e ffbc
000003a0: fe20 74be 2547 81bd 1cfa c7bd a63a 9abe
000003b0: e6b7 013e 31dc 693c 4941 233d cb57 9a3d
000003c0: 1687 6f3e 22f5 d03d a0f8 2e3e 5caa 3d3e
000003d0: db51 1c3d 288b c2bd 38c8 133d 1bed 6abd
000003e0: 286d 56be 78dc 09be 7e97 3bbd 3872 06be
000003f0: 5862 163e 2935 a3bc 3dbd 323b b46c ccb8
-0.1365196 -0.15839975 -0.11698727 -0.088222146 -0.3601042 -0.25853232 -0.05625374 0.13911787
0.122862235 0.093063876 0.08713292 0.005665753 0.012475315 0.12820593 -0.21498439 0.18883684
0.05159262 0.028949674 -0.025216592 -0.0080341995 0.144914 0.011097056 0.08509764 0.008513113
0.15370531 -0.028018754 0.079468235 -0.014648052 -0.23060101 -0.08813844 -0.09810252 0.01716486
-0.094867215 0.15513054 -0.13096932 -0.009641419 -0.21740885 0.06911738 -0.10710201 -0.06705466
0.0016614444 -0.023907712 0.16034873 -0.16944271 -0.07853324 0.07430391 -0.06430569 -0.17142606
0.014865258 -0.09601454 0.047183815 0.06453978 -0.17656478 0.095700674 -0.058775596 0.08404344
0.15260856 -0.028011193 -0.1187063 0.067674324 -0.12818147 0.081245236 -0.031266384 -0.11081394
0.047124654 -0.04573109 0.035508487 0.051146444 0.030343613 0.2796744 0.01074911 -0.045889936
0.043709535 0.11172724 -0.0011239494 0.06898455 -0.103255175 -0.23213361 -0.093834125 -0.32812992
-0.2720401 -0.06793303 0.0321173 -0.09316702 -0.14620985 -0.0061999485 0.07412372 0.038835358
0.22241937 0.15058057 0.08607993 0.04287177 -0.07821261 -0.09566178 -0.0957472 0.09615965
-0.010032419 0.08115043 0.011324585 -0.1090944 -0.02531091 -0.055116188 -0.009420674 -0.17098185
0.05600216 0.0468872 0.22669017 0.1077727 -0.1662723 0.031951353 0.02687002 -0.05998216
0.081415735 -0.011044588 -0.07685029 0.08760098 -0.11676415 -0.03743701 0.015879428 -0.22817585
-0.112491384 0.03686132 0.1564935 -0.17107344 -0.024119498 0.13836752 0.072213955 0.19163805
-0.09297663 -0.006847055 0.010636703 -0.017632063 -0.14386156 -0.05274548 -0.018170662 -0.067769
0.08021553 0.049581777 0.02594465 0.04924435 0.04913026 0.15294325 0.07233509 -0.025646644
-0.075922415 0.18759818 0.14367406 0.12508062 0.21289073 -0.06456848 -0.026005821 0.06254242
-0.14975569 -0.17147519 -0.120138295 -0.18102668 0.1365397 0.066739425 -0.027056329 0.09833865
0.026291514 0.009274904 0.06975248 0.022719735 0.09701568 0.110334665 0.15712877 0.24514976
-0.27936712 -0.07993494 -0.08190642 -0.2537594 -0.29055303 0.05114551 -0.034944754 -0.31083694
0.09176192 0.01251502 0.1069883 0.14352645 -0.2195524 -0.22070104 0.013636198 -0.1934751
-0.25806227 -0.14604229 -0.046359867 -0.16865827 0.19073252 0.29443985 0.17156821 0.029301085
-0.26786375 -0.112214535 -0.074681126 -0.18690497 0.1198455 -0.030728387 0.026409559 0.27722386
0.058316473 0.0736598 0.061290115 -0.07169661 -0.13701156 -0.0810182 -0.17353414 -0.255559
-0.11377548 -0.2488751 -0.16610563 0.021426342 -0.11360512 0.22993135 0.099484004 0.1835854
-0.030602114 0.12209471 0.03714723 0.05824774 -0.33125657 -0.0231636 -0.39158472 -0.011068423
0.15470484 -0.08266789 0.0881555 0.25465542 -0.11858769 0.03611548 0.022351963 -0.031142294
-0.2384071 -0.06312398 -0.097645015 -0.3012287 0.12667808 0.014273689 0.039857183 0.075362764
0.23391375 0.102030054 0.1708703 0.18522018 0.038164 -0.09499198 0.036079615 -0.057355028
-0.20940077 -0.13463008 -0.04579877 -0.13129508 0.14685953 -0.01992281 0.002727344 -9.7477256e-05

classifier.0.bias f4 [50]
00000000: d9f7 f13c 882c 07be 034f 103e d90b 473e
00000010: b150 323e a488 cf3d cbed 88be cb42 8c3c
00000020: 5a90 e53d 0b55 92bd dfed 033e 5567 a3be
00000030: f48f abbd ba63 693e 8d2c 2a3e 0d6f 223e
00000040: 1c04 c0bd 903a 1cbe 1008 563e 8480 4d3d
00000050: 0345 653e 4ee2 8c3e 231b 7cbe 999f 5d3e
00000060: 6869 f33d bd41 8c3d 80e8 d23d ab18 2d3e
00000070: 1e17 353e 3535 1c3d e76b 883e 2c94 5a3d
00000080: 2d85 91be 9bb7 c5bd 95aa 873e 7088 2c3e
00000090: 6477 953e 7a9d 773e 2851 883d faf8 10bd
000000a0: 40c4 0f3e d98b 5e3e afe0 213e 6a21 c73e
000000b0: b50a 73bd d486 acbe 9f61 73bd 9e91 1ebe
000000c0: 3a0d 34be 0a4f 223e
0.029537128 -0.13200581 0.1409264 0.19438113 0.17413594 0.10133484 -0.26743922 0.017121693
0.112091735 -0.07145127 0.1288371 -0.31914774 -0.08377066 0.22791949 0.16618557 0.15862675
-0.09375784 -0.15256715 0.20901513 0.05017139 0.22389607 0.27516407 -0.24619727 0.21642913
0.11885339 0.06848476 0.10298252 0.16903941 0.176846 0.03813668 0.26644823 0.053363964
-0.28421918 -0.096541606 0.2649733 0.16848922 0.2919265 0.24181166 0.06656104 -0.035393693
0.14039707 0.21733035 0.15808366 0.3889268 -0.059336383 -0.33696616 -0.05941927 -0.15485236
-0.1758317 0.15850464

classifier.3.weight f4 [10, 50]
00000000: a670 cb3d decf eebe 9ed5 37be dfd4 073e
00000010: 0caa 4cbe 0915 0bbe f1ff bb3d 0993 d8bb
00000020: c2f2 9ebe fbcf 363e e89e 633d f0d3 ed3d
00000030: 3abd c1bc da7d c9be 2751 273d d098 ce3d
00000040: fda1 f73d c9d0 78be 4ae7 4dbe 38a4 f03d
00000050: 6940 153e 73a5 1b3e 056a 5b3c 7aac 26be
00000060: 8a53 26be 5156 4fbe 4169 4a3e 13f0 8dbd
00000070: b5cc 56be 623f 97be caf3 ccbe 77a5 cf3d
00000080: b610 223e a24f 82bd d271 dcbe dac2 073e
00000090: c41d adbe 1ca6 a5be f9eb 8b3d 9c01 2abe
000000a0: 5bf9 b83d 5e6f 53be bbb1 423d 2ffe 01bf
000000b0: 1956 253e b3c4 3dbd e80e 9c3d 0388 12be
000000c0: a4d8 acbe 1537 00be 7cc3 bebe b5c3 a93d
000000d0: c3bb 4cbe a02d e8bd f89c 663e 4d40 1f3e
000000e0: 6d6c 10bd ef52 3abe 67f5 1a3e 6f29 5e3d
000000f0: 3cdd 73bc 008c 20be 76e5 8bbd 0c9f 9bbd
00000100: c63f 9b3c d07a 1d3e 80eb dfbd 69ef 90bd
00000110: 7d6d fb3d e37d a9be 5bfa 323e 0492 db3d
00000120: 78ce 0bbe 84be 26be f2a8 21bd 08c4 223e
00000130: 887a 2c3e 49d5 9e3d ea9b ea3d 25ab 97bc
00000140: 3624 35be ff9d c0be 32ab 2dbd ac2a 50be
00000150: 6270 4d3e eaed 9ebd 739d 343e 450d 0b3e
00000160: bd6d f8bd 82b7 4c3e 661d e3be dfdd 0a3e
00000170: 047c 2c3e a026 733e fe48 3ebe 5e4b febd
00000180: 4b99 b9be 9afb b8be c49c 2ebe 068f e43d
00000190: a478 093e 1749 13be 17be febd ba6b 063e
000001a0: bc13 03be e641 fdbc 4e46 453c d9dd f9bd
000001b0: 50ea 4d3e 5a62 113e 97ee f63d 7a78 e13d
000001c0: 8d07 163e 4805 92bd 8b6f 0c3e cd8a bcbd
000001d0: dc8a 6c3d 76f0 e7bb bbad 123e a7fc e9bd
000001e0: 0c9a 9abe 42df d13d c674 15bd 6675 2ebc
000001f0: bac7 cc3d 7548 03be 7666 163e 62d0 003e
00000200: ee30 033e 63ca 1f3e ef44 febd ab7d a03d
00000210: b7ec 34be 6538 0f3e c4cd 0cbe cd29 e3bd
00000220: ff0e 453e f280 b03d a0bf 0d3e 549f 1fbe
00000230: ce4c 3fbe 3363 3d3e 7fad dfbd 30ac 1dbd
00000240: 51d5 ab3d c348 1ebe 40f3 8dbe 97e1 15be
00000250: 0cb3 17be fc23 07bd 2b5c eebd b017 10bd
00000260: 5a0a 58be a35e b83d b7d1 99be e8dd a0be
00000270: dd70 2a3e a245 533e ee79 4e3e 3311 12be
00000280: c556 a6bd 5b77 143e 11dc 033e 75f5 253e
00000290: 463b f63d 1466 85be a4ed 16be 3575 2d3e
000002a0: a71b 93bd 0d5e e5bd d9cb 3bbe fdf0 0a3e
000002b0: ee53 0a3d 0f10 153e ffd0 4fbd 1234 c4bd
000002c0: 7608 ebbd 2ca8 f33d 7ced e7bd c9a1 2f3e
000002d0: f275 37bd efe3 8f3d ffb6 9bbd f26e bcbd
000002e0: 1f25 26be 7e52 09be 8316 733c e7c6 fa3d
000002f0: abc4 543d ee56 363e f90d 85bd c3f3 293e
00000300: 8c4c 26be a5a2 95bd 8021 813b 5d6b 083e
00000310: a058 62be d315 2abe 3d5b 1c3e b228 b2bd
00000320: c4de 323e 8cfa 75bc b091 1e3e 5488 91be
00000330: 5df7 403e 22fa c23d a47f 993c 673e 4abe
00000340: a7ac ddbd 14f8 0b3e 6914 043e 3e0a aa3d
00000350: 7bda 35bd 5a5f 2c3e 6186 643d 74e6 f33d
00000360: 64bd b63d ab96 1e3e 4bb0 6dbb 3e45 c4bc
00000370: 3d8c a1bd 1a37 4fbe 0fff 153e 1aae 243d
00000380: 9203 023e 300d 3b3e ffcb d8bd 0ad3 22be
00000390: f424 debd 6aa7 70be 6792 1d3e 00b6 49be
000003a0: 975d 6e3d 8209 243e e54a 463e 8d3d 3fbe
000003b0: ba16 11be 024e b8bd bf27 5cbe 7722 1cbe
000003c0: c512 06be 7914 2e3c 6585 94bd 81f7 6b3e
000003d0: 8418 2dbe ef22 fabc bb8e 83be 14e2 d83d
000003e0: 5155 f73d 7bfa 2c3e 7e1e 1e3d e286 8ebd
000003f0: 0315 b8bd 2327 083e 8e19 04be 7a3a e3bd
0.09933595 -0.46642965 -0.17952582 0.13264798 -0.19986743 -0.13582243 0.09179676 -0.006609325
-0.31044585 0.17852776 0.055571467 0.116126895 -0.0236498 -0.3935383 0.040848877 0.100877404
0.12091444 -0.24298395 -0.20107761 0.11750072 0.14575352 0.15199833 0.013391976 -0.16276732
-0.16242805 -0.20247771 0.19766714 -0.06930556 -0.20976527 -0.29540545 -0.40029746 0.10138982
0.15826687 -0.06362845 -0.43055588 0.13257924 -0.33811772 -0.32353294 0.068321176 -0.16602176
0.09031936 -0.20647952 0.04753278 -0.5077848 0.16146125 -0.046330165 0.07620031 -0.14309697
-0.33759034 -0.12521012 -0.37258518 0.08289281 -0.199935 -0.11336827 0.22520816 0.15551873
-0.035259653 -0.18195699 0.15132676 0.054238733 -0.014884289 -0.15678406 -0.068308756 -0.07598695
0.018951308 0.1537888 -0.1093359 -0.07076914 0.122767426 -0.33103856 0.17478316 0.1072121
-0.1365298 -0.16283613 -0.03946776 0.15895092 0.16843617 0.07755525 0.114555195 -0.018514225
-0.17689595 -0.3762054 -0.042399593 -0.20328778 0.20062402 -0.07760222 0.17638187 0.1357928
-0.12130306 0.19991878 -0.44358367 0.135612 0.16844183 0.23745203 -0.18582532 -0.12416719
-0.36249766 -0.36129457 -0.17051989 0.11160092 0.13424927 -0.1438335 -0.124386005 0.13127032
-0.12800497 -0.030915212 0.012040688 -0.12200517 0.20108914 0.14197674 0.12057226 0.11009307
0.14651318 -0.071299136 0.13714425 -0.09206162 0.057749614 -0.0070782257 0.14324085 -0.11425143
-0.30195653 0.10247661 -0.036488317 -0.010648107 0.09999032 -0.12820609 0.14687523 0.12579492
0.12811634 0.15604548 -0.12415492 0.07836469 -0.17668425 0.13986357 -0.13750368 -0.11091957
0.19244002 0.08618344 0.1384263 -0.15588123 -0.18681642 0.18494873 -0.10921764 -0.03849429
0.08390296 -0.15457444 -0.27724648 -0.14636837 -0.14814395 -0.0329933 -0.116386734 -0.03517884
-0.21097699 0.090024255 -0.30042812 -0.314193 0.16644616 0.20632032 0.201637 -0.14264373
-0.08122019 0.14498655 0.12876917 0.16206916 0.12023024 -0.26054442 -0.1473909 0.16939242
-0.07183009 -0.111995794 -0.1833948 0.13568492 0.033771448 0.14556907 -0.050736424 -0.09580244
-0.11476223 0.118973106 -0.113245934 0.1715156 -0.044790216 0.07025897 -0.07603263 -0.09200849
-0.16225098 -0.13410375 0.01483691 0.12244969 0.05194537 0.17806599 -0.06496806 0.16596894
-0.16240138 -0.073064126 0.003940761 0.13322206 -0.2210412 -0.16609888 0.1526918 -0.08699168
0.17467791 -0.015013348 0.15485263 -0.28424323 0.18844362 0.09520365 0.018737622 -0.19750367
-0.108239464 0.13668853 0.12898411 0.08302735 -0.044397812 0.16833249 0.055792216 0.1190919
0.08922842 0.15487163 -0.003626841 -0.023958798 -0.078880765 -0.20235863 0.14648078 0.0402051
0.12696674 0.1826675 -0.10585784 -0.15900818 -0.10846892 -0.23501363 0.1538788 -0.19698334
0.058194723 0.16019252 0.19364507 -0.18675824 -0.14168826 -0.08999254 -0.21499537 -0.15247522
-0.13093098 0.010624998 -0.072520055 0.23043634 -0.16903883 -0.030534236 -0.25694832 0.10589996
0.1207682 0.16892426 0.0386033 -0.069593206 -0.08988383 0.1329618 -0.12900373 -0.11095138

classifier.3.bias f4 [10]
00000000: 5cf3 c53e d6d3 183f 15e6 93be 56aa 2dbb
00000010: ac88 27be 91fa 5cbe 61aa 0fbe 2abe 8ebe
00000020: 31af 9f3e 225b 1bbe
0.3866223 0.59698236 -0.28886476 -0.0026499233 -0.1636073 -0.21579958 -0.14029838 -0.2787946
0.31188348 -0.15171483
