day2/domain_adaptation/revgrad_50.pt (torch_old, 91045 bytes, 8 tensors)

feature_extractor.0.weight f4 [10, 3, 5, 5]
0	0x3e82465c	0.25444305
1	0x3d9e3d32	0.07726516
2	0x3d6dfbbb	0.058101397
3	0x3e2c27fc	0.16812128
4	0xbd4e918c	-0.050431773
5	0xbe920a59	-0.2852352
6	0xbe9a6dd3	-0.30161914
7	0xbe221e27	-0.15831815
8	0xbe936193	-0.2878538
9	0xbdbe2b9d	-0.09285662
10	0xbe0d3c3b	-0.13792507
11	0x3e15b9d0	0.14621663
12	0xbda23d9f	-0.079219095
13	0x3d74e95e	0.05979287
14	0x3e6266ac	0.22109479
15	0xbe28677f	-0.1644573
16	0x3d8b87dd	0.06813023
17	0xbdaaa310	-0.08331883
18	0x3e540c84	0.207079
19	0x3dec175e	0.115278944
20	0x3d6ac792	0.05731923
21	0x3e1679df	0.14694928
22	0x3e67803a	0.22607508
23	0x3e242cff	0.1603279
24	0x3d996026	0.07489042
25	0x3e97fe0d	0.29686013
26	0x3e1aac99	0.15104903
27	0xbc6c9b01	-0.014441253
28	0x3d7f41d7	0.06231865
29	0xbc6eaf5a	-0.014568174
30	0xbe98df01	-0.29857638
31	0xbde53a82	-0.111928
32	0xbdcbcf5a	-0.099516585
33	0xbe6c829a	-0.23096696
34	0xbe252c68	-0.16130221
35	0xbe270032	-0.16308668
36	0xbd2d2085	-0.04226734
37	0xbdc6894b	-0.09694155
38	0xbe4db6c7	-0.20089255
39	0xbe1f1351	-0.15534712
40	0xbecde28d	-0.40211907
41	0xbe66c558	-0.22536218
42	0xbe7704d1	-0.24122931
43	0xbe90eda3	-0.28306302
44	0xbe7267f7	-0.23672472
45	0xbf090c59	-0.53534466
46	0xbe52f1e9	-0.20600094
47	0xbe3f24aa	-0.1866633
48	0xbe7ee7de	-0.24893138
49	0xbe93279c	-0.28741157
50	0xbe9ff041	-0.31237987
51	0xbe7f05a6	-0.24904498
52	0xbea85646	-0.3287832
53	0xbd4051a2	-0.04695285
54	0x3de932a6	0.113866135
55	0x3e2c6216	0.16834292
56	0x3dba1d47	0.090876155
57	0x3e2230bd	0.15838905
58	0x3ec609a5	0.38679233
59	0x3eb881ff	0.3603668
60	0x3f0201e9	0.50784165
61	0x3eec9af7	0.4621198
62	0x3ed507a4	0.41607392
63	0x3ea036f6	0.31291932
64	0x3e21347e	0.1574268
65	0x3efa4251	0.4887872
66	0x3ef9f2bf	0.48818013
67	0x3ed87972	0.42280155
68	0x3e459c61	0.19297935
69	0x3d962f11	0.07333196
70	0x3eefee5c	0.4686154
71	0x3ef87de4	0.48533547
72	0x3e8bec63	0.27328786
73	0x3e3848c0	0.17996502
74	0x3e0e4ac2	0.13895705
75	0x3ca5a45c	0.020219974
76	0x3be1ba99	0.0068886993
77	0xbd18258d	-0.037145186
78	0xbe6feb71	-0.23429658
79	0xbe44f511	-0.1923411
80	0x3e204ba3	0.15653853
81	0xbd1e2dce	-0.0386179
82	0x3d38ff65	0.04516544
83	0xbe5dec62	-0.21672204
84	0xbdc231c9	-0.09482152
85	0x3e892b76	0.2679097
86	0xbde34231	-0.110966094
87	0x3e835330	0.25649405
88	0xbea33004	-0.3187257
89	0x3e39ea64	0.18155819
90	0x3deab3a9	0.11460049
91	0xbd471386	-0.048602603
92	0xbd61e16f	-0.05514663
93	0xbeca3fbc	-0.3950175
94	0x3e57c713	0.21072035
95	0x3d562a89	0.05228666
96	0xbd87c9fc	-0.06630322
97	0xbe8e3212	-0.27772576
98	0xbdabc490	-0.08387101
99	0x3c9fb4b0	0.019495338
100	0xbe1ebb91	-0.15501238
101	0xbe550c6a	-0.20805517
102	0xbd0ff6f7	-0.035147633
103	0xbe2a05e5	-0.16603811
104	0x3e36d7fc	0.17855829
105	0xbe15e2b2	-0.14637259
106	0xbec2c70e	-0.38042492
107	0xbd018589	-0.03162149
108	0xbdc665ea	-0.09687407
109	0x3e365b5d	0.1780829
110	0xbe32f164	-0.17474896
111	0xbe57bcc0	-0.21068096
112	0xbdb7924b	-0.0896345
113	0x3d017230	0.03160304
114	0x3f020cef	0.50800985
115	0xbe268645	-0.16262157
116	0xbdd9384e	-0.106064424
117	0xbdfc2017	-0.12310808
118	0x3e0aad91	0.13542773
119	0x3e80a77d	0.25127783
120	0xbe7fa240	-0.24964237
121	0xbdb93bb9	-0.09044594
122	0xbdce2811	-0.10066236
123	0x3ea6a366	0.32546538
124	0x3e651e69	0.22374882
125	0x3ef545a8	0.47904706
126	0x3eb78555	0.35843912
127	0x3e95d303	0.29262552
128	0x3eb2705d	0.3485135
129	0x3c5ef635	0.013608505
130	0x3ea1029a	0.31447297
131	0x3e84579c	0.2584809
132	0x3e9ade2c	0.3024763
133	0x3de1765d	0.11008904
134	0xbe89b733	-0.26897582
135	0x3ea12538	0.31473708
136	0x3e79aaeb	0.24381606
137	0x3e945f15	0.28978792
138	0xbe3bd12b	-0.1834151
139	0xbf7e235d	-0.9927271
140	0x3e986514	0.29764616
141	0x3eba9d6b	0.36448225
142	0x3e43f41c	0.19136089
143	0xbe30bb84	-0.17259032
144	0xbf4fb717	-0.8113875
145	0x3e3e3783	0.18575864
146	0x3e530bd0	0.20609975
147	0x3e468a1f	0.19388627
148	0xbde9519c	-0.11392519
149	0xbea46964	-0.32111657
150	0xbdf264b7	-0.11835616
151	0xbdb2b96d	-0.087267734
152	0x3bc01609	0.005862002
153	0x3d852a4e	0.065022096
154	0x3d345995	0.044030745
155	0x3d3741cd	0.044740487
156	0xbd5dfba5	-0.054195065
157	0xbea0c6d8	-0.31401706
158	0x3e7cf1c6	0.24701604
159	0xbe4ca483	-0.19984631
160	0x3d90d24e	0.070713624
161	0xbda146cb	-0.07874831
162	0xbe996970	-0.29963255
163	0x3e428322	0.18995336
164	0x3d2c6208	0.042085677
165	0x3d9a865b	0.075451575
166	0x3e04eee3	0.12981753
167	0xbea38ab4	-0.3194176
168	0x3d687c17	0.056758966
169	0x3d3e613a	0.04647944
170	0x3e5d2404	0.2159577
171	0x3e4908ee	0.19632313
172	0xbdfa4626	-0.12220411
173	0xbd3361f8	-0.043794602
174	0xbe16169f	-0.14657067
175	0xbe9da051	-0.30786374
176	0xbe295d74	-0.16539556
177	0x3b5321a8	0.0032216106
178	0xbd374af7	-0.044749226
179	0x3dbf3a4b	0.093372904
180	0xbde2688c	-0.11055097
181	0xbe5ae331	-0.21375729
182	0xbe8e92df	-0.2784643
183	0xbbc2fdea	-0.005950679
184	0xbc4f926e	-0.012669189
185	0xbdcb8482	-0.09937383
186	0x3bb5f3a1	0.0055527245
187	0xbe8cf8e0	-0.27533627
188	0x3de670dc	0.11251995
189	0xbdc34341	-0.09534312
190	0xbc8f8de0	-0.017523706
191	0xbca24b9e	-0.019811448
192	0xbdd8f98b	-0.105944715
193	0xbbaf47e2	-0.0053491453
194	0xbd006d5f	-0.031354304
195	0xbd904677	-0.0704469
196	0x3c993494	0.018701829
197	0xbe4d5b7a	-0.20054427
198	0xbe123bab	-0.14280574
199	0xbe2f5f3c	-0.17126173
200	0x3ef109cc	0.47077787
201	0x3f07d4de	0.53059185
202	0x3ea172ac	0.315328
203	0x3e183ad5	0.14866193
204	0xbe5cc234	-0.21558458
205	0x3e84f5bc	0.2596873
206	0x3ec17322	0.37783152
207	0x3ec4be6b	0.38426527
208	0x3e3aebc3	0.18253998
209	0xbeb4bb7d	-0.35299292
210	0x3d895f06	0.067075774
211	0x3e83b996	0.25727528
212	0x3ed3cd73	0.41367683
213	0x3e8a1845	0.2697164
214	0xbd6130e4	-0.054978266
215	0xbeb132f8	-0.346092
216	0x3d8b428c	0.06799802
217	0x3eb9c87d	0.36285773
218	0x3ea84c65	0.32870784
219	0x3e9cb509	0.3060687
220	0xbefab570	-0.4896655
221	0xbe271fe3	-0.16320758
222	0x3eed0055	0.46289316
223	0x3f04eace	0.51920784
224	0x3f0a5af6	0.54045045
225	0xbe0935a4	-0.13399369
226	0xbda85fc4	-0.08221391
227	0xbd01ced3	-0.031691384
228	0xbd9e1b65	-0.07720069
229	0xbd0433a9	-0.03227583
230	0x3da5cf6e	0.08096205
231	0xbc3bfc73	-0.011473763
232	0x3c9d7d91	0.019224914
233	0x3c66caae	0.014086409
234	0xbda0c574	-0.07850161
235	0xbe13c5a4	-0.14430863
236	0xbd7c62df	-0.06161773
237	0x39b1e14d	0.00033927933
238	0x3d88740e	0.06662761
239	0xbd87a2c1	-0.0662284
240	0xbbb00c12	-0.0053725326
241	0x3b04d8fd	0.0020270937
242	0xbd20e63a	-0.03928206
243	0x3dbace8a	0.091214254
244	0xbd91da97	-0.07121771
245	0xbd06287e	-0.03275346
246	0x3d1927b7	0.03739139
247	0xbe066bc5	-0.13127048
248	0xbc44e632	-0.012017773
249	0xbc912025	-0.017715523
250	0x3d8fa5c6	0.07014041
251	0xbc53678a	-0.012903104
252	0xbd545b81	-0.051845077
253	0xbcee2575	-0.029070595
254	0xbd940db5	-0.07229177
255	0xbd8e02bc	-0.06934115

feature_extractor.0.bias f4 [10]
0	0xbf234067	-0.63770145
1	0xbe65f2ab	-0.22455852
2	0xbfa11c68	-1.2586794
3	0xbdb1a420	-0.086738825
4	0xbf411d71	-0.7543555
5	0xbf1555e7	-0.583342
6	0xbecfa132	-0.4055267
7	0xbe0e4623	-0.13893943
8	0xbf3aaf5e	-0.7292384
9	0x3c8243a9	0.015901404

feature_extractor.3.weight f4 [20, 10, 5, 5]
0	0x3f0f6c49	0.56024605
1	0x3e857f33	0.26073608
2	0x3de95705	0.11393551
3	0xbdf38411	-0.11890424
4	0xbe4b53ea	-0.1985623
5	0xbe7bc032	-0.24585035
6	0xbd98e279	-0.07465071
7	0x3e8c7cfe	0.2743911
8	0x3e79a26d	0.24378367
9	0xbe69051d	-0.22755857
10	0xbe5890af	-0.21148942
11	0xbe2a1e04	-0.16613013
12	0x3e6ef87a	0.23336974
13	0x3f1f801d	0.6230486
14	0x3e6a4bb8	0.22880447
15	0xbde57c01	-0.112052925
16	0xbefd641d	-0.49490443
17	0xbefd1346	-0.49428767
18	0x3d0b959b	0.03407822
19	0xbd00fea9	-0.031492863
20	0x3de0fc09	0.10985572
21	0x3e1267d0	0.14297414
22	0x3e360613	0.17775755
23	0xbded404a	-0.11584528
24	0x3e0958eb	0.13412826
25	0xbd0cae9f	-0.03434622
26	0x3e68c57b	0.22731583
27	0xbd52e034	-0.051483348
28	0xbed19a22	-0.40937907
29	0xbe75cc8b	-0.24003808
30	0x3e84c17a	0.2592886
31	0x3d190e21	0.03736699
32	0x3dec360d	0.11533747
33	0xbe50d844	-0.20394999
34	0x3dc70727	0.09718161
35	0xbea0a1d4	-0.31373465
36	0xbde9ba5d	-0.11412499
37	0xbba8c362	-0.0051502446
38	0x3d5283fa	0.051395394
39	0x3e345790	0.17611527
40	0xbf01d3ba	-0.50713694
41	0xbdb810e6	-0.08987598
42	0x3eac6c24	0.33676255
43	0xbe3ab6da	-0.18233815
44	0xbdb119e2	-0.08647515
45	0x3e2b0e5a	0.16704693
46	0x3d7e8398	0.062137216
47	0x3d7f8170	0.0623793
48	0xbca4ce71	-0.02011797
49	0x3e69718e	0.22797224
50	0x3e60371e	0.21896026
51	0xbf0251d4	-0.5090611
52	0xbf063f3d	-0.52440244
53	0xbe264abb	-0.16239445
54	0x3e950f4b	0.2911323
55	0x3ea4b90b	0.32172427
56	0x3f0d4a94	0.5519192
57	0x3f26a355	0.65092975
58	0x3d104057	0.03521761
59	0x3e385e94	0.18004829
60	0x3e4e7f9f	0.20165871
61	0x3ebeff7d	0.37304297
62	0x3e8397a5	0.25701633
63	0x3d7dc124	0.06195177
64	0xbf04548f	-0.51691526
65	0xbe920cce	-0.28525394
66	0x3e1ff730	0.15621638
67	0x3e2b61ef	0.16736577
68	0xbc5d2acc	-0.013498973
69	0xbe909dab	-0.2824529
70	0x3de19abd	0.11015842
71	0xbf12c503	-0.57331866
72	0x3cdbf75e	0.026851352
73	0xbe20d061	-0.1570449
74	0x3deba4a4	0.11506012
75	0xbb3d388b	-0.0028872814
76	0xbd147916	-0.03624829
77	0xbc6768e2	-0.014124127
78	0x3d138a51	0.03602058
79	0x3d44c166	0.048036
80	0x3d800f80	0.062529564
81	0x3c8df111	0.017326863
82	0xbc8218f8	-0.015881047
83	0xbd0bc604	-0.03412439
84	0x3cc10142	0.02356017
85	0xbd75af5f	-0.0599817
86	0xbd2b7bd0	-0.041866124
87	0x3ca392ea	0.019967515
88	0x3cddfa28	0.027096823
89	0xbd66a689	-0.056311164
90	0x3d0b4eba	0.034010626
91	0xbd3c5177	-0.04597613
92	0x3d6a34f3	0.057179403
93	0x3c72af79	0.014812344
94	0xbcd92a4a	-0.026509423
95	0x3c41d7ce	0.011831237
96	0xbbe252ed	-0.006906858
97	0xbd229932	-0.03969688
98	0xbc31ed2c	-0.010859769
99	0x3c884201	0.016633036
100	0xbe4c6c36	-0.19963154
101	0xbddce97e	-0.107867226
102	0xbc7583d5	-0.0149850445
103	0x3ece11dd	0.40248004
104	0xbe9acf00	-0.30236053
105	0x3d11c02f	0.03558367
106	0xbeb865fc	-0.36015308
107	0xbf198a00	-0.59976196
108	0xbd8cbba7	-0.06871729
109	0x3d1d2451	0.038364712
110	0xbeb310f8	-0.34973884
111	0x3d916cbd	0.07100818
112	0xbd1b378c	-0.03789477
113	0xbea55707	-0.3229296
114	0xbd7512fa	-0.05983255
115	0x3ea56a44	0.32307637
116	0x3dd570c5	0.104219
117	0xbe89ff7b	-0.2695273
118	0xbd936516	-0.07197015
119	0x3da81f46	0.0820909
120	0x3e889759	0.2667797
121	0x3ded4d28	0.11586982
122	0xbdea1d19	-0.11431331
123	0x3e5b36a9	0.2140757
124	0x3cad7560	0.021174133
125	0xbc8975e5	-0.01677985
126	0xbe643c5e	-0.22288653
127	0xbe70ae87	-0.23504077
128	0xbe4ea719	-0.2018093
129	0x3eb56254	0.3542658
130	0xbe353235	-0.17694934
131	0xbe2f4324	-0.17115456
132	0xbc3d5ee3	-0.011558267
133	0x3e502917	0.20328175
134	0xbf1cbc60	-0.6122494
135	0xbe12c0ee	-0.1433141
136	0x3e042581	0.12904932
137	0xbdffd489	-0.1249171
138	0x3efb422f	0.49073932
139	0x3e7279ee	0.23679325
140	0x3f210a74	0.62906575
141	0x3e2937a0	0.16525126
142	0xbe7ae6f4	-0.24502164
143	0x3dfc5f4b	0.12322863
144	0xbe579683	-0.2105351
145	0xbc028e72	-0.007968532
146	0xbbbc5a2d	-0.0057480545
147	0xbee5b915	-0.4486777
148	0xbc67c5b9	-0.014146262
149	0x3e75f534	0.24019319
150	0x3e9ad55a	0.302409
151	0x3c50548d	0.012715471
152	0xbdbe7fed	-0.09301744
153	0x3ec72e98	0.38902736
154	0xbe92da50	-0.28682184
155	0xbe002263	-0.12513117
156	0x3e7d0179	0.24707593
157	0xbfa45c8c	-1.2840743
158	0xbd7f6834	-0.062355235
159	0xbce94e3e	-0.028479692
160	0x3ad443f0	0.0016194563
161	0x3eb94e54	0.36192572
162	0x3e27c8bb	0.16385166
163	0xbdefbfe4	-0.11706522
164	0xbed5d0bc	-0.41760814
165	0xbd281215	-0.04103287
166	0xbc05baba	-0.008162195
167	0xbbb0f0e9	-0.0053998125
168	0x3e91906f	0.28430507
169	0x3dc5fbc0	0.09667158
170	0xbf1fe081	-0.6245194
171	0x3e7c48d3	0.24637155
172	0x3c155bfa	0.009116167
173	0x3e0f9d4f	0.14024852
174	0x3e18bf3a	0.14916697
175	0xbdfc0e55	-0.12307421
176	0xbe548792	-0.20754841
177	0x3dd7afec	0.10531601
178	0x3ec8e1f1	0.3923488
179	0x3dd8f76e	0.105940685
180	0x3cf40ede	0.029792245
181	0xbea9dc4d	-0.3317589
182	0x3dcff37a	0.10153861
183	0xbee63f87	-0.44970343
184	0x3dda1c84	0.1064997
185	0xbdc9ab78	-0.09847158
186	0xbc496272	-0.012291538
187	0x3f25c342	0.64751065
188	0x3ebd6913	0.36994228
189	0xbead19af	-0.33808658
190	0x3f0e6737	0.55626243
191	0x3aa57578	0.0012623509
192	0x3de46490	0.11151993
193	0xbe497628	-0.1967398
194	0xbe54d6a5	-0.20785005
195	0x3ed13696	0.40861958
196	0xbd94046e	-0.072274074
197	0xbdf72de5	-0.120693006
198	0x3bbbd18b	0.0057317666
199	0x3e763fac	0.24047726
200	0xbed00d6c	-0.4063524
201	0xbdc77540	-0.097391605
202	0xbd552738	-0.052039355
203	0xbd80f113	-0.06295981
204	0xbe47a591	-0.19496752
205	0x3e3600ec	0.17773789
206	0x3d57b66b	0.0526642
207	0x3e3784d4	0.17921764
208	0x3e6704ab	0.22560374
209	0x3e381982	0.1797848
210	0x3e986b9a	0.29769593
211	0xbe9bf155	-0.3045756
212	0xbda28239	-0.07934994
213	0xbe991c67	-0.29904482
214	0x3e0d0ad5	0.13773663
215	0xbdc96ac9	-0.09834821
216	0x3eb5789b	0.35443577
217	0xbe1eed18	-0.15520132
218	0xbe8017a0	-0.25018024
219	0xbea544d2	-0.32279068
220	0xbe9bf121	-0.30457404
221	0x3d7f2561	0.062291507
222	0x3d990174	0.0747098
223	0x3e823886	0.2543375
224	0x3bbe3c6f	0.005805544
225	0x3edfea6a	0.4373353
226	0xbd9ce9a8	-0.07661754
227	0x3ccf8747	0.02533306
228	0xbe7e3e6d	-0.24828501
229	0x3e258bb5	0.16166575
230	0xbf2134bd	-0.629711
231	0xbe8b33d4	-0.2718798
232	0x3e7a5c27	0.24449216
233	0x3ecca0f2	0.39966542
234	0xbe359c87	-0.17735492
235	0xbdab1270	-0.08353126
236	0xbe68d59c	-0.22737736
237	0xbeeca007	-0.4621584
238	0xbed9d038	-0.4254167
239	0xbdbe9426	-0.09305601
240	0x3e72fe42	0.23729804
241	0xbea05392	-0.3131376
242	0xbe995e62	-0.2995482
243	0x3ec955ea	0.3932336
244	0x3ecfbcd3	0.4057375
245	0x3e3b7a4f	0.18308376
246	0xbdf5f695	-0.120099224
247	0x3e8241f3	0.2544094
248	0x3e292273	0.16517048
249	0xbdb7b56a	-0.08970149
250	0x3f28b762	0.6590482
251	0x3d054f1d	0.03254615
252	0xbe97d8ae	-0.296575
253	0xbe90a4ae	-0.2825064
254	0xbe1d6a4f	-0.15372585
255	0x3e254748	0.16140473

feature_extractor.3.bias f4 [20]
0	0xbeb935bc	-0.3617381
1	0xbd505dd5	-0.050870735
2	0xbeb377ed	-0.35052434
3	0x3ea4a838	0.3215959
4	0xbf793289	-0.97342736
5	0x3e3c6b8b	0.184004
6	0xbf418179	-0.75588185
7	0xbe9c7685	-0.30559173
8	0xbe9be72b	-0.30449805
9	0x3e06c052	0.13159302
10	0xbe84ce6f	-0.25938746
11	0xbd5db044	-0.054123178
12	0xbee46861	-0.44610885
13	0xbe63fabd	-0.22263618
14	0xbd2385dc	-0.03992258
15	0x3e43f1cf	0.19135211
16	0x3e5372af	0.20649217
17	0xbce4a8db	-0.027912548
18	0x3d002dae	0.031293564
19	0xbd8ad4dc	-0.06778881

classifier.0.weight f4 [50, 320]
0	0xbe188f57	-0.1489843
1	0xbe87c480	-0.26517105
2	0x3c68b01a	0.014202142
3	0xbdeaaf7d	-0.11459253
4	0xbeadf7a9	-0.33978012
5	0xbecf5e5e	-0.40501684
6	0xbe268fe9	-0.16265835
7	0x3ea104a7	0.31448862
8	0x3c9f9e57	0.019484682
9	0x3e4739f9	0.19455709
10	0x3e03b50e	0.12862036
11	0xbbd9fa00	-0.006652117
12	0x3dc12706	0.09431271
13	0x3dc8b73b	0.098005734
14	0xbe30564f	-0.17220424
15	0x3d62fecc	0.055418774
16	0xbe10bc11	-0.14134242
17	0xbd904084	-0.070435554
18	0xbce9354b	-0.028467795
19	0xbdbcefbb	-0.092254125
20	0x3e9b2e63	0.30308828
21	0x3d46fe06	0.0485821
22	0x3e1d0c0e	0.1533663
23	0x3e096662	0.13417962
24	0xbc808726	-0.015689444
25	0x3edeb532	0.43497616
26	0x3d035a41	0.032068495
27	0xbed40b37	-0.41414806
28	0xbe968d6b	-0.29404768
29	0xbebc4f6f	-0.36779353
30	0xbcb474e0	-0.022028387
31	0xbdc98a92	-0.09840883
32	0x3df47231	0.11935843
33	0x3eb2f6c3	0.3495389
34	0xbeadc31f	-0.33937928
35	0xbd81d24e	-0.063389406
36	0xbec380b6	-0.38184136
37	0x3d09a35d	0.03360306
38	0xbe081a57	-0.13291298
39	0xbe8e0a68	-0.27742314
40	0xbe471cb9	-0.1944455
41	0xbd728a2c	-0.059213802
42	0x3e826dfb	0.25474533
43	0xbe064d98	-0.13115537
44	0x3e2fc218	0.17163885
45	0x3e77bde5	0.24193533
46	0xbd938e11	-0.072048314
47	0x3d03abb9	0.03214619
48	0xbde8ce84	-0.11367515
49	0xbe1c5b4a	-0.15269199
50	0xbd06b5ec	-0.032888338
51	0xbd15a76f	-0.03653663
52	0xbe3e756a	-0.18599477
53	0xbd61acee	-0.05509656
54	0xbd0df7f8	-0.03466031
55	0x3e58c82f	0.21170114
56	0x3e0bdc70	0.13658309
57	0x3dbc8df5	0.09206764
58	0xbdd8a448	-0.10578209
59	0xbc3eceab	-0.011645953
60	0xbe3b1678	-0.1827029
61	0x3e39e2a8	0.18152869
62	0xbe0962f3	-0.13416652
63	0xbd9eab7b	-0.07747551
64	0x3d389f5a	0.045073844
65	0x3cbaec6c	0.022817813
66	0xbc7a68d2	-0.01528378
67	0x3dd4f38f	0.103980176
68	0xbd1e1b82	-0.038600452
69	0x3ebba19b	0.36646733
70	0x3d820728	0.06349021
71	0xbe3f9110	-0.1870768
72	0x3e1ead06	0.1549569
73	0x3e2801ce	0.16406938
74	0x3d7a8508	0.061162025
75	0x3e73eaa6	0.2381998
76	0xbeca0517	-0.39457008
77	0xbdb8e941	-0.09028865
78	0xbda64465	-0.08118514
79	0xbd27ff2c	-0.041014835
80	0xbf0d9938	-0.5531192
81	0xbdd8ab82	-0.105795875
82	0x3d448edf	0.047987815
83	0xbe9750c1	-0.29553798
84	0xbe806150	-0.25074244
85	0xbcba7f6f	-0.022765843
86	0xbc6285cb	-0.013825844
87	0xbed632b9	-0.41835573
88	0x3e489a79	0.19590177
89	0x3e17d992	0.1482909
90	0x3de3c683	0.111218475
91	0xbe77b56a	-0.24190298
92	0x3c44b0aa	0.012005011
93	0xbd06558f	-0.03279644
94	0xbd90902e	-0.0705875
95	0x3eef772b	0.46770605
96	0x3e8d96af	0.27654025
97	0x3e6e28bf	0.23257731
98	0xbd0de9ab	-0.03464667
99	0x3d01e6ce	0.031714253
100	0xbea2409e	-0.31689924
101	0xbbb86014	-0.005626688
102	0xbe12ab6b	-0.14323203
103	0xbedbfd52	-0.42966706
104	0x3e4d8b17	0.2007259
105	0xbd63bd3e	-0.055600397
106	0x3de960d8	0.113954246
107	0x3ec1e897	0.37872764
108	0xbb35acc8	-0.0027721394
109	0x3dd7e187	0.10541063
110	0x3d46542a	0.04842011
111	0x3d297da4	0.041379586
112	0x3e0123e6	0.1261135
113	0x3cf8f17e	0.03038859
114	0xbdbdd5a7	-0.092692666
115	0x3e0bd2c0	0.13654613
116	0xbeae4b69	-0.34041908
117	0xbe26fece	-0.16308138
118	0x3e0d4de9	0.13799252
119	0xbe7f9793	-0.24960165
120	0xbea6917e	-0.32532877
121	0x3cf17384	0.029474027
122	0x3dad91de	0.084750876
123	0xbe705d32	-0.23473051
124	0xbc977727	-0.018489433
125	0x3e3309a3	0.17484145
126	0x3bf4edcf	0.007474638
127	0x3e9731d7	0.29530212
128	0xbe976dc7	-0.2957594
129	0x3d94feab	0.072751366
130	0xbe2a8a18	-0.16654241
131	0xbe1386a7	-0.14406835
132	0xbeb75f60	-0.35814953
133	0xbdcb262c	-0.0991939
134	0xbe28a00c	-0.16467303
135	0xbeb8e1c9	-0.3610976
136	0xbd5e252c	-0.05423467
137	0x3e4dabfb	0.20085137
138	0x3c8e64c2	0.01738203
139	0xbe830955	-0.25593057
140	0x3de18cab	0.110131584
141	0x3e623f71	0.22094513
142	0x3e0ea522	0.1393018
143	0x3e0ad31f	0.13557099
144	0xbe6f5d1c	-0.23375362
145	0x3d19ff98	0.03759727
146	0x3e8052fd	0.25063315
147	0x3d3670f5	0.044541318
148	0x3efd875e	0.4951734
149	0xbe2c5707	-0.16830073
150	0x3e19348f	0.14961456
151	0x3cfa5454	0.030557789
152	0x3e8c9efd	0.27465048
153	0xbe1b592f	-0.1517074
154	0xbe6a2ad3	-0.22867899
155	0x3d7e1e4d	0.062040616
156	0xbe29b861	-0.16574241
157	0x3df4314f	0.11923467
158	0xbd23d5d0	-0.03999883
159	0xbd83512f	-0.06411969
160	0x3e994a61	0.2993956
161	0x3d049289	0.03236631
162	0xbd4ddfad	-0.050262142
163	0xbea092a0	-0.31361866
164	0xbe07ac89	-0.1324941
165	0x3e702dba	0.23454943
166	0xbd217f1a	-0.039427854
167	0x3e9d0380	0.30666733
168	0xbf02f5d7	-0.5115637
169	0xbe0b1e9b	-0.13585894
170	0x3c7f9046	0.015598362
171	0xbc909b0d	-0.017652059
172	0xbf0a8865	-0.5411437
173	0xbe44c9f5	-0.19217665
174	0xbc6f476f	-0.014604433
175	0xbed907f4	-0.4238888
176	0x3aa0076c	0.0012209243
177	0x3d50bbad	0.05096023
178	0x3e7c4c5f	0.24638508
179	0x3ed5f316	0.41787022
180	0xbeb86019	-0.36010817
181	0xbe8b714a	-0.2723487
182	0x3ded6829	0.115921326
183	0xbe25c8e3	-0.16189913
184	0xbf0d725b	-0.5525262
185	0xbee0ae07	-0.43882772
186	0xbe3a28c5	-0.18179615
187	0xbeb5e058	-0.35522723
188	0x3dddcd62	0.10830189
189	0x3eb628e7	0.3557808
190	0x3eaa700d	0.33288613
191	0x3e50f2e0	0.2040515
192	0xbebf53a7	-0.3736851
193	0xbe0ba42d	-0.13636847
194	0x3e626c25	0.22111566
195	0xbeb7d98c	-0.35908163
196	0xbe1722be	-0.14759347
197	0xbc9f3f43	-0.019439345
198	0x3e2767f3	0.16348247
199	0x3d1f637c	0.038913235
200	0xbdf8e0f5	-0.12152282
201	0x3e55e7dd	0.2088923
202	0x3da2fd6b	0.07958492
203	0x3df8f664	0.1215637
204	0xbea6cdde	-0.3257894
205	0xbd4e5682	-0.05037547
206	0xbc5d5d15	-0.013510962
207	0xbdd4fc94	-0.10399738
208	0xbeabb1f7	-0.33534214
209	0xbee9d487	-0.45669958
210	0xbdff8250	-0.12476027
211	0x3e85e674	0.26152384
212	0xbe830c33	-0.25595245
213	0xbdc76afc	-0.097372025
214	0x3dc49ec5	0.096005954
215	0xbaf04cfc	-0.001833349
216	0xbe464b5a	-0.19364682
217	0x3e88b946	0.26703852
218	0x3e3ba8c8	0.18326104
219	0x3d0d19a8	0.034448296
220	0xbed18cd3	-0.40927753
221	0x3e840de7	0.25791857
222	0xbe777a54	-0.24167758
223	0xbd8c5194	-0.06851497
224	0x3ed57f5c	0.4169873
225	0x3d609e36	0.05483838
226	0x3e4ab33b	0.19794933
227	0x3ea019f4	0.312698
228	0xbea500dd	-0.3222722
229	0x3ea64a07	0.32478353
230	0xbe295490	-0.16536164
231	0xbe8de8d7	-0.27716705
232	0xbed14abb	-0.40877327
233	0xbe849009	-0.2589114
234	0xbebf13ec	-0.37319887
235	0xbf04cc8a	-0.518746
236	0x3c2aa143	0.010414424
237	0x3c67da94	0.014151234
238	0x3d11e6f3	0.03562064
239	0xbd645708	-0.055747062
240	0x3e9d0f21	0.30675605
241	0x3e589e33	0.21154098
242	0x3d492b4d	0.04911356
243	0xbd68cf4a	-0.05683831
244	0x3e01076d	0.12600489
245	0xbdb16756	-0.08662288
246	0x3dc8867b	0.09791275
247	0x3db183c5	0.08667711
248	0xbdf3c07a	-0.11901946
249	0xbeee593f	-0.46552464
250	0xbd9b491d	-0.075823046
251	0x3e3e18f1	0.18564202
252	0x3e352dc4	0.1769324
253	0x3dbbc74b	0.091688715
254	0xbd4cf88c	-0.05004172
255	0xbddebd40	-0.1087594

classifier.0.bias f4 [50]
0	0x3e04f482	0.12983897
1	0x3ea0e447	0.31424162
2	0x3e3bc991	0.1833861
3	0x3e147420	0.14497423
4	0x3f05971d	0.52183706
5	0x3f3c8d2c	0.7365291
6	0xbf3b7f51	-0.73241144
7	0x3d6c2e0e	0.05766111
8	0x3e6350f0	0.22198844
9	0x3ece64c9	0.40311268
10	0x3f0eb22e	0.5574063
11	0xbed45748	-0.4147284
12	0xbea57b64	-0.32320702
13	0x3f06c6b2	0.52646935
14	0x3eef07ff	0.46685788
15	0x3d194a5d	0.037424434
16	0x3e1bc613	0.15212278
17	0xbd7fa3df	-0.06241214
18	0x3f265c5d	0.64984685
19	0xbe32d8ec	-0.17465562
20	0x3f1e9dad	0.61959344
21	0x3e1a1852	0.1504834
22	0xbe02e739	-0.12783517
23	0x3f18db5c	0.59709716
24	0x3f1c5b89	0.6107717
25	0x3c1fb6f0	0.009748206
26	0x3f10acfb	0.5651395
27	0x3cdbd231	0.026833626
28	0x3f44a0bc	0.7680776
29	0xbdb039ba	-0.086047605
30	0x3f18ea24	0.5973227
31	0xbe6dca79	-0.23221768
32	0xbed9cd91	-0.42539647
33	0xbec22828	-0.37921262
34	0x3ed0f994	0.40815413
35	0x3f03eb89	0.51531273
36	0x3f758e98	0.95920706
37	0x3f3cb685	0.73716
38	0x3eb2adae	0.34898132
39	0xbe351f00	-0.17687607
40	0x3ecbb3fa	0.3978575
41	0x3f1fbb4d	0.62395173
42	0x3f167a17	0.58780044
43	0x3f74ddf4	0.95651174
44	0xbd38ae7c	-0.045088276
45	0xbf59e6a7	-0.8511757
46	0x3d2946e9	0.04132739
47	0xbe06af8c	-0.13152903
48	0xbf326a2d	-0.6969326
49	0x3f72d30e	0.94853294

classifier.3.weight f4 [10, 50]
0	0x3df8d7e1	0.12150551
1	0xbeb0ac5f	-0.3450651
2	0xbe922ccb	-0.285498
3	0x3dc88256	0.097904846
4	0xbe560fa8	-0.2090441
5	0xbdeca73d	-0.11555336
6	0x3dd0585f	0.101731054
7	0xbdfa16d8	-0.12211388
8	0xbdaf0270	-0.08545387
9	0x3d75a7d0	0.05997449
10	0xbddfd3c0	-0.1092906
11	0x3ddf8932	0.1091484
12	0xbcda8346	-0.026673924
13	0xbe5e25da	-0.21694127
14	0xbde67a9c	-0.11253855
15	0x3d8dea01	0.06929398
16	0x3d5acfa3	0.053420674
17	0xbe91063c	-0.2832507
18	0xbdbdf855	-0.09275881
19	0x3d2e0450	0.04248458
20	0x3d901ed6	0.070371315
21	0x3dec9c35	0.115532316
22	0xbd93c4e1	-0.07215286
23	0xbdde1552	-0.1084391
24	0xbe30b7f3	-0.17257671
25	0xbe1115e4	-0.14168507
26	0x3dbf8d53	0.09353127
27	0xbd6f20e4	-0.058380976
28	0xbe311a1c	-0.17295116
29	0xbe0d820f	-0.13819145
30	0xbe8609b6	-0.26179284
31	0x3dad9b34	0.08476868
32	0x3d8a29e0	0.06746268
33	0xbdfa6031	-0.12225378
34	0xbe6579c9	-0.22409739
35	0x3d8e7964	0.06956747
36	0xbe156185	-0.14587982
37	0xbe2166c6	-0.15761861
38	0x3c37316a	0.011181215
39	0xbe7538b0	-0.23947406
40	0x3ca31432	0.01990709
41	0xbd80a220	-0.06280923
42	0xbba80246	-0.005127224
43	0xbf0d3c4b	-0.55170125
44	0x3dc8a13e	0.097963795
45	0xbdbbaab4	-0.091634184
46	0x3bd19489	0.0063958806
47	0xbdaa7279	-0.08322615
48	0xbe542edc	-0.20721
49	0xbd85cac3	-0.06532814
50	0xbe3c6570	-0.1839807
51	0x3d2dcd1b	0.042431932
52	0xbd5280c1	-0.05139232
53	0xbd74a830	-0.05973071
54	0x3d6103b0	0.054935157
55	0x3d0801e7	0.03320494
56	0x3d33f3b5	0.04393359
57	0xbd9c6dce	-0.07638131
58	0x3df699ee	0.120410785
59	0x3d6ce10b	0.057831805
60	0x3b3a0126	0.0028382032
61	0xbd2b7486	-0.041859172
62	0xbd017457	-0.03160509
63	0xbc2e80b2	-0.010650801
64	0xbc409a53	-0.011755544
65	0x3db552fb	0.08853718
66	0xbd681ad9	-0.05666623
67	0xbd7f8e62	-0.062391646
68	0x3db588e9	0.08864004
69	0xbe4d539a	-0.20051423
70	0x3d508e4e	0.050916962
71	0xbd49dfdb	-0.04928575
72	0xbe77dd85	-0.24205597
73	0xbe165ac2	-0.14683059
74	0xbd5e0e47	-0.054212835
75	0x3e0a1416	0.13484225
76	0x3d88f86c	0.06688008
77	0x3d4a90e1	0.049454574
78	0x3d812b94	0.0630714
79	0xbcf2d9f6	-0.029644947
80	0xbdf4bf4f	-0.11950552
81	0xbe483c15	-0.1955417
82	0xbdbff662	-0.09373166
83	0xbe33ebdc	-0.17570442
84	0x3db7dcd6	0.08977668
85	0xbd98694e	-0.0744196
86	0x3db4bc88	0.08825022
87	0x3ce3abc0	0.027791858
88	0xbde2fcf4	-0.11083403
89	0x3d71ffd9	0.059081886
90	0xbea2fd06	-0.31833667
91	0x3e06e080	0.13171577
92	0x3e0157be	0.12631127
93	0x3e2bbe5f	0.1677184
94	0xbe303a53	-0.17209749
95	0xbdbb141e	-0.091346964
96	0xbebc5d06	-0.3678972
97	0xbe6f4a04	-0.23368078
98	0xbdf98d04	-0.121851
99	0x3decbd04	0.11559489
100	0x3dd672b9	0.104711
101	0xbe072cf2	-0.13200739
102	0xbd7f33f3	-0.062305402
103	0x3db19889	0.08671672
104	0xbcc4445c	-0.023958378
105	0xbd464859	-0.04840884
106	0x3af929eb	0.0019009685
107	0xbd9198e7	-0.07109242
108	0x3e08321b	0.13300364
109	0x3d722bf8	0.059123963
110	0x3d5b3552	0.053517647
111	0x3dbdc128	0.09265357
112	0x3e070b45	0.13187893
113	0xbd06d4b4	-0.032917693
114	0x3da8f30d	0.08249483
115	0xbe13eca5	-0.14445741
116	0x3d06008c	0.032715365
117	0x3cd8997f	0.02644038
118	0x3ddd0962	0.10792805
119	0xbddbaa8a	-0.10725887
120	0xbe468888	-0.1938802
121	0x3d64e32b	0.055880707
122	0xbd47281c	-0.048622236
123	0xbaed5e04	-0.0018109684
124	0x3d5e4d8f	0.054273184
125	0xbcfd9b48	-0.030957833
126	0x3db43650	0.08799422
127	0x3dc2756a	0.09495051
128	0x3daf882c	0.085708946
129	0x3dcd1a01	0.100147255
130	0xbd5f05eb	-0.054449003
131	0x3d1539da	0.036432125
132	0xbdfdef57	-0.12399166
133	0x3dbe8f33	0.09304657
134	0xbda48098	-0.0803234
135	0xbdfa3369	-0.12216837
136	0x3de09628	0.1096614
137	0x3d4a36ee	0.04936879
138	0x3d527fea	0.05139152
139	0xbd7e553a	-0.062092997
140	0xbd75be87	-0.059996154
141	0x3e0434c9	0.12910761
142	0xbc665fe3	-0.014060947
143	0xbd123a00	-0.035699844
144	0x3dd78ffd	0.105255105
145	0xbd7510e1	-0.05983055
146	0xbe1929db	-0.14957373
147	0xbe4332c2	-0.19062331
148	0xbd46ceb9	-0.04853699
149	0x3b80fd5a	0.003936452
150	0xbd389628	-0.045065075
151	0x3c0ebc5f	0.008711903
152	0xbdfb69c7	-0.12276035
153	0xbd05a6b5	-0.032629687
154	0xbe96654e	-0.29374164
155	0xbe77a8fa	-0.24185553
156	0x3dfc8030	0.12329137
157	0x3de608c0	0.11232138
158	0x3e088bd0	0.13334584
159	0xbe0aa677	-0.13540064
160	0xbdd73eb6	-0.10510008
161	0x3d92136f	0.07132613
162	0x3e01dff8	0.12683094
163	0x3e10a681	0.14126016
164	0x3d8507a6	0.064955994
165	0xbde76940	-0.11299372
166	0xbdce9a6e	-0.10088049
167	0x3df15439	0.11783642
168	0xbc6a17f8	-0.014287941
169	0xbdb2da0a	-0.08732994
170	0xbe0ba27a	-0.13636199
171	0x3dec0fe9	0.11526472
172	0xbe22a362	-0.15882638
173	0x3dd5bd89	0.104365416
174	0xbdcebc35	-0.100944914
175	0xbda4848d	-0.080330946
176	0xbd838488	-0.06421763
177	0x3dde660d	0.108593084
178	0xbdab2531	-0.08356703
179	0x3dfdb9e8	0.123889744
180	0xbd2d4a81	-0.04230738
181	0x3d9238a0	0.071397066
182	0xbd82fb10	-0.063955426
183	0xbe0f2b52	-0.13981369
184	0xbdcf418a	-0.101199225
185	0xbded48a4	-0.11586121
186	0xbd84714f	-0.064669244
187	0x3d92aba4	0.07161644
188	0xbb9fde6b	-0.004878809
189	0x3d95a726	0.07307272
190	0xbd8da027	-0.06915312
191	0x3e05bfac	0.13061398
192	0xbc2597c8	-0.010106988
193	0xbc62b85f	-0.013837903
194	0x3d0e5f7c	0.03475903
195	0x3dc9778d	0.098372556
196	0xbdd31c71	-0.10308159
197	0xbdf154e7	-0.11783772
198	0x3dc15e0e	0.09441768
199	0xbcb16bbe	-0.02165782
200	0x3dd10aee	0.10207163
201	0xbd0761dd	-0.033052314
202	0x3da387d2	0.0798489
203	0xbccf63a1	-0.025316061
204	0x3d576aac	0.052591965
205	0x3d30cce4	0.04316415
206	0x3c8dd348	0.01731266
207	0xbdcb5655	-0.09928576
208	0xbda349fa	-0.07973094
209	0x3c9706f5	0.018435935
210	0x3d83a0c7	0.0642715
211	0x3dcc8713	0.09986701
212	0xbc9f2c01	-0.019430162
213	0x3e09d035	0.13458331
214	0x3d772435	0.060337264
215	0x3dbb4954	0.091448456
216	0x3d345692	0.044027872
217	0x3dd08ab2	0.10182704
218	0xbc35bc8f	-0.011092319
219	0xbcde7ece	-0.027160075
220	0xbe104047	-0.1408702
221	0xbcf6d58c	-0.030131124
222	0x3d5eb798	0.054374307
223	0x3d8e4eb7	0.069486074
224	0x3ceda5d3	0.029009735
225	0x3e04f71d	0.12984891
226	0xbdeaddae	-0.11468063
227	0xbda3c99c	-0.07997438
228	0xbdc98488	-0.098397315
229	0xbd726886	-0.059181713
230	0x3dcfb949	0.10142762
231	0xbe458205	-0.1928788
232	0xbd0156c0	-0.031576872
233	0x3da0ed0e	0.078577146
234	0x3dc0b060	0.09408641
235	0xbe36927a	-0.17829314
236	0xbd11ae24	-0.035566464
237	0xbe0d2855	-0.13784917
238	0xbd255e16	-0.04037293
239	0xbd3da491	-0.04629952
240	0xbdc42814	-0.09577957
241	0xbd8484b9	-0.06470627
242	0x3ba6f7fe	0.005095481
243	0x3e35a3fe	0.1773834
244	0xbd9bfa86	-0.07616143
245	0xbc8ef2c6	-0.017449748
246	0xbe8a0afe	-0.2696151
247	0x3d4a3931	0.04937095
248	0x3db40702	0.08790399
249	0x3df2a560	0.11847949
250	0x3c25e770	0.01012598
251	0xbd3686ac	-0.044562027
252	0xbdfb0056	-0.122559234
253	0x3dd5cd1c	0.10439512
254	0xbe95cedd	-0.29259387
255	0xbe0bc922	-0.13650945

classifier.3.bias f4 [10]
0	0x3f79ada2	0.9753057
1	0x3f298d6f	0.66231436
2	0xbeb3b4ac	-0.3509878
3	0x3c0d70e6	0.008632874
4	0xbf110bc4	-0.5665858
5	0x3be0e171	0.006862812
6	0xbc4c12db	-0.012455667
7	0xbf41cc92	-0.75702775
8	0x3ec2e74d	0.38067093
9	0xbe46b6e5	-0.19405706
