day2/domain_adaptation/revgrad_10.pt (torch_old, 91045 bytes, 8 tensors)

feature_extractor.0.weight f4 [10, 3, 5, 5]
0.21453625 0.070261054 0.04573171 0.10332693 -0.03405421 -0.057426874 -0.13366935 -0.044352617
-0.20010032 -0.09912806 -0.093499474 -0.039447483 -0.14635317 -0.060351945 0.09568652 -0.22011738
-0.05596658 -0.08908949 0.05355479 -0.07758271 -0.10385675 -0.13484894 0.092650756 0.07664114
-0.16253743 0.076385535 -0.077817336 -0.23467238 -0.059600856 -0.0032591654 -0.3476304 -0.15356365
-0.17347485 -0.19373858 -0.06839588 -0.17588346 -0.1976581 -0.11393975 -0.12968577 0.01364869
-0.24360864 -0.20610048 -0.15357566 -0.23373064 -0.05074692 -0.37210658 -0.22656196 -0.12966369
-0.08707302 -0.16443874 -0.28284553 -0.07537233 -0.24745172 0.017379772 -0.041342475 0.004441689
0.22121125 0.24920405 0.19325976 0.120635405 0.30869234 0.47747338 0.55139464 0.53003776
0.2460765 0.36543986 0.5381554 0.6120398 0.36787835 0.21142969 0.35901585 0.49371678
0.3590833 0.41971833 0.09933498 -0.051244993 0.024731785 -0.031062435 -0.06027496 -0.10180953
0.039182518 -0.06936236 -0.12983619 -0.021646531 0.0590266 0.14456502 -0.11013373 0.07565449
-0.040830735 0.007965796 -0.045081582 -0.082901284 -0.007850654 0.0037922114 0.1631869 0.012665899
0.03004813 -0.06287392 0.09719703 0.14973785 0.0238521 0.00026682793 0.08354882 -0.04013928
0.056543738 0.03486812 -0.18120101 0.013816839 0.032351345 0.06811899 -0.048320707 -0.046851564
-0.13362414 0.04735978 0.058672633 -0.04736354 0.0016706998 -0.111547954 0.12122728 -0.06335155
-0.05871049 0.035983108 -0.06343846 0.2021282 0.062693305 0.38453448 0.22039087 0.15572523
0.23267484 -0.2378463 0.34876058 0.21858825 0.22503157 -0.085918784 -0.24649066 0.32104546
0.24150471 0.23472269 -0.277879 -0.6650475 0.23159392 0.26489162 0.013581336 -0.27225733
-0.52035785 0.08394544 0.058175232 0.010344246 -0.1781102 -0.29905534 0.025292581 -0.04324013
0.059735138 0.13193116 0.09545348 -0.05265734 0.058439188 -0.06915289 0.17110062 -0.08132492
-0.09293489 -0.035767436 -0.07179783 0.090425 -0.08091108 -0.05474889 0.045958623 -0.15640867
0.11253297 -0.120347336 0.09123486 0.029915312 -0.080634415 0.053176112 -0.011018727 -0.04840219
-0.10238769 0.008980436 -0.06456368 0.014820413 -0.15623082 -0.1638666 -0.13589153 -0.10633338
-0.08811335 -0.24159561 -0.006990569 -0.2074529 -0.04764319 -0.34385824 -0.15415862 -0.11493035
-0.04576329 -0.012502747 -0.23512673 -0.21517003 -0.070149995 -0.17271964 -0.046421997 -0.029469183
0.3716555 0.3293979 0.0018396827 0.15801932 0.08121866 0.18208395 0.20263952 0.16443196
0.17624667 -0.21533902 0.1552004 0.26753178 0.19267078 0.28268257 -0.10618768 0.0720856
0.2637086 0.19059268 0.29760742 0.08249709 0.022334293 0.09864633 0.22634271 0.31765682
0.23165008 -0.09884942 -0.36064726 -0.26514664 -0.27549288 -0.05377023 0.09253141 0.026065385
0.15917397 -0.012827554 -0.34789476 -0.1777071 -0.013843251 0.039227135 -0.18730198 -0.28210837
0.035789337 0.0481731 0.057778534 -0.064722665 -0.20016447 0.20864008 0.1109497 -0.13306336
-0.05626414 -0.14300023 0.09136664 -0.3085692 -0.29461825 -0.23905933 -0.11833771 -0.069548026
00000000: 64af 5b3e 07e5 8f3d 2c51 3b3d 129d d33d
00000010: 6d7c 0bbd 7138 6bbd 9ee0 08be 17ab 35bd
00000020: 19e7 4cbe a703 cbbd a77c bfbd af93 21bd
00000030: 9bdd 15be 9a33 77bd 4bf7 c33d 7366 61be
00000040: 363d 65bd 8d74 b6bd 445c 5b3d afe3 9ebd
00000050: d9b2 d4bd d715 0abe aebf bd3d 08f6 9c3d
00000060: 3670 26be 0570 9c3d b25e 9fbd f54d 70be
00000070: 0720 74bd b997 55bb 9dfc b1be ca3f 1dbe
00000080: 64a3 31be 6863 46be 2413 8cbd cb1a 34be
00000090: e366 4abe 3e59 e9bd 59cc 04be c19e 5f3c
000000a0: 8b74 79be 010c 53be f042 1dbe 1657 6fbe
000000b0: 01dc 4fbd c184 bebe dcff 67be 8fc6 04be
000000c0: 5753 b2bd a162 28be 21d1 90be cf5c 9abd
000000d0: fc63 7dbe 0660 8e3c ba56 29bd 968b 913b
000000e0: 3485 623e 592f 7f3e e3e5 453e b20f f73d
000000f0: ec0c 9e3e 6477 f43e 3328 0d3f 8eb0 073f
00000100: 7afb 7b3e ef1a bb3e 8dc4 093f a4ae 1c3f
00000110: 8d5a bc3e 0681 583e edd0 b73e 72c8 fc3e
00000120: c4d9 b73e 52e5 d63e 2370 cb3d 45e6 51bd
00000130: 509a ca3c a676 febc e0e2 76bd 8481 d0bd
00000140: d97d 203d da0d 8ebd c7f3 04be 1154 b1bc
00000150: e0c5 713d da08 143e cb8d e1bd bef0 9a3d
00000160: 213e 27bd f882 023c 77a7 38bd 26c8 a9bd
00000170: 08a0 00bc c086 783b 771a 273e a184 4f3c
00000180: 7f27 f63c 0bc4 80bd 3d0f c73d e154 193e
00000190: 7b65 c33c 0ae5 8b39 a51b ab3d 1669 24bd
000001a0: 689a 673d e0d1 0e3d c28c 39be 0660 623c
000001b0: d882 043d f881 8b3d efeb 45bd 6de7 3fbd
000001c0: c4d4 08be 54fc 413d b752 703d 4500 42bd
000001d0: 62fb da3a 4173 e4bd 0246 f83d 75be 81bd
000001e0: 697a 70bd 0663 133d 06ec 81bd b2fa 4e3e
000001f0: 5965 803d b4e1 c43e 25ae 613e 6f76 1f3e
00000200: 5042 6e3e fb8d 73be bf90 b23e 99d5 5f3e
00000210: ad6e 663e 30f6 afbd 0c68 7cbe 1260 a43e
00000220: 034d 773e 255b 703e 2846 8ebe 8e40 2abf
00000230: f526 6d3e e09f 873e 4084 5e3c 5065 8bbe
00000240: 2c36 05bf 96eb ab3d 2749 6e3d ea7a 293c
00000250: 8562 36be c81d 99be 6332 cf3c 901c 31bd
00000260: d5ac 743d f618 073e 1d7d c33d 39af 57bd
00000270: ee5d 6f3d 08a0 8dbd 0035 2f3e ae8d a6bd
00000280: a654 bebd e080 12bd be0a 93bd be30 b93d
00000290: b5b4 a5bd 5f40 60bd 1c3f 3c3d 9829 20be
000002a0: b077 e63d aa78 f6bd 58d9 ba3d f510 f53c
000002b0: a823 a5bd 32cf 593d e487 34bc 6041 46bd
000002c0: a3b0 d1bd ae22 133c f639 84bd 51d1 723c
000002d0: f9fa 1fbe a5cc 27be 2627 0bbe 51c5 d9bd
000002e0: c674 b4bd d764 77be 2511 e5bb 886e 54be
000002f0: 8125 43bd 300e b0be c2db 1dbe 9a60 ebbd
00000300: 4a72 3bbd 52d8 4cbc 10c5 70be 8855 5cbe
00000310: cdaa 8fbd 6bdd 30be fe24 3ebd 5b69 f1bc
00000320: a149 be3e d7a6 a83e 8221 f13a d1cf 213e
00000330: f855 a63d 3774 3a3e bc80 4f3e da60 283e
00000340: 027a 343e d581 5cbe dbec 1e3e edf9 883e
00000350: 7d4b 453e c5bb 903e ed78 d9bd 9da1 933d
00000360: d004 873e ba2a 433e 0060 983e 3cf4 a83d
00000370: 68f6 b63c 1607 ca3d 62c6 673e eaa3 a23e
00000380: ae35 6d3e 9171 cabd c2a6 b8be 4dc1 87be
00000390: 670d 8dbe 2c3e 5cbd 1c81 bd3d 1387 d53c
000003a0: 80fe 223e a92a 52bc 431f b2be daf8 35be
000003b0: cece 62bc a2ac 203d 17cc 3fbe 8270 90be
000003c0: d797 123d 2851 453d 2fa9 6c3d 518d 84bd
000003d0: eaf7 4cbe bfa5 553e 9939 e33d c341 08be
000003e0: 3a75 66bd a76e 12be 6f1e bb3d c8fc 9dbe
000003f0: 34d8 96be f8cb 74be 0b5b f2bd 326f 8ebd

feature_extractor.0.bias f4 [10]
-0.32804188 -0.2542484 -0.7904242 -0.15385234 -0.43014336 -0.29927748 -0.06987731 -0.08866383
-0.41870168 0.003556733
00000000: 1bf5 a7be d92c 82be 3e59 4abf 788b 1dbe
00000010: c03b dcbe e63a 99be d61b 8fbd 6295 b5bd
00000020: 1160 d6be 1418 693b

feature_extractor.3.weight f4 [20, 10, 5, 5]
0.39427227 0.26881272 0.11180173 -0.19023283 0.024259798 -0.00918977 0.23156545 0.17481947
0.0015581632 -0.33815473 -0.3464415 -0.109791376 0.27315322 0.22433113 0.02328643 -0.3850636
-0.30437216 -0.09203067 0.042853326 0.028918073 0.13122375 0.049353655 -0.03995346 0.036415696
-0.08369521 0.007320241 0.0026239455 0.052363425 -0.33656532 -0.1426085 -0.06548827 -0.03822006
-0.07601572 -0.24110326 -0.14934836 -0.19718835 -0.16797595 -0.07492004 -0.014735115 0.053339332
-0.098291226 -0.15559523 -0.01277268 0.016785743 0.04460381 -0.095776774 -0.008035791 0.025664326
0.042537827 0.063779935 -0.010910746 0.08236799 -0.15967636 -0.24140282 0.1782528 0.07419862
0.30105814 0.19162665 0.012385838 -0.0008789678 -0.07944559 0.2541483 0.31570458 0.32398853
-0.09339271 0.06993849 0.049276046 0.10038683 0.07679603 -0.079252444 0.034188487 -0.30755144
-0.22356209 -0.057860322 -0.01606222 -0.24776265 0.033052932 -0.03372986 -0.18480495 -0.19289662
-0.44491255 -0.23357953 0.06828002 -0.14586544 0.036942318 -0.03389351 0.20757589 -0.36011246
-0.2885871 0.010367776 -0.008950285 0.24480802 -0.027672656 -0.15510988 0.19733036 0.017281925
-0.007913889 0.016877424 -0.021331184 -0.08165466 -0.03678653 -0.11057582 0.07169243 0.21365334
0.2652024 0.0070395116 -0.12583864 -0.42347968 -0.31409445 -0.04899697 0.042420715 0.082735576
-0.18128428 -0.21944974 -0.23936197 -0.051492292 -0.106962815 0.018820137 0.0531013 -0.009156544
0.09783419 0.10339831 -0.031915557 -0.03970398 0.058234584 0.059138346 -0.045949314 0.00085702137
-0.1538841 0.11632506 0.043927338 0.11182583 0.054301474 0.19784667 -0.05194962 0.07325427
0.11623977 0.10788213 0.13587382 0.04518838 0.035655916 0.22298309 0.10238413 0.0018499154
-0.17922318 0.014025567 0.1320563 0.027056698 -0.085410185 0.06554363 0.31044894 0.14480492
0.014720355 -0.101739645 -0.14642075 0.04072018 0.0324412 -0.14542194 -0.14752331 -0.15046537
0.17176297 0.24882749 0.29108918 -0.0658763 -0.30586517 -0.14836374 0.06514447 0.008864418
0.11411316 -0.059140787 -0.07348029 0.1818353 -0.13760297 -0.09194509 -0.12162596 -0.14928678
-0.016493797 0.12294862 0.24599126 0.11366904 -0.0072678532 -0.10817588 -0.1744366 -0.15870896
0.07258092 -0.1390251 0.069322206 0.10736896 0.08689367 -0.04954033 0.001086041 0.023628758
0.18419756 -0.030485388 -0.07696594 0.15288977 0.03932648 -0.051726297 -0.06536324 -0.11641502
-0.049752027 -0.15289682 -0.18323278 -0.3262037 -0.022733657 -0.0013202102 0.024385652 0.12061518
0.026097646 -0.15280993 -0.025133511 -0.08924967 0.14413929 0.06331298 -0.04146117 0.04411692
0.00044798653 -0.1131389 0.1496514 0.045254767 0.15299988 -0.16986041 -0.0719238 -0.05117696
0.03969533 -0.18238215 -0.037145443 -0.18531194 -0.13425161 -0.004986405 -0.012752532 -0.0048327153
0.049054727 0.15693215 -0.028763127 -0.010993867 -0.23472378 -0.18023671 -0.067820996 0.3608373
0.09700717 0.06069028 0.28311294 0.208541 0.22896317 0.19807568 0.15551914 0.030102745
-0.10610671 -0.11393243 0.26428738 0.036436796 -0.31500903 -0.2572043 -0.17563154 0.20669132
00000000: 0ede c93e d2a1 893e 4ef8 e43d 65cc 42be
00000010: 7cbc c63c b090 16bc 7e1f 6d3e e003 333e
00000020: 483b cc3a 9e22 adbe c860 b1be 4dda e0bd
00000030: bdda 8b3e 0fb7 653e 2fc3 be3c 0e27 c5be
00000040: abd6 9bbe 937a bcbd f886 2f3d 98e5 ec3c
00000050: 855f 063e 0f27 4a3d 3da6 23bd a028 153d
00000060: 6568 abbd a2de ef3b 80f6 2b3b 087b 563d
00000070: 4a52 acbe f607 12be b71e 86bd a38c 1cbd
00000080: 21ae 9bbd c6e3 76be c7ee 18be beeb 49be
00000090: e301 2cbe ae6f 99bd 8d6b 71bc 587a 5a3d
000000a0: e94c c9bd 5b54 1fbe 8144 51bc 4182 893c
000000b0: 7cb2 363d 9d26 c4bd 8da8 03bc fe3d d23c
000000c0: 253c 2e3d 0e9f 823d fcc2 32bc 8cb0 a83d
000000d0: 3382 23be 4d32 77be e787 363e 72f5 973d
000000e0: 4b24 9a3e c739 443e f8ed 4a3c 886a 66ba
000000f0: 5fb4 a2bd ba1f 823e 08a4 a13e d3e1 a53e
00000100: ad44 bfbd e93b 8f3d aed5 493d 9c97 cd3d
00000110: 3d47 9d3d 1b4f a2bd 3a09 0c3d 6277 9dbe
00000120: 76ed 64be f2fe 6cbd eb94 83bc 7eb5 7dbe
00000130: 8362 073d 5228 0abd 823d 3dbe b186 45be
00000140: 94cb e3be 792f 6fbe 65d6 8b3d c05d 15be
00000150: d450 173d ecd3 0abd c68e 543e a960 b8be
00000160: b0c1 93be 9bdd 293c 37a4 12bc f4ae 7a3e
00000170: c4b1 e2bc 20d5 1ebe f810 4a3e d392 8d3c
00000180: 42a9 01bc 8642 8a3c bcbe aebc 8f3a a7bd
00000190: 79ad 16bd 9375 e2bd 7bd3 923d f1c7 5a3e
000001a0: 9cc8 873e b4ab e63b d8db 00be 54d2 d8be
000001b0: fdd0 a0be 0cb1 48bd 58c1 2d3d 4571 a93d
000001c0: 96a2 39be 6fb7 60be 4e1b 75be 95e9 52bd
000001d0: 520f dbbd b02c 9a3c c080 593d 5405 16bc
000001e0: 4b5d c83d 7ec2 d33d e3b9 02bd a4a0 22bd
000001f0: 6387 6e3d 0d3b 723d 5935 3cbd bba9 603a
00000200: cb93 1dbe d53b ee3d 27ed 333d f104 e53d
00000210: 396b 5e3d 5198 4a3e 20c9 54bd 5606 963d
00000220: 1e0f ee3d 4ef1 dc3d 8222 0b3e 7317 393d
00000230: f00b 123d ae55 643e c5ae d13d dc78 f23a
00000240: 4886 37be 7ecb 653c c439 073e 02a6 dd3c
00000250: 89eb aebd bd3b 863d 2af3 9e3e be47 143e
00000260: a52d 713c e05c d0bd 52ef 15be 34ca 263d
00000270: 10e1 043d 7de9 14be 5a10 17be 9813 1abe
00000280: a2e2 2f3e a2cc 7e3e a409 953e 27ea 86bd
00000290: 5c9a 9cbe aaec 17be 776a 853d 103c 113c
000002a0: 29b4 e93d 9c3d 72bd d67c 96bd 0833 3a3e
000002b0: cbe7 0cbe b54d bcbd 0817 f9bd a2de 18be
000002c0: 001e 87bc 7ccc fb3d 22e5 7b3e 50cb e83d
000002d0: 2c27 eebb 518b ddbd 829f 32be 9a84 22be
000002e0: 4ea5 943d 995c 0ebe cdf8 8d3d 42e4 db3d
000002f0: 4ff5 b13d cdea 4abd 7d59 8e3a 1991 c13c
00000300: 499e 3c3e 7ebc f9bc 52a0 9dbd 238f 1c3e
00000310: ce14 213d f4de 53bd 2add 85bd ff6a eebd
00000320: c8c8 4bbd fc90 1cbe 60a1 3bbe 2c04 a7be
00000330: ef3b babc e70a adba 6bc4 c73c 1705 f73d
00000340: bbca d53c 357a 1cbe cbe4 cdbc 88c8 b6bd
00000350: 4099 133e 3caa 813d 30d3 29bd f2b3 343d
00000360: bcdf ea39 5eb5 e7bd 373e 193e 105d 393d
00000370: 00ac 1c3e e3ef 2dbe c94c 93bd ef9e 51bd
00000380: 9297 223d 63c2 3abe d225 18bd 6ac2 3dbe
00000390: 4179 09be ff64 a3bb ffef 50bc c15b 9ebb
000003a0: 9ced 483d d2b2 203e a6a0 ebbc 9f1f 34bc
000003b0: 6e5b 70be f98f 38be bce5 8abd abbf b83e
000003c0: b2ab c63d 5f96 783d 2ef4 903e c68b 553e
000003d0: 5275 6a3e 5ad4 4a3e 6940 1f3e 089a f63c
000003e0: 7a4e d9bd 6855 e9bd ad50 873e c03e 153d
000003f0: dd48 a1be 48b0 83be c1d8 33be e4a6 533e

feature_extractor.3.bias f4 [20]
-0.44818068 0.27650172 -0.30054605 -0.34729043 -0.33190176 -0.3933056 -0.26913765 -0.078039356
-0.29710305 0.03852238 -0.23045516 0.048881344 -0.285305 -0.3923571 0.057839576 0.07524043
0.093248546 -0.17438222 0.11013049 -0.32878324
00000000: f077 e5be a291 8d3e 2ce1 99be 0dd0 b1be
00000010: 07ef a9be 5a5f c9be 69cc 89be 19d3 9fbd
00000020: e41d 98be a5c9 1d3d 70fc 6bbe ce37 483d
00000030: 7f13 92be 08e3 c8be 31e9 6c3d a817 9a3d
00000040: 18f9 be3d 4191 32be 188c e13d 4756 a8be

classifier.0.weight f4 [50, 320]
-0.16970193 -0.14625679 -0.048155606 -0.078949325 -0.29846933 -0.2942151 -0.06125163 0.093007736
0.1054298 0.12845983 0.025819281 -0.028236618 0.026079023 0.1442279 -0.1148429 0.24886914
0.11135416 0.038753003 -0.0983037 0.019606324 -0.016067753 -0.036162354 0.05153878 -0.061534952
-0.032678835 -0.112491205 0.056467656 -0.029997118 -0.18017663 -0.09965031 -0.02713071 0.03722647
-0.09431231 0.1817387 -0.07502024 -0.017982645 -0.15516497 0.10377525 -0.23335488 -0.095662504
0.047468152 0.058031153 0.104370706 -0.10323002 -0.021258904 0.035026796 -0.07037865 -0.097336784
-0.033832364 -0.13658749 0.08840275 0.1534609 -0.07896617 0.18508688 -0.08720408 0.05765463
0.2182953 -0.025961211 -0.05610758 -0.044107806 -0.07541261 0.1101619 -0.0076327506 -0.11421835
0.08740312 -0.003152113 0.13196619 0.0031976271 0.033659212 0.26540244 -0.0065620188 0.031420615
-0.050651614 -0.03299101 0.0057876487 0.06624253 -0.13642047 -0.2063651 -0.08422253 -0.24360208
-0.15624346 -0.07931459 0.056831423 -0.10524384 -0.068479255 -0.0020662346 0.10304445 0.040515456
0.15735374 0.07686317 0.024744686 0.06745761 0.04616521 -0.038958058 -0.0813183 0.16870627
-0.09469268 0.10775968 -0.043219134 -0.07044613 -0.10915328 -0.15319237 0.090028286 -0.18888925
0.07931904 0.033596285 0.20670602 0.09961482 -0.15203284 -0.013570664 -0.020090217 0.024653682
-0.0036552567 0.0048940913 -0.05361672 0.14380436 -0.113272056 -0.023607258 -0.12749481 -0.3284715
-0.07745652 0.048259784 0.15371831 -0.22652341 -0.03886585 0.098662026 0.07042981 0.254504
-0.07612379 -0.026598386 -0.010242013 -0.027197156 -0.1022736 -0.0057876287 -0.092909865 -0.113357745
0.0792301 0.09020561 -0.036779135 -0.008839268 -0.06918064 0.05383207 0.10013396 0.12526964
-0.03858364 0.102186985 0.12512445 0.086873956 0.1331038 -0.09244678 -0.025636552 0.060363516
-0.11925957 -0.25607178 -0.113779694 -0.17104009 0.14520319 0.07376295 -0.024973024 0.09560296
0.08496602 -0.003271127 0.06245394 -0.053587973 0.01800511 0.06567749 0.13359444 0.2555441
-0.1651563 -0.054163523 -0.11975364 -0.18572097 -0.24054915 -0.0042242394 -0.16216126 -0.17035319
-0.044612214 -0.03007761 0.009613689 0.04522907 -0.30939007 -0.17263317 -0.028436586 -0.21404886
0.01053602 -0.009825734 -0.0257728 0.010324389 0.05778435 0.18470427 0.18124059 0.10611998
-0.17246698 0.059759006 -0.022316394 -0.13420393 0.008105082 -0.007422745 0.019498093 0.268721
-0.03349227 0.16867617 0.0056533115 -0.14279695 -0.2065475 -0.108739965 -0.17057778 -0.36819842
-0.06782445 -0.15097271 -0.19887732 -0.015347967 -0.036150016 0.29733586 0.08311418 0.1624894
0.039919723 0.05113339 0.044331327 0.03673831 -0.28459233 -0.12600228 -0.3094673 -0.00063191954
0.19055286 -0.059743088 0.08964559 0.36906403 -0.04581885 0.07970978 -0.0905472 -0.05264538
-0.24968928 0.026806626 -0.08457323 -0.30134168 0.08744949 0.07251725 0.09481711 0.21368249
0.22228655 0.16871442 0.11852715 0.09742999 0.07163594 -0.039302956 -0.054157205 -0.030260274
-0.15747143 -0.12816462 -0.028591404 -0.12892145 0.0532262 0.049502607 0.034969646 -0.019356403
00000000: 58c6 2dbe 57c4 15be d03e 45bd 2fb0 a1bd
00000010: f9d0 98be 5da3 96be fde2 7abd d77a be3d
00000020: 94eb d73d f98a 033e f582 d33c 7b50 e7bc
00000030: ada3 d53c 7bb0 133e c132 ebbd 8dd7 7e3e
00000040: a60d e43d 78bb 1e3d 7353 c9bd 719d a03c
00000050: 85a0 83bc fa1e 14bd 541a 533d 130c 7cbd
00000060: 3eda 05bd ca61 e6bd a14a 673d 84bc f5bc
00000070: 3980 38be 7615 ccbd 3941 debc c87a 183d
00000080: d026 c1bd b619 3a3e 36a4 99bd 5750 93bc
00000090: 91e3 1ebe 1e88 d43d 95f4 6ebe b4ea c3bd
000000a0: f76d 423d 13b2 6d3d 4fc0 d53d 436a d3bd
000000b0: 2727 aebc 4278 0f3d af22 90bd 8258 c7bd
000000c0: ce93 0abd 97dd 0bbe 800c b53d db24 1d3e
000000d0: 04b9 a1bd 6a87 3d3e 0d98 b2bd 4327 6c3d
000000e0: ce88 5f3e 9bac d4bc 10d1 65bd 63aa 34bd
000000f0: ed71 9abd 909c e13d 271c fabb 4feb e9bd
00000100: 6800 b33d ae93 4ebb 2522 073e 488f 513b
00000110: 3ede 093d d4e2 873e 3406 d7bb e7b2 003d
00000120: 1178 4fbd 9521 07bd 51a6 bd3b 2aaa 873d
00000130: cfb1 0bbe 5f51 53be dd7c acbd d372 79be
00000140: 49fe 1fbe b06f a2bd 11c8 683d 158a d7bd
00000150: da3e 8cbd aa69 07bb f808 d33d 89f3 253d
00000160: 5721 213e 706a 9d3d 5eb5 ca3c 3727 8a3d
00000170: bb17 3d3d 7c92 1fbd 358a a6bd 56c1 2c3e
00000180: 3cee c1bd 1bb1 dc3d 8c06 31bd 1046 90bd
00000190: c18b dfbd 76de 1cbe c060 b83d 2f6c 41be
000001a0: 0572 a23d 429c 093d beaa 533e db02 cc3d
000001b0: 7fae 1bbe 7e57 5ebc 3d94 a4bc 85f6 c93c
000001c0: 088d 6fbb 9d5e a03b 359d 5bbd 7341 133e
000001d0: 2efb e7bd 0264 c1bc 008e 02be 6b2d a8be
000001e0: 86a1 9ebd 0dac 453d 5568 1d3e c1f5 67be
000001f0: cc31 1fbd 510f ca3d 813d 903d 594e 823e
00000200: cae6 9bbd dce4 d9bc 1ece 27bc 92cc debc
00000210: d274 d1bd 26a6 bdbb 8747 bebd 1b28 e8bd
00000220: 6443 a23d b8bd b83d b8a5 16bd 94d2 10bc
00000230: 94ae 8dbd 047f 5c3d 0913 cd3d af46 003e
00000240: e109 1ebd 6947 d13d a020 003e f9ea b13d
00000250: 5d4c 083e bd54 bdbd bf03 d2bc bc3f 773d
00000260: 5d3e f4bd d71b 83be 5405 e9bd 2225 2fbe
00000270: 25b0 143e 0811 973d 3a94 ccbc 7ccb c33d
00000280: aa02 ae3d 6760 56bb b4cf 7f3d 107f 5bbd
00000290: 747f 933c eb81 863d fbcc 083e add6 823e
000002a0: bc1e 29be 92da 5dbd 6541 f5bd a32d 3ebe
000002b0: 8452 76be 7d6b 8abb 9a0d 26be 1171 2ebe
000002c0: 4cbb 36bd 5265 f6bc bc82 1d3c 1e42 393d
000002d0: 6068 9ebe c0c6 30be d8f3 e8bc a02f 5bbe
000002e0: 459f 2c3c 1efc 20bc 7b21 d3bc a027 293c
000002f0: 48af 6c3d 1e23 3d3e 2297 393e 6f55 d93d
00000300: 2f9b 30be dcc5 743d dfd0 b6bc c16c 09be
00000310: 2ecb 043c 803a f3bb 77ba 9f3c cd95 893e
00000320: 312f 09bd 72b9 2c3e 6a3f b93b 5d39 12be
00000330: 3081 53be 0fb3 debd f1ab 2ebe 8184 bcbe
00000340: 8ce7 8abd 9798 1abe 7fa6 4bbe 0a76 7bbc
00000350: 0a12 14bd 683c 983e c437 aa3d 9f63 263e
00000360: dd82 233d 3f71 513d c494 353d e97a 163d
00000370: 16b6 91be be06 01be 7f72 9ebe 67a7 25ba
00000380: 4a20 433e 2bb5 74bd 1b98 b73d f6f5 bc3e
00000390: 8cac 3bbd e23e a33d cf70 b9bd afa2 57bd
000003a0: 8cae 7fbe 9299 db3c bb34 adbd 7549 9abe
000003b0: b818 b33d ed83 943d 792f c23d 95cf 5a3e
000003c0: 169f 633e 79c3 2c3e 5dbe f23d 6089 c73d
000003d0: ddb5 923d 23fc 20bd f2d3 5dbd 65e4 f7bc
000003e0: 3140 21be 963d 03be 8538 eabc fc03 04be
000003f0: b703 5a3d 3fc3 4a3d 553c 0f3d 5291 9ebc

classifier.0.bias f4 [50]
0.08753758 -0.16539928 0.32011345 0.19866642 0.20088714 0.11868989 -0.32345054 -0.013438389
0.21070589 -0.109229006 0.08850953 -0.38326448 -0.18697247 0.25622106 0.18400702 0.17908654
-0.032358415 -0.10660397 0.14660627 0.07611718 0.2201608 0.18865302 -0.12521963 0.2171446
0.15093964 0.077098176 0.08668336 0.085043244 0.2449033 -0.05539808 0.15397406 -0.001121994
-0.14568259 -0.17835452 0.23163682 0.16905026 0.3233427 0.28811884 0.05189118 -0.0032902537
0.104175754 0.15272893 0.17908014 0.430693 -0.021959709 -0.3024828 -0.16390508 -0.10563608
-0.20387216 0.058734182
00000000: e746 b33d 6e5e 29be e9e5 a33e 366f 4b3e
00000010: 5cb5 4d3e af13 f33d 4f9b a5be b02c 5cbc
00000020: 49c3 573e 75b3 dfbd 7c44 b53d 3e3b c4be
00000030: b675 3fbe 682f 833e 566c 3c3e 7662 373e
00000040: 428a 04bd 2f53 dabd f41f 163e 53e3 9b3d
00000050: d571 613e 422e 413e 9339 00be 275b 5e3e
00000060: ec8f 1a3e a6e5 9d3d 0c87 b13d 272b ae3d
00000070: eec7 7a3e 19e9 62bd 60ab 1d3e df0f 93ba
00000080: d12d 15be 91a2 36be 3432 6d3e 831b 2d3e
00000090: 2d8d a53e 5084 933e d98b 543d 4ca1 57bb
000000a0: 195a d53d f964 1c3e c960 373e cb83 dc3e
000000b0: d9e4 b3bc 07df 9abe bcd6 27be bb57 d8bd
000000c0: ddc3 50be 4193 703d

classifier.3.weight f4 [10, 50]
0.08383265 -0.4227621 0.13339885 0.12735833 -0.12100391 -0.18288724 0.040815257 -0.010066431
-0.23784906 0.14810356 0.0012558777 0.14805612 -0.074168615 -0.3587278 0.060779523 0.05411841
0.0921611 -0.22032794 -0.1088071 0.1239071 0.15650722 0.15097241 0.008336205 -0.15662226
-0.16149877 -0.15001206 0.19304581 -0.13754134 -0.17623797 -0.20996867 -0.3015647 0.11722618
0.16764064 -0.20738907 -0.3431285 0.13886143 -0.2847138 -0.42508432 0.07924382 -0.18737625
0.05569158 -0.22115614 0.02874035 -0.5031059 0.18785377 -0.055482272 0.08814627 -0.1162777
-0.2426191 0.011168962 -0.38384694 0.08671309 -0.18493406 -0.08435259 0.21035057 0.21614677
-0.12672156 -0.19393165 0.16443166 0.068646036 -0.019247724 -0.18101187 -0.03483374 -0.08783718
0.021190664 0.16523817 -0.098066814 -0.15762916 0.15339316 -0.22702672 0.1616615 0.08538665
-0.14639212 -0.12113151 -0.025309853 0.2018132 0.1638546 -0.0008609641 0.10272291 0.06876557
-0.119223505 -0.25279766 0.12454542 -0.2347811 0.2237861 -0.10886297 0.1751647 0.11905103
-0.0073377797 0.17658083 -0.5003048 0.12075399 0.14087763 0.26263198 -0.20500521 -0.069115214
-0.30541813 -0.40282 -0.13890767 -0.000911335 0.12253139 -0.11659966 -0.20519996 0.12896173
-0.0807811 0.0414545 -0.020814413 -0.08992654 0.19430867 0.12223039 0.12484404 0.09725423
0.15781917 -0.07322759 0.13068423 -0.10636887 0.07087632 -0.0013292541 0.13212855 -0.15885903
-0.31260127 0.11945767 0.021949247 -0.022083119 0.12043916 -0.13379882 0.19065107 0.11343535
0.15264645 0.15522236 -0.062069055 0.10822724 -0.121294975 0.1681224 -0.06426796 -0.13622801
0.17664711 0.060161497 0.12574431 -0.17254008 -0.10849305 0.17919701 -0.11843167 -0.085196465
0.07508069 -0.16438551 -0.16544506 -0.10854187 -0.18352187 -0.08567139 -0.14588402 -0.049221937
-0.20561616 0.12137126 -0.33022645 -0.4228017 0.17312025 0.19917892 0.17603715 -0.13728887
-0.03059031 0.13788715 0.12599011 0.13406472 0.122401975 -0.19861779 -0.12308558 0.15191546
-0.09146655 -0.11122912 -0.22435164 0.14434427 -0.0026888058 0.15196833 -0.06748182 -0.11113333
-0.15656734 0.10238549 -0.059586022 0.15530062 -0.040596537 0.060001217 -0.0900775 -0.11996232
-0.20966078 -0.16794045 -0.048868336 0.15142332 0.037516925 0.17165896 -0.04985764 0.18051706
-0.21388577 -0.057204716 -0.019157043 0.15144557 -0.19949745 -0.18986273 0.13166709 -0.026803143
0.16157779 -0.007594544 0.11689433 -0.29485428 0.2198219 0.01105844 0.07811214 -0.1214383
-0.107458 0.14924343 0.14610095 0.017947294 0.030118868 0.17639317 0.07437178 0.14085914
0.08121035 0.14320454 0.054404955 -0.0018005437 -0.083933115 -0.14324193 0.17618349 0.06265782
0.13264109 0.15770134 -0.14887294 -0.19124535 -0.13910535 -0.2952916 0.13107187 -0.2650744
0.019952364 0.16108052 0.23155028 -0.19185609 -0.17436525 -0.037158184 -0.196954 -0.19262621
-0.104163304 -0.049021978 -0.029983131 0.21644987 -0.17307708 -0.06437295 -0.246001 0.08836241
0.13279176 0.1291428 0.00045660842 -0.07815671 -0.08800585 0.11876671 -0.1668799 -0.05760901
00000000: 74b0 ab3d 4674 d8be b599 083e 396a 023e
00000010: e6d0 f7bd cb46 3bbe e62d 273d aced 24bc
00000020: b48e 73be 76a8 173e 439c a43a 069c 173e
00000030: b7e5 97bd 2cab b7be f3f3 783d 44ab 5d3d
00000040: f5be bc3d a69d 61be 42d6 debd 01c3 fd3d
00000050: 6e43 203e 8398 1a3e 9494 083c 9661 20be
00000060: ef5f 25be c39c 19be cdad 453e a3d7 0cbe
00000070: ba77 34be 0702 57be b066 9abe 4814 f03d
00000080: fda9 2b3e cd5d 54be 8aae afbe b131 0e3e
00000090: 02c6 91be a7a4 d9be 954a a23d 8fdf 3fbe
000000a0: db1c 643d c176 62be e270 eb3c 8ccb 00bf
000000b0: bd5c 403e 6141 63bd 0886 b43d 0123 eebd
000000c0: 2471 78be 06fe 363c 9687 c4be a296 b13d
000000d0: 5b5f 3dbe 0dc1 acbd 2466 573e 9455 5d3e
000000e0: 4cc3 01be 0596 46be c660 283e 4b96 8c3d
000000f0: 67ad 9dbc 2d5b 39be d3ad 0ebd fbe3 b3bd
00000100: 0b98 ad3c 3234 293e 41d7 c8bd 8a69 21be
00000110: 1913 1d3e b179 68be 988a 253e 32df ae3d
00000120: d1e7 15be cc13 f8bd 9c56 cfbc 1fa8 4e3e
00000130: 80c9 273e 53b2 61ba 6460 d23d f7d4 8c3d
00000140: 742b f4bd b26e 81be ab11 ff3d 756a 70be
00000150: 2f28 653e 8cf3 debd 605e 333e 07d1 f33d
00000160: c271 f0bb 9bd1 343e fa13 00bf de4d f73d
00000170: 3a42 103e b377 863e e3ec 51be 478c 8dbd
00000180: c45f 9cbe 6c3e cebe d03d 0ebe a8e6 6eba
00000190: bdf1 fa3d cdcb eebd f01f 52be 8b0e 043e
000001a0: 9070 a5bd 32cc 293d fd82 aabc 682b b8bd
000001b0: daf8 463e ed53 fa3d 3bae ff3d 3a2d c73d
000001c0: 599b 213e 59f8 95bd 16d2 053e ecd7 d9bd
000001d0: 9b27 913d 5e3a aeba b54c 073e f1ab 22be
000001e0: 460d a0be 39a6 f43d e8ce b33c a8e7 b4bc
000001f0: cea8 f63d 8f02 09be 093a 433e cb50 e83d
00000200: 5a4f 1c3e 9cf2 1e3e 1f3c 7ebd 3ea6 dd3d
00000210: 8069 f8bd 4728 2c3e ec9e 83bd 5b7f 0bbe
00000220: fbe2 343e e76b 763d 1ec3 003e 59ae 30be
00000230: 9b31 debd 6c7f 373e 4e8c f2bd 7c7b aebd
00000240: e8c3 993d ad54 28be 6e6a 29be 334b debd
00000250: 28ed 3bbe 7b74 afbd 9f62 15be f19c 49bd
00000260: 0b8d 52be 7f91 f83d 7113 a9be 7779 d8be
00000270: 6f46 313e 8ff5 4b3e 1543 343e 7495 0cbe
00000280: 8898 fabc 4a32 0d3e 8d03 013e 4348 093e
00000290: e3ad fa3d 7662 4bbe 4b14 fcbd ba8f 1b3e
000002a0: d152 bbbd 18cc e3bd 70bc 65be fcce 133e
000002b0: ad36 30bb 969d 1b3e e933 8abd df99 e3bd
000002c0: 3053 20be 7caf d13d 7910 74bd 2007 1f3e
000002d0: 8e48 26bd d6c3 753d 8d7a b8bd ceae f5bd
000002e0: 51b1 56be 95f8 2bbe 2a2a 48bd b70e 1b3e
000002f0: 59ab 193d 5ec7 2f3e 8637 4cbd 77d9 383e
00000300: df04 5bbe 7e4f 6abd 3bef 9cbc 8c14 1b3e
00000310: 0f49 4cbe 606b 42be bdd3 063e 4492 dbbc
00000320: a674 253e a7db f8bb 4b66 ef3d 24f7 96be
00000330: fe18 613e 762e 353c 42f9 9f3d a5b4 f8bd
00000340: f112 dcbd 45d3 183e 7d9b 153e 3406 933c
00000350: d8bb f63c 69a0 343e 3b50 983d 613d 103e
00000360: 9d51 a63d 36a4 123e bbd7 5e3d 3900 ecba
00000370: 20e5 abbd 03ae 12be 7269 343e be52 803d
00000380: 11d3 073e 767c 213e 2672 18be d2d5 43be
00000390: a271 0ebe 7630 97be b437 063e d5b7 87be
000003a0: 2473 a33c 4bf2 243e 841b 6d3e ec75 44be
000003b0: ce8c 32be 2e33 18bd 4fae 49be ce3f 45be
000003c0: 9253 d5bd 45cb 48bd 2f9f f5bc 09a5 5d3e
000003d0: 1e3b 31be f7d5 83bd b0e7 7bbe 5af7 b43d
000003e0: 90fa 073e 033e 043e f264 ef39 a010 a0bd
000003f0: 693c b4bd f63b f33d 91e2 2abe 6df7 6bbd

classifier.3.bias f4 [10]
0.18200256 0.5978964 -0.21654615 0.0031907996 -0.2217853 -0.11764905 -0.124994464 -0.16558896
0.262931 -0.1796851
00000000: e15e 3a3e bd0f 193f 46be 5dbe bc1c 513b
00000010: b01b 63be fcf1 f0bd 19fd ffbd 2790 29be
00000020: e49e 863e 5fff 37be
