day2/domain_adaptation/revgrad_25.pt (torch_old, 91045 bytes, 8 tensors)

feature_extractor.0.weight f4 [10, 3, 5, 5]
0.19060816 0.023919456 0.035732403 0.14180382 -0.011560557 -0.15024838 -0.20123148 -0.10459846
-0.30773535 -0.1525933 -0.18700258 0.054646503 -0.062322713 0.0044265706 0.14521995 -0.22466974
0.035821974 -0.069285534 0.13955994 0.034330305 -0.081673875 -0.0024126528 0.21963865 0.14689699
-0.026112093 0.27459875 0.09434951 -0.051825278 0.05914117 0.04997117 -0.19906792 -0.065119356
-0.11265751 -0.25395203 -0.1357371 -0.1864953 -0.09879382 -0.08091244 -0.18247086 -0.094123356
-0.3084474 -0.20345317 -0.23573914 -0.31002524 -0.14702162 -0.44304326 -0.23593223 -0.15081275
-0.18873113 -0.21523875 -0.29326215 -0.2246605 -0.33046442 -0.055477235 0.048472624 0.14349525
0.13596338 0.18036245 0.21744376 0.23044135 0.34740302 0.45067105 0.47982085 0.39992365
0.14077632 0.43061492 0.5271439 0.4759858 0.2515338 0.11072625 0.534747 0.56752956
0.3286774 0.29423773 0.11916961 -0.0733981 -0.05585164 -0.06155614 -0.15532506 -0.13576987
0.058722284 -0.07099398 -0.066928685 -0.14040926 -0.013633681 0.19507876 -0.13728178 0.14351438
-0.17064816 0.14220174 0.03432164 -0.091985196 0.0036057658 -0.21079552 0.18801874 0.013925689
0.009793098 -0.18350351 0.0047815307 0.13801578 -0.08013897 -0.13136591 0.03365674 -0.09309413
0.12542452 -0.05750127 -0.26414216 0.004800855 -0.05039612 0.10867721 -0.09691985 -0.13361456
-0.12920369 0.012422628 0.29949346 -0.06587687 -0.052796785 -0.07712115 0.10522509 0.13074808
-0.14043431 0.004241231 -0.09570911 0.2636795 0.21972857 0.44859964 0.25283352 0.24474303
0.2865573 -0.111910835 0.32618055 0.23800929 0.3041556 -0.03914953 -0.31123728 0.31578565
0.22610869 0.28225434 -0.29141343 -0.8430429 0.28598464 0.30750415 0.16722827 -0.23276173
-0.6411639 0.118371904 0.13743499 0.09723264 -0.15126142 -0.32977456 -0.08651956 -0.057377625
0.042013325 0.08631027 0.08232979 0.003143599 0.022538539 -0.19243455 0.17422125 -0.09093404
0.017549686 -0.021821076 -0.19294086 0.1850963 0.05903653 0.023538707 0.119375296 -0.26299942
0.09332722 -0.006447529 0.178852 0.11048517 -0.09695517 0.005263059 -0.06895658 -0.24135153
-0.15799758 -0.019130697 -0.1129472 0.00659889 -0.15278877 -0.2053461 -0.23165484 -0.12262719
-0.08361589 -0.15600319 0.019686364 -0.26691937 0.04617117 -0.21077982 -0.09857997 -0.033173166
-0.114502124 -0.023297966 -0.14608733 -0.16817564 -0.018085925 -0.1775304 -0.11017365 -0.12084506
0.46604893 0.47798732 0.18016088 0.12739423 -0.09684615 0.24972138 0.29459497 0.25678256
0.12759128 -0.36879867 0.11054555 0.24311188 0.25490078 0.29962242 -0.103928 -0.18465558
0.18298678 0.25740188 0.3405846 0.23134415 -0.26774538 0.020273132 0.41300356 0.44673505
0.42547315 -0.13399369 -0.08221391 -0.031691384 -0.07720069 -0.03227583 0.08096205 -0.011473763
0.019224914 0.014086409 -0.07850161 -0.14430863 -0.06161773 0.00033927933 0.06662761 -0.0662284
-0.0053725326 0.0020270937 -0.03928206 0.091214254 -0.07121771 -0.03275346 0.03739139 -0.13127048
-0.012017773 -0.017715523 0.07014041 -0.012903104 -0.051845077 -0.029070595 -0.07229177 -0.06934115
00000000: c92e 433e bcf2 c33c 245c 123d 0535 113e
00000010: 7e68 3dbc b6da 19be a00f 4ebe b837 d6bd
00000020: 7d8f 9dbe 6b41 1cbe 9b7d 3fbe 03d5 5f3d
00000030: 1a46 7fbd c40c 913b 8ab4 143e d30f 66be
00000040: 10ba 123d 93e5 8dbd cde8 0e3e ef9d 0c3d
00000050: a244 a7bd 991d 1ebb f4e8 603e 2a6c 163e
00000060: 07e9 d5bc 3598 8c3e 513a c13d be46 54bd
00000070: 033e 723d 92ae 4c3d 76d8 4bbe 4c5d 85bd
00000080: fbb8 e6bd 0006 82be abfe 0abe a0f8 3ebe
00000090: 6a54 cabd 6cb5 a5bd a4d9 3abe bfc3 c0bd
000000a0: d1ec 9dbe 0756 50be 9a65 71be a1bb 9ebe
000000b0: d68c 16be 91d6 e2be 3898 71be a86e 1abe
000000c0: bc42 41be 8c67 5cbe 7526 96be 670d 66be
000000d0: a232 a9be 193c 63bd 3b8b 463d 6bf0 123e
000000e0: fc39 0b3e efb0 383e 94a9 5e3e d1f8 6b3e
000000f0: cfde b13e 5bbe e63e 14ab f53e cbc2 cc3e
00000100: ab27 103e 8f79 dc3e e7f2 063f 69b4 f33e
00000110: 0ac9 803e 72c4 e23d 2ee5 083f 9e49 113f
00000120: 6748 a83e 54a6 963e 320f f43d be51 96bd
00000130: b0c4 64bd 4b22 7cbd 880d 1fbe 4207 0bbe
00000140: c786 703d 4b65 91bd e811 89bd 72c7 0fbe
00000150: ce5f 5fbc bac2 473e 9893 0cbe 6ff5 123e
00000160: 64be 2ebe 559d 113e d994 0c3d bc62 bcbd
00000170: b64e 6c3b c8da 57be fc87 403e 9328 643c
00000180: 3b73 203c 58e8 3bbe 63ae 9c3b 0254 0d3e
00000190: e61f a4bd c984 06be a6db 093d 23a8 bebd
000001a0: 496f 003e 7486 6bbd a43d 87be 7e50 9d3b
000001b0: 296c 4ebd 2892 de3d ea7d c6bd 41d2 08be
000001c0: f94d 04be 4788 4b3c 3557 993e 74ea 86bd
000001d0: 7141 58bd b2f1 9dbd 4180 d73d d3e2 053e
000001e0: 03ce 0fbe 06fa 8a3b 2303 c4bd 0001 873e
000001f0: 8700 613e daae e53e 6573 813e eb9d 7a3e
00000200: a3b7 923e 8231 e5bd 2301 a73e b5b8 733e
00000210: 48ba 9b3e 425b 20bd 7e5a 9fbe a8ae a13e
00000220: 0989 673e a483 903e 2434 95be a9d1 57bf
00000230: 946c 923e 2f71 9d3e e33d 2b3e 1759 6ebe
00000240: 5123 24bf f86c f23d c2bb 0c3e e821 c73d
00000250: 46e4 1abe 36d8 a8be 2b31 b1bd cd04 6bbd
00000260: 2a16 2c3d 70c3 b03d 859c a83d d704 4e3b
00000270: bea2 b83c 900d 45be 0e67 323e a03b babd
00000280: 5cc4 8f3c 1dc2 b2bc 4a92 45be e289 3d3e
00000290: 4ad0 713d 3fd4 c03c 097b f43d dca7 86be
000002a0: 5722 bf3d cb45 d3bb fb24 373e 0c46 e23d
000002b0: 6f90 c6bd bd75 ac3b 1b39 8dbd db24 77be
000002c0: 1eca 21be fbb7 9cbc dd50 e7bd 803b d83b
000002d0: a974 1cbe 3f46 52be ed36 6dbe f723 fbbd
000002e0: cf3e abbd 4dbf 1fbe 4c45 a13c a8a9 88be
000002f0: fb1d 3d3d aad6 57be 4ce4 c9bd 96e0 07bd
00000300: 1780 eabd 60db bebc eb97 15be 3c36 2cbe
00000310: ef28 94bc 87ca 35be b9a2 e1bd 9d7d f7bd
00000320: f79d ee3e c1ba f43e 187c 383e a273 023e
00000330: 4657 c6bd f6b6 7f3e 27d5 963e 0179 833e
00000340: 4aa7 023e 2ed3 bcbe b565 e23d 52f2 783e
00000350: 5b82 823e 1c68 993e 34d8 d4bd 5a16 3dbe
00000360: e360 3b3e 2eca 833e 1b61 ae3e 7be5 6c3e
00000370: ec15 89be d713 a63c 3475 d33e 75ba e43e
00000380: 9ed7 d93e a435 09be c45f a8bd d3ce 01bd
00000390: 651b 9ebd a933 04bd 6ecf a53d 73fc 3bbc
000003a0: 917d 9d3c aeca 663c 74c5 a0bd a4c5 13be
000003b0: df62 7cbd 4de1 b139 0e74 883d c1a2 87bd
000003c0: 120c b0bb fdd8 043b 3ae6 20bd 8ace ba3d
000003d0: 97da 91bd 7e28 06bd b727 193d c56b 06be
000003e0: 32e6 44bc 2520 91bc c6a5 8f3d 8a67 53bc
000003f0: 815b 54bd 7525 eebc b50d 94bd bc02 8ebd

feature_extractor.0.bias f4 [10]
-0.5310411 -0.17412195 -1.0337139 -0.086738825 -0.6229945 -0.43457678 -0.24896388 -0.089078024
-0.5387611 -0.005263145
00000000: 4ff2 07bf 064d 32be bd50 84bf 20a4 b1bd
00000010: 917c 1fbf d980 debe 63f0 7ebe 8a6e b6bd
00000020: 3fec 09bf 7676 acbb

feature_extractor.3.weight f4 [20, 10, 5, 5]
0.4959367 0.36919686 0.14804293 -0.20777255 -0.06661574 -0.05851302 0.12664223 0.15809903
0.04243321 -0.30295736 -0.43365666 -0.107854016 0.23906475 0.46513906 0.131878 -0.21663769
-0.37087375 -0.24906002 0.080252826 -0.015490024 0.23595476 0.0495087 0.065264456 -0.014484805
0.016243985 -0.01056338 -0.0016859251 -0.019782273 -0.29880315 -0.12719892 0.19553056 -0.09525074
0.07454258 -0.1618207 0.03350974 -0.2495457 -0.10712087 0.03691715 0.05577938 0.14774136
-0.4338961 -0.08905834 0.14073287 -0.04403395 -0.008788152 0.13063027 -0.07403592 -0.1265839
0.03839289 0.08304583 0.15943739 -0.06779062 -0.5687953 -0.6271702 0.29357368 0.15647739
0.39837256 0.31427956 0.11014642 0.25918153 -0.11105322 0.3773224 0.25183734 0.41202706
-0.24712215 -0.30389765 0.14732772 0.19361404 -0.105236314 -0.2520367 0.016882334 -0.36540216
-0.19069694 -0.314525 -0.023900654 -0.0028872814 -0.03624829 -0.014124127 0.03602058 0.048036
0.062529564 0.017326863 -0.015881047 -0.03412439 0.02356017 -0.0599817 -0.041866124 0.019967515
0.027096823 -0.056311164 0.034010626 -0.04597613 0.057179403 0.014812344 -0.026509423 0.011831237
-0.006906858 -0.03969688 -0.010859769 0.016633036 -0.064274065 -0.11353103 -0.018039051 0.2711008
-0.12043442 0.25378868 -0.19735895 -0.6323884 -0.25827 0.14784493 -0.070113406 0.15933703
-0.24361956 -0.38817403 -0.21952023 -0.05020233 0.07091408 -0.09480224 0.06055308 -0.08383201
0.41657674 0.06355287 -0.086044356 0.08978677 0.067363165 -0.099472515 0.022290602 -0.1927132
-0.09640182 0.4955339 -0.15354028 -0.100631684 -0.10821915 0.08858258 -0.46055162 -0.20140637
0.09844565 0.013126836 0.2809201 0.22200647 0.31612644 0.106511906 -0.082125 -0.09815184
-0.21191688 0.14256753 -0.038478572 -0.2679343 -0.11620489 0.044406857 0.40797675 0.19115365
-0.2112151 0.14076546 -0.28139374 0.12042482 0.22990665 -0.7384362 -0.17852727 -0.05155425
-0.001782907 0.4557751 0.4433863 -0.32033023 -0.23473027 -0.14941221 -0.11445705 0.14548568
-0.050292008 0.16750851 -0.3704382 0.28352645 -0.028240884 0.04894087 -0.044975456 -0.15289079
-0.23645142 0.045110304 0.22596318 0.22709455 0.030128669 -0.07509901 -0.003104393 -0.5008535
-0.021766977 -0.040055614 0.2598492 0.45971587 0.17040285 -0.29394346 0.3027163 -0.051130824
0.087042116 -0.0149482805 -0.27005383 0.29442775 0.040398166 -0.052883327 -0.07965976 -0.0035227488
-0.3039082 -0.1496553 -0.09650122 -0.1921319 -0.13480341 0.14099528 -0.067996375 0.013124365
0.05030251 0.17971115 0.28117564 -0.29936776 -0.032823242 -0.12445383 0.08701639 0.19777672
0.26249287 -0.19989376 -0.15614359 -0.039490685 -0.30995575 -0.08304663 0.26205117 -0.05900385
0.105239674 -0.10847605 -0.07989334 0.03802115 -0.3887485 0.24239 -0.6289499 -0.105935425
0.08279993 0.04925301 -0.01777152 -0.14011697 -0.21199153 -0.8011938 -0.29019767 0.050413437
-0.1344868 -0.15158185 -0.23629056 0.46810976 0.13525176 0.33757627 0.12904888 -0.1190974
0.024144877 0.08184821 0.42077473 -0.03778752 -0.3044829 -0.22913808 0.054835126 0.12229633
00000000: 6aeb fd3e 5f07 bd3e 9198 173e 54c2 54be
00000010: d56d 88bd 59ab 6fbd 80ae 013e b6e4 213e
00000020: 72ce 2d3d 3a1d 9bbe 3f08 debe 91e2 dcbd
00000030: 64cd 743e b526 ee3e 070b 073e 45d6 5dbe
00000040: 2ae3 bdbe 9709 7fbe 985b a43d dfc9 7dbc
00000050: 209e 713e a2c9 4a3d 5fa9 853d ad51 6dbc
00000060: 1b12 853c 0712 2dbc 42fa dcba 6f0e a2bc
00000070: bafc 98be 6f40 02be 2a39 483e d212 c3bd
00000080: c8a9 983d 53b4 25be 8241 093d e888 7fbe
00000090: 3062 dbbd 7036 173d eb78 643d 8349 173e
000000a0: a127 debe 3864 b6bd 471c 103e f15c 34bd
000000b0: 2efc 0fbc f1c3 053e 25a0 97bd 369f 01be
000000c0: dd41 1d3d ef13 aa3d 8e43 233e cfd5 8abd
000000d0: 929c 11bf 3a8e 20bf 4a4f 963e 9c3b 203e
000000e0: 7df7 cb3e 40e9 a03e 7294 e13d 71b3 843e
000000f0: df6f e3bd 6730 c13e d3f0 803e 36f5 d23e
00000100: 970d 7dbe 7998 9bbe 14dd 163e c242 463e
00000110: 2386 d7bd f40a 81be d24c 8a3c fe15 bbbe
00000120: 0f46 43be 6c09 a1be 4ecb c3bc 8b38 3dbb
00000130: 1679 14bd e268 67bc 518a 133d 66c1 443d
00000140: 800f 803d 11f1 8d3c f818 82bc 04c6 0bbd
00000150: 4201 c13c 5faf 75bd d07b 2bbd ea92 a33c
00000160: 28fa dd3c 89a6 66bd ba4e 0b3d 7751 3cbd
00000170: f334 6a3d 79af 723c 4a2a d9bc ced7 413c
00000180: ed52 e2bb 3299 22bd 2ced 31bc 0142 883c
00000190: 1fa2 83bd f582 e8bd a2c6 93bc b9cd 8a3e
000001a0: 52a6 f6bd 97f0 813e 7718 4abe 35e4 21bf
000001b0: f73b 84be a964 173e 9e97 8fbd 3f29 233e
000001c0: 6877 79be bfbe c6be e9c9 60be f5a0 4dbd
000001d0: 673b 913d ad27 c2bd 8206 783d 1eb0 abbd
000001e0: 8c49 d53e 0228 823d 0638 b0bd 20e2 b73d
000001f0: b3f5 893d 3fb8 cbbd c89a b63c 9c56 45be
00000200: 516e c5bd 9fb6 fd3e aa39 1dbe fc17 cebd
00000210: 00a2 ddbd c96a b53d 6ccd ebbe 793d 4ebe
00000220: df9d c93d f111 573c c2d4 8f3e aa55 633e
00000230: 53db a13e ea22 da3d 2731 a8bd d503 c9bd
00000240: bd00 59be 39fd 113e b59b 1dbd af2e 89be
00000250: d4fc edbd f7e3 353d 54e2 d03e c8bd 433e
00000260: c548 58be d224 103e d712 90be 4aa1 f63d
00000270: a66c 6b3e 280a 3dbf dacf 36be 8d2a 53bd
00000280: 6fb0 e9ba 5b5b e93e 8703 e33e 5302 a4be
00000290: 225d 70be 84ff 18be 7568 eabd 33fa 143e
000002a0: fefe 4dbd 5a87 2b3e 13aa bdbe 612a 913e
000002b0: 6d59 e7bc 3976 483d 2f38 38bd 678f 1cbe
000002c0: 5220 72be 95c5 383d e462 673e 798b 683e
000002d0: 66d0 f63c 82cd 99bd 1273 4bbb ef37 00bf
000002e0: a950 b2bc 5b11 24bd f40a 853e e15f eb3e
000002f0: 167e 2e3e c27f 96be a2fd 9a3e 8e6e 51bd
00000300: 2343 b23d a2e9 74bc 7f44 8abe 3cbf 963e
00000310: 8c78 253d 309c 58bd a824 a3bd ebdd 66bb
00000320: db99 9bbe 3d3f 19be 6ea2 c5bd 3abe 44be
00000330: e809 0abe 1161 103e af41 8bbd 9407 573c
00000340: 010a 4e3d 3306 383e 41f6 8f3e bb46 99be
00000350: aa71 06bd a6e1 febd a635 b23d fb85 4a3e
00000360: 7765 863e f3b0 4cbe 1be4 1fbe fcc0 21bd
00000370: 85b2 9ebe 5a14 aabd 922b 863e 05ae 71bd
00000380: e687 d73d b128 debd 1f9f a3bd 11bc 1b3d
00000390: 0b0a c7be 1635 783e dc02 21bf acf4 d8bd
000003a0: 0293 a93d 86bd 493d 9495 91bc d37a 0fbe
000003b0: 4f14 59be 091b 4dbf ca94 94be 527e 4e3d
000003c0: e8b6 09be 4638 1bbe 27f6 71be 15ac ef3e
000003d0: 707f 0a3e ccd6 ac3e 6425 043e 56e9 f3bd
000003e0: 7acb c53c 09a0 a73d c96f d73e 16c7 1abd
000003f0: 2fe5 9bbe 2ca3 6abe cc9a 603d 8076 fa3d

feature_extractor.3.bias f4 [20]
-0.4442567 0.049205456 -0.25067577 0.2188536 -0.64279956 -0.06520215 -0.684583 -0.16148372
-0.1162701 0.049383216 -0.14811522 -0.060790744 -0.38139704 -0.2790729 -0.017642858 0.10940695
0.21670195 -0.04616522 0.1392666 -0.15368757
00000000: 9d75 e3be a98b 493d 9358 80be 281b 603e
00000010: 838e 24bf b488 85bd d540 2fbf fd5b 25be
00000020: 051f eebd 0e46 4a3d 84ab 17be b7ff 78bd
00000030: 7946 c3be a5e2 8ebe c187 90bc c010 e03d
00000040: 1ee7 5d3e be17 3dbd e79b 0e3e 4660 1dbe

classifier.0.weight f4 [50, 320]
-0.06367644 -0.17685315 -0.14688082 -0.11495303 -0.26061538 -0.2491015 -0.06815284 0.21591543
0.005844973 0.117238455 0.084209144 -0.045596555 0.022151735 0.15640838 -0.27611148 0.12475102
-0.118890576 -0.07990455 -0.04089298 -0.11572135 0.14938213 0.22225742 0.08072123 0.043400854
0.119594075 0.07730663 0.12926382 -0.17929918 -0.1832873 -0.27292725 -0.15758623 -0.1101272
0.08406005 0.2959639 -0.19594693 -0.019066043 -0.33409527 0.07810491 -0.11150556 -0.16156068
-0.15353635 0.012257593 0.32772386 -0.2374913 0.1605241 0.23545669 -0.016993834 0.011354797
0.11526986 0.009899277 0.027630083 0.14498754 -0.1868438 0.12245939 -0.06358173 0.085216425
0.17999563 -0.09953062 -0.13082586 0.016066842 -0.20314951 0.100873016 -0.046351176 -0.06660945
0.108651415 -0.039004844 0.052609514 0.027452942 0.07944901 0.30025265 0.03275797 -0.11615834
0.14336134 0.19068976 0.043743398 0.13929011 -0.26486456 -0.15451203 -0.02411211 -0.21334483
-0.42100114 -0.19208966 0.11629464 -0.22387981 -0.20147777 0.04595233 -0.003966208 -0.109292746
0.16117609 0.13549525 0.14698714 -0.10009413 0.0060701915 0.036131777 -0.01692778 0.4024073
0.0251924 0.183154 -0.060087863 0.027895913 -0.38894174 -0.1525557 0.052336298 -0.17243202
0.08443292 0.028338918 0.11088867 0.29580572 -0.1594534 0.11811598 0.0630126 0.047232874
0.007705078 -0.044090036 -0.10906639 0.14558478 -0.15819858 -0.05267088 0.062274646 -0.1949654
-0.48031387 -0.08626074 0.14276631 -0.12045471 -0.102287814 0.08905698 -0.021115629 0.3645484
-0.21705036 0.016160399 -0.089307606 -0.1604065 -0.2668691 -0.08337266 -0.2752008 -0.4038282
-0.015359085 0.09219519 -0.0016210108 -0.21606836 0.07852921 0.14189082 0.20162635 0.007360219
-0.09318739 0.14182094 0.17177416 0.1860177 0.31137824 -0.07867785 0.010496706 0.066845834
-0.0692414 -0.25556034 -0.19825391 -0.07890102 0.0015992629 0.18327625 0.06469122 -0.0025305797
-0.010448569 -0.09612221 0.012944126 -0.14399575 -0.010736107 0.1335436 0.062157325 0.22046131
-0.46901965 -0.10714042 -0.074783094 -0.21569662 -0.48918954 -0.13227896 -0.13629955 -0.38874182
0.02908339 0.109002285 0.13379797 0.33210477 -0.45015633 -0.33162528 -0.044261076 -0.22166498
-0.43018687 -0.09929512 -0.20950356 -0.2045057 0.19926709 0.25760648 0.27330363 0.08170949
-0.34011832 -0.11067245 -0.0015273662 -0.24694414 -0.03541361 0.058641184 0.21164724 0.11503321
0.049590398 0.2695977 0.21504848 -0.032727778 -0.2933995 -0.04158446 -0.09913394 -0.2758559
-0.17339575 -0.18253995 -0.02622626 0.14313579 -0.104038514 0.18950373 0.03258291 0.09298067
-0.090783715 0.2672189 0.21233746 0.11689156 -0.3859546 0.14216955 -0.3504237 0.025853958
0.28822866 -0.043948367 0.06421132 0.19254448 -0.23171926 -0.015709383 -0.13871525 -0.06900691
-0.30069143 -0.091351286 -0.15756598 -0.37971836 0.16473104 0.03689498 0.12639023 -0.052252386
0.24539343 0.088367425 0.15266955 0.14249742 0.15829399 -0.074754715 -0.0003220106 0.054969538
-0.21040577 -0.24384807 0.010946378 0.06945385 0.2212856 -0.02164157 0.0406866 -0.2238283
00000000: cb68 82bd fe18 35be ed67 16be 7f6c ebbd
00000010: 616f 85be 7714 7fbe b793 8bbd ef18 5d3e
00000020: 3087 bf3b b71a f03d d875 ac3d 74c3 3abd
00000030: 8e77 b53c 8529 203e 7c5e 8dbe 767d ff3d
00000040: e77c f3bd ffa4 a3bd 667f 27bd 51ff ecbd
00000050: a1f7 183e 7397 633e 2c51 a53d 18c5 313d
00000060: bded f43d f052 9e3d bc5d 043e 349a 37be
00000070: aaaf 3bbe 1fbd 8bbe 495e 21be 5f8a e1bd
00000080: ad27 ac3d 9588 973e 50a6 48be 6430 9cbc
00000090: 890e abbe 78f5 9f3d 075d e4bd 2a70 25be
000000a0: a238 1dbe 12d4 483c 6ccb a73e eb30 73be
000000b0: 6e60 243e 8f1b 713e a736 8bbc 7809 3a3c
000000c0: 9b12 ec3d 9430 223c 7c58 e23c 9d77 143e
000000d0: fb53 3fbe fdcb fa3d 2337 82bd f385 ae3d
000000e0: c650 383e b6d6 cbbd 37f7 05be 9c9e 833c
000000f0: 6d06 50be 8396 ce3d bbda 3dbd 896a 88bd
00000100: a284 de3d 8bc3 1fbd 137d 573d fee4 e03c
00000110: 2ab6 a23d b7ba 993e 392d 063d 6ce4 edbd
00000120: 51cd 123e 2d44 433e 472c 333d 11a2 0e3e
00000130: 549c 87be 6738 1ebe c286 c5bc 1177 5abe
00000140: 768d d7be 27b3 44be e22b ee3d c040 65be
00000150: 3050 4ebe 8338 3c3d f7f6 81bb e0d4 dfbd
00000160: 580b 253e 44bf 0a3e cc83 163e 27fe ccbd
00000170: 75e8 c63b eafe 133d 21ac 8abc 5408 ce3e
00000180: 4b60 ce3c b98c 3b3e b11e 76bd f885 e43c
00000190: 5f23 c7be 9037 1cbe 965e 563d 0592 30be
000001a0: 2beb ac3d 0527 e83c 9919 e33d d973 973e
000001b0: c147 23be cae6 f13d c00c 813d 4277 413d
000001c0: e17a fc3b c197 34bd 335e dfbd 2d14 153e
000001d0: cffe 21be 6cbd 57bd b313 7f3d 03a5 47be
000001e0: b3eb f5be 79a9 b0bd 5531 123e f6b0 f6bd
000001f0: 467c d1bd 8263 b63d affa acbc 16a6 ba3e
00000200: 7342 5ebe d062 843c e8e6 b6bd 9a41 24be
00000210: 11a3 88be 49bf aabd 1fe7 8cbe 92c2 cebe
00000220: aca4 7bbc d5d0 bc3d 1978 d4ba 0641 5dbe
00000230: ecd3 a03d d44b 113e 2377 4e3e fe2d f13b
00000240: 08d9 bebd 8239 113e 91e5 2f3e 6d7b 3e3e
00000250: f86c 9f3e da21 a1bd 60fa 2b3c 78e6 883d
00000260: 6fce 8dbd ced8 82be 1303 4bbe dc96 a1bd
00000270: 5c9e d13a c5ac 3b3e d57c 843d 15d8 25bb
00000280: 7a30 2bbc b9db c4bd 9913 543c 9f73 13be
00000290: 7fe6 2fbc a7bf 083e ae98 7e3d 9cc0 613e
000002a0: 5823 f0be 706c dbbd e127 99bd 93df 5cbe
000002b0: 0d77 fabe 2374 07be 1c92 0bbe 2b09 c7be
000002c0: 4a40 ee3c 973c df3d 5602 093e a309 aa3e
000002d0: e47a e6be caca a9be 1a4b 35bd 25fc 62be
000002e0: 7441 dcbe 3d5b cbbd 1a88 56be f169 51be
000002f0: ac0c 4c3e ffe4 833e 74ee 8b3e 4e57 a73d
00000300: fd23 aebe 3da8 e2bd e831 c8ba edde 7cbe
00000310: dd0d 11bd bd31 703d 0eba 583e 8896 eb3d
00000320: 4d1f 4b3d b608 8a3e ab35 5c3e 900d 06bd
00000330: 7638 96be 7754 2abd bc06 cbbd fc3c 8dbe
00000340: a88e 31be c1eb 3abe 74d8 d6bc 3092 123e
00000350: 2512 d5bd 440d 423e a875 053d a66c be3d
00000360: d0ec b9bd ead0 883e fe6e 593e d864 ef3d
00000370: d79b c5be e594 113e bc6a b3be aecb d33c
00000380: b592 933e 3403 34bd 3981 833d 612a 453e
00000390: d047 6dbe f7b0 80bc 5f0b 0ebe 7f53 8dbd
000003a0: 3af4 99be 6216 bbbd fa58 21be 726a c2be
000003b0: 41af 283e 311f 173d 716c 013e 9906 56bd
000003c0: 6a48 7b3e fbf9 b43d 6855 1c3e d8ea 113e
000003d0: d217 223e 0019 99bd 88d3 a8b9 bd27 613d
000003e0: 9c74 57be 4fb3 79be 7058 333c d23d 8e3d
000003f0: b198 623e a949 b1bc fea6 263d 3f33 65be

classifier.0.bias f4 [50]
0.05538399 0.040435992 0.14359663 0.21399127 0.31508607 0.24636945 -0.36529452 -0.10656522
0.23904529 -0.016457966 0.21986252 -0.31276873 -0.15361935 0.41689414 0.2758925 0.10871329
0.01040661 -0.23375283 0.360858 0.049272306 0.43763804 0.43026528 -0.22954299 0.36682698
0.29498345 0.012339715 0.23731194 0.13472603 0.4387167 -0.044971753 0.4413939 0.0010151542
-0.37454328 -0.26011458 0.27877903 0.3168746 0.54724324 0.42082107 0.20372115 -0.20218784
0.3314461 0.3575413 0.35791904 0.6709433 0.056084916 -0.57346666 -0.130949 -0.10903149
-0.4556213 0.34320366
00000000: 53da 623d 36a0 253d ff0a 133e 8720 5b3e
00000010: f652 a13e 4648 7c3e e207 bbbe de3e dabd
00000020: 4ac8 743e dbd2 86bc a423 613e 3923 a0be
00000030: 644e 1dbe 2673 d53e c841 8d3e 13a5 de3d
00000040: 7c80 2a3c e75c 6fbe 61c2 b83e c2d1 493d
00000050: 1812 e03e bb4b dc3e 510d 6bbe bfd0 bb3e
00000060: 1208 973e 842c 4a3c e701 733e 9ff5 093e
00000070: 7a9f e03e 4d34 38bd 62fe e13e ec0e 853a
00000080: 23c4 bfbe bd2d 85be 20bc 8e3e 633d a23e
00000090: 2218 0c3f dc75 d73e 479c 503e 540a 4fbe
000000a0: 4eb3 a93e a70f b73e 2a41 b73e f1c2 2b3f
000000b0: 4cb9 653d b6ce 12bf 7f17 06be e74b dfbd
000000c0: 3247 e9be 64b8 af3e

classifier.3.weight f4 [10, 50]
0.12732509 -0.30827662 -0.3002994 0.12930281 -0.38968274 -0.11730138 0.1039662 -0.0763212
-0.15821426 0.118906595 -0.052316662 0.12950931 -0.01791772 -0.3337068 -0.106753066 0.09861893
0.10745525 -0.2842459 -0.12482642 0.07455458 0.10293388 0.12218765 -0.074844666 -0.28483275
-0.18773317 -0.20089526 0.15329655 -0.004297162 -0.123593986 -0.19725192 -0.34286758 0.098903075
0.12492423 -0.02967069 -0.33154008 0.09860444 -0.20560531 -0.1373667 0.05424526 -0.2081691
0.09536226 -0.09835494 -0.0049055293 -0.54173005 0.1271211 -0.036242332 0.058038577 -0.091265514
-0.24296159 -0.050597742 -0.249457 0.058188163 -0.047760874 -0.038816918 0.13351004 0.09792886
-0.007947974 -0.1031581 0.1584886 0.11013889 -0.017886885 -0.06371143 -0.121516034 -0.053920493
0.034044277 0.1078552 -0.099294156 -0.024838958 0.13001566 -0.3210864 0.15237463 0.08713861
-0.1757591 -0.049635444 -0.030167345 0.1519954 0.10336072 0.051748727 0.044567175 -0.069005385
-0.19098762 -0.1995134 -0.020789376 -0.24044581 0.14955674 -0.13633355 0.13497499 0.064669974
-0.09909402 0.17749657 -0.45179382 0.14064229 0.12832923 0.20777549 -0.21934888 -0.14972231
-0.42349604 -0.30848572 -0.12030094 0.10056305 0.12471636 -0.10326882 -0.0931859 0.09367373
0.0007539196 -0.038279757 0.02720438 -0.05779169 0.15286869 0.101449974 0.09862168 0.10803561
0.15303381 -0.038287405 0.119331606 -0.10236161 0.048176978 0.01746669 0.1319492 -0.08842842
-0.2673742 0.099585176 -0.006674669 0.021544784 0.0881745 -0.06055973 0.13105065 0.10965889
0.092394225 0.13113531 -0.016596088 0.059035197 -0.113937706 0.11822972 -0.114908345 -0.10632814
0.1773637 0.060651623 0.10051145 -0.09982659 -0.060393922 0.15239552 -0.11993281 -0.027963672
0.13436703 -0.04373795 -0.17917988 -0.17335954 -0.06790822 -0.019555176 -0.08200764 -0.011418616
-0.10336855 0.037728723 -0.29243487 -0.3545384 0.15452291 0.15251376 0.16338387 -0.13521701
-0.06994907 0.10222184 0.14879861 0.13517988 0.10571582 -0.18865897 -0.1599438 0.13418752
-0.109755 -0.059379946 -0.08980648 0.14045866 0.014137955 0.11142936 -0.12001791 -0.10886836
-0.16464297 0.10526928 -0.09534342 0.14289112 -0.012157293 0.09120668 -0.13867557 -0.074596725
-0.063604094 -0.10050338 0.023571052 0.08970352 -0.011438181 0.13976863 -0.0976652 0.13734132
-0.070921205 -0.0679857 0.0121638905 0.11120217 -0.1342737 -0.12650183 0.1184049 -0.0044797985
0.14868234 0.034527373 0.10219278 -0.22637391 0.15438701 0.077672236 -0.036905136 -0.078992024
-0.08744821 0.049780685 0.11351481 0.10816436 -0.032023303 0.13870317 0.06252021 0.108910255
0.09487855 0.1294632 0.012697965 -0.049552962 -0.120019555 -0.09213938 0.109525144 0.0984661
0.10505478 0.16552576 -0.20990464 -0.166427 -0.09610178 -0.11014216 0.115086384 -0.18976586
0.029621435 0.1194158 0.14012824 -0.13435447 -0.06104528 -0.12393213 -0.11251988 -0.091504164
-0.116440736 -0.052154094 -0.026470667 0.2022351 -0.045814678 -0.019766089 -0.15522428 0.0630549
0.12595527 0.11658989 0.026555313 -0.08026019 -0.18031937 0.119781874 -0.22056761 -0.06355652
00000000: 8261 023e 6fd6 9dbe d8c0 99be f567 043e
00000010: 7f84 c7be b53b f0bd 3bec d43d 4a4e 9cbd
00000020: eb02 22be 4d85 f33d ff49 56bd 179e 043e
00000030: 2fc8 92bc 9edb aabe 5aa1 dabd b9f8 c93d
00000040: 8011 dc3d ae88 91be fea4 ffbd 12b0 983d
00000050: 00cf d23d 853d fa3d 2948 99bd 99d5 91be
00000060: 203d 40be 7db7 4dbe c5f9 1c3e 35cf 8cbb
00000070: d81e fdbd 68fc 49be 578c afbe b28d ca3d
00000080: 46d8 ff3d f20f f3bc 9fbf a9be 20f1 c93d
00000090: 338a 52be dba9 0cbe 4730 5e3d 482a 55be
000000a0: 4a4d c33d 516e c9bd 90be a0bb d2ae 0abf
000000b0: 092c 023e d772 14bd dcb9 6d3d 6ae9 babd
000000c0: ecca 78be 943f 4fbd a871 7fbe b656 6e3d
000000d0: e8a0 43bd 7dfe 1ebd dbb6 083e ed8e c83d
000000e0: 3838 02bc 8e44 d3bd d64a 223e 8090 e13d
000000f0: 8487 92bc 237b 82bd 66dd f8bd bcdb 5cbd
00000100: 0372 0b3d 30e3 dc3d bc5a cbbd 127b cbbc
00000110: d322 053e 7065 a4be 1808 1c3e ba75 b23d
00000120: 32fa 33be 894e 4bbd 8221 f7bc afa4 1b3e
00000130: c9ae d33d 79f6 533d 128c 363d b252 8dbd
00000140: 4292 43be 3e4d 4cbe 7b4e aabc 6d37 76be
00000150: 6725 193e 069b 0bbe e236 0a3e b171 843d
00000160: cef1 cabd a9c1 353e 8551 e7be 8804 103e
00000170: bd68 033e 19c3 543e fe9c 60be ce50 19be
00000180: 79d4 d8be d7f1 9dbe 5760 f6bd 00f4 cd3d
00000190: 4a6b ff3d 9a7e d3bd 40d8 bebd 03d8 bf3d
000001a0: b0a2 453a 3ccb 1cbd b8db de3c fbb6 6cbd
000001b0: 9c89 1c3e 01c5 cf3d 2afa c93d c641 dd3d
000001c0: e5b4 1c3e 41d3 1cbd 2164 f43d f7a2 d1bd
000001d0: 3955 453d 4e16 8f3c b11d 073e f619 b5bd
000001e0: 45e5 88be 50f3 cb3d 2fb7 dabb b07e b03c
000001f0: d594 b43d 7b0d 78bd 2432 063e d794 e03d
00000200: 2f39 bd3d 5648 063e 85f4 87bc e4ce 713d
00000210: 2c58 e9bd 6c22 f23d 1155 ebbd 91c2 d9bd
00000220: d49e 353e d66d 783d f2d8 cd3d e271 ccbd
00000230: 9e5f 77bd 920d 1c3e 559f f5bd 1214 e5bc
00000240: 8397 093e 9126 33bd ee7a 37be 2a85 31be
00000250: 7713 8bbd 2d32 a0bc 9ff3 a7bd 2615 3bbc
00000260: e4b2 d3bd 6f89 1a3d 06ba 95be 0f86 b5be
00000270: 413b 1e3e 912c 1c3e 1a4e 273e 5476 0abe
00000280: 7541 8fbd af59 d13d aa5e 183e 986c 0a3e
00000290: 8981 d83d d12f 41be 4fc8 23be 7468 093e
000002a0: 3bc7 e0bd 6338 73bd 76ec b7bd 65d4 0f3e
000002b0: e2a2 673c 1435 e43d f3cb f5bd 60f6 debd
000002c0: 2b98 28be 6c97 d73d 6943 c3bd 0d52 123e
000002d0: 622f 47bc 91ca ba3d f800 0ebe 2bc6 98bd
000002e0: dd42 82bd b7d4 cdbd 1418 c13c 7bb6 b73d
000002f0: 3567 3bbc 821f 0f3e b104 c8bd 34a3 0c3e
00000300: 233f 91bd 163c 8bbd 0e4b 473c f7bd e33d
00000310: 0b7f 09be b289 01be 457e f23d 46cb 92bb
00000320: 2f40 183e 936c 0d3d 734a d13d 90ce 67be
00000330: a117 1e3e 9f12 9f3d d729 17bd 92c6 a1bd
00000340: 0c18 b3bd d5e6 4b3d 747a e83d 4785 dd3d
00000350: de2a 03bd 3408 0e3e 990a 803d 570c df3d
00000360: af4f c23d 0092 043e 200b 503c 0cf8 4abd
00000370: d0cc f5bd 92b3 bcbd b84e e03d 98a8 c93d
00000380: f626 d73d 967f 293e 3ef1 56be d76b 2abe
00000390: 03d1 c4bd 3692 e1bd 69b2 eb3d fb51 42be
000003a0: a7a8 f23c 4590 f43d c77d 0f3e 3894 09be
000003b0: 9e0a 7abd 21d0 fdbd d370 e6bd 8966 bbbd
000003c0: 7b78 eebd 889f 55bd 03d9 d8bc b816 4f3e
000003d0: 2ca8 3bbd 7eec a1bc 1df3 1ebe ed22 813d
000003e0: 6bfa 003e aec6 ee3d 878a d93c 745f a4bd
000003f0: a4a5 38be 3350 f53d 7adc 61be ec29 82bd

classifier.3.bias f4 [10]
0.75543964 0.7387196 -0.3698481 -0.12798217 -0.3930934 -0.057059765 -0.097805455 -0.38505435
0.36316738 -0.26872277
00000000: 7e64 413f ba1c 3d3f bb5c bdbe c20d 03be
00000010: 8a43 c9be 80b7 69bd 3a4e c8bd d825 c5be
00000020: 13f1 b93e 0896 89be
