day2/domain_adaptation/revgrad_39.pt (torch_old, 91045 bytes, 8 tensors)

feature_extractor.0.weight f4 [10, 3, 5, 5]
0.24318399 0.058459386 0.01349432 0.16504733 -0.0027617842 -0.25702906 -0.2923571 -0.11432264
-0.3221312 -0.13258329 -0.14464661 0.07327932 -0.04375499 0.038822275 0.19150625 -0.16136263
0.053686198 -0.029428711 0.22438054 0.09491667 -0.043395665 0.077338874 0.22804007 0.20056124
0.012144407 0.3294739 0.1559972 -0.042516675 0.07525122 0.034921773 -0.2506004 -0.10955282
-0.0743124 -0.26662073 -0.17206688 -0.15317427 -0.10184358 -0.081962004 -0.22103858 -0.15641633
-0.34076008 -0.23384576 -0.2223562 -0.2848127 -0.21650384 -0.5302103 -0.24221146 -0.20057718
-0.21575549 -0.29819298 -0.34912366 -0.279764 -0.36355746 -0.042738337 0.10500953 0.13747618
0.07519397 0.20809352 0.32926044 0.3360493 0.45253715 0.4271555 0.46294332 0.34897432
0.15305117 0.45906657 0.48956364 0.46712837 0.2558461 0.10329436 0.47408086 0.522977
0.27221483 0.2553267 0.14853467 -0.025264217 -0.050099235 -0.06695497 -0.21471153 -0.13924815
0.11569946 -0.04649215 -0.006472087 -0.20680661 -0.036248703 0.2204053 -0.084582 0.20749216
-0.3029858 0.20038784 0.06347706 -0.07553911 -0.039303243 -0.30898222 0.19457325 0.0013767332
-0.06586774 -0.2574407 -0.056567237 0.07708223 -0.12560979 -0.19502802 -0.017828783 -0.14150234
0.1829741 -0.10296892 -0.32181188 -0.01985173 -0.09666331 0.16411658 -0.15153466 -0.13580307
-0.109171 -0.014477751 0.4419577 -0.12601516 -0.08059895 -0.10406249 0.13504985 0.18879126
-0.21771538 -0.06474713 -0.096793085 0.29874483 0.23860346 0.48616254 0.3179836 0.28556263
0.32536486 -0.020304134 0.33492133 0.2683222 0.31819034 0.039532717 -0.28045884 0.3104339
0.28731495 0.29982758 -0.261976 -0.9376584 0.30041748 0.36246186 0.20049934 -0.18869925
-0.784728 0.17058407 0.18880199 0.17553975 -0.14747438 -0.35071325 -0.042482078 -0.08946584
-0.00046903794 0.061810687 0.05543021 0.034592 -0.04530877 -0.2849731 0.23694977 -0.16169272
0.038820434 -0.0700552 -0.2716122 0.1776918 0.056986794 0.03331373 0.12522309 -0.30182967
0.078777835 0.06587422 0.19006862 0.15084375 -0.15252537 -0.05171594 -0.15563811 -0.23709843
-0.18375441 -0.01669622 -0.06594877 0.06948268 -0.13288195 -0.23768023 -0.26123324 -0.016888538
-0.03802424 -0.1324154 0.0060448693 -0.26511148 0.09378332 -0.12114591 -0.07254128 -0.0061399583
-0.09069343 0.008535038 -0.02755153 -0.12501888 0.01489201 -0.20654652 -0.14361845 -0.1843833
0.55084777 0.5338935 0.28720996 0.14946888 -0.15930736 0.26523104 0.33309624 0.3418775
0.17710024 -0.36847794 0.082153074 0.25746617 0.36564225 0.27656177 -0.066613846 -0.28807154
0.13345851 0.34805623 0.35327038 0.32193434 -0.41805166 -0.07424576 0.43304795 0.47330707
0.44642237 -0.13399369 -0.08221391 -0.031691384 -0.07720069 -0.03227583 0.08096205 -0.011473763
0.019224914 0.014086409 -0.07850161 -0.14430863 -0.06161773 0.00033927933 0.06662761 -0.0662284
-0.0053725326 0.0020270937 -0.03928206 0.091214254 -0.07121771 -0.03275346 0.03739139 -0.13127048
-0.012017773 -0.017715523 0.07014041 -0.012903104 -0.051845077 -0.029070595 -0.07229177 -0.06934115
00000000: 3905 793e 1c73 6f3d 4817 5d3c 2b02 293e
00000010: 0dff 34bb 5099 83be d4af 95be fd21 eabd
00000020: 61ee a4be eac3 07be 3e1e 14be 7813 963d
00000030: 6f38 33bd 1b04 1f3d 371a 443e 3f3c 25be
00000040: 0fe6 5b3d 7b14 f1bc 03c4 653e ac63 c23d
00000050: a7bf 31bd d863 9e3d 5683 693e ed5f 4d3e
00000060: 56f9 463c ceb0 a83e bbbd 1f3e f725 2ebd
00000070: 501d 9a3d 220a 0f3d b24e 80be 3b5d e0bd
00000080: 1931 98bd 8382 88be 4d32 30be b7d9 1cbe
00000090: 5e93 d0bd b2db a7bd f057 62be 9a2b 20be
000000a0: 1b78 aebe 4375 6fbe 58b1 63be f8d2 91be
000000b0: 2fb3 5dbe ddbb 07bf 4806 78be 1b64 4dbe
000000c0: 02ef 5cbe c0ac 98be 56c0 b2be 3a3d 8fbe
000000d0: 3424 babe 650e 2fbd 3d0f d73d 8ec6 0c3e
000000e0: 4cff 993d 7816 553e d394 a83e a70e ac3e
000000f0: f3b2 e73e 20b4 da3e e806 ed3e c3ac b23e
00000100: 72b9 1c3e c60a eb3e 16a8 fa3e 732b ef3e
00000110: 43fe 823e fe8b d33d baba f23e d2e1 053f
00000120: be5f 8b3e 2eba 823e 7919 183e e7f6 cebc
00000130: db34 4dbd b01f 89bd 57dd 5bbe 1197 0ebe
00000140: d7f3 ec3d 8d6e 3ebd cd13 d4bb 1dc5 53be
00000150: 8579 14bd edb1 613e 5439 adbd d378 543e
00000160: f420 9bbe 7832 4d3e 4300 823d 40b4 9abd
00000170: 70fc 20bd eb32 9ebe 363e 473e 8073 b43a
00000180: aae5 86bd 44cf 83be 0cb3 67bd 4add 9d3d
00000190: da9f 00be 6db5 47be ab0d 92bc fde5 10be
000001a0: 905d 3b3e 5ee1 d2bd 87c4 a4be 18a0 a2bc
000001b0: 6af7 c5bd 2d0e 283e e72b 1bbe f60f 0bbe
000001c0: 0c95 dfbd 1734 6dbc 4848 e23e 1e0a 01be
000001d0: 1011 a5bd b71e d5bd 824a 0a3e 7f52 413e
000001e0: c8f0 5ebe 259a 84bd 743b c6bd 15f5 983e
000001f0: 7754 743e 4cea f83e bfce a23e 4435 923e
00000200: 3996 a63e db54 a6bc cf7a ab3e 8761 893e
00000210: d8e9 a23e 0fed 213d 4d98 8fbe 31f1 9e3e
00000220: f21a 933e 0083 993e b821 86be 620a 70bf
00000230: 52d0 993e 9a94 b93e b34f 4d3e 603a 41be
00000240: efe3 48bf 97ad 2e3e 4f55 413e b1c0 333e
00000250: 8603 17be b090 b3be b001 2ebd de39 b7bd
00000260: 35e9 f5b9 342d 7d3d ca0a 633d 57b0 0d3d
00000270: b095 39bd ffe7 91be f6a2 723e c792 25be
00000280: 2d02 1f3d 1a79 8fbd c110 8bbe d7f4 353e
00000290: fc6a 693d fa73 083d 7b3a 003e 6b89 9abe
000002a0: 4656 a13d 10e9 863d 59a1 423e c976 1a3e
000002b0: 9c2f 1cbe 18d4 53bd 995f 1fbe eec9 72be
000002c0: 1e2a 3cbe 83c6 88bc 2610 87bd ef4c 8e3d
000002d0: 3512 08be 7262 73be 5dc0 85be d559 8abc
000002e0: 4ebf 1bbd e797 07be 0a14 c63b b1bc 87be
000002f0: 7811 c03d 591b f8bd 8690 94bd b431 c9bb
00000300: 7abd b9bd 8bd6 0b3c bfb3 e1bc f304 00be
00000310: 9efd 733c ee80 53be b710 13be face 3cbe
00000320: 5c04 0d3f 3fad 083f 2f0d 933e 5f0e 193e
00000330: 7821 23be 5dcc 873e 978b aa3e 910a af3e
00000340: c459 353e 24a9 bcbe df3f a83d 9bd2 833e
00000350: 7635 bb3e 8199 8d3e d76c 88bd 1d7e 93be
00000360: 59a9 083e 6d34 b23e dbdf b43e 94d4 a43e
00000370: de0a d6be 290e 98bd 76b8 dd3e 4e55 f23e
00000380: 7991 e43e a435 09be c45f a8bd d3ce 01bd
00000390: 651b 9ebd a933 04bd 6ecf a53d 73fc 3bbc
000003a0: 917d 9d3c aeca 663c 74c5 a0bd a4c5 13be
000003b0: df62 7cbd 4de1 b139 0e74 883d c1a2 87bd
000003c0: 120c b0bb fdd8 043b 3ae6 20bd 8ace ba3d
000003d0: 97da 91bd 7e28 06bd b727 193d c56b 06be
000003e0: 32e6 44bc 2520 91bc c6a5 8f3d 8a67 53bc
000003f0: 815b 54bd 7525 eebc b50d 94bd bc02 8ebd

feature_extractor.0.bias f4 [10]
-0.6047911 -0.17812933 -1.1864105 -0.086738825 -0.69153804 -0.57538 -0.351464 -0.142228
-0.6789629 0.011147002
00000000: 97d3 1abf 8967 36be 4ddc 97bf 20a4 b1bd
00000010: a308 31bf 1b4c 13bf 17f3 b3be 38a4 11be
00000020: 83d0 2dbf eaa1 363c

feature_extractor.3.weight f4 [20, 10, 5, 5]
0.529475 0.26850685 0.11565454 -0.14678091 -0.12689118 -0.18475033 0.0423139 0.19594023
0.19701308 -0.23505913 -0.39412358 -0.1363201 0.24782519 0.6242912 0.19597942 -0.16824168
-0.47597376 -0.36004946 0.1097093 -0.038223293 0.120683685 0.12092598 0.1196874 -0.0714722
0.13844498 0.07943796 0.09212492 -0.030423513 -0.39853862 -0.21628155 0.15796329 -0.12595919
0.057311784 -0.18719622 0.00026402215 -0.3066417 -0.1514649 -0.0066776956 0.036215056 0.16247429
-0.46060926 -0.12531424 0.24801046 -0.10771975 -0.05141816 0.14726552 0.004771107 0.046631232
0.03212825 0.1899376 0.24508975 -0.33019415 -0.6314529 -0.4245247 0.31692836 0.33835813
0.46390215 0.48273274 0.13111179 0.33184585 -0.032205228 0.37577638 0.32211572 0.24831322
-0.41895697 -0.3588814 0.12199033 0.20438835 -0.06973047 -0.33810848 0.095842905 -0.50554556
-0.15436131 -0.32390544 -0.0018243243 -0.0028872814 -0.03624829 -0.014124127 0.03602058 0.048036
0.062529564 0.017326863 -0.015881047 -0.03412439 0.02356017 -0.0599817 -0.041866124 0.019967515
0.027096823 -0.056311164 0.034010626 -0.04597613 0.057179403 0.014812344 -0.026509423 0.011831237
-0.006906858 -0.03969688 -0.010859769 0.016633036 -0.21631911 -0.07745007 -0.022947378 0.33922908
-0.28712806 0.10253645 -0.30218035 -0.56896055 -0.1528983 0.10543077 -0.30967075 0.07426398
-0.15819936 -0.39177054 -0.022445263 0.13308077 0.079259 -0.18223839 0.008142867 -0.00019816494
0.37159038 0.04644752 -0.16466433 0.10365706 -0.12905425 -0.04317274 -0.17311056 -0.227512
-0.21550094 0.50869083 -0.21880955 -0.08964053 -0.02405445 0.24755172 -0.67696774 -0.06895696
0.05296418 -0.09151692 0.4501574 0.2617718 0.53654945 0.12917046 -0.16460681 0.048472304
-0.27590606 0.051558107 0.11741009 -0.2999805 0.10866529 0.15641998 0.37523574 0.07868722
-0.038904525 0.36267015 -0.094895884 -0.0546921 0.09088247 -0.8903819 -0.057843868 0.05346349
-0.17420201 0.52287567 0.33897033 -0.29101494 -0.35341963 -0.12953494 -0.2667489 -0.042378984
0.1234939 0.07874092 -0.4995908 0.27815616 0.043345332 0.1371204 0.057509746 -0.18045521
-0.288233 0.057025928 0.34842762 0.26577514 0.11771613 -0.23402652 0.08128347 -0.40605333
0.03572752 -0.07211828 0.10403338 0.49838707 0.16374572 -0.3604881 0.48405644 -0.012465737
0.13239054 -0.13416764 -0.21848051 0.41315812 -0.008448277 -0.033240225 0.010960223 0.1839341
-0.42346978 -0.07968213 -0.1238696 -0.1839863 -0.13854022 0.10975995 0.0071728327 0.1614616
0.19218855 0.25651246 0.28491467 -0.16507111 0.016211834 -0.2265997 0.16685523 -0.029770104
0.39667055 -0.115805484 -0.15415958 -0.19241071 -0.41843686 0.055098932 0.21687365 0.09956321
0.1389925 0.20148258 -0.23046774 0.053734593 -0.27211034 0.2682027 -0.5257931 -0.038142536
0.3025976 0.33446607 -0.19149369 -0.028589182 -0.32393396 -0.6900346 -0.3710956 -0.06260836
0.15864186 -0.41827777 -0.2543561 0.499862 0.28302938 0.3236969 0.044543836 0.1326746
0.061270863 -0.05623565 0.5754615 -0.023700861 -0.29603696 -0.30996752 0.02228869 0.21634674
00000000: ac8b 073f bb79 893e 4adc ec3d bc4d 16be
00000010: c3ef 01be 312f 3dbe 5751 2d3d 8ea4 483e
00000020: ccbd 493e 57b3 70be 91ca c9be 7f97 0bbe
00000030: e3c5 7d3e 8cd1 1f3f d4ae 483e 8c47 2cbe
00000040: d5b2 f3be 6758 b8be 45af e03d 0790 1cbd
00000050: 0229 f73d 0aa8 f73d ab1e f53d 0460 92bd
00000060: 85c4 0d3e 5fb0 a23d fdab bc3d bb3a f9bc
00000070: 410d ccbe e978 5dbe 21c1 213e 72fb 00be
00000080: c3bf 6a3d 5eb0 3fbe 746c 8a39 2400 9dbe
00000090: 9d19 1bbe 92d0 dabb 3d56 143d a95f 263e
000000a0: fad4 ebbe 6052 00be 74f6 7d3e 2c9c dcbd
000000b0: d99b 52bd c6cc 163e f256 9c3b 6400 3f3d
000000c0: e998 033d 017f 423e cff8 7a3e 350f a9be
000000d0: e6a6 21bf 4d5b d9be 6f44 a23e 473d ad3e
000000e0: 9584 ed3e bf28 f73e 2b42 063e b3e7 a93e
000000f0: a1e9 03bd c365 c03e 5aec a43e d245 7e3e
00000100: 8781 d6be 4ebf b7be 11d6 f93d 2e4b 513e
00000110: d9ce 8ebd 8e1c adbe 4949 c43d 6f6b 01bf
00000120: e410 1ebe efd6 a5be 2a1e efba 8b38 3dbb
00000130: 1679 14bd e268 67bc 518a 133d 66c1 443d
00000140: 800f 803d 11f1 8d3c f818 82bc 04c6 0bbd
00000150: 4201 c13c 5faf 75bd d07b 2bbd ea92 a33c
00000160: 28fa dd3c 89a6 66bd ba4e 0b3d 7751 3cbd
00000170: f334 6a3d 79af 723c 4a2a d9bc ced7 413c
00000180: ed52 e2bb 3299 22bd 2ced 31bc 0142 883c
00000190: c282 5dbe 249e 9ebd 24fc bbbc 6faf ad3e
000001a0: 7302 93be a1fe d13d 62b7 9abe 66a7 11bf
000001b0: 5f91 1cbe 16ec d73d 2a8d 9ebe b717 983d
000001c0: 03ff 21be 2696 c8be 21df b7bc 5346 083e
000001d0: 8b52 a23d b39c 3abe a969 053c 7fca 4fb9
000001e0: 1841 be3e c13f 3e3d c49d 28be 274a d43d
000001f0: cc26 04be e6d5 30bd e543 31be e8f8 68be
00000200: 47ac 5cbe 9039 023f 9c0f 60be 7495 b7bd
00000210: d70d c5bc 337e 7d3e c24d 2dbf 4f39 8dbd
00000220: f8f0 583d 396d bbbd 087b e63e f406 863e
00000230: 4e5b 093f 4345 043e b08e 28be e58a 463d
00000240: 8f43 8dbe 982e 533d b474 f03d 0b97 99be
00000250: e88b de3d 8f2c 203e e61e c03e c426 a13d
00000260: 5a5a 1fbd e7af b93e c658 c2bd d304 60bd
00000270: 9720 ba3d 11f0 63bf b1ed 6cbd 88fc 5a3d
00000280: 0362 32be 2edb 053f 858d ad3e e9ff 94be
00000290: 6bf3 b4be cfa4 04be 5093 88be 9695 2dbd
000002a0: 5fea fc3d eb42 a13d 5eca ffbe 7c6a 8e3e
000002b0: e08a 313d 4a69 0c3e 578f 6b3d 40c9 38be
000002c0: 4793 93be 0594 693d 1b65 b23e ae13 883e
000002d0: 2815 f13d a6a4 6fbe f377 a63d 39e6 cfbe
000002e0: 0557 123d c0b2 93bd 740f d53d 972c ff3e
000002f0: f5ac 273e e591 b8be 3fd6 f73e 173d 4cbc
00000300: 6391 073e 3e63 09be 5bb9 5fbe 7689 d33e
00000310: a46a 0abc e726 08bd 8292 333c 3959 3c3e
00000320: 08d1 d8be 6230 a3bd 58af fdbd e866 3cbe
00000330: 7ddd 0dbe d3c9 e03d 150a eb3b 3156 253e
00000340: 13cd 443e 9a55 833e 56e0 913e 6708 29be
00000350: aece 843c c009 68be 19dc 2a3e 6fe0 f3bc
00000360: 6718 cb3e 6d2b edbd 02dc 1dbe 5007 45be
00000370: 5b3d d6be 6baf 613d 2014 5e3e cce7 cb3d
00000380: 0d54 0e3e 7351 4e3e bcff 6bbe ce18 5c3d
00000390: 0c52 8bbe dd51 893e 609a 06bf 593b 1cbd
000003a0: 13ee 9a3e 233f ab3e ec16 44be dc33 eabc
000003b0: acda a5be 1ca6 30bf 3e00 bebe d038 80bd
000003c0: 0373 223e 8128 d6be f63a 82be e9ed ff3e
000003d0: 3ae9 903e 9abb a53e 9973 363d dadb 073e
000003e0: 28f7 7a3d 5a57 66bd 7251 133f 4f28 c2bc
000003f0: 2892 97be 10b4 9ebe c596 b63c 008a 5d3e

feature_extractor.3.bias f4 [20]
-0.35550678 -0.021407377 -0.3231431 0.25197542 -0.8125824 0.004743349 -0.65673065 -0.23038429
-0.15109238 0.113648385 -0.22897208 -0.0990096 -0.40876588 -0.21322468 -0.050741334 0.10993993
0.13942912 0.02288615 0.035218745 -0.10748169
00000000: fc04 b6be 865e afbc 0373 a5be ec02 813e
00000010: 6605 50bf 186e 9b3b 801f 28bf dce9 6bbe
00000020: f6b7 1abe 7cc0 e83d a877 6abe 8cc5 cabd
00000030: c349 d1be 9257 5abe 25d6 4fbd 3028 e13d
00000040: 82c6 0e3e bc7b bb3c 8841 103d 5c1f dcbd

classifier.0.weight f4 [50, 320]
-0.069088906 -0.17979881 -0.19476637 -0.18129826 -0.3130295 -0.30074906 -0.15482126 0.19093591
-0.16144124 0.15366708 0.12447264 0.017137457 0.02829043 -0.012944527 -0.18541682 0.026932664
-0.09766887 0.08424897 -0.072472535 -0.097749576 0.27975598 0.195634 0.15500389 0.056696303
0.10644128 0.32381007 0.0928691 -0.3926518 -0.1913259 -0.20242244 -0.039276194 -0.0327452
0.17435215 0.30147904 -0.19204313 0.047803614 -0.19671634 0.018041905 -0.17686985 -0.23858635
-0.11823012 -0.05343224 0.2683952 -0.1938914 0.09334358 0.27153465 0.032937936 -0.0571008
0.12750801 -0.04599827 -0.008986869 0.08263299 -0.27366456 -0.002988276 -0.09864781 0.15639389
0.1258149 -0.01803616 -0.09195682 0.06165985 -0.2896863 0.14033024 -0.081766926 -0.019778552
0.10107534 -0.009866528 -0.17424434 0.037671566 0.007992456 0.32398894 -0.068969056 -0.19917071
0.1774548 0.14034265 -0.0043074866 0.25790474 -0.35233292 -0.06685996 -0.0027482307 -0.14066742
-0.44336322 -0.11211304 0.14027858 -0.1516019 -0.19368538 0.019367058 0.0068758195 -0.21004066
0.21502763 0.22343114 0.20803489 -0.110664696 -0.020372562 -0.03401972 -0.08273422 0.5741441
0.26651964 0.24464369 -0.029782033 0.07434505 -0.27506438 0.0447917 -0.064095825 -0.42698467
0.22984375 -0.01813684 -0.067724064 0.39717945 -0.14353396 0.08707305 -0.030094223 0.06973099
0.06473342 0.06071931 0.007756664 0.15943763 -0.110990025 -0.09089836 0.1561349 -0.18527131
-0.3145112 0.018773952 0.08224002 -0.2020013 -0.039292067 0.13344501 0.024038626 0.31546053
-0.33618435 0.07627165 -0.12269931 -0.09696445 -0.39340934 -0.076125875 -0.16729596 -0.3276925
-0.04447715 0.1692954 0.0044839983 -0.36972526 0.118283525 0.23304921 0.19446689 0.11146661
-0.15291664 0.1428928 0.23727597 0.07605564 0.50080913 -0.13112187 0.055493027 0.0043517663
0.22309712 -0.25614488 -0.18639177 0.06068109 -0.042646382 0.23416112 0.11316104 -0.07099616
0.2947777 0.028824309 0.120292254 -0.12838376 -0.03698548 0.22487846 0.015871368 0.13717704
-0.5058348 -0.15942962 -0.041305497 -0.034616467 -0.4577172 -0.15277845 -0.14365979 -0.57247853
0.0075014937 0.12191461 0.08176601 0.3178904 -0.40590447 -0.3646951 0.0068092253 -0.32909283
-0.57329863 -0.38822398 -0.30752844 -0.2923693 0.1519111 0.28763822 0.15661855 0.115982786
-0.29171902 -0.042500623 0.19005561 -0.24255595 -0.06541783 0.0017856163 0.25880402 0.051353708
-0.0005311847 0.2520416 0.09224871 -0.012947594 -0.31922796 -0.049379725 -0.1435892 -0.22081251
-0.16056463 -0.35577825 -0.17163952 0.016057706 -0.13614002 0.05857386 0.09733605 0.10356336
-0.1559185 0.24678203 0.23272166 0.10941354 -0.47859287 0.18273479 -0.29465637 0.010890462
0.2708064 0.030763747 0.18109083 0.34089175 -0.22710717 0.19739558 -0.27057114 -0.14580415
-0.41637567 -0.10201206 -0.29904348 -0.5103643 0.055321172 -0.01595689 0.17866105 0.07820787
0.39860323 0.11246396 0.12825622 0.007633239 0.1619301 0.0018920985 0.057541385 -0.09329605
-0.24441843 -0.31392604 -0.041690942 0.12969375 0.21203615 -0.021242099 -0.016820898 -0.18838266
00000000: 7c7e 8dbd 2e1d 38be d670 47be 40a6 39be
00000010: 6745 a0be c8fb 99be 7789 1ebe b484 433e
00000020: da50 25be e75a 1d3e 83eb fe3d da63 8c3c
00000030: 55c1 e73c 4815 54bc e8dd 3dbe e4a1 dc3c
00000040: 9e06 c8bd b98a ac3d 7b6c 94bd ee30 c8bd
00000050: 2d3c 8f3e 4754 483e 57b9 1e3e 623a 683d
00000060: e3fd d93d 6fca a53e 2832 be3d a809 c9be
00000070: f0ea 43be d447 4fbe 13e0 20bd d51f 06bd
00000080: 5f89 323e 765b 9a3e f4a6 44be b9cd 433d
00000090: 0270 49be 9ecc 933c 5f1d 35be fb4f 74be
000000a0: a222 f2bd c4db 5abd 186b 893e 788b 46be
000000b0: eb2a bf3d 9706 8b3e eee9 063d 87e2 69bd
000000c0: 7691 023e af68 3cbd a93d 13bc 7c3b a93d
000000d0: c31d 8cbe f4d6 43bb dd07 cabd b825 203e
000000e0: 9fd5 003e 92c0 93bc db53 bcbd 0a8f 7c3d
000000f0: c351 94be bbb2 0f3e 6b75 a7bd a106 a2bc
00000100: 9600 cf3d 38a7 21bc 1c6d 32be 804d 1a3d
00000110: caf2 023c e1e1 a53e a63f 8dbd 68f3 4bbe
00000120: b6b6 353e fcb5 0f3e d125 8dbb 170c 843e
00000130: fb64 b4be e0ed 88bd a91b 34bb 1f0b 10be
00000140: 8100 e3be 869b e5bd 30a5 0f3e 873d 1bbe
00000150: 7655 46be aaa7 9e3c 8e4e e13b e614 57be
00000160: 3430 5c3e 22cb 643e 1907 553e 2ca4 e2bd
00000170: 5ce4 a6bc 4358 0bbd 8f70 a9bd 1cfb 123f
00000180: 4375 883e e083 7a3e 73f9 f3bc 3842 983d
00000190: 3dd5 8cbe 8077 373d ac44 83bd bc9d dabe
000001a0: 295c 6b3e b693 94bc eab2 8abd 1b5b cb3e
000001b0: 91fa 12be 5b53 b23d 2988 f6bc 1fcf 8e3d
000001c0: f592 843d d0b4 783d 9d2b fe3b 9e43 233e
000001d0: bd4e e3bd eb28 babd d4e1 1f3e c3b7 3dbe
000001e0: 9d07 a1be d5cb 993c 756d a83d 6ed9 4ebe
000001f0: b8f0 20bd cfa5 083e a7ec c43c 0b84 a13e
00000200: 5b20 acbe 5034 9c3d c749 fbbd 4c95 c6bd
00000210: f36c c9be e2e7 9bbd a24f 2bbe 50c7 a7be
00000220: ac2d 36bd c65b 2d3e 81ee 923b a14c bdbe
00000230: a23e f23d 74a4 6e3e 5422 473e 9b48 e43d
00000240: 2e96 1cbe 7d52 123e 79f8 723e 0fc3 9b3d
00000250: 0735 003f d044 06be a84c 633d 4399 8e3b
00000260: 9273 643e 6c25 83be 7cdd 3ebe bc8c 783d
00000270: f9ad 2ebd efc7 6f3e fac0 e73d 6f66 91bd
00000280: 1aed 963e f520 ec3c c95b f63d 0877 03be
00000290: 167e 17bd 8a46 663e ac04 823c 2378 0c3e
000002a0: 647e 01bf 8541 23be f42f 29bd ffc9 0dbd
000002b0: e959 eabe f471 1cbe 8d1b 13be f48d 12bf
000002c0: 17cf f53b 5eae f93d f074 a73d 88c2 a23e
000002d0: b6d2 cfbe 51b9 babe ec1f df3b db7e a8be
000002e0: b3c3 12bf 4bc5 c6be 5e74 9dbe 6eb1 95be
000002f0: 958e 1b3e 5145 933e 9d60 203e 6288 ed3d
00000300: 325c 95be 2215 2ebd f09d 423e 9660 78be
00000310: c9f9 85bd 570b ea3a f681 843e 4458 523d
00000320: 343f 0bba 990b 813e e4ec bc3d 2522 54bc
00000330: d971 a3be 6542 4abd 0c09 13be ad1c 62be
00000340: 0e6b 24be 9128 b6be 45c2 2fbe 738b 833c
00000350: 4a68 0bbe 25eb 6f3d 1f58 c73d 0719 d43d
00000360: 19a9 1fbe 6eb4 7c3e 964e 6e3e 3514 e03d
00000370: 200a f5be d41e 3b3e 33dd 96be e96d 323c
00000380: 23a7 8a3e 4104 fc3c e06f 393e 5d89 ae3e
00000390: c88e 68be 1122 4a3e 4d88 8abe af4d 15be
000003a0: 312f d5be b3eb d0bd 3a1c 99be 3ca7 02bf
000003b0: 7498 623d 06b8 82bc ecf2 363e 732b a03d
000003c0: b915 cc3e 8153 e63d 9955 033e 4020 fa3b
000003d0: 01d1 253e 4a00 f83a 84b0 6b3d 0012 bfbd
000003e0: d348 7abe eaba a0be 1fc4 2abd 70ce 043e
000003f0: 0120 593e e903 aebc fbcb 89bc 62e7 40be

classifier.0.bias f4 [50]
0.13278821 0.13138877 0.1348339 0.18595171 0.4114511 0.48652208 -0.49848235 0.011949468
0.20050411 0.2542098 0.30307415 -0.3724212 -0.34700844 0.520353 0.31918463 0.05114737
0.15677476 -0.09671455 0.61499226 -0.18166019 0.53703594 0.2443266 -0.19007851 0.42144293
0.43987295 -0.022233479 0.45842865 0.04005318 0.6967374 -0.095675856 0.55101806 -0.14709327
-0.42399055 -0.3039055 0.35339084 0.3652174 0.7914184 0.5995917 0.31802803 -0.23246767
0.4208009 0.514077 0.4849515 0.82961076 -0.05150183 -0.76418257 0.0012683708 -0.09659817
-0.56607956 0.68259054
00000000: a2f9 073e c78a 063e e611 0a3e 206a 3e3e
00000010: b8a9 d23e 6c19 f93e 1439 ffbe b4c7 433c
00000020: f350 4d3e c927 823e 892c 9b3e fead bebe
00000030: 17ab b1be db35 053f 2b6c a33e e87f 513d
00000040: 9089 203e 4712 c6bd 2270 1d3f 2105 3abe
00000050: 307b 093f c130 7a3e f1a3 42be 5ec7 d73e
00000060: 0737 e13e fc22 b6bc 29b7 ea3e ce0e 243d
00000070: 625d 323f b4f1 c3bd 850f 0d3f 9e9f 16be
00000080: 4a15 d9be 8099 9bbe a5ef b43e c6fd ba3e
00000090: 659a 4a3f d77e 193f 92d4 a23e 010c 6ebe
000000a0: 3773 d73e 8d9a 033f 904b f83e 5f61 543f
000000b0: 95f3 52bd 78a1 43bf 763f a63a 43d5 c5bd
000000c0: 97ea 10bf 41be 2e3f

classifier.3.weight f4 [10, 50]
0.11735273 -0.37531602 -0.33996966 0.10674451 -0.3215292 -0.07681175 0.09446119 -0.099216364
-0.13114893 0.08365169 -0.10157799 0.096657194 -0.028399896 -0.3265131 -0.07223964 0.029978158
0.06780442 -0.26604494 -0.15471911 0.061489355 0.09466038 0.11713973 -0.07504378 -0.2089432
-0.1702383 -0.14108212 0.10791942 0.005064147 -0.123187125 -0.14330266 -0.24302797 0.07518345
0.08247802 -0.074347325 -0.21523227 0.112374514 -0.24363631 -0.17561196 0.051167052 -0.17837936
0.056160364 -0.056875993 -0.014102733 -0.6431051 0.12030188 -0.08668544 0.032670543 -0.05918733
-0.270283 -0.08954868 -0.16545318 0.050940588 -0.04791987 -0.05284688 0.13075033 0.060697168
0.06416296 -0.16881055 0.111221164 0.06445278 -0.027867818 -0.043047037 -0.03995756 -0.037881654
-0.03498817 0.105330124 -0.04580703 -0.037421353 0.10554022 -0.19336246 0.10838194 -0.0093999645
-0.14394984 -0.06157012 -0.05379095 0.16141877 0.10981076 0.068060905 0.0491522 -0.011153623
-0.15340677 -0.20717527 -0.09805351 -0.18711613 0.12991273 -0.13225713 0.13639215 0.06210363
-0.090390705 0.10911741 -0.36796707 0.13630112 0.13671944 0.19790465 -0.14709817 -0.19673917
-0.3910211 -0.27616465 -0.08229906 0.13892004 0.095338315 -0.07818857 -0.13814025 0.0914118
-0.0119293835 -0.056879535 0.0359095 -0.08198608 0.15018524 0.08637163 0.08255762 0.08685585
0.1374762 0.037200842 0.083383955 -0.11693524 0.04018412 0.04848775 0.107829176 -0.09489799
-0.19380505 0.084484786 -0.038937673 0.029351465 0.06405614 -0.058165476 0.1004664 0.108604744
0.08997476 0.11726882 -0.035640996 0.05937723 -0.114414774 0.08049726 -0.09240732 -0.08740257
0.10046802 0.039312918 0.07675766 -0.05157191 -0.09838591 0.13729778 -0.051458135 -0.044970743
0.12392556 -0.05487515 -0.28106308 -0.2154278 -0.060929064 0.0063573066 -0.10901434 -0.019355785
-0.10752006 -0.0017778637 -0.24959238 -0.2829753 0.12799495 0.09746271 0.16680695 -0.12323287
-0.1672575 0.09806687 0.14768247 0.14351945 0.10862513 -0.10845778 -0.111107595 0.12663917
-0.102077045 -0.088261984 -0.078978784 0.13171133 -0.08770565 0.10439219 -0.06842922 -0.08808229
-0.08384407 0.093373545 -0.014937776 0.122148484 -0.057293 0.07950977 -0.022750216 -0.15210024
-0.071249396 -0.081092775 0.0021540702 0.05217555 -0.0386654 0.078214705 -0.08185933 0.13037156
-0.054663423 -0.03323082 0.025990257 0.10751845 -0.15242964 -0.20341192 0.101873524 -0.065461025
0.12456958 -0.035319697 0.11994992 -0.164244 0.097431816 0.05608313 -0.04791318 -0.051472865
-0.10270675 -0.0155994855 0.09886537 0.111572616 -0.080218226 0.14457116 0.10190149 0.096746124
0.05309817 0.13047512 0.049580052 -0.014421689 -0.13497086 -0.10244195 0.06688754 0.08436208
0.03825897 0.13918531 -0.16800858 -0.10444494 -0.16930379 -0.05944585 0.12516709 -0.12149004
-0.02922961 0.102234274 0.09889635 -0.2014675 -0.05518711 -0.06746848 -0.09931156 -0.08996201
-0.106242344 -0.09308845 -0.06333999 0.18104866 -0.051205177 0.028486185 -0.12036239 0.058298655
0.09114496 0.13147296 -0.0044748713 -0.023371853 -0.14833353 0.11594792 -0.28605518 -0.10638267
00000000: a156 f03d 6c29 c0be 8110 aebe de9c da3d
00000010: 7a9f a4be 7b4f 9dbd de74 c13d f331 cbbd
00000020: e84b 06be 9451 ab3d 1f08 d0bd 35f4 c53d
00000030: e6a6 e8bc ba2c a7be 60f2 93bd c194 f53c
00000040: 0bdd 8a3d 0b37 88be b06e 1ebe 43dc 7b3d
00000050: 4ddd c13d f4e6 ef3d 8eb0 99bd 35f5 55be
00000060: f352 2ebe d577 10be db04 dd3d 25f1 a53b
00000070: 8849 fcbd efbd 12be 53dc 78be c8f9 993d
00000080: 3cea a83d 6943 98bd d965 5cbe 9c24 e63d
00000090: cc7b 79be 9fd3 33be 8b94 513d 14a9 36be
000000a0: 6908 663d cdf6 68bd 260f 67bc 89a2 24bf
000000b0: d560 f63d 2388 b1bd 8cd1 053d 6a6e 72bd
000000c0: 8962 8abe 4c65 b7bd 8f6c 29be 14a7 503d
000000d0: a047 44bd f875 58bd 6ae3 053e 989d 783d
000000e0: df67 833d acdc 2cbe ecc7 e33d d2ff 833d
000000f0: 0d4b e4bc 1752 30bd 8aaa 23bd cb29 1bbd
00000100: c14f 0fbd 52b7 d73d 27a0 3bbd 2247 19bd
00000110: 7925 d83d cf00 46be 5af7 dd3d 4f02 1abc
00000120: 9667 13be f330 7cbd e653 5cbd f64a 253e
00000130: 77e4 e03d 8463 8b3d d153 493d b0bd 36bc
00000140: aa16 1dbe c125 54be 47d0 c8bd 5f9b 3fbe
00000150: d807 053e 6a6e 07be 62aa 0b3e 6060 7e3d
00000160: c31e b9bd f378 df3d 2e66 bcbe 8592 0b3e
00000170: 2e00 0c3e 84a7 4a3e e7a0 16be fe75 49be
00000180: eb33 c8be 7465 8dbe 698c a8bd 0e41 0e3e
00000190: bc40 c33d 5421 a0bd a374 0dbe 1c36 bb3d
000001a0: 7673 43bc 84fa 68bd d715 133d 51e8 a7bd
000001b0: 29ca 193e 9ce3 b03d f813 a93d 7be1 b13d
000001c0: 90c6 0c3e e95f 183d 35c5 aa3d be7b efbd
000001d0: 1b98 243d 179b 463d 8bd5 dc3d e159 c2bd
000001e0: d574 46be 5c06 ad3d 1c7d 1fbd 7c72 f03c
000001f0: de2f 833d ec3e 6ebd 54c1 cd3d 2a6c de3d
00000200: b044 b83d a32a f03d 4bfc 11bd 8a35 733d
00000210: 4b52 eabd bfdb a43d 0d40 bdbd 1e00 b3bd
00000220: 2dc2 cd3d 9506 213d 1f33 9d3d 113d 53bd
00000230: 8d7e c9bd ca97 0c3e c4c5 52bd 3e33 38bd
00000240: afcc fd3d c4c4 60bd 80e7 8fbe 1b99 5cbe
00000250: c190 79bd f450 d03b e942 dfbd 0690 9ebc
00000260: 7a33 dcbd 3507 e9ba 2595 7fbe 23e2 90be
00000270: 1c11 033e 889a c73d 71cf 2a3e 8461 fcbd
00000280: 8d45 2bbe 48d7 c83d 133a 173e c3f6 123e
00000290: da76 de3d 1d1f debd 618c e3bd b3ad 013e
000002a0: c50d d1bd b3c2 b4bd a1bf a1bd 56df 063e
000002b0: 059f b3bd 93cb d53d 9e24 8cbd 7d64 b4bd
000002c0: 71b6 abbd a13a bf3d 93bd 74bc fc28 fa3d
000002d0: 11ac 6abd 05d6 a23d a95e babc 2ac0 1bbe
000002e0: 34eb 91bd f813 a6bd 4d2b 0d3b 08b6 553d
000002f0: 9c5f 1ebd 082f a03d dda5 a7bd 1f80 053e
00000300: c1e6 5fbd 0a1d 08bd 85e9 d43c a232 dc3d
00000310: 8416 1cbe 374b 50be 11a3 d03d 6e10 86bd
00000320: 561e ff3d 63ab 10bd 4ea8 f53d 942f 28be
00000330: 558a c73d 6db7 653d 9c40 44bd 36d5 52bd
00000340: eb57 d2bd fc94 7fbc ed79 ca3d 2f80 e43d
00000350: 7449 a4bd 760a 143e bab1 d03d d522 c63d
00000360: 777d 593d 459b 053e 7414 4b3d f348 6cbc
00000370: cd35 0abe 16cd d1bd 56fc 883d 07c6 ac3d
00000380: 70b5 1c3d 9886 0e3e 710a 2cbe 3be7 d5bd
00000390: f95d 2dbe 7e7d 73bd cd2b 003e c5cf f8bd
000003a0: ef72 efbc 3460 d13d 2b8a ca3d 7f4d 4ebe
000003b0: e10b 62bd ea2c 8abd dc63 cbbd 013e b8bd
000003c0: 9695 d9bd 28a5 bebd 66b8 81bd d264 393e
000003d0: 85bc 51bd dc5b e93c 8f80 f6bd 92ca 6e3d
000003e0: 35aa ba3d d9a0 063e f1a1 92bb 5476 bfbc
000003f0: bfe4 17be 1a76 ed3d d375 92be 28df d9bd

classifier.3.bias f4 [10]
0.9800248 0.6980253 -0.268643 -0.03930553 -0.59279346 -0.07806726 -0.06609595 -0.7197069
0.43564448 -0.1955489
00000000: e8e2 7a3f c9b1 323f 938b 89be d6fe 20bd
00000010: 50c1 17bf bae1 9fbd 505d 87bd b63e 38bf
00000020: cb0c df3e f93d 48be
