day2/domain_adaptation/revgrad_29.pt (torch_old, 91045 bytes, 8 tensors)

feature_extractor.0.weight f4 [10, 3, 5, 5]
00000000: 8eed 5e3e 9452 7d3c 0b34 85bc b39a 1f3e
00000010: d0e2 91bb 9825 3abe 0fd4 64be 54a9 cbbd
00000020: 902e 93be 53ae 26be 4b63 34be 0c1b 773d
00000030: 1803 53bd 8e57 2e3d 7f58 063e 25ab 55be
00000040: 3a86 9e3c f064 10bd 8c5a 433e ceb1 333d
00000050: 65e3 a8bd 0e25 0a3c 5c88 683e e46e 263e
00000060: 5a2e 14bd 8986 a43e 40cc de3d 872a aabd
00000070: 88e8 a03d e216 643d 7c55 4abe 2ea7 72bd
00000080: f3ce a7bd c254 6cbe 3f76 23be 2f2c 30be
00000090: b823 c0bd 2b61 a3bd 2703 2bbe ebb6 0cbe
000000a0: cab9 a1be f70e 6fbe a79e 5bbe f4ed 8fbe
000000b0: 6754 38be 52c7 f2be 3ed3 80be ed4a 24be
000000c0: 5d7b 48be cec0 86be 1f18 96be 83f2 86be
000000d0: 8df7 c8be 4ebc 43bd c4b2 943d 760d 1a3e
000000e0: e9e5 fe3d 3bda 513e be8e 8f3e 9286 823e
000000f0: 359b c53e 5550 e73e 17d5 f33e ae28 d63e
00000100: 696e 083e d82f e43e 8bcd fe3e 3749 fb3e
00000110: 1225 8d3e 8f4a ca3d 3d24 063f 2a54 0d3f
00000120: 1f25 a83e 36fc 953e 8ff0 d73d 9458 81bd
00000130: a2f9 5fbd aed6 62bd aff1 32be 6832 1dbe
00000140: 70b6 983d e9c0 8dbd 0d82 29bd f309 3ebe
00000150: 5c8d 12bc 7302 433e 2f2f f5bd a9ff 1b3e
00000160: 6276 63be 47a2 343e c2c8 183d b669 c6bd
00000170: 97c2 dcbc 226c 83be ab83 2a3e b542 5c3a
00000180: f614 cbbc a146 4abe d43a b3bc 312f e83d
00000190: 64e2 bcbd 26ea 12be 390a 063d bd25 d3bd
000001a0: d9a0 063e 4fe0 8dbd fa91 90be 56d1 0f3c
000001b0: 6468 a8bd 6f73 133e 3a2e febd a13f 04be
000001c0: 8c13 08be 0a0f de3b 60ce be3e 1093 b2bd
000001d0: 2835 8abd 5f7a c6bd 7a8c ee3d bf11 1b3e
000001e0: fed7 2dbe 91a6 cebc 99f8 a5bd 3c67 8f3e
000001f0: 751d 723e 5414 ed3e b0ce 903e 869d 8d3e
00000200: 766e 9c3e d4f4 ccbd 8227 a93e 01f2 7d3e
00000210: f98d a63e edfc f9bc 7d49 96be 1fe5 963e
00000220: cf8a 7b3e f79e 8e3e b3bf 90be 8843 61bf
00000230: 05f3 8d3e 5940 a13e 4870 2e3e d6c5 54be
00000240: 1d84 2dbf 0e27 f13d 4762 143e 9bd6 133e
00000250: 875b 0bbe 4860 a5be c922 babd b63a 89bd
00000260: 4c6b bd3c 93a1 893d 25cb 933d 1303 ae3c
00000270: a134 8f3c cc4d 5bbe bc36 2e3e 9378 fabd
00000280: 5011 2f3d 718a a7bc 441a 4abe 720b 483e
00000290: ab28 853d e3dd 163c 3e3e 053e 5ff7 89be
000002a0: 2d8a c83d 16e8 0d3d a068 253e 2b9d fe3d
000002b0: 4719 dfbd 7c5b bebc ead5 f1bd 4555 87be
000002c0: 7718 2fbe 45cc e9bc af52 ebbd fea0 d63c
000002d0: c1ba 12be 7994 4fbe 0bc5 71be 85c5 e7bd
000002e0: f1e1 9dbd 2ac5 00be b8ff 053d f45e 7abe
000002f0: 2d07 a03d 5ad9 2fbe d9fa d8bd 2d08 65bc
00000300: 7612 cdbd f8c8 9abb b276 b9bd 94bd 3dbe
00000310: 7ba8 04bb 7d1d 36be 4702 05be c4ee 24be
00000320: 4ddc f43e 9776 013f 105e 603e 9567 033e
00000330: 472d ebbd ce5e 863e 583d a63e cf62 933e
00000340: 336f eb3d 8a8e c7be 93ea 003e 1d37 873e
00000350: 24bc 9f3e c6d1 9a3e 5771 c7bd 9d1c 6dbe
00000360: e128 393e 448e 953e 9382 b33e d4e4 883e
00000370: 83de adbe 2dcf 363b fefd db3e 9533 e23e
00000380: 9ea1 cd3e a435 09be c45f a8bd d3ce 01bd
00000390: 651b 9ebd a933 04bd 6ecf a53d 73fc 3bbc
000003a0: 917d 9d3c aeca 663c 74c5 a0bd a4c5 13be
000003b0: df62 7cbd 4de1 b139 0e74 883d c1a2 87bd
000003c0: 120c b0bb fdd8 043b 3ae6 20bd 8ace ba3d
000003d0: 97da 91bd 7e28 06bd b727 193d c56b 06be
000003e0: 32e6 44bc 2520 91bc c6a5 8f3d 8a67 53bc
000003f0: 815b 54bd 7525 eebc b50d 94bd bc02 8ebd
0.21770307 0.015461583 -0.016260168 0.15586357 -0.004452087 -0.18178403 -0.22346519 -0.09944406
-0.28746462 -0.16277437 -0.17616002 0.06032853 -0.051516622 0.042563967 0.13119696 -0.20866068
0.019351114 -0.03525251 0.1907751 0.04387074 -0.08246497 0.008431686 0.22708267 0.16253239
-0.036177017 0.32133892 0.10878801 -0.08308893 0.07856852 0.055685885 -0.19759172 -0.059241466
-0.08193769 -0.23079208 -0.15963076 -0.17204355 -0.09381813 -0.07977518 -0.16700421 -0.13741653
-0.31587058 -0.23345552 -0.2144724 -0.2811123 -0.18000947 -0.47417694 -0.25161165 -0.16044207
-0.1957831 -0.26318973 -0.29315278 -0.26356897 -0.39251366 -0.047787003 0.07260659 0.15044197
0.12446196 0.20493405 0.2803859 0.25493294 0.38594976 0.45178476 0.47623512 0.4182791
0.13323368 0.44567752 0.49766192 0.49079296 0.27567345 0.09877502 0.52399045 0.5520655
0.3284082 0.29293984 0.1054393 -0.06315723 -0.054681428 -0.055380516 -0.17475007 -0.1535126
0.07456672 -0.0692156 -0.04138379 -0.18558483 -0.0089448355 0.19043903 -0.1197189 0.15234245
-0.22213128 0.17640029 0.037300833 -0.096881315 -0.026948256 -0.25668436 0.1665179 0.0008402274
-0.024790268 -0.19753505 -0.021878637 0.11337126 -0.09222868 -0.14347133 0.032724593 -0.103099324
0.13147296 -0.06927549 -0.2823637 0.008777937 -0.08223036 0.14399503 -0.12411161 -0.12914898
-0.13288707 0.006776695 0.37266827 -0.08719456 -0.0674842 -0.09691309 0.116478875 0.15143488
-0.16976926 -0.02522591 -0.08104057 0.2800845 0.2364405 0.46304572 0.2828269 0.27659243
0.30553025 -0.10007635 0.33037955 0.24799348 0.32530192 -0.030516112 -0.29352942 0.2947168
0.2456467 0.27855656 -0.28271255 -0.8799367 0.27724472 0.31494406 0.1703502 -0.20778593
-0.67779714 0.11775027 0.14490615 0.14437334 -0.13609134 -0.3230002 -0.09088666 -0.06700651
0.023122452 0.06720271 0.07216481 0.0212417 0.01748115 -0.21416396 0.17013067 -0.12230029
0.04274112 -0.020451756 -0.19736582 0.19535616 0.065018974 0.009208175 0.13012025 -0.26946542
0.0979198 0.034645163 0.16153193 0.12432321 -0.10893493 -0.023236983 -0.11808379 -0.26432243
-0.17099176 -0.028539786 -0.1149038 0.026199814 -0.14329053 -0.20271482 -0.23610322 -0.11316971
-0.077091105 -0.12575212 0.032714576 -0.24450284 0.07813869 -0.17172757 -0.105947204 -0.013979
-0.10013287 -0.0047236644 -0.090558425 -0.1852935 -0.0020242024 -0.17784686 -0.1298915 -0.16106707
0.47824326 0.5057158 0.21910882 0.12832482 -0.11483245 0.26244205 0.32468677 0.28786322
0.11495819 -0.38975936 0.12589483 0.26409236 0.31198227 0.3023817 -0.09738415 -0.23155446
0.18082 0.29210103 0.35060558 0.26737082 -0.33958825 0.0027894482 0.42967218 0.4417998
0.40162367 -0.13399369 -0.08221391 -0.031691384 -0.07720069 -0.03227583 0.08096205 -0.011473763
0.019224914 0.014086409 -0.07850161 -0.14430863 -0.06161773 0.00033927933 0.06662761 -0.0662284
-0.0053725326 0.0020270937 -0.03928206 0.091214254 -0.07121771 -0.03275346 0.03739139 -0.13127048
-0.012017773 -0.017715523 0.07014041 -0.012903104 -0.051845077 -0.029070595 -0.07229177 -0.06934115

feature_extractor.0.bias f4 [10]
00000000: 9ed1 09bf 9d7e 2abe 809d 87bf 20a4 b1bd
00000010: 6211 27bf fe66 fabe b000 8ebe 281a 04be
00000020: 9d40 1abf 84f3 bfbb
-0.53835475 -0.16649862 -1.059494 -0.086738825 -0.652609 -0.48906702 -0.277349 -0.12900603
-0.6025484 -0.0058578867

feature_extractor.3.weight f4 [20, 10, 5, 5]
00000000: 0ad4 fa3e 9b67 a13e 9568 3e3e 51c9 2cbe
00000010: c079 88bd 3751 05be 7c7b c13d 2c99 483e
00000020: bb8b 013e 45e4 85be 9a0c f7be 300e 91bd
00000030: 7ffb 963e 9e7b 023f b998 273e d635 64be
00000040: 6cac c0be 4bdb 91be 3559 af3d 8dd3 80bd
00000050: 3d5e 8b3e 4c0f 033e 0a14 e03d 3ef9 ddbc
00000060: 32d1 923d 5d80 5c3b 68f4 87bc 4567 453b
00000070: 4345 95be dabc 32be fef7 563e 17e8 14be
00000080: 0769 da3d 46f2 08be 2ee8 63bd 2cb2 6abe
00000090: fe52 0abe 3d72 573d a521 493d a1a8 153e
000000a0: 8611 c7be 6d70 2abd 63c5 4f3e ed8a 3fbd
000000b0: b341 25bd c3f5 323e b52c f83c c0bb aabd
000000c0: 79bf 6c3c 14da 093e 0d3a 223e 89dc 21be
000000d0: e06a 18bf 4d92 13bf 30a5 aa3e 7e56 0f3e
000000e0: 84e7 cb3e 085b ac3e 949b ef3d 9b69 993e
000000f0: 0300 3dbe 11ec b33e 0410 853e f952 ad3e
00000100: 1ed7 99be 0d44 ccbe 4baa 243e 1267 683e
00000110: cbff b7bd b4f8 94be 9000 ce3d ebd8 d4be
00000120: e72c 32be 014f 99be 5916 283c 8b38 3dbb
00000130: 1679 14bd e268 67bc 518a 133d 66c1 443d
00000140: 800f 803d 11f1 8d3c f818 82bc 04c6 0bbd
00000150: 4201 c13c 5faf 75bd d07b 2bbd ea92 a33c
00000160: 28fa dd3c 89a6 66bd ba4e 0b3d 7751 3cbd
00000170: f334 6a3d 79af 723c 4a2a d9bc ced7 413c
00000180: ed52 e2bb 3299 22bd 2ced 31bc 0142 883c
00000190: 8b08 c9bd 7a2e 53bd 8bb1 2b3d 08c3 983e
000001a0: 689a 42be 48a6 803e eecd 7ebe 84d4 1abf
000001b0: 551d 34be af8e 303e 2cda ebbd d28d 213e
000001c0: 03b2 23be df1b adbe e71a cabd 9ff5 c1bd
000001d0: b1ca 3a3d e282 f6bc 59fb 923d d625 83bd
000001e0: 1292 633e 89d7 903c cbcb c8bd 932c d53d
000001f0: f422 c53c 6837 96bd 7885 6fbc 843f 6fbe
00000200: 9bce 2abe 37d5 063f 7301 21be 1e98 f0bd
00000210: 9177 1bbd ee92 3c3e 4511 11bf db5a 01be
00000220: cedb 3f3c 7841 cd3b b971 a23e ea38 4b3e
00000230: eaf5 c03e a81a fb3b 0f21 1fbe 1b8d 71bd
00000240: ab55 5fbe 748f ce3d bd55 8ebd 45a5 89be
00000250: 5796 94bc 54d9 2e3e b3a4 d73e 9ad5 843e
00000260: 3305 57be 7895 603e 0502 55be 2e92 0a3e
00000270: 4309 263e 8478 6cbf 2b51 2abe 10ed a23c
00000280: 075c 7fbd e753 f23e 6778 da3e 730d d2be
00000290: e23f 87be 5881 1cbe e8b5 45be 0098 783d
000002a0: 789c 123c c2c3 c53d fc3a cbbe e4e5 673e
000002b0: b283 493d 3c64 cc3d 18a5 0a3d c5f8 13be
000002c0: d0cd 53be 254c b23d 88df 973e 852f 503e
000002d0: 627e 2abc f75f 14be c407 c63c 558b fcbe
000002e0: 10f7 62bd 7279 75bd ac8f 723e 8324 f43e
000002f0: 7f1c 2f3e 9532 98be 7722 cc3e 4e22 4dbd
00000300: 46ce a53d a7d0 d4bd ecfe 9fbe 46c0 ab3e
00000310: fc1d 1d3d d23c 54bd e8d4 d7bd e089 7cbd
00000320: 1f54 a2be 34fd 1ebe 3ecb 9b3c 7f6b 91bd
00000330: fbdd 01be f352 0d3e a373 c8bd 4462 f83d
00000340: 2f92 b23d be41 0e3e cdc0 793e 435e 9ebe
00000350: 06ff 1cbd 7364 5abe 8e74 a83d 2141 2d3e
00000360: 63e6 833e a3c5 46be e51b 98bd 522c a7bd
00000370: eb99 87be f781 23be 207f 8c3e f9e1 fd3d
00000380: 54c8 eb3d 7de4 683d 302f 41bd 1f4d 083e
00000390: 6c54 5fbe f117 c83e 270b 08bf a6c3 83bd
000003a0: 4f33 113e a4a6 c4bb 2180 9bbd 6d3a 54bd
000003b0: 12ab 22be f655 49bf db74 bebe 6210 d83b
000003c0: 2492 0ebc 4ab6 54be 3a6e 89be 7e45 e83e
000003d0: 4805 1c3e eeb2 a63e 141e 5e3d 36e3 a8bc
000003e0: 2ac1 fa3d 1ee7 d5bc 1ab2 e23e 5ffe 03bd
000003f0: e7f1 75be 69ab 60be 941e 013d 1671 f23d
0.48989898 0.31524357 0.18594582 -0.16873671 -0.06663847 -0.13019262 0.09447381 0.1958968
0.12650959 -0.26150718 -0.48251802 -0.07082784 0.2948875 0.50969875 0.16366853 -0.22286162
-0.37631547 -0.2848762 0.08561937 -0.0629035 0.27220336 0.12798804 0.10941322 -0.027096387
0.07168807 0.0033645846 -0.016596034 0.0030121368 -0.29154405 -0.17454854 0.20993039 -0.1454166
0.106645636 -0.1337367 -0.055641346 -0.2291953 -0.13508222 0.05259918 0.04910435 0.14615108
-0.38880557 -0.041611124 0.20290141 -0.04676335 -0.04034586 0.17476563 0.030294755 -0.08336592
0.0144499475 0.13462096 0.15842457 -0.15806784 -0.5953808 -0.5764511 0.33329153 0.13997838
0.3982507 0.336632 0.11699596 0.29963383 -0.18457036 0.35141042 0.2598878 0.33852366
-0.30046934 -0.3989567 0.16080587 0.22695568 -0.089843355 -0.29095995 0.10058701 -0.41571745
-0.17399941 -0.29943088 0.010259234 -0.0028872814 -0.03624829 -0.014124127 0.03602058 0.048036
0.062529564 0.017326863 -0.015881047 -0.03412439 0.02356017 -0.0599817 -0.041866124 0.019967515
0.027096823 -0.056311164 0.034010626 -0.04597613 0.057179403 0.014812344 -0.026509423 0.011831237
-0.006906858 -0.03969688 -0.010859769 0.016633036 -0.098160826 -0.051557995 0.041917365 0.29836297
-0.19004214 0.25126863 -0.24883243 -0.60480523 -0.17589314 0.1724193 -0.11516222 0.15776756
-0.15985875 -0.33810326 -0.098684125 -0.09470677 0.045603458 -0.030091707 0.07176847 -0.06403701
0.2222369 0.0176809 -0.098044954 0.104088925 0.024064519 -0.07334787 -0.014619224 -0.23364073
-0.16680376 0.5266909 -0.15723209 -0.11747764 -0.037955824 0.18415424 -0.56666976 -0.12632315
0.01171012 0.006263908 0.31727389 0.1984593 0.37687618 0.00766309 -0.15539955 -0.05897246
-0.21810023 0.10085955 -0.06949947 -0.26883903 -0.018138094 0.17075092 0.42117843 0.25944215
-0.20998077 0.21932018 -0.20801552 0.13532326 0.1621447 -0.9237139 -0.16632526 0.01988843
-0.062343623 0.47329637 0.42669985 -0.41025886 -0.26415926 -0.15283716 -0.19307673 0.060691833
0.008948438 0.096564785 -0.3969344 0.2264629 0.04919786 0.09980056 0.033848852 -0.14450367
-0.2068398 0.0870593 0.29662728 0.20330627 -0.010406109 -0.14489733 0.024173625 -0.49325052
-0.0554114 -0.059930272 0.23687619 0.47684106 0.17100714 -0.2972609 0.39870045 -0.050081544
0.08095984 -0.1039136 -0.31249177 0.3354513 0.038358673 -0.051815815 -0.105386555 -0.061654925
-0.31704804 -0.15526277 0.019017812 -0.071005814 -0.12682335 0.13801174 -0.09787681 0.12128118
0.087192886 0.13892266 0.24389954 -0.3093129 -0.038329147 -0.21327381 0.08225356 0.16919376
0.2576171 -0.1941133 -0.074271955 -0.0816275 -0.26484618 -0.15967546 0.2744074 0.123966165
0.11512819 0.05685853 -0.047164142 0.1331067 -0.21809548 0.39080766 -0.5314202 -0.06433801
0.14179729 -0.0060013104 -0.07592798 -0.05181353 -0.1588557 -0.7864679 -0.3719853 0.00659375
-0.008701835 -0.20772663 -0.2684191 0.45365518 0.1523639 0.32558388 0.054227903 -0.020616155
0.12243874 -0.026111182 0.44276506 -0.03222501 -0.2401806 -0.21940388 0.031523302 0.11837976

feature_extractor.3.bias f4 [20]
00000000: df41 e4be 0ef7 26bd 2467 99be 5e7f 683e
00000010: 7710 35bf 6dfa 87bc 0dfb 15bf aee3 46be
00000020: a1dd d1bd 264e 103e fb33 4cbe b274 a3bd
00000030: e060 dbbe 666e 90be 1db2 87bd 7454 963c
00000040: cc21 313e 81e8 d5bc ebea df3d 850a 2bbe
-0.44581506 -0.040762953 -0.29961503 0.22704837 -0.7072825 -0.016598905 -0.585862 -0.1942279
-0.102473505 0.14092311 -0.19941704 -0.07981242 -0.42847347 -0.28209227 -0.06625769 0.018350817
0.17298049 -0.026111843 0.10933479 -0.16703232

classifier.0.weight f4 [50, 320]
00000000: 08be 37bb c462 f9bd 5917 ecbd a41b 18bd
00000010: 90de 59be df48 a0be dd94 0dbe 1589 843e
00000020: 1084 4dbd 277a f53d 7736 e23d 6548 273d
00000030: 646a a0bb 2792 0c3e 2840 69be 4693 963d
00000040: 3724 00be 194e 35bd bed3 f1bd 30e9 0abe
00000050: 27d7 4f3e 7b31 663e ce95 37bc 3144 5e3d
00000060: a369 223e 6aa5 b33d 48e1 4e3d 257f 88be
00000070: f0fa 89be 8a0f 93be aa11 fabd 016e afbd
00000080: 7f03 e43d 11ca a03e 194e 5bbe 4a68 83bb
00000090: abb2 8bbe 55e9 2b3d d2d3 53be 9c2d 10be
000000a0: a05e 3fbe d935 0dbe 0d32 793e e45e 62be
000000b0: fd32 633d eb0c 823e 1285 0d3d 521c cdbd
000000c0: 7e80 0e3e 0764 70bd d69b cebc 0a07 423e
000000d0: 4ee3 67be c0df 6a3d c411 28be 44ee 7f3d
000000e0: b2fd a93d c795 65bd 1dcb 16be 2208 233a
000000f0: f7f2 6dbe 935a b73d f4b7 7cbd 867a 9bbd
00000100: a566 113e 5ab3 46bc 54e7 15bd 692c 723d
00000110: 3b02 6f3d 9aef ba3e d89a 783d c8a6 3bbe
00000120: 2f43 083e ea40 2a3e 6583 1b3d f1df 683e
00000130: 7021 96be 3b6e 3dbd 7a7a 91bc 2fb7 73be
00000140: 57a9 edbe 3c4d 35be c018 e43d 43f1 7abe
00000150: fa26 81be 2382 17bd 142b 8f3c 1669 14bd
00000160: 5027 553d f5b6 f73d 1a54 cb3d ea3e eebd
00000170: 3d8c 7abd c45a 02bd 46e1 fabd a4ce a83e
00000180: 7c59 6f3d d367 823e c419 db3a 618d 243d
00000190: 02f6 c2be 134b 51be 85ee a8bc dfb2 96be
000001a0: 2d3e 5b3d 4cfa 5abd ada3 b33c 21ce 813e
000001b0: c8b2 50be a117 d23d e9c0 89bc d4cb 49bd
000001c0: f040 393d 3eb3 91bb 4c1d 39bd a784 0d3e
000001d0: 0f48 fabd a26f 47ba 4ca2 a53a 0072 8bbe
000001e0: afd1 c2be 8f2c bd3c 4b78 1c3e 150b 2bbc
000001f0: 0f6a a4bd 0f73 1e3e 31a5 5a3c fde2 be3e
00000200: 85e2 60be 41bb 6c3d 3873 03bc 1061 0cbe
00000210: b3bd b7be 4f16 b5bd cb3f 8dbe fa19 c7be
00000220: f222 85bb e71b 3b3e 8dd8 d43d 917c 40be
00000230: 4f48 6b3d 89f3 213e a0fb 4f3e 60e7 eeba
00000240: f3d4 25be 20bc 373d 4c11 093e 90e6 123e
00000250: c5fa bf3e 3f51 54be 0bcb 35bd ab83 5b3d
00000260: 1f63 5e3d c9fc 9ebe 0164 7bbe 6450 80bd
00000270: e56b e93c 0afb 513e d7d3 883d 4bd4 253d
00000280: 260f 103e b4f1 39bd 581c e0bc 2a50 23be
00000290: 66d2 a4bd 8703 c33d 8b03 3b3d bc6d 613e
000002a0: bb47 c5be d75f 05be e11f e4bd b419 0dbe
000002b0: 0ae9 eabe 81d7 f5bd 4647 fcbd 380a 00bf
000002c0: ca84 d6bb 7767 1c3e 31be 513e 3424 b63e
000002d0: e93e b5be 244c 95be b1b8 d53c 40a0 30be
000002e0: 7362 f9be dc77 21be 6c76 28be e608 5cbe
000002f0: 3e79 d23d 43ba bc3e b78a aa3e b129 4e3e
00000300: 2c14 bfbe 3f61 40bd 51e5 7a3d dde8 b6be
00000310: a97c 80bd a514 ad3d 3c3b 513e 9594 4f3d
00000320: 1dbc a8bd 1af7 273e e3b4 533e 2cf0 903b
00000330: 8e42 acbe 9100 153c 3f4d 5bbd ff7e a4be
00000340: 6770 02be af9b 1abe f194 fdbd 3b89 133e
00000350: 253d 0dbe a670 373e d77a b53d 06f3 6c3d
00000360: 4106 1ebe dac7 5a3e 9956 283e ab2c 213d
00000370: 026f 89be 3341 4d3e e668 c4be 5ef2 19bd
00000380: 275d be3e 667e 093d c14a b23d c602 483e
00000390: 1081 59be 1941 c13d a14f d6bd 5398 1f3d
000003a0: b4dc babe 01b3 36be 0c28 45be 2cf0 9fbe
000003b0: 8385 283e 58c5 853d 45a0 2c3e d33e 6fbd
000003c0: 3ed5 9d3e 9645 1d3d 44b3 0e3e a5fe 953d
000003d0: 836e 293e 08a3 a1bd be81 97bc e6c2 3d3d
000003e0: aba9 69be 180a 99be bd18 55bd 0d79 d23c
000003f0: 8a65 1e3e 70b8 06bc c32f dcbc d7dd 4bbe
-0.0028036851 -0.12177041 -0.11527891 -0.037135735 -0.21276307 -0.31305596 -0.13826318 0.25885835
-0.050174773 0.11986189 0.110455446 0.040840525 -0.0048954953 0.13727628 -0.2277838 0.07352309
-0.12513815 -0.044263933 -0.11807965 -0.13565516 0.20296918 0.22479813 -0.01120515 0.05426425
0.1586061 0.087717846 0.050507814 -0.26659504 -0.26949263 -0.28722793 -0.122104004 -0.085659035
0.11133479 0.31404164 -0.2141651 -0.004010235 -0.2728475 0.04197057 -0.20686272 -0.14079899
-0.1868844 -0.13790073 0.24335499 -0.2210651 0.055468548 0.2540048 0.034550734 -0.10015167
0.13916203 -0.058689144 -0.025220793 0.18947998 -0.22645304 0.05734229 -0.16413027 0.062483087
0.08300342 -0.056051042 -0.14725919 0.00062191684 -0.23237215 0.089528225 -0.06169887 -0.07591729
0.14199312 -0.012127722 -0.036597565 0.059124384 0.058351737 0.36510926 0.060694546 -0.18325341
0.13306879 0.16626325 0.037967104 0.22741677 -0.29322386 -0.046247702 -0.017758597 -0.23800348
-0.4641826 -0.17705244 0.11137533 -0.24506097 -0.2522505 -0.036989342 0.017476596 -0.03623303
0.052039444 0.12095443 0.099281505 -0.11633094 -0.061168898 -0.031824842 -0.12249999 0.32970154
0.05843495 0.25469837 0.0016716053 0.040173892 -0.38078314 -0.20438795 -0.020621547 -0.29433343
0.053526092 -0.053461358 0.021928633 0.25352576 -0.203807 0.10258413 -0.01681562 -0.04926665
0.045227945 -0.004446416 -0.045193955 0.13820134 -0.12220775 -0.0007607882 0.0012636869 -0.27235413
-0.380506 0.023092536 0.15280263 -0.010439654 -0.080280416 0.15473579 0.013345049 0.37282553
-0.2196141 0.057795767 -0.008023076 -0.13708901 -0.35886917 -0.08842146 -0.27587733 -0.38887006
-0.0040630037 0.18272363 0.10392866 -0.18797518 0.057442006 0.15815558 0.20310831 -0.0018226914
-0.16194515 0.044857144 0.13385504 0.14345765 0.3749601 -0.20734118 -0.04438309 0.053592365
0.054293748 -0.31052235 -0.24549867 -0.06265333 0.028493831 0.2050592 0.0668103 0.04048566
0.14068279 -0.04539652 -0.027357265 -0.15948549 -0.08047943 0.09522157 0.045657676 0.22014517
-0.38531289 -0.13024841 -0.11138893 -0.13779336 -0.4588092 -0.12003995 -0.12318282 -0.5001559
-0.0065465914 0.15273844 0.20482709 0.35574496 -0.3539956 -0.29159653 0.026089044 -0.1724863
-0.48707923 -0.15768379 -0.16451424 -0.2148777 0.10277031 0.36860856 0.33308956 0.20133092
-0.37320077 -0.04696774 0.06125385 -0.35724536 -0.06273777 0.08451203 0.20432752 0.05067881
-0.08239005 0.16402856 0.20674472 0.004423162 -0.33644527 0.009094373 -0.053540464 -0.3212814
-0.1273819 -0.15098451 -0.12381924 0.14407818 -0.13792856 0.17914066 0.088613205 0.057848953
-0.15432073 0.213653 0.16439284 0.03934924 -0.26842505 0.20044403 -0.3836128 -0.037584655
0.37180445 0.03356781 0.087056644 0.19532308 -0.2124064 0.094362445 -0.10464407 0.038963627
-0.36496508 -0.17841722 -0.19253558 -0.31237924 0.1645718 0.06531781 0.16858013 -0.058409523
0.30826753 0.03839644 0.13935572 0.0732396 0.16546063 -0.07892424 -0.018494483 0.046328448
-0.2281863 -0.29890513 -0.052025545 0.025692487 0.15468422 -0.008222684 -0.026878243 -0.19908844

classifier.0.bias f4 [50]
00000000: 677e ba3b 57d3 933d f134 0d3e 55b1 7d3e
00000010: 07ec a83e 0ed9 a83e fe16 ccbe 50ad 07be
00000020: 4d5e 663e 0930 073c 4b83 8e3e afec abbe
00000030: 1c95 48be 4040 f23e a211 a53e 9c3b 7f3d
00000040: 1132 4639 a9e4 4abe 874c df3e 1f33 9cbc
00000050: f3f5 d43e c148 d03e 3a52 77be b655 b53e
00000060: 4029 8d3e b321 c5bb e7a6 8a3e 6500 083e
00000070: 11a2 113f 6716 1ebd b4af f03e ec3b 4dbd
00000080: 4883 c6be 4b4c 98be 88b7 9a3e f2b2 a23e
00000090: 7cf3 153f 51e1 ed3e e003 663e 7cea 81be
000000a0: e3e9 bd3e c7ad b73e 479c c33e 2d55 3f3f
000000b0: fae3 e23c 53f5 15bf 0321 01be 5b58 a0bd
000000c0: 51e1 dcbe dfa8 e13e
0.005691338 0.07218044 0.13789727 0.24774678 0.32992575 0.329781 -0.39861292 -0.13249707
0.2249691 0.008251199 0.27834544 -0.33579013 -0.1958813 0.47314644 0.32240015 0.062312707
0.00018901403 -0.1981379 0.43613073 -0.019067345 0.41593894 0.40680507 -0.2415246 0.35416955
0.27570534 -0.00601598 0.2708046 0.132814 0.5688792 -0.038595583 0.4700905 -0.050105974
-0.38772035 -0.29745707 0.30218148 0.3177715 0.5857465 0.46460965 0.22462416 -0.2537421
0.37092504 0.3587477 0.38205168 0.7473934 0.027696598 -0.5857746 -0.12610249 -0.078293525
-0.43140653 0.4407415

classifier.3.weight f4 [10, 50]
00000000: acd6 0e3e 67a2 dcbe 2d11 93be f666 063e
00000010: 46d5 d1be ade1 05be 7307 fc3d 7955 87bd
00000020: 889c 3bbe 7b22 d93d 5c88 d33c 4ef8 d33d
00000030: 84ee 12bd 06cc 9bbe a459 08be 298a ba3d
00000040: f05c bd3d 9e68 63be b4e0 c0bd d69a bd3d
00000050: 05e4 a33d 26bb eb3d 8b6a 7dbd 0fd9 5ebe
00000060: fca0 28be 24ee 10be a2a8 103e 78c6 c83b
00000070: ac8c 10be 752b 3dbe b2c7 94be 3e1c dd3d
00000080: 9ee0 c43d ed10 cebd c548 91be 9eda ca3d
00000090: 0d3d 51be 4033 31be b681 8d3d e964 3bbe
000000a0: 636f 123d 1865 febd 6c51 1ebc 9160 1dbf
000000b0: 34d8 e23d dd64 49bd 6dea b83c 1860 ecbd
000000c0: 2f13 61be 26fd 6abd ed88 3cbe 97e9 da3d
000000d0: ac7b 81bd 5dcd 2fbd e2da 0b3e 3d92 b33d
000000e0: b83e 943a c194 c6bd e323 1b3e 1ab8 ec3d
000000f0: d5b8 8fbc cf61 a4bd 30d2 23bd f726 91bd
00000100: a67a 99bc cfaa e13d 4580 42bd ace5 7abd
00000110: 6892 ea3d 4fd0 87be 57df 053e 0ba6 9a3d
00000120: f392 3ebe 8e66 e9bd 8d35 a9bc aed6 223e
00000130: 1087 033e b8a1 a23d a203 9c3d aa6d 30bd
00000140: 19b4 29be 57c9 40be c71c b6bd b245 40be
00000150: 119b 113e cf6a f2bd ced7 0e3e e4a7 383d
00000160: a1cd cdbd bfdc 153e b9e6 c9be 6d80 d63d
00000170: 755c 243e ac78 503e 211a 4ebe 199a 2ebe
00000180: 6193 bfbe c957 adbe 6b46 08be 5d97 233e
00000190: 4470 003e a428 dabd 7768 8cbd 071a b13d
000001a0: 4d95 03bc 101a 54bd 2bed 623c 6484 ecbd
000001b0: 7df0 1b3e 4306 b63d 1917 a93d 19f9 b43d
000001c0: 3bdd 203e 01f6 ccbc e5ec d83d 2403 f2bd
000001d0: e94a 393d 34cb 5b3d 99f1 033e ccce 95bd
000001e0: c92d 88be 0fec bf3d c18a 5cbd 37e6 8fbb
000001f0: a100 803d 3a2a bbbd ac06 d43d 1805 c63d
00000200: 05c5 ca3d 8f89 073e c1da c3bc 828a 813d
00000210: f02e f4bd 93e1 d93d 5999 f1bd 2ea5 08be
00000220: 5bb8 113e b2ca 9d3d 2a19 b23d 1e44 aabd
00000230: 598b a9bd 0b4e 173e fb84 79bd 155f 51bc
00000240: 88e2 053e 7a44 c9bd 62f4 78be 52a0 f3bd
00000250: 6493 b2bd e595 fcbc 27cc bdbd 8235 28bc
00000260: 7847 0dbe 6878 da3c 1ba0 a9be 1be8 8dbe
00000270: 2785 0a3e 9fcc 0a3e 4a5a 183e f183 c3bd
00000280: 2c1d c6bd 6ce1 e33d 7bc1 013e df69 113e
00000290: 1db9 cf3d 4b81 bcbd a9f4 c6bd 5ae8 143e
000002a0: 7858 90bd 5e24 64bd 0f8c b6bd 0658 0d3e
000002b0: 71b9 703c fa2b d33d 7add b5bd f701 e8bd
000002c0: ad78 c0bd fcbf bd3d 2c70 a3bd ce38 063e
000002d0: c6c1 d0bc ed61 913d faff b4bd d345 f4bd
000002e0: be55 13be 471b 29bd 4b9e a33c 907f ae3d
000002f0: 0033 81bc 0c75 db3d af9d 6abd 5281 193e
00000300: 4b5d a0bd aeac aeba 487d 403d 41cb d33d
00000310: e5e6 20be 55d7 1fbe 672d ef3d 8148 88bd
00000320: b057 ed3d 7fc9 d4bc 9743 d93d 0383 2dbe
00000330: df81 e23d 8ab7 ae3d c461 46bd d922 c5bd
00000340: ddcc 33bd 3ea8 433d 3997 e83d 85da e33d
00000350: 838a 10bd 7c1f 183e 4b1c b93d fdcd d93d
00000360: 1c2d 5d3d 0de6 f63d a8d0 923c 9ee1 54bd
00000370: 8aa2 1fbe a629 b7bd 69f2 c13d 2db5 bf3d
00000380: d3af 783d 5405 223e b2f1 2ebe a67d 0ebe
00000390: 44eb 9cbd c427 eabd b042 ed3d 0afb 3abe
000003a0: c423 863d f8d9 ff3d a015 f73d 1658 22be
000003b0: 7571 30bd 07ed f3bd fb90 a3bd 5ab1 74bd
000003c0: a875 98bd 23de 35bd 5e1f c63b d6d3 483e
000003d0: 6b41 5abd c71e 6c3c 0aa2 2cbe 5810 503d
000003e0: 5a24 ec3d 0d3f 0c3e 3ae6 ee3c 123c f1bc
000003f0: bb62 32be 47a0 093e e6c3 90be 955c 9dbd
0.13949078 -0.43092653 -0.28724042 0.13125214 -0.40983027 -0.1307437 0.12306108 -0.066080995
-0.1832143 0.1060228 0.025821857 0.10350095 -0.035871997 -0.30429095 -0.13315445 0.09108383
0.09246242 -0.22207877 -0.09417859 0.09258048 0.08002476 0.11510305 -0.061869185 -0.21762489
-0.1646766 -0.14153343 0.14126828 0.006127175 -0.14116162 -0.18473609 -0.29058605 0.107964024
0.09613155 -0.10061822 -0.2837583 0.09904979 -0.20433445 -0.17304707 0.06909506 -0.18300213
0.035750758 -0.12421626 -0.009662967 -0.61475474 0.11076394 -0.049168456 0.02257272 -0.11541766
-0.21979974 -0.057370327 -0.18411608 0.10689085 -0.06322417 -0.04292046 0.13657716 0.08768127
0.0011310196 -0.09696341 0.15150408 0.11558552 -0.01754419 -0.08026468 -0.039995372 -0.0708751
-0.018735241 0.11018907 -0.04748561 -0.06125419 0.11453706 -0.26526114 0.13073479 0.075512014
-0.18610744 -0.11396514 -0.020655418 0.15902206 0.12844491 0.07941002 0.076178804 -0.043073334
-0.16572608 -0.18826805 -0.088922076 -0.18776587 0.1421931 -0.11836778 0.1394951 0.045081988
-0.10048986 0.14634989 -0.3943384 0.10473714 0.16050895 0.20358533 -0.20127155 -0.17050971
-0.3741713 -0.33856037 -0.13308112 0.1597571 0.12542826 -0.10652283 -0.068558626 0.086475424
-0.008031202 -0.051782668 0.013850491 -0.11548689 0.15228458 0.08887913 0.08256359 0.08836574
0.15709393 -0.025019648 0.10592059 -0.11817005 0.045237456 0.053660586 0.12885131 -0.07314834
-0.2659743 0.093711965 -0.053843264 -0.0043914574 0.0625012 -0.091389135 0.10352835 0.0966894
0.0990086 0.13236068 -0.02390802 0.063252464 -0.11923015 0.10638728 -0.11796827 -0.13344261
0.14230482 0.07704677 0.08696206 -0.083137736 -0.082785316 0.14775865 -0.060917836 -0.012779017
0.13074696 -0.09827514 -0.24311975 -0.11895813 -0.08719519 -0.030833194 -0.092674546 -0.0102666635
-0.13796794 0.026668742 -0.33129963 -0.27716145 0.13527356 0.13554619 0.14878193 -0.0954665
-0.09673533 0.1112698 0.12671463 0.14200543 0.101427294 -0.09204348 -0.09714634 0.1454176
-0.07048124 -0.055698745 -0.08913433 0.1380311 0.01469265 0.10311122 -0.08880134 -0.113285
-0.09398017 0.09265134 -0.079803795 0.13107607 -0.025483023 0.07098756 -0.08837886 -0.119273804
-0.14388177 -0.04128578 0.01997294 0.08520424 -0.015771389 0.10715684 -0.057279285 0.14990738
-0.07830294 -0.0013326609 0.046994478 0.10341502 -0.1571308 -0.15609486 0.11678582 -0.06654454
0.11588991 -0.025974987 0.10608595 -0.16944508 0.11059927 0.08531101 -0.04843308 -0.09625787
-0.043896545 0.04776787 0.113569684 0.11125664 -0.035288345 0.1485576 0.090385996 0.10634992
0.053998098 0.120555975 0.01792176 -0.051972978 -0.15589347 -0.08943491 0.09470064 0.093607284
0.060714554 0.15822345 -0.17084387 -0.13915119 -0.07662061 -0.11433366 0.11584985 -0.18259826
0.065497905 0.12492746 0.120646715 -0.15853915 -0.04307695 -0.11910444 -0.07986637 -0.059739448
-0.07444316 -0.0444013 0.0060462197 0.19612059 -0.053285044 0.014411635 -0.16858688 0.050796837
0.11530371 0.13695927 0.029162515 -0.02944759 -0.17420475 0.13440047 -0.2827446 -0.07683674

classifier.3.bias f4 [10]
00000000: 82d6 683f 81db 273f dd02 c2be 56a2 a3bd
00000010: e72c e8be 8bed febd b698 e7bc 20e0 f9be
00000020: 04ea c53e a640 6cbe
0.9095231 0.6556931 -0.3789281 -0.079899475 -0.45346758 -0.124476515 -0.02827106 -0.48803806
0.38655102 -0.23071536
