day2/domain_adaptation/revgrad_21.pt (torch_old, 91045 bytes, 8 tensors)

feature_extractor.0.weight f4 [10, 3, 5, 5]
00000000: ccf6 203e af0b 783c ff8d 1a3d 24d9 043e
00000010: 8468 52bb d764 02be a54d 51be 602e e1bd
00000020: 841c 9dbe 8f2f 15be 1276 32be e0a2 1f3d
00000030: 1e5b 6ebd b393 7ebc 0a55 163e bb76 67be
00000040: 93cd 6e3b b7bd 61bd 191a d13d b2aa 913c
00000050: f963 cfbd ce78 57bd 46c1 4b3e 6e62 ec3d
00000060: 6e59 2fbd b623 563e 5978 883d 7fed 95bd
00000070: a283 133d 8954 3b3d 6543 56be 318b a6bd
00000080: d85d 0ebe e17e 84be 447b 03be d8ba 2dbe
00000090: a838 d6bd f4ee 87bd 2137 38be ceff 88bd
000000a0: a39f 8cbe 6e82 53be e49d 4ebe 6479 a2be
000000b0: dcba fbbd 3172 dabe a713 80be a390 13be
000000c0: 75a1 3ebe ed4b 43be f19d 91be a3a6 28be
000000d0: c792 94be 6148 51bd ff4f 923c 4a4b 2d3e
000000e0: 3989 323e 8951 403e 45af 333e 7a9e 403e
000000f0: 4c54 bb3e 9956 ef3e 686d 013f fdb3 cd3e
00000100: 1543 0f3e feb3 dc3e 3c44 053f e89a 013f
00000110: ca69 773e 364f ec3d 4f10 013f fe5e 0d3f
00000120: 02ad aa3e 2a47 9a3e 2514 f43d 0e0a b9bd
00000130: 7d4e 17bd b4c5 21bd 814d 0abe 3960 17be
00000140: 6f59 673d b709 98bd e18b a8bd 3c10 e6bd
00000150: f8b1 4ebb 1475 3b3e e565 0cbe 77b3 fb3d
00000160: 3ee6 04be a836 d43d 7882 bc3b 4097 c6bd
00000170: d5d3 963c 2d77 25be f343 213e 6065 2bbc
00000180: 57ef 8c3c ea31 30be 00cd ba3b b16a 043e
00000190: 6a4a 8cbd e3cd bfbd f6c2 853d cbfe a1bd
000001a0: 7b26 c23d ba46 d5bc 1751 79be 5034 543c
000001b0: c764 10bd 3886 b73d 17a8 a0bd ec99 eabd
000001c0: 0c3a 08be 2022 473c 9988 643e 9272 86bd
000001d0: b0cb 3bbd 5ac0 91bd b9d3 cb3d 882d 893d
000001e0: 475e 15be 1cb5 873b 4294 ecbd cf85 633e
000001f0: 4c89 333e 4786 de3e 970a 803e 3e2a 7a3e
00000200: 44f2 8c3e 872b 15be 109f b23e 7836 6d3e
00000210: c669 973e b8d1 6bbd 1efe 9bbe a855 aa3e
00000220: 985e 6f3e 11c1 8f3e f9b0 99be 5b47 4fbf
00000230: f9d6 8a3e 8e1a 953e 78e6 183e c14a 7bbe
00000240: d703 1abf 5db2 9c3d 489f cc3d de34 3e3d
00000250: 9f2c 2fbe 7c74 a0be 5dab 83bd 8da0 69bd
00000260: c4e7 703d 7cd4 d03d 147b b43d cb68 83bc
00000270: c292 ee3c 9989 32be 5a84 333e 5c20 8abd
00000280: 1ef8 f0bb 4fa6 63bc b8c8 2dbe a567 2a3e
00000290: 9c2b 583d e06a 6d3c 52f4 063e 8377 6dbe
000002a0: 33f5 fc3d 8793 e83a 20fa 233e 66ef e43d
000002b0: 48f7 c1bd 394f 133c 5cef 5abd f4ee 49be
000002c0: 885b 14be 758f 303b a8df c9bd 602a 2a3a
000002d0: d26c 22be af8e 4abe 2ad4 60be 5a7a 00be
000002e0: 83ab b1bd c310 31be 5790 be3c 2193 87be
000002f0: 3e1a 563c 4d84 75be 34d7 e7bd 0a0e 03bd
00000300: aae0 d1bd 5691 12bc ed97 19be 15ec 4ebe
00000310: 5abc cfbc 0457 43be af36 f2bd aa01 ebbd
00000320: b4e4 ea3e b982 e33e 9c28 2e3e b032 263e
00000330: 1c5f f4bc 4ec1 703e c85b 8d3e dd80 783e
00000340: ca24 203e 1fd6 9ebe 4936 fd3d c98c 7c3e
00000350: 826f 663e be62 983e 0c9f 9ebd 0364 0ebe
00000360: 81f6 523e 9071 6f3e ff35 b33e bed6 773e
00000370: 184f 68be 69e0 3b3d deb2 bb3e 5312 cf3e
00000380: 9c97 cb3e a435 09be c45f a8bd d3ce 01bd
00000390: 651b 9ebd a933 04bd 6ecf a53d 73fc 3bbc
000003a0: 917d 9d3c aeca 663c 74c5 a0bd a4c5 13be
000003b0: df62 7cbd 4de1 b139 0e74 883d c1a2 87bd
000003c0: 120c b0bb fdd8 043b 3ae6 20bd 8ace ba3d
000003d0: 97da 91bd 7e28 06bd b727 193d c56b 06be
000003e0: 32e6 44bc 2520 91bc c6a5 8f3d 8a67 53bc
000003f0: 815b 54bd 7525 eebc b50d 94bd bc02 8ebd
0.15719146 0.015139504 0.037733074 0.12973458 -0.0032105753 -0.1273378 -0.20439775 -0.109951735
-0.30685818 -0.14568923 -0.17427853 0.03897369 -0.058192365 -0.015538144 0.14680877 -0.22603886
0.003643845 -0.055112567 0.10210056 0.01778159 -0.1012649 -0.052605443 0.19897947 0.115422115
-0.042809896 0.2091206 0.066635795 -0.073206894 0.036014207 0.045734916 -0.20924146 -0.081320174
-0.13902986 -0.2587805 -0.12839991 -0.16965806 -0.10460025 -0.066373736 -0.1798978 -0.06689416
-0.27465543 -0.20655224 -0.20177418 -0.3173324 -0.122915 -0.42665246 -0.25014994 -0.14410643
-0.18616278 -0.19071932 -0.28440812 -0.16469817 -0.29018232 -0.051094417 0.01786041 0.16923252
0.17435159 0.18781103 0.17547329 0.18810454 0.3658775 0.46745756 0.50557566 0.40176383
0.13990434 0.43106073 0.5205724 0.50626993 0.24161449 0.11538546 0.5041551 0.5522307
0.3333512 0.3013242 0.11917905 -0.09035121 -0.036940087 -0.039495185 -0.13506128 -0.147828
0.056481775 -0.07423728 -0.08229805 -0.11233565 -0.0031539183 0.1830638 -0.13710745 0.122900896
-0.12978455 0.10361987 0.005752858 -0.096968174 0.018411556 -0.16158743 0.15748577 -0.010461181
0.01720397 -0.1720654 0.0057007074 0.12931325 -0.06850131 -0.09365442 0.065313265 -0.07909926
0.09479996 -0.026034702 -0.2434734 0.012951925 -0.03525236 0.08961147 -0.078445606 -0.114551395
-0.13303393 0.012154132 0.22317733 -0.06564821 -0.04584855 -0.07116766 0.09952492 0.066981375
-0.14586745 0.004141463 -0.115517154 0.22219013 0.17532843 0.4346182 0.2500808 0.24430177
0.27528584 -0.14567386 0.3488698 0.2316531 0.29572886 -0.05757305 -0.30467314 0.33268476
0.23375928 0.28076985 -0.30017832 -0.80968255 0.27117136 0.29121822 0.14931667 -0.24540235
-0.6016211 0.076512076 0.09991318 0.046437137 -0.17106865 -0.3133887 -0.06429169 -0.05703788
0.05881478 0.10196778 0.08812538 -0.01604118 0.029122714 -0.17435302 0.17530957 -0.06744453
-0.0073537966 -0.0138946315 -0.169711 0.166411 0.052775964 0.014490813 0.13179138 -0.23190121
0.123514555 0.0017744162 0.16013384 0.11178474 -0.09470993 0.008991056 -0.053450927 -0.1972006
-0.14488041 0.0026940976 -0.09857112 0.00064913 -0.15861824 -0.19780992 -0.21955934 -0.12546673
-0.086752914 -0.1729155 0.023262186 -0.26479438 0.01306778 -0.2397625 -0.113203436 -0.03199581
-0.102479294 -0.008945784 -0.14999361 -0.20207246 -0.025358368 -0.19076163 -0.11826836 -0.11474927
0.45877612 0.4443567 0.17007679 0.16230273 -0.029830508 0.2351124 0.27609086 0.24267907
0.15639034 -0.31022736 0.1236387 0.2466308 0.22503474 0.29762834 -0.077451795 -0.13905339
0.20601846 0.23383164 0.35002133 0.24203011 -0.22686422 0.04586831 0.36659902 0.40443668
0.39764106 -0.13399369 -0.08221391 -0.031691384 -0.07720069 -0.03227583 0.08096205 -0.011473763
0.019224914 0.014086409 -0.07850161 -0.14430863 -0.06161773 0.00033927933 0.06662761 -0.0662284
-0.0053725326 0.0020270937 -0.03928206 0.091214254 -0.07121771 -0.03275346 0.03739139 -0.13127048
-0.012017773 -0.017715523 0.07014041 -0.012903104 -0.051845077 -0.029070595 -0.07229177 -0.06934115

feature_extractor.0.bias f4 [10]
00000000: bee8 0cbf b48c 31be 4f99 7ebf 20a4 b1bd
00000010: 2330 14bf c3d1 dabe a158 28be f0ed d4bd
00000020: 15b5 06bf 793d df3a
-0.55042636 -0.1733883 -0.9945268 -0.086738825 -0.5788595 -0.4273816 -0.16440059 -0.103969455
-0.5262006 0.001703187

feature_extractor.3.weight f4 [20, 10, 5, 5]
00000000: 601d e73e ecf3 b63e b584 e33d 254a 7fbe
00000010: 8fae 3dbd b5d3 18be 495a 3a3e 932f 5f3e
00000020: 2f7b cd3c aaf9 9cbe fd5a dabe 942b 58bd
00000030: 69b1 743e cf7e da3e b2cc 0b3e f10b 5cbe
00000040: 2093 b3be fac5 39be cad2 933d e4f4 56bc
00000050: b9d8 4d3e 6ab7 a03c 8987 6b3c 5ad3 de3c
00000060: db2a 863d e582 fabc 4e33 1b3c ecba a83d
00000070: 5512 8ebe c384 efbd b2f9 063e a98f d9bd
00000080: 9cc3 d53d 07e2 0fbe 7174 a83c b4d6 8bbe
00000090: 2467 20be 8e3a 8c3d d487 183d a1e2 da3d
000000a0: 13ae b7be 387f d4bd 38d2 df3d 249f 10bd
000000b0: 9431 6e3c 328d 033e 5287 50bd f869 e5bd
000000c0: e9d0 4c3d 7356 863d f212 b23d 5838 223c
000000d0: 1333 0bbf fc82 1abf 9909 bc3e d253 0f3e
000000e0: 376d fe3e 6257 a93e 7348 cc3c 1c87 493e
000000f0: a245 6cbe 1f3c af3e 884c 883e 1be0 cb3e
00000100: 1ad6 85be 359b a8be 161c 043e 16a0 553e
00000110: 2b4c acbd 3f7f 8bbe 68b4 273d 9a15 9ebe
00000120: c34f 24be 1754 1cbe 511e 183d 8b38 3dbb
00000130: 1679 14bd e268 67bc 518a 133d 66c1 443d
00000140: 800f 803d 11f1 8d3c f818 82bc 04c6 0bbd
00000150: 4201 c13c 5faf 75bd d07b 2bbd ea92 a33c
00000160: 28fa dd3c 89a6 66bd ba4e 0b3d 7751 3cbd
00000170: f334 6a3d 79af 723c 4a2a d9bc ced7 413c
00000180: ed52 e2bb 3299 22bd 2ced 31bc 0142 883c
00000190: 4eff b13a 7f8c 14be 4359 27bd cf44 953e
000001a0: 1acf 393d 4828 3f3e 23dd 50be f006 35bf
000001b0: 7fd4 59be e275 323e b20d 0cbe aec8 563e
000001c0: 6fa5 43be a411 c8be b353 8cbe b5ef d3bd
000001d0: dafb f33d 089b e73c b89f b93d 86de 9cbd
000001e0: ae0d b13e 7c0b 44bc 5fe5 6abd c2f1 8d3c
000001f0: eb10 923c f205 cbbd 593b 633d 43b9 febd
00000200: 132f 0cbe 189e f93e 7d52 fdbd 3b5e 093d
00000210: c509 993c ad82 e43d 59d1 ddbe d058 0ebe
00000220: 7cdb 993d d637 003c 7feb b43e a5d0 6d3e
00000230: 2b14 873e f04c dd3d d8d7 a5bd de69 e0bd
00000240: d68a 66be 18b9 273e c8da 35bd 8d68 81be
00000250: b480 05be 2a6f ac3d 2f89 b03e 62f8 b53d
00000260: f634 1fbe a1f5 cd3d 27d7 bbbe 97bc 243d
00000270: 4e0c 563e 5b4a 0fbf 0ac1 ddbd 277e 2cbd
00000280: 4716 9d3c 6bdc a93e ad79 993e 15cf 6ebe
00000290: dcda 7bbe bdf5 afbd 1a9a bebd baa8 153d
000002a0: d941 a3bd 36e3 223e a0ef b9be 62fb 3f3e
000002b0: e5a5 42bd 7594 c5bd f58e 23be c3bb 00be
000002c0: 3d48 64be 48a2 7a3d 3af1 4f3e eab1 453e
000002d0: 004b 373d a2c2 a7bd 5a16 25be c85d f6be
000002e0: cc88 a4bc ed94 1ebe 9417 533e e200 df3e
000002f0: e103 de3d f178 87be 2e5b 543e 5f27 c9bd
00000300: 21a0 d53d cdf1 23bd 4fdf 5abe 3ae1 b43e
00000310: 7d84 a93d c07c 12bd bffc c6bd 988e 9ebd
00000320: 631e bbbe 65d2 9fbd 6e21 acbc 2984 0dbe
00000330: 02b4 53be 98bb d7bd 1a16 5abd cf32 0dbc
00000340: 46a2 203e cccb 163e 6150 173e 2d5c 83be
00000350: 6830 753d 3054 4f3b 7c95 c23d 60b2 693e
00000360: 8f8b 973e f40e 21be e4ba 24be ee46 2f3c
00000370: 2d57 73be 57ed 1dbe 6cca 6d3e 17b0 f8bc
00000380: 27b9 463e 7e51 513d aacb e03d c0b7 d43d
00000390: 031a c6be 2fc0 7b3e b077 06bf dadb 41bd
000003a0: 737c 9e3d ccc3 173e a092 9b3d 2a8e 5fbe
000003b0: 53b8 5abe f432 2dbf d600 05bd 97f3 dc3d
000003c0: d2c9 57be a651 80be 012f f6bd 0b8d 043f
000003d0: d3a1 003e a55a b83e a30e 3e3e f68f 95bd
000003e0: d2df 4e3d ecdd c33c c747 ac3e f63d 14bd
000003f0: 5d57 a8be c617 96be 4ca0 ad3c 381a d73d
0.451396 0.35732973 0.11109296 -0.24930628 -0.04630905 -0.1492451 0.18198504 0.21795492
0.025083153 -0.3065923 -0.42647544 -0.052775934 0.23895802 0.42674872 0.13652304 -0.2148893
-0.35073185 -0.18141928 0.07217939 -0.01311991 0.20102204 0.019618709 0.014375576 0.02720039
0.06551143 -0.030579994 0.009472681 0.082387775 -0.2774836 -0.11695244 0.13181189 -0.10623104
0.104377 -0.14051066 0.020563336 -0.27312243 -0.15664345 0.06847106 0.03723891 0.10687757
-0.35874996 -0.103758276 0.10928768 -0.03530802 0.0145381875 0.1284683 -0.0509103 -0.112018526
0.05000392 0.06559458 0.0869502 0.009901129 -0.5437481 -0.60356116 0.36726072 0.13996819
0.496927 0.3307448 0.02493689 0.19680446 -0.23073438 0.34225556 0.2662089 0.39819416
-0.2613991 -0.32930914 0.12901339 0.20861849 -0.084129654 -0.2724552 0.040943533 -0.30875856
-0.16046052 -0.15266453 0.037138287 -0.0028872814 -0.03624829 -0.014124127 0.03602058 0.048036
0.062529564 0.017326863 -0.015881047 -0.03412439 0.02356017 -0.0599817 -0.041866124 0.019967515
0.027096823 -0.056311164 0.034010626 -0.04597613 0.057179403 0.014812344 -0.026509423 0.011831237
-0.006906858 -0.03969688 -0.010859769 0.016633036 0.0013580115 -0.1450672 -0.04085661 0.2915406
0.045363523 0.1866771 -0.20396857 -0.7071371 -0.21272467 0.17427781 -0.136771 0.2097499
-0.19106077 -0.3907596 -0.27407607 -0.10348455 0.11913271 0.028272167 0.09063667 -0.076596305
0.3458075 -0.011965629 -0.05734765 0.017327193 0.017830333 -0.09913243 0.05547652 -0.124376796
-0.13689832 0.48753428 -0.12369249 0.03353713 0.018681416 0.11157737 -0.43323782 -0.13901067
0.075125664 0.007825812 0.3533592 0.23224123 0.26382574 0.1080569 -0.080978096 -0.109576926
-0.22513899 0.16379201 -0.0443981 -0.25275078 -0.13037378 0.0841964 0.34479663 0.08885266
-0.15547547 0.100566156 -0.36687586 0.040218916 0.20903131 -0.5597283 -0.10827835 -0.042112496
0.019175662 0.33175978 0.29975644 -0.23321183 -0.24595207 -0.08591793 -0.09306736 0.036537863
-0.07971544 0.15906987 -0.36315632 0.18748239 -0.04752149 -0.096474566 -0.15972503 -0.12571625
-0.22293182 0.06118992 0.20306864 0.1930615 0.04474926 -0.0819142 -0.16121808 -0.48118424
-0.020084761 -0.15486498 0.20614463 0.4355536 0.108405836 -0.26459458 0.20737907 -0.098219626
0.10430933 -0.04002552 -0.21374248 0.35328084 0.08277223 -0.035763502 -0.09716176 -0.07742041
-0.3654662 -0.078038014 -0.021012034 -0.13819946 -0.20674136 -0.105338275 -0.053243734 -0.008618071
0.15686902 0.1472618 0.14776756 -0.25656262 0.059860617 0.0031635873 0.09501168 0.22821951
0.29598662 -0.1572836 -0.16086918 0.010698063 -0.23763724 -0.15422569 0.23221749 -0.030357404
0.19406568 0.051103108 0.10976346 0.1038661 -0.3869172 0.24585031 -0.5252638 -0.047328807
0.077385806 0.14820784 0.07596326 -0.21831575 -0.21359377 -0.67655873 -0.0324715 0.107886486
-0.21073082 -0.25062293 -0.12020684 0.51777714 0.12561731 0.36006656 0.18560271 -0.07302849
0.05050642 0.023909532 0.33648512 -0.036191903 -0.32879153 -0.29315013 0.0211946 0.10503048

feature_extractor.3.bias f4 [20]
00000000: 638f eabe 32a8 c93d 923e 3abe f623 453e
00000010: 06e9 f5be 252c 24be 080e 18bf 5311 28be
00000020: 8fce d6bd 051f c7bd 5918 18be e76d 893c
00000030: 9323 aebe 4544 91be b67e 8ebc 9a8a 873c
00000040: 45c1 863e 211f 69bd d8af 493e 29ed cd3c
-0.4581252 0.09846534 -0.18187931 0.19252 -0.48029345 -0.16032465 -0.5939641 -0.16412859
-0.10488617 -0.097227134 -0.14853038 0.016776038 -0.34011516 -0.28372398 -0.017394405 0.016545583
0.26319328 -0.056914452 0.19695985 0.0251375

classifier.0.weight f4 [50, 320]
00000000: c923 06be 8f46 75be 900a 45be eb78 58bd
00000010: 64ed 84be 5097 76be 60f3 d1bd 8b20 9c3e
00000020: af96 f13c db75 263e e93c e23d 62c5 8abc
00000030: 6a7b 6f3d 43c9 073e d59d 3dbe 75fc 253e
00000040: f8a0 f4bd 7ba2 b3bd f14a d2bc afc8 cbbc
00000050: b1a9 513e f42d 4d3e 9d30 be3d 7e61 be3c
00000060: 36e4 173e fd93 a73c 066a 303e fc80 15be
00000070: d1a6 82be 83f0 7abe bd91 70bd 3b05 22bd
00000080: 9a99 083e d20f 933e 316e 11be 6705 0a3d
00000090: 6d6e b3be f9a5 d03c 65fe 33be ad39 81be
000000a0: d2fd 51be fceb 92bd 7622 793e 2c9e 85be
000000b0: 30bf 023e e0b4 663e 26a7 35bd 2b15 ed3b
000000c0: 4cba 313d 5dc7 8bbc 42df 223d 02e9 bd3d
000000d0: e953 0abe dc9b 0e3e f057 edbd 12ae c73d
000000e0: 4d89 5f3e 7d32 85bc 8891 12be 0396 133d
000000f0: e5d6 3bbe 5711 a53d f082 fcbd 13b1 c7bd
00000100: e95b 163e 32a8 12bc 3911 d73c 4880 873d
00000110: 299e e63d 4eb7 9e3e 3763 493d ae3f 16be
00000120: 3f2a 3a3e bf05 153e bcab 4e3d 4ac4 bb3d
00000130: b68c 0bbe 00fe 86be e959 d7bd 7d47 72be
00000140: f3f0 9abe 4e2a dbbd 2632 7b3d 27b3 8bbe
00000150: 71b6 81be 959b 053d d1b5 cebb 9743 003b
00000160: f5f5 263e f5c6 2e3e 08ee 153e d3b9 07be
00000170: 47f4 efbc f13c 38bd a86c d4bd 5bad 803e
00000180: 30e9 00bc de48 093e d2a2 93bd 013d db3b
00000190: b255 44be ca7e aebd b856 e33c 8036 52be
000001a0: 4c4d 123d 17a7 173d 79a6 b13d e4cc 603e
000001b0: 5ac0 2abe 1fd6 473d 7611 6b3d d49c dabc
000001c0: c5f4 5c3c 92f0 a23c 2901 9bbd 6c37 413e
000001d0: 506f 0cbe 707b ccbd 53bf 383d 7fd2 8ebe
000001e0: 7849 b2be 45f8 9abb 586b 1a3e 4e07 ecbd
000001f0: 1456 67bd b076 c13d c82f 00bd f470 483e
00000200: 63db 6cbe 075b debc 09a3 9fbd 5777 e3bd
00000210: 7631 82be fc89 bcbd bd8a 47be 889b b5be
00000220: 7caf 0cbe 380e a4bd cc60 dbbd a919 14be
00000230: 8950 183c 5a58 ef3d bf2b 1a3e c667 b1bc
00000240: 0219 1bbd 8d4b 843e f253 363e ba90 823e
00000250: 45b7 aa3e 621a a1bd a3b5 29bd 1cab df3d
00000260: 30bf 41bb 501b 6abe c23f 47be 09b3 35bd
00000270: b1fb c43d daba e53c 9cf0 0dbd 9809 5e3d
00000280: 7925 5c3a 6ede 1cbd 1152 0a3e a8be 18bd
00000290: e8e8 bb3b 50c0 043d 5c89 1e3d ef97 8c3e
000002a0: 34f9 fbbe 1910 c9bd c197 11bd 58d0 16be
000002b0: b427 fbbe 86f6 e0bd 389c 51be c3bb acbe
000002c0: dc23 a03d f095 9b3d efc0 593d c7b3 183e
000002d0: 0ae4 d9be 4a39 a4be 2b73 00bd 7ffb 8bbe
000002e0: c571 dbbe d99c 4bbe 5cd0 bdbd 3029 f6bd
000002f0: ae4a 253e 689b 753e d0d6 1f3e 8322 253d
00000300: 18c6 babe dd8a cbbd 5b88 8dbc 78f5 87be
00000310: 8ff7 7ebc 2ca6 2d3e 61da 4b3e f181 1a3e
00000320: 804d 913d 73a7 903e 06ed 1a3e b8f8 85bd
00000330: 1ee5 83be 23de 2b3c c5e9 9ebd a51f 6abe
00000340: 67ed 54bd c483 3ebe 3c08 ebbd c04f d43d
00000350: 6839 97be ea2d 0c3e f1de 893c 738b 063e
00000360: ec72 78bd 5e9c 073e c425 1e3e 025f ce3d
00000370: e0e7 aebe 4df6 a2bc 6d00 c7be 5769 05bc
00000380: 977a 7e3e 549e 92bd fc82 953d d774 ba3e
00000390: d1cf 76be 5399 9e3c 0cd1 e0bd 5380 cdbc
000003a0: b7e0 a6be 5c5a 1dbc bae1 30be 379a e5be
000003b0: 5a4d 273e a21a 3e3d 28e9 043e c9ca 073d
000003c0: 87e8 513e 9781 5c3d e68d da3d fc3c 4e3e
000003d0: a523 983d 919a f4bd 1a33 4dbd 5751 a13d
000003e0: 0108 21be d6de 41be 9d5c 53bc 54d7 463d
000003f0: fa0c 883e ea0d 3cbc 7962 443c dc96 59be
-0.13099588 -0.23952697 -0.1924231 -0.05284969 -0.25962365 -0.24081159 -0.10251498 0.30493578
0.029490797 0.16255896 0.11046774 -0.016939823 0.058467306 0.13260369 -0.1851724 0.16209586
-0.11944765 -0.08771225 -0.0256705 -0.024875967 0.20474888 0.20037061 0.09286616 0.023239847
0.1483315 0.020456308 0.17227945 -0.14599985 -0.25517896 -0.2450581 -0.058732737 -0.03955577
0.13339844 0.28723007 -0.14202191 0.03369656 -0.35045186 0.025469767 -0.17577513 -0.25239316
-0.20506981 -0.07173917 0.24329552 -0.26097238 0.12768245 0.22529936 -0.04434886 0.0072351894
0.043390557 -0.017062837 0.039763696 0.09272958 -0.13508572 0.13926643 -0.11589038 0.09749998
0.2182972 -0.016259426 -0.14313328 0.036031734 -0.18343695 0.08059948 -0.12329662 -0.09750571
0.14683498 -0.008951234 0.02625333 0.066162646 0.112606354 0.30999225 0.049166884 -0.1467273
0.18180178 0.14552973 0.050456747 0.091682985 -0.13627896 -0.26365662 -0.10515196 -0.23660083
-0.30261955 -0.10701428 0.061327122 -0.2728512 -0.25334504 0.032619078 -0.0063082953 0.0019571537
0.16304763 0.17068084 0.14641583 -0.1325448 -0.029291285 -0.044979993 -0.10372287 0.2513226
-0.007868096 0.13406703 -0.0720879 0.006690622 -0.19173315 -0.08520277 0.027751312 -0.20528603
0.035718247 0.037024584 0.0867433 0.2195316 -0.16674939 0.048788186 0.0573897 -0.02668611
0.013486092 0.019890103 -0.07568581 0.18868798 -0.13714337 -0.09984481 0.045104336 -0.2789497
-0.34821677 -0.004729303 0.15080011 -0.11524831 -0.056478575 0.09446466 -0.031295568 0.19574338
-0.23130564 -0.027143015 -0.07794768 -0.11106747 -0.2542836 -0.09206006 -0.19486518 -0.35470223
-0.13738817 -0.080105245 -0.10711822 -0.14462914 0.009296545 0.116867736 0.1505575 -0.021655928
-0.037865646 0.2583889 0.1780546 0.25501043 0.3334295 -0.0786636 -0.041432988 0.109213084
-0.002956342 -0.22861981 -0.19457915 -0.044360194 0.09618319 0.0280432 -0.03465329 0.054208368
0.0008397918 -0.038298063 0.13507868 -0.0372912 0.0057345517 0.032409966 0.038705215 0.27459666
-0.49213564 -0.098175235 -0.035545114 -0.14727914 -0.4905373 -0.109845206 -0.20469749 -0.33737
0.0781934 0.07596958 0.05316251 0.1491233 -0.42556792 -0.32074958 -0.031359833 -0.27340314
-0.42860237 -0.19884051 -0.09268257 -0.12019575 0.1614177 0.23985064 0.15609288 0.040316116
-0.3647926 -0.099385954 -0.017276933 -0.26554465 -0.015561952 0.16957921 0.19907524 0.15088631
0.0709486 0.28252754 0.1512948 -0.0654158 -0.2576074 0.010489973 -0.07759432 -0.22863634
-0.051984217 -0.18604952 -0.1147618 0.103667736 -0.29535985 0.1368939 0.01682994 0.13139133
-0.060656473 0.13243243 0.15444094 0.10076715 -0.34161282 -0.019892836 -0.38867512 -0.008142791
0.24851452 -0.07159105 0.07300374 0.36417267 -0.24102713 0.01936022 -0.109773725 -0.025085604
-0.3259332 -0.009604063 -0.17273608 -0.4484422 0.16338101 0.046412118 0.12979567 0.033152375
0.20498858 0.053834524 0.10671596 0.20140451 0.07428674 -0.11943544 -0.050097562 0.078768425
-0.1572571 -0.18932661 -0.012900499 0.048545197 0.265724 -0.011477927 0.011986368 -0.21248955

classifier.0.bias f4 [50]
00000000: d4c0 b5bc 6d7a a73c 5ea7 d03d d708 2e3e
00000010: 28fb 6a3e 7030 493e b54b 9cbe dff4 14be
00000020: 3529 4a3e c10c 4fbc 32f1 3e3e b969 90be
00000030: d751 07be 9281 a33e 4b77 463e 9579 223e
00000040: 9180 27bd ae81 5fbe 9ec1 bd3e 734f fd3c
00000050: a719 e93e eb3d c23e b31c 63be 2808 ad3e
00000060: bf31 733e d63b 6d3d 71bb 3e3e 7169 f53d
00000070: 8286 b33e 65bd 9fbb 6e49 d13e e302 d7bb
00000080: c1c8 adbe 7b53 50be 6800 843e 4ebd 7f3e
00000090: 9517 d53e 040c 953e ae74 113e 23aa 12be
000000a0: 65c9 823e 0539 a03e e1ca a93e fcb2 043f
000000b0: 6c81 bc3d 5090 0fbf 22ab 0fbe e86d 1cbe
000000c0: 147d bdbe 4eab 933e
-0.022186674 0.02044412 0.10188173 0.1699556 0.22947371 0.19647384 -0.3052651 -0.14546536
0.19742282 -0.012637318 0.18646696 -0.2820566 -0.13214813 0.31934792 0.19381444 0.15866692
-0.040894095 -0.21826813 0.3706178 0.030921673 0.45527384 0.37937865 -0.22178917 0.33795285
0.23749445 0.057918392 0.1862619 0.11983002 0.3506356 -0.0048748725 0.40876335 -0.0065616234
-0.33942226 -0.20344345 0.2578156 0.24974558 0.41619554 0.2911073 0.14204666 -0.14322715
0.25544277 0.31293502 0.33162597 0.5183561 0.09204373 -0.5607958 -0.14030126 -0.15276301
-0.3700949 0.28841633

classifier.3.weight f4 [10, 50]
00000000: 70f2 033e 6aa9 dfbe f0f7 a7be 08d0 0b3e
00000010: 314f a4be 6f37 f0bd 688f e83d cb29 d4bd
00000020: f66d 5bbe ef45 df3d fe20 9e3c 07cf e53d
00000030: 4874 8cbc dd68 9fbe f07e 2bbd 0c30 a93d
00000040: 7057 d63d c4c2 95be 8898 2bbe 7176 d43d
00000050: 798c 043e a0eb 343e adf9 80bd de34 91be
00000060: e630 5abe 4e9c 57be abf0 1c3e 6eb9 c1bc
00000070: 907f dfbd 7b25 38be fa62 96be e187 b93d
00000080: c3ad 143e deb5 b5bd 1ed8 c0be 2516 e43d
00000090: 14ba 60be fff3 1abe 5cd3 a53d cff4 73be
000000a0: c979 763d d2c4 0fbe f8ee 1a3d 4310 1dbf
000000b0: b624 0b3e 4cca 3ebc a844 6d3d a896 90bd
000000c0: abad 2fbe b33c 95bd f9b7 9bbe abe7 df3d
000000d0: 53d6 bcbd 64fe b0bd 5319 4d3e 9a4c c03d
000000e0: 530b 18bd 5d52 efbd a490 103e 678b cb3d
000000f0: 203e 76bd c17d efbd 3ebe b4bb eb11 de3a
00000100: fc3a ef3c 2bb5 f43d dcf2 04be 7882 6fbd
00000110: e76a 043e a134 8dbe 9a35 203e 4667 be3d
00000120: c61a 14be 9eda f7bd 8d48 4fbc 45ec 3c3e
00000130: 3f49 0e3e 2afe 5c3d a69f c03d 96f2 11bd
00000140: 524d 35be a23f 6fbe 9b0b a9bd ca27 53be
00000150: 7ed4 213e 72f6 c4bd 1d4c 253e 4633 903d
00000160: b498 aebd 5b2f 3a3e 9439 f8be 0acd 103e
00000170: 02c8 003e c7fe 753e e7b3 5cbe 553a 07be
00000180: ec61 c0be f314 a4be af0e 05be 9c80 bc3d
00000190: ab9e bf3d b7fd b1bd acf7 d7bd fcb0 c43d
000001a0: e62d a2bd 1350 d0bd cdb3 6a3d 1ae7 d2bd
000001b0: 3fd3 393e e548 fc3d a73a b83d 8486 e93d
000001c0: 3366 253e e24f 74bd 1bae e03d 9859 fdbd
000001d0: 89e6 543d f468 0ebd 0bb9 143e 9acd 07be
000001e0: 690d 8fbe 482b eb3d 52b1 73bb 7d5c 57bb
000001f0: dcf2 ab3d 9e75 debd 7eb9 073e 9dca 043e
00000200: 0d5a b33d 0999 eb3d afa4 aebd 49b7 813d
00000210: 635e 0dbe 645d 0a3e c988 aabd 7241 02be
00000220: a539 2f3e 084b 453d 7d41 a23d 7981 d7bd
00000230: 85a6 d8bd 311f 1c3e b845 f1bd c5e0 0ebb
00000240: 2fce e23d daba c4bd 8532 53be 3940 1cbe
00000250: dc76 d6bd b827 d3bc a6ef 9bbd 9ad0 ed3a
00000260: bef0 13be b4f5 ec3c 4911 51be d2de 67be
00000270: a2e5 1a3e c5ad 1c3e 163c 3f3e 9616 e6bd
00000280: fff1 f5bc 12e8 003e 4134 1b3e 1a67 153e
00000290: 1f7b de3d f68c 32be 16ca fabd 2d34 373e
000002a0: 65c4 a2bd e738 d9bd 705a e0bd f94f eb3d
000002b0: 525d e93c 9451 0f3e be89 c9bd 79cd 07be
000002c0: 1d17 f8bd 09d5 ce3d 7e0e acbd 40c0 1c3e
000002d0: d567 6fbc 5d6c ba3d 03cf d6bd a028 0abe
000002e0: f369 07be 0f6d cdbd ea88 afbc dab3 b33d
000002f0: f0da 7fbb b752 0c3e a38e 61bd 503b 2a3e
00000300: f616 e0bd 6dae 78bd ca48 62bc d23a fe3d
00000310: ebde 0fbe d323 12be 9215 033e 84fa 66bd
00000320: f2ca 2d3e 11a3 7dbc 4ebf f93d f17c 65be
00000330: 51f6 153e 7905 fc3d b227 a1bc 5091 b4bd
00000340: aa0b 98bd 63aa aa3d c2a3 083e 488a 073e
00000350: 0b35 2fbd e60c 333e bbc4 c03d 1bfc d23d
00000360: 5288 e83d 4665 0f3e 5eac 97bc 3d0b d3bc
00000370: 4ed3 cfbd 70ac febd 3a5f fc3d 94c0 ac3d
00000380: 48ce a93d 1c9f 2c3e 352d 01be 3ea0 09be
00000390: 3291 04be 0daa 15be d01e 053e c24b 47be
000003a0: 24a7 5d3c e770 133e f57b 0f3e cd7b 29be
000003b0: 204d 4fbd cb9f c3bd 5d56 02be 9406 19be
000003c0: ac0c e4bd c04a 3fbd de3b b8bc 666f 623e
000003d0: 9aa2 66bd 7d19 93bd 0e92 45be aafe a83d
000003e0: 5702 0d3e d5d2 163e 754a c43c 3377 9abd
000003f0: 95a2 1dbe b87c 0f3e 0e80 08be e14a e9bd
0.12885451 -0.4368394 -0.3280635 0.13653576 -0.32091668 -0.11729323 0.113554776 -0.10359534
-0.21428666 0.10902011 0.019302841 0.11221128 -0.017145291 -0.31134692 -0.041869104 0.08261117
0.10465896 -0.29250157 -0.16757405 0.103741534 0.12944211 0.17668009 -0.06297622 -0.28360647
-0.21307716 -0.2105572 0.15326183 -0.02364799 -0.109130025 -0.17983048 -0.29372388 0.0905912
0.1451941 -0.08872579 -0.37664884 0.11137036 -0.21945983 -0.1513214 0.08096954 -0.23823856
0.060174737 -0.14039925 0.037825555 -0.6135294 0.13588223 -0.011644911 0.057926804 -0.070599854
-0.17156093 -0.07286968 -0.30413797 0.10932859 -0.092205666 -0.08642271 0.20029192 0.093896106
-0.037120175 -0.116856314 0.14117676 0.09938698 -0.06011784 -0.116939075 -0.0055158427 0.0016942596
0.02920293 0.119486175 -0.12983268 -0.058474034 0.12931405 -0.27579215 0.15645447 0.092970416
-0.14463338 -0.12102245 -0.012651575 0.18449505 0.13895129 0.053953327 0.094054505 -0.03563174
-0.17705277 -0.23364118 -0.08254167 -0.20620647 0.15803716 -0.09617318 0.16142316 0.0704103
-0.085252196 0.18182127 -0.4848143 0.14140716 0.12576297 0.24022971 -0.21553002 -0.13205846
-0.37574708 -0.32047233 -0.12993883 0.09204218 0.093564354 -0.086909704 -0.105452865 0.096040696
-0.07918911 -0.10171523 0.057300378 -0.102979854 0.1814699 0.12318591 0.08995562 0.1140261
0.16152267 -0.059646495 0.10970708 -0.12370604 0.051977668 -0.03476806 0.14523713 -0.13262025
-0.2793992 0.114828646 -0.0037184549 -0.0032861524 0.08395931 -0.108622774 0.13254353 0.12967916
0.0875741 0.115037985 -0.08527505 0.06333787 -0.13805537 0.13512188 -0.08326871 -0.12720278
0.17111833 0.04816726 0.07922647 -0.10522742 -0.10578636 0.15246274 -0.11780876 -0.0021801454
0.11074483 -0.096059516 -0.2062474 -0.15258874 -0.104718894 -0.025775775 -0.07614069 0.0018143833
-0.14447305 0.028925754 -0.2041675 -0.22643593 0.1512666 0.15300663 0.18675265 -0.11234777
-0.03002262 0.12588528 0.15156652 0.14590111 0.10863327 -0.17436585 -0.12245576 0.17890997
-0.079476155 -0.106065564 -0.109547496 0.11489863 0.028486881 0.13995963 -0.09840725 -0.13261975
-0.121137835 0.10099227 -0.08401202 0.15307713 -0.014612158 0.091027 -0.10488703 -0.1349206
-0.1322401 -0.10030567 -0.02142759 0.08774538 -0.003904041 0.13703428 -0.05506767 0.16624188
-0.109418795 -0.06071322 -0.0138113 0.12413563 -0.1404988 -0.14271478 0.12801197 -0.056391254
0.16971949 -0.015480773 0.121946916 -0.22410943 0.14644744 0.12305731 -0.019672249 -0.08816779
-0.074241 0.0833328 0.13343719 0.13236344 -0.042775195 0.17485389 0.09412523 0.103019916
0.11354126 0.14003477 -0.018514808 -0.025762195 -0.10147725 -0.124352336 0.123228505 0.08435169
0.08291298 0.1685757 -0.12614901 -0.13440034 -0.12946013 -0.1461565 0.13000035 -0.19462493
0.013528619 0.14398538 0.1401213 -0.16551133 -0.05061066 -0.095519625 -0.12728257 -0.14943916
-0.111352295 -0.046702147 -0.022489484 0.22112808 -0.056307413 -0.07182596 -0.19293997 0.08251698
0.13770424 0.14728864 0.023961285 -0.07542267 -0.15394051 0.1401242 -0.13330099 -0.11391235

classifier.3.bias f4 [10]
00000000: 4125 2b3f 0217 3a3f 79f5 a0be 31d5 17be
00000010: 1d4e a6be 07c0 07be c645 b6bd 942b b0be
00000020: 45c2 ac3e 0b1a 75be
0.6685372 0.7269136 -0.3143728 -0.1482742 -0.3248147 -0.13256846 -0.08900027 -0.34408247
0.33741966 -0.23935716
