day2/domain_adaptation/revgrad_20.pt (torch_old, 91045 bytes, 8 tensors)

feature_extractor.0.weight f4 [10, 3, 5, 5]
0.17893541 0.026123589 0.056341585 0.1211738 0.0003437986 -0.13363126 -0.2270962 -0.11674138
-0.28684255 -0.1164938 -0.16094144 0.01534802 -0.07913341 0.0012662159 0.16545565 -0.20315471
-0.0011996003 -0.057020206 0.096150406 0.008620553 -0.10306977 -0.052912667 0.1948287 0.07614093
-0.07140388 0.22768828 0.074423455 -0.05595056 0.030010542 0.051702444 -0.22105746 -0.10470947
-0.14684701 -0.23541437 -0.095188245 -0.15587923 -0.124114804 -0.082218304 -0.15170869 -0.03747135
-0.24486096 -0.20573083 -0.1966315 -0.313535 -0.117995456 -0.4184327 -0.24135713 -0.13902672
-0.21262592 -0.2056982 -0.27901188 -0.1608229 -0.26922438 -0.048132133 0.014303533 0.14524703
0.15366459 0.1845089 0.19495963 0.20832585 0.36721408 0.45104662 0.50003326 0.44289577
0.17042638 0.44189608 0.51711273 0.518374 0.2551884 0.12567368 0.49013233 0.5548683
0.34220007 0.28559878 0.10813306 -0.10218507 -0.039739195 -0.047850505 -0.13200217 -0.14277737
0.03868049 -0.08233549 -0.08644373 -0.10978665 -0.0028739206 0.1716982 -0.138294 0.1119387
-0.14065386 0.08106012 0.001653092 -0.07973729 0.018286139 -0.15872872 0.15228221 -0.012299128
0.03356235 -0.14773048 0.012019253 0.13107227 -0.07122171 -0.091426834 0.061275784 -0.07503555
0.098006584 -0.033929963 -0.24460335 0.016339798 -0.030191533 0.08901247 -0.08066826 -0.11027559
-0.13849655 -0.003699546 0.20007615 -0.061868403 -0.025535123 -0.07296712 0.09086832 0.05522156
-0.14110105 0.019528493 -0.09771527 0.21868815 0.16840787 0.43129626 0.24750869 0.23753992
0.28047296 -0.13294694 0.3434136 0.2275352 0.2999583 -0.04912155 -0.27999932 0.33064717
0.2350847 0.27661794 -0.3105773 -0.7813139 0.2694099 0.3020285 0.13620275 -0.25616893
-0.5729416 0.07233672 0.102139615 0.05003353 -0.17083274 -0.2979109 -0.08128556 -0.06321655
0.053880088 0.09392837 0.079084 -0.02717469 0.029283619 -0.14979406 0.18712851 -0.06969657
-0.018632567 -0.0029093102 -0.13808522 0.1728992 0.040984254 0.0023652697 0.14405039 -0.22603202
0.11996833 -0.01024136 0.124208674 0.10350097 -0.09973127 0.013635302 -0.06466837 -0.21049364
-0.14938873 -0.0048796246 -0.110424 -0.01632074 -0.16602342 -0.19811165 -0.19803077 -0.114893265
-0.09597608 -0.17930076 0.03395274 -0.23777781 0.017229753 -0.2557031 -0.11940404 -0.022002801
-0.1028349 -0.017779442 -0.1643713 -0.23864526 -0.03482167 -0.20291634 -0.119907096 -0.12947445
0.41852978 0.41421008 0.14163959 0.1470347 -0.030162042 0.21583468 0.2566858 0.24803661
0.17359287 -0.29983166 0.1207247 0.25098407 0.24037175 0.3099879 -0.07903357 -0.12577932
0.22156124 0.22349635 0.3383529 0.22747625 -0.23754726 0.04490082 0.34339315 0.39119706
0.37081176 -0.13399369 -0.08221391 -0.031691384 -0.07720069 -0.03227583 0.08096205 -0.011473763
0.019224914 0.014086409 -0.07850161 -0.14430863 -0.06161773 0.00033927933 0.06662761 -0.0662284
-0.0053725326 0.0020270937 -0.03928206 0.091214254 -0.07121771 -0.03275346 0.03739139 -0.13127048
-0.012017773 -0.017715523 0.07014041 -0.012903104 -0.051845077 -0.029070595 -0.07229177 -0.06934115
00000000: d83a 373e 2301 d63c 6fc6 663d f829 f83d
00000010: de3f b439 a2d6 08be e88b 68be 1b16 efbd
00000020: 07dd 92be 4d94 eebd d5cd 24be 4376 7b3c
00000030: b210 a2bd 28f7 a53a 356d 293e ca07 50be
00000040: e83b 9dba 058e 69bd 81ea c43d 383d 0d3c
00000050: 3e16 d3bd f4ba 58bd 2d81 473e c7ef 9b3d
00000060: 333c 92bd 1e27 693e 536b 983d 6a2c 65bd
00000070: abd8 f53c f1c5 533d e35c 62be eb71 d6bd
00000080: 105f 16be 7710 71be 0ef2 c2bd ce9e 1fbe
00000090: e72f febd 1262 a8bd 8659 1bbe 8f7b 19bd
000000a0: d5bc 7abe 1aab 52be c559 49be a987 a0be
000000b0: 9aa7 f1bd d03c d6be 5326 77be 055d 0ebe
000000c0: 9cba 59be 8da2 52be a5da 8ebe c2ae 24be
000000d0: c7d7 89be 3326 45bd 5e59 6a3c a3bb 143e
000000e0: 405a 1d3e e7ef 3c3e 7fa3 473e 5f53 553e
000000f0: 7c03 bc3e 95ef e63e 2e02 003f 3cc3 e23e
00000100: 4184 2e3e 3440 e23e 8061 043f 29b4 043f
00000110: 0ea8 823e 9ab0 003e a0f2 fa3e d90b 0e3f
00000120: d934 af3e 013a 923e de74 dd3d 6846 d1bd
00000130: 91c5 22bd e4fe 43bd 942b 07be 3b34 12be
00000140: 6f6f 1e3d 829f a8bd 6909 b1bd d3d7 e0bd
00000150: 6358 3cbb a7d1 2f3e f19c 0dbe 1e40 e53d
00000160: 9107 10be d902 a63d 90ac d83a 4e4d a3bd
00000170: d0cc 953c c889 22be deef 1b3e 4882 49bc
00000180: ad78 093d a946 17be 67ec 443c cf37 063e
00000190: b0dc 91bd fe3d bbbd 51fc 7a3d 3dac 99bd
000001a0: adb7 c83d 25fa 0abd 4d79 7abe 0adb 853c
000001b0: 3c54 f7bc 2b4c b63d 6735 a5bd 2bd8 e1bd
000001c0: 0ad2 0dbe 1574 72bb c3e0 4c3e b969 7dbd
000001d0: 092f d1bc c96f 95bd 2b19 ba3d 0130 623d
000001e0: cb7c 10be 38fa 9f3c f21e c8bd c9ef 5f3e
000001f0: 1d73 2c3e ddd2 dc3e eb72 7d3e aa3d 733e
00000200: 279a 8f3e 3e23 08be e8d3 af3e fdfe 683e
00000210: 2294 993e ae33 49bd 125c 8fbe 964a a93e
00000220: 0bba 703e dea0 8d3e fd03 9fbe 3004 48bf
00000230: 18f0 893e 7ba3 9a3e bc78 0b3e 9328 83be
00000240: 4dac 12bf 4625 943d 932e d13d f5ef 4c3d
00000250: c7ee 2ebe c787 98be 0b79 a6bd ae77 81bd
00000260: 5eb1 5c3d 845d c03d cbf6 a13d 759d debc
00000270: 33e4 ef3c 9d63 19be 9e9e 3f3e 13bd 8ebd
00000280: 53a3 98bc 20aa 3ebb 3666 0dbe 7d0c 313e
00000290: 1bdf 273d a402 1b3b f281 133e f074 67be
000002a0: f5b1 f53d 61cb 27bc 1e61 fe3d 51f8 d33d
000002b0: e83f ccbd 9a66 5f3c da70 84bd a58b 57be
000002c0: 5cf9 18be 42e5 9fbb fa25 e2bd 13b3 85bc
000002d0: 0b02 2abe c8dd 4abe 94c8 4abe 294d ebbd
000002e0: 1b8f c4bd 9e9a 37be 0712 0b3d 077c 73be
000002f0: 6925 8d3c 84eb 82be 1b8a f4bd 383f b4bc
00000300: 1b9b d2bd 31a6 91bc f350 28be 6c5f 74be
00000310: 2ba1 0ebd 4dc9 4fbe da91 f5bd f394 04be
00000320: 8949 d63e 5813 d43e f809 113e 4490 163e
00000330: 6316 f7bc c403 5d3e 526c 833e 4ffd 7d3e
00000340: 54c2 313e 8983 99be 833e f73d fc80 803e
00000350: 0324 763e bcb6 9e3e 5adc a1bd 4bcc 00be
00000360: f3e0 623e 3adc 643e 973c ad3e 89ef 683e
00000370: 973f 73be ece9 373d 3ad1 af3e fb4a c83e
00000380: 0adb bd3e a435 09be c45f a8bd d3ce 01bd
00000390: 651b 9ebd a933 04bd 6ecf a53d 73fc 3bbc
000003a0: 917d 9d3c aeca 663c 74c5 a0bd a4c5 13be
000003b0: df62 7cbd 4de1 b139 0e74 883d c1a2 87bd
000003c0: 120c b0bb fdd8 043b 3ae6 20bd 8ace ba3d
000003d0: 97da 91bd 7e28 06bd b727 193d c56b 06be
000003e0: 32e6 44bc 2520 91bc c6a5 8f3d 8a67 53bc
000003f0: 815b 54bd 7525 eebc b50d 94bd bc02 8ebd

feature_extractor.0.bias f4 [10]
-0.5602522 -0.16802765 -0.9899961 -0.086738825 -0.5769587 -0.42673117 -0.1701423 -0.11264522
-0.512953 -0.0016588031
00000000: b06c 0fbf 710f 2cbe 6270 7dbf 20a4 b1bd
00000010: 91b3 13bf 827c dabe c839 2ebe 89b2 e6bd
00000020: e350 03bf 326c d9ba

feature_extractor.3.weight f4 [20, 10, 5, 5]
0.48453417 0.37469718 0.10452379 -0.26470283 -0.048203155 -0.07845014 0.19801685 0.21505766
0.014525165 -0.2937981 -0.4011529 -0.041734643 0.22818552 0.42700472 0.12822272 -0.20141172
-0.3277555 -0.17950967 0.054411102 -0.019162219 0.21268035 0.035093214 0.05490985 0.05014475
0.07665722 -0.053536676 0.008074565 0.07690071 -0.28518552 -0.13070428 0.1295188 -0.091504894
0.10871004 -0.15006366 -0.013942326 -0.22036406 -0.13837658 0.035562716 0.011456291 0.07752797
-0.32058817 -0.114949435 0.0794579 -0.03983252 0.029174922 0.12784253 -0.061049175 -0.109056436
0.03340902 0.04594026 0.07069719 -0.023062604 -0.5713563 -0.6090408 0.3706603 0.09551162
0.48298967 0.30985484 0.021618644 0.2163195 -0.22420874 0.3491567 0.25718325 0.3897686
-0.22474563 -0.3052147 0.1386215 0.17945865 -0.09017625 -0.24822791 0.031242846 -0.2788847
-0.1487899 -0.14077714 0.06527047 -0.0028872814 -0.03624829 -0.014124127 0.03602058 0.048036
0.062529564 0.017326863 -0.015881047 -0.03412439 0.02356017 -0.0599817 -0.041866124 0.019967515
0.027096823 -0.056311164 0.034010626 -0.04597613 0.057179403 0.014812344 -0.026509423 0.011831237
-0.006906858 -0.03969688 -0.010859769 0.016633036 0.003914009 -0.15371434 -0.019190205 0.32710683
0.08743899 0.18106064 -0.17001449 -0.65821356 -0.20389543 0.20202288 -0.06910214 0.22677964
-0.15144674 -0.35270107 -0.26112825 -0.06806907 0.13704844 0.076227315 0.1460762 -0.06099891
0.41722673 0.050216973 -0.0033934326 0.04480607 0.026054027 -0.12248938 0.07223224 -0.051340085
-0.13339847 0.46581498 -0.13777028 0.022823323 0.02533567 0.116471626 -0.39341006 -0.16849042
0.051473644 -0.00024780733 0.3336689 0.22883387 0.26304254 0.11027758 -0.066658154 -0.1172796
-0.19953834 0.19652626 -0.0068157227 -0.15380214 -0.090806246 0.12797831 0.3767431 0.12748727
-0.1332487 0.12823401 -0.40459132 0.048614893 0.2189037 -0.508707 -0.116146624 -0.053978186
0.077130385 0.35248345 0.2420785 -0.24576882 -0.25618765 -0.18472326 -0.074892424 -0.020106005
-0.06584102 0.18291542 -0.37765795 0.10421614 -0.06847691 -0.069269374 -0.11090914 -0.102544956
-0.19589753 0.061131492 0.2050291 0.19173788 0.07632761 -0.010488352 -0.111413844 -0.44054303
-0.01242815 -0.15005632 0.20175895 0.4157208 0.10950663 -0.23782213 0.18727502 -0.097809255
0.11040086 -0.01925668 -0.18986411 0.34485024 0.09670597 -0.03123911 -0.10565023 -0.13960364
-0.321892 -0.086935386 -0.09783321 -0.26280183 -0.27630344 -0.08352375 -0.07162764 -0.074926086
0.09572703 0.13485634 0.15124092 -0.27498972 0.040385716 0.017866272 0.09205539 0.23366424
0.29244548 -0.1485658 -0.11258879 -0.026550757 -0.21998769 -0.13082476 0.27759653 0.009582852
0.119439825 0.100744955 0.13634536 0.0980915 -0.3717833 0.2674124 -0.4709985 -0.013531111
0.05898246 0.124183804 0.05476025 -0.19295192 -0.22988532 -0.70043665 0.0033933343 0.035262622
-0.16413338 -0.17011 -0.09885824 0.52839804 0.10490591 0.38629785 0.17482738 -0.08046849
0.026267085 0.0365865 0.34201825 -0.012279123 -0.33172202 -0.2708694 0.022508396 0.14060381
00000000: dd14 f83e 4fd8 bf3e 9210 d63d 2187 87be
00000010: ac70 45bd 78aa a0bd eec4 4a3e 1338 5c3e
00000020: f5fa 6d3c b46c 96be ea63 cdbe f2f1 2abd
00000030: 77a9 693e 5da0 da3e d14c 033e e03e 4ebe
00000040: 92cf a7be 62d1 37be 2dde 5e3d 16fa 9cbc
00000050: e1c8 593e e7bd 0f3d 27e9 603d 9564 4d3d
00000060: 76fe 9c3d 4649 5bbd 2e4b 043c 1f7e 9d3d
00000070: d603 92be 58d7 05be 94a0 043e eb66 bbbd
00000080: 5fa3 de3d 4aaa 19be 5b6e 64bc 1ea7 61be
00000090: 97b2 0dbe 36aa 113d 2bb3 3b3c fcc6 9e3d
000000a0: 2224 a4be 9c6a ebbd d3ba a23d 6d27 23bd
000000b0: 3f00 ef3c 27e9 023e b30e 7abd fb58 dfbd
000000c0: e6d7 083d db2b 3c3d b0c9 903d c9ed bcbc
000000d0: 6844 12bf 19ea 1bbf 30c7 bd3e 999b c33d
000000e0: 6c4a f73e 4ba5 9e3e 9519 b13c dc82 5d3e
000000f0: fa96 65be abc4 b23e 86ad 833e c08f c73e
00000100: b823 66be 1a45 9cbe cbf2 0d3e 02c4 373e
00000110: 53ae b8bd 752f 7ebe fff0 ff3c fac9 8ebe
00000120: 615c 18be e227 10be 86ac 853d 8b38 3dbb
00000130: 1679 14bd e268 67bc 518a 133d 66c1 443d
00000140: 800f 803d 11f1 8d3c f818 82bc 04c6 0bbd
00000150: 4201 c13c 5faf 75bd d07b 2bbd ea92 a33c
00000160: 28fa dd3c 89a6 66bd ba4e 0b3d 7751 3cbd
00000170: f334 6a3d 79af 723c 4a2a d9bc ced7 413c
00000180: ed52 e2bb 3299 22bd 2ced 31bc 0142 883c
00000190: 1641 803b 4b67 1dbe c734 9dbc 8c7a a73e
000001a0: 3713 b33d f667 393e 4718 2ebe af80 28bf
000001b0: f7c9 50be 16df 4e3e 6c85 8dbd ec38 683e
000001c0: db14 1bbe 3c95 b4be 9ab2 85be cc67 8bbd
000001d0: 6d56 0c3e 111d 9c3d 0095 153e fed9 79bd
000001e0: be9e d53e 50b0 4d3d 5a64 5ebb 9286 373d
000001f0: 416f d53c b6db fabd 7fee 933d fb49 52bd
00000200: 9c99 08be 4d7f ee3e a713 0dbe faf7 ba3c
00000210: c08c cf3c ad88 ee3d 0b6d c9be c188 2cbe
00000220: 07d6 523d 23ec 81b9 a6d6 aa3e 6d53 6a3e
00000230: 83ad 863e 36d9 e13d 1284 88bd 4930 f0bd
00000240: c753 4cbe 2e3e 493e 6d56 dfbb 4f7e 1dbe
00000250: a0f8 b9bd bf0c 033e 79e4 c03e 068c 023e
00000260: 5972 08be c74f 033e 9826 cfbe 6920 473d
00000270: 4b28 603e 9f3a 02bf 48de edbd 3b18 5dbd
00000280: 89f6 9d3d b678 b43e 6de3 773e d2aa 7bbe
00000290: 072b 83be 1828 3dbe 3361 99bd 59b5 a4bc
000002a0: a8d7 86bd 2e4e 3b3e 625c c1be 466f d53d
000002b0: 9f3d 8cbd 1add 8dbd 5524 e3bd 1703 d2bd
000002c0: 5d99 48be 0465 7a3d 26f3 513e ef56 443e
000002d0: a651 9c3d 56d7 2bbc f12c e4bd db8e e1be
000002e0: 709f 4bbc 5da8 19be e699 4e3e 5bd9 d43e
000002f0: 0345 e03d a587 73be 06c5 3f3e 3850 c8bd
00000300: d919 e23d 2fc0 9dbc bd6b 42be 3690 b03e
00000310: c80d c63d 29e9 ffbc 265f d8bd 42f4 0ebe
00000320: 07cf a4be 2e0b b2bd c75c c8bd f68d 86be
00000330: a577 8dbe 800e abbd 83b1 92bd d972 99bd
00000340: 880c c43d c817 0a3e e6de 1a3e 74cb 8cbe
00000350: 7e6b 253d 4a5c 923c 8987 bc3d ae45 6f3e
00000360: 6abb 953e a221 18be f494 e6bd f980 d9bc
00000370: 7444 61be edf6 05be 2221 8e3e 6501 1d3c
00000380: de9c f43d 5f53 ce3d 1e9e 0b3e 32e4 c83d
00000390: 615a bebe 47ea 883e b726 f1be 98b1 5dbc
000003a0: 9897 713d 1454 fe3d 494c 603d 3095 45be
000003b0: 0f67 6bbe d14f 33bf b462 5e3b 8a6f 103d
000003c0: 9512 28be 5131 2ebe 3076 cabd 1845 073f
000003d0: e9d8 d63d d5c8 c53e f305 333e aacc a4bd
000003e0: 122e d73c badb 153d 041d af3e 602e 49bc
000003f0: 78d7 a9be 65af 8abe 8763 b83c 72fa 0f3e

feature_extractor.3.bias f4 [20]
-0.46149808 0.10897598 -0.17924692 0.19709809 -0.51457536 -0.1732909 -0.6034038 -0.18452697
-0.12815426 -0.12581302 -0.16987428 0.023805795 -0.33253923 -0.2955708 -0.029823111 0.0066357125
0.28305238 -0.05398103 0.17125982 0.052377697
00000000: 7a49 ecbe cc2e df3d 818c 37be 15d4 493e
00000010: 36bb 03bf 2b73 31be ac78 1abf a3f4 3cbe
00000020: df3a 03be 21d5 00be 86f3 2dbe 5f04 c33c
00000030: 9542 aabe 0e55 97be 994f f4bc 6470 d93b
00000040: 3eec 903e 361b 5dbd bc5e 2f3e ff89 563d

classifier.0.weight f4 [50, 320]
-0.07451316 -0.24823901 -0.2082005 -0.04573687 -0.30061898 -0.18497606 -0.043709543 0.28153232
-0.017592534 0.19217877 0.11871646 0.009843776 0.022774784 0.11655625 -0.25273827 0.15356292
-0.09758114 -0.09541267 -0.012365978 0.013265618 0.23717134 0.16881338 0.0995094 0.020839086
0.15759256 0.065891415 0.13787726 -0.11698737 -0.17563924 -0.22458333 -0.052762814 -0.022697922
0.1147966 0.3044607 -0.14575768 0.004820347 -0.2774149 0.09293603 -0.17910162 -0.25615
-0.1446588 -0.038250368 0.20227836 -0.25660983 0.16640367 0.26146576 -0.015763717 0.035183962
0.041419704 0.013698289 0.027821733 0.06360808 -0.16272041 0.12690663 -0.16417189 0.068842635
0.1786871 -0.050827414 -0.14100341 0.03656276 -0.19828384 0.045610055 -0.117012404 -0.11108771
0.1452659 0.024553554 0.0475449 0.05126859 0.117523015 0.3468966 0.030879617 -0.10431716
0.096293025 0.1778721 0.112083316 0.1670994 -0.1218514 -0.21639019 -0.07693032 -0.2718492
-0.24825123 -0.11553964 0.036058307 -0.2745283 -0.20343982 0.08161132 0.013984567 0.0022749985
0.17042273 0.16308069 0.12036343 -0.068283595 -0.0062626614 -0.021610258 -0.0658544 0.24732022
-0.022534516 0.12908952 -0.09140201 -0.02474731 -0.1576178 -0.084002726 0.022827683 -0.18893845
0.054226935 0.045537528 0.087012246 0.21485636 -0.16317596 0.0418069 0.08211954 -0.010935476
0.034102872 0.030600052 -0.10906375 0.14721668 -0.09885461 -0.080612615 -0.0064214263 -0.3606573
-0.29667184 -0.016463874 0.105403215 -0.15014727 -0.11074506 0.076989844 -0.0605741 0.2399752
-0.17533225 0.038100217 -0.030988168 -0.14358601 -0.2059415 -0.044361692 -0.20234475 -0.38907254
-0.08158311 -0.043480203 -0.078249305 -0.070799045 0.015823921 0.1076355 0.11266149 -0.028250003
-0.029173082 0.24846208 0.17896985 0.27943936 0.30542627 -0.0894625 -0.018356757 0.14035642
-0.021588799 -0.22918491 -0.18329336 -0.033483688 0.09358738 0.041887168 -0.023062233 0.011186459
0.02607579 0.007827844 0.19233842 0.008739017 0.02044516 0.03801198 0.07552399 0.30550808
-0.435396 -0.04344946 -0.015988307 -0.13877346 -0.3760344 -0.0315126 -0.17995134 -0.36062008
0.06001351 0.094048575 0.09809094 0.12047877 -0.38520107 -0.32775158 -0.025100322 -0.22329192
-0.34801543 -0.19152945 -0.103016526 -0.11233412 0.1378109 0.19242966 0.085208 0.015968194
-0.3595993 -0.1225137 -0.034199044 -0.27709544 0.002533987 0.18495378 0.19281113 0.16650538
0.12030317 0.27755317 0.13393737 -0.09108973 -0.16419241 0.038136307 -0.09752043 -0.26047286
-0.08391191 -0.14648907 -0.12511659 0.09704818 -0.28287983 0.17784086 0.0129724275 0.117310286
-0.02369651 0.14907168 0.1599555 0.07668766 -0.3344402 -0.033773784 -0.37907693 -0.012814647
0.27689955 -0.06310577 0.045734443 0.3351741 -0.19853443 0.049186636 -0.13166791 -0.040408105
-0.2566336 -0.023420261 -0.2295406 -0.4795872 0.12728931 -0.0041933423 0.11959143 0.010066485
0.18462671 0.050604578 0.15219842 0.16483374 0.060313303 -0.10818685 0.0025797174 0.08256605
-0.17251907 -0.18842861 0.013735198 0.00049183617 0.24251775 0.048871644 0.06355816 -0.16225
00000000: 5b9a 98bd 5e32 7ebe 8332 55be 9656 3bbd
00000010: bbea 99be 5d6a 3dbe c708 33bd 0125 903e
00000020: 381e 90bc 83ca 443e 9e21 f33d ca47 213c
00000030: 2f92 ba3c 0bb5 ee3d e966 81be 993f 1d3e
00000040: 9fd8 c7bd b867 c3bd ac9a 4abc 0958 593c
00000050: 0bdd 723e 6add 2c3e 96cb cb3d bbb6 aa3c
00000060: f25f 213e 14f2 863d b22f 0d3e 1397 efbd
00000070: c6da 33be 2cf9 65be d21d 58bd fef0 b9bc
00000080: 7b1a eb3d 46e2 9b3e 8041 15be 00f4 9d3b
00000090: 5309 8ebe 3f55 be3d 6a66 37be 1826 83be
000000a0: 7021 14be 6bac 1cbd 0f22 4f3e 5d62 83be
000000b0: b965 2a3e d7de 853e e922 81bc 0f1d 103d
000000c0: b5a7 293d ca6e 603c 67ea e33c f444 823d
000000d0: 2ea0 26be d0f3 013e ad1c 28be 5efd 8c3d
000000e0: c0f9 363e 6830 50bd 3363 10be d5c2 153d
000000f0: eb0a 4bbe 9cd1 3a3d 33a4 efbd f481 e3bd
00000100: 96c0 143e 8924 c93c 71be 423d 03ff 513d
00000110: e8af f03d 6e9c b13e 40f7 fc3c 3ca4 d5bd
00000120: 4735 c53d 1b24 363e f08b e53d 1b1c 2b3e
00000130: 3a8d f9bd 6495 5dbe a58d 9dbd d12f 8bbe
00000140: 9235 7ebe 0ca0 ecbd e0b1 133d f98e 8cbe
00000150: 8752 50be d623 a73d 861f 653c 2418 153b
00000160: 4c83 2e3e a0fe 263e 1a81 f63d 45d8 8bbd
00000170: 0337 cdbb ff07 b1bc acde 86bd 8341 7d3e
00000180: 4e9a b8bc 0b30 043e fa30 bbbd dfba cabc
00000190: 9066 21be 9f09 acbd 1f01 bb3c 1579 41be
000001a0: 101d 5e3d 8f85 3a3d 7a33 b23d 4e03 5c3e
000001b0: 9917 27be b63d 2b3d 4a2e a83d b62a 33bc
000001c0: 74af 0b3d f6ac fa3c d15c dfbd f8bf 163e
000001d0: 4974 cabd 3a18 a5bd d46a d2bb 13a8 b8be
000001e0: 5fe5 97be 3fdf 86bc a4dd d73d 35c0 19be
000001f0: 4ece e2bd daac 9d3d 8c1c 78bd 0fbc 753e
00000200: 4c8a 33be f90e 1c3d e6da fdbc 3608 13be
00000210: 54e2 52be 9bb4 35bd 7633 4fbe 8434 c7be
00000220: 0c15 a7bd 4c18 32bd 2c41 a0bd 17ff 90bd
00000230: 2ba1 813c 0070 dc3d 11bb e63d 8d6c e7bc
00000240: 63fc eebc d86c 7e3e df43 373e ad12 8f3e
00000250: d560 9c3e 1d38 b7bd e960 96bc 98b9 0f3e
00000260: feda b0bc 73af 6abe 41b1 3bbe 3126 09bd
00000270: beaa bf3d e191 2b3d 02ed bcbc 6947 373c
00000280: e59c d53c 5b40 003c 5df4 443e 182e 0f3c
00000290: 9c7c a73c 73b2 1b3d 52ac 9a3d 8e6b 9c3e
000002a0: 39ec debe 10f8 31bd e9f9 82bc a11a 0ebe
000002b0: 9587 c0be 5b13 01bd 2a45 38be 32a3 b8be
000002c0: bad0 753d 8a9c c03d e7e3 c83d 93bd f63d
000002d0: 1339 c5be 0ecf a7be 319f cdbc a3a6 64be
000002e0: 142f b2be 4c20 44be 54fa d2bd 6e0f e6bd
000002f0: 4d1e 0d3e 480c 453e 8881 ae3d bbcf 823c
00000300: 661d b8be 76e8 fabd 4c14 0cbd 74df 8dbe
00000310: 3f11 263b 8664 3d3e 4870 453e 6380 2a3e
00000320: 8261 f63d 731b 8e3e e126 093e 418d babd
00000330: 0e22 28be d134 1c3d cbb8 c7bd b35c 85be
00000340: 02da abbd 3b01 16be 901e 00be 32c1 c63d
00000350: a0d5 90be ea1b 363e 4e8a 543c 6040 f03d
00000360: 2f1f c2bc 3fa6 183e 60cb 233e 6b0e 9d3d
00000370: bf3b abbe 6156 0abd 5f16 c2be 86f4 51bc
00000380: c7c5 8d3e 993d 81bd 0a54 3b3d f19b ab3e
00000390: 9c4c 4bbe ed77 493d f4d3 06be f882 25bd
000003a0: 7b65 83be d9db bfbc b10c 6bbe 748c f5be
000003b0: 2158 023e 4e68 89bb 5aec f43d e6ed 243c
000003c0: c90e 3d3e bf46 4f3d e7d9 1b3e 2dca 283e
000003d0: 150b 773d 1191 ddbd 7a10 293b 6418 a93d
000003e0: d7a8 30be 6ef3 40be 9909 613c 91ee 003a
000003f0: 9356 783e a22d 483d c82a 823d dd24 26be

classifier.0.bias f4 [50]
-0.02119638 0.006772931 0.07414466 0.18007673 0.20615342 0.18627623 -0.30765754 -0.118871726
0.16251987 -0.050261393 0.1721956 -0.30936337 -0.14560199 0.30890256 0.17462151 0.14912465
-0.0738378 -0.23156111 0.33500364 0.01662205 0.4247149 0.38373223 -0.22743265 0.31315354
0.22441325 0.04523234 0.16165031 0.14763686 0.33775663 0.046143394 0.43232143 0.03386907
-0.34575644 -0.21336949 0.28644013 0.27005243 0.36613998 0.30509022 0.14955747 -0.1407768
0.2339107 0.30847588 0.32714653 0.5239409 0.061805066 -0.53023857 -0.12654293 -0.17012072
-0.344091 0.3066778
00000000: 08a4 adbc 77ef dd3b 28d9 973d 0966 383e
00000010: e219 533e 32bf 3e3e 4a85 9dbe 0573 f3bd
00000020: 9c6b 263e e4de 4dbd 0b54 303e e064 9ebe
00000030: b018 15be 7a28 9e3e fbcf 323e 22b4 183e
00000040: 4638 97bd 5b1e 6dbe 9985 ab3e f72a 883c
00000050: 3b74 d93e 8d78 c43e 1be4 68be a955 a03e
00000060: 96cc 653e 8c45 393d a987 253e 1e2e 173e
00000070: 70ee ac3e db00 3d3d 3c59 dd3e 4bba 0a3d
00000080: fd06 b1be 887d 5abe 48a8 923e 5044 8a3e
00000090: b376 bb3e c934 9c3e 9825 193e cb27 10be
000000a0: 4986 6f3e 8df0 9d3e c07f a73e fe20 063f
000000b0: 4f27 7d3d b7bd 07bf 7894 01be 2034 2ebe
000000c0: b22c b0be df04 9d3e

classifier.3.weight f4 [10, 50]
0.11607749 -0.51187766 -0.32985106 0.1306416 -0.293901 -0.1111375 0.10820109 -0.11249957
-0.18967164 0.10845167 -0.013006002 0.12669893 -0.0030333628 -0.3166595 -0.011723346 0.10697529
0.09304063 -0.2498685 -0.16814794 0.09714003 0.117811896 0.17669737 -0.014088952 -0.240088
-0.23503646 -0.22393012 0.14512207 -0.06443847 -0.1386869 -0.21596444 -0.28800175 0.10949954
0.13930947 -0.13397409 -0.42754486 0.10914605 -0.20139912 -0.16217698 0.095379785 -0.255741
0.05505087 -0.08956021 0.030576639 -0.67799526 0.14279994 -0.010782619 0.04979656 -0.113043085
-0.21799558 -0.10616441 -0.2956591 0.092698656 -0.12335279 -0.08782769 0.1907213 0.11787273
-0.02108574 -0.09414925 0.15692952 0.06569391 -0.061260514 -0.09728794 -0.0321601 -0.024967784
0.010037289 0.1033953 -0.08698065 -0.062496684 0.109201595 -0.28565553 0.1479734 0.082813755
-0.16117464 -0.089135714 -0.0122079 0.16091116 0.14126104 0.061342485 0.083498925 -0.028762652
-0.22666025 -0.335582 -0.08560395 -0.19271202 0.14849699 -0.12858193 0.16203651 0.08953036
-0.0670787 0.16137382 -0.49743867 0.13681528 0.16763031 0.20717552 -0.22659543 -0.12917474
-0.37101546 -0.27787033 -0.15507327 0.12683393 0.0976671 -0.1004607 -0.06749513 0.11408703
-0.037236553 -0.106507584 0.063597724 -0.13289377 0.19028924 0.108130135 0.1021556 0.11838942
0.1651454 -0.063337736 0.11437504 -0.11076669 0.0548805 0.008890651 0.16996457 -0.18022336
-0.2565007 0.11261397 -0.0316297 -0.017209075 0.10094808 -0.101520196 0.13012108 0.13294166
0.10081168 0.14285585 -0.0880214 0.05107723 -0.11790161 0.14393815 -0.07498087 -0.11225821
0.16497096 0.05968686 0.0996661 -0.12319708 -0.09605868 0.15651156 -0.11716043 -0.012636614
0.10215275 -0.081304595 -0.22883566 -0.11417179 -0.10422757 -0.009916678 -0.075129054 0.003989959
-0.101570815 0.038400378 -0.22774783 -0.26814047 0.1269446 0.17646252 0.1836127 -0.09981751
-0.08582483 0.124592856 0.14233163 0.16548616 0.09446005 -0.17911023 -0.10933843 0.14423034
-0.05995172 -0.05621042 -0.14570008 0.13321933 -0.032291662 0.11370728 -0.1247493 -0.086166896
-0.097653575 0.10840453 -0.09633351 0.15976757 -0.046624195 0.08106611 -0.14112213 -0.10781334
-0.1324897 -0.100889444 -0.0031259605 0.092928305 -0.018461054 0.14757662 -0.0317726 0.16252719
-0.14945982 -0.018860102 -0.004018332 0.10947131 -0.15785913 -0.17528142 0.103648245 -0.016291266
0.1632284 0.007471946 0.14392409 -0.24625225 0.14579745 0.116845265 -0.009440026 -0.10253201
-0.05551765 0.09364287 0.114682004 0.124471776 -0.04715397 0.14817445 0.11364084 0.107065186
0.099254295 0.13848919 -0.06768754 -0.0031618213 -0.10614373 -0.16018485 0.11931383 0.060123675
0.09127415 0.16427137 -0.15797825 -0.16023481 -0.12910372 -0.12018682 0.11667213 -0.20398466
0.043028753 0.12894961 0.1502627 -0.1890203 -0.0893283 -0.11941621 -0.11002574 -0.13090475
-0.074267864 -0.037684824 -0.012588852 0.22207932 -0.063516736 -0.056865104 -0.2161874 0.077755526
0.11169147 0.13786869 0.05378304 -0.053585976 -0.17124406 0.1318132 -0.14328241 -0.11012254
00000000: 09ba ed3d 6a0a 03bf 3de2 a8be e9c6 053e
00000010: 317a 96be 0f9c e3bd 8898 dd3d 2d66 e6bd
00000020: 4839 42be e91b de3d 2017 55bc 5dbd 013e
00000030: 62cb 46bb 3221 a2be 4713 40bc dc15 db3d
00000040: 168c be3d 87dd 7fbe f92e 2cbe 5af1 c63d
00000050: 5d47 f13d 28f0 343e 59d5 66bc a1d9 75be
00000060: 66ad 70be f04d 65be e19a 143e 51f8 83bd
00000070: f003 0ebe c825 5dbe f774 93be 4b41 e03d
00000080: 24a7 0e3e 8130 09be 29e7 dabe f787 df3d
00000090: 923b 4ebe b911 26be 7a56 c33d 7cf0 82be
000000a0: 057d 613d 586b b7bd dc7b fa3c 1991 2dbf
000000b0: 263a 123e 95a9 30bc 7af7 4b3d 2283 e7bd
000000c0: 3c3a 5fbe ba6c d9bd a160 97be cbd8 bd3d
000000d0: 63a0 fcbd 01df b3bd 724c 433e 4267 f13d
000000e0: 00bc acbc 52d1 c0bd 22b2 203e 878a 863d
000000f0: 4eec 7abd e63e c7bd 4fba 03bd 3d89 ccbc
00000100: 7173 243c eac0 d33d e922 b2bd 86fc 7fbd
00000110: 16a5 df3d 7141 92be 5786 173e 429a a93d
00000120: f70a 25be c98c b6bd a503 48bc e5c5 243e
00000130: bca6 103e 4242 7b3d 7c01 ab3d a79f ebbc
00000140: a019 68be 67d1 abbe 2051 afbd 4d56 45be
00000150: 980f 183e fbaa 03be e6ec 253e b25b b73d
00000160: 8f60 89bd 2e3f 253e 48b0 febe 4e19 0c3e
00000170: 48a7 2b3e d225 543e a208 68be 6246 04be
00000180: bdf5 bdbe 0545 8ebe 87cb 1ebe c1e0 013e
00000190: b005 c83d 57be cdbd e33a 8abd 76a6 e93d
000001a0: 5b85 18bd a620 dabd 863f 823d 4e15 08be
000001b0: 2fdb 423e 5573 dd3d f536 d13d 2776 f23d
000001c0: e01b 293e 37b7 81bd 763d ea3d a5d9 e2bd
000001d0: 60ca 603d 18aa 113c 310b 2e3e 798c 38be
000001e0: 0f54 83be 27a2 e63d 258e 01bd 0cfa 8cbc
000001f0: debd ce3d d2e9 cfbd 763e 053e dc21 083e
00000200: 5b76 ce3d ce48 123e 9044 b4bd 5c36 513d
00000210: 6676 f1bd 8664 133e 928f 99bd a2e7 e5bd
00000220: 26ee 283e 357a 743d be1d cc3d c04e fcbd
00000230: 6aba c4bd 9144 203e cff1 efbd cd09 4fbc
00000240: 7635 d13d 0683 a6bd e553 6abe e6d2 e9bd
00000250: 4475 d5bd 9079 22bc 43dd 99bd 34be 823b
00000260: 5c04 d0bd b749 1d3d ba36 69be b549 89be
00000270: c4fd 013e 97b2 343e f804 3c3e 1f6d ccbd
00000280: eec4 afbd 8a2a ff3d 62bf 113e 3475 293e
00000290: 4574 c13d ac68 37be d4ec dfbd 1eb1 133e
000002a0: ef8f 75bd e63c 66bd 6732 15be a66a 083e
000002b0: 4344 04bd 5ddf e83d 907c ffbd 4578 b0bd
000002c0: 99fe c7bd 3203 de3d 814a c5bd 1c9a 233e
000002d0: 03f9 3ebd fd05 a63d 5282 10be 3ecd dcbd
000002e0: 61ab 07be 209f cebd eadc 4cbb 3251 be3d
000002f0: a33b 97bc 531e 173e fc23 02bd 876d 263e
00000300: ff0b 19be 8080 9abc 36ac 83bb 7f32 e03d
00000310: d3a5 21be f97c 33be 8845 d43d 4375 85bc
00000320: 5825 273e 3ad7 f43b d660 133e 8d29 7cbe
00000330: ed4b 153e 924c ef3d 57aa 1abc 4dfc d1bd
00000340: 7a66 63bd d5c7 bf3d 66de ea3d 0feb fe3d
00000350: 8524 41bd 0bbb 173e 87bc e83d fe44 db3d
00000360: d645 cb3d 1cd0 0d3e c49f 8abd 8f36 4fbb
00000370: e261 d9bd 7f07 24be cf5a f43d 3e44 763d
00000380: f1ed ba3d c136 283e 0dc5 21be 9814 24be
00000390: c433 04be 8224 f6bd ccf1 ee3d 5be1 50be
000003a0: eb3e 303d 5e0b 043e 77de 193e 8a8e 41be
000003b0: c1f1 b6bd 7c90 f4bd 2d55 e1bd e50b 06be
000003c0: c019 98bd 675b 1abd 7941 4ebc c368 633e
000003d0: 1015 82bd 62eb 68bd 3b60 5dbe 4a3e 9f3d
000003e0: 7fbe e43d 732d 0d3e 9b4b 5c3d f87c 5bbd
000003f0: 9a5a 2fbe 0afa 063e a0b8 12be ed87 e1bd

classifier.3.bias f4 [10]
0.6674885 0.70939445 -0.27386385 -0.15613492 -0.33650148 -0.17305735 -0.09714913 -0.3210651
0.32321778 -0.20949924
00000000: 87e0 2a3f e09a 353f e237 8cbe d5e1 1fbe
00000010: ec49 acbe f235 31be 20f6 c6bd a562 a4be
00000020: cd7c a53e f886 56be
