day2/domain_adaptation/revgrad_40.pt (torch_old, 91045 bytes, 8 tensors)

feature_extractor.0.weight f4 [10, 3, 5, 5]
00000000: 478d 713e d187 4f3d 8042 c03c 5687 1a3e
00000010: ddfd b3bc 6e0f 8ebe 225a 94be dd17 0dbe
00000020: 71d3 a4be cd46 05be 3190 23be 9f10 943d
00000030: f428 11bd 4a98 483d 0cea 623e 4fb0 22be
00000040: a454 2e3d 7b7b 18bd 5d29 643e f14a 023e
00000050: 5e5a 8d3b 31fe bd3d e0e1 6e3e 4dc1 4e3e
00000060: 8eda 3d3d 18fb a13e 2a03 183e 32d2 10bd
00000070: 0c7e 723d d326 3b3c 5fc9 8bbe 7778 d3bd
00000080: 726f c5bd b5a5 87be 8b1f 33be c890 2abe
00000090: 7945 d3bd 3e73 94bd 932e 58be 9f2b 05be
000000a0: bcc4 b0be 4d67 7bbe 7d04 6bbe ad4b 92be
000000b0: 0b8a 41be d4ee fbbe db10 6dbe 377e 49be
000000c0: a537 5dbe d608 8bbe fcbe bbbe 511a 90be
000000d0: 68eb afbe c99d 35bd 492d c63d 93be f73d
000000e0: 6bce b33d ec34 473e b16a b03e f632 ae3e
000000f0: d578 e23e eb07 d93e 7c77 f33e 76b8 b63e
00000100: 6905 343e ace5 e93e 497f f43e c8f0 ec3e
00000110: 26c0 813e 486b 013e d59a 003f 78a8 063f
00000120: 611f 8f3e 5c35 833e 2e46 323e fc49 d1bc
00000130: 6642 2fbd cc4f 7abd 20fa 57be 6fe5 00be
00000140: faf8 f03d 73b6 25bd 0cf9 1b3c 69b0 57be
00000150: a9c4 46bd ec9a 5d3e 0bf4 d6bd 17a4 553e
00000160: 718e 97be c6e2 443e 9720 853d fd19 b1bd
00000170: 8a5f 2ebd a9eb 99be e6c2 343e 0cbf 843c
00000180: 9157 8cbd b74c 85be e364 47bd cb23 963d
00000190: c33a 08be e8f5 46be f19a 84bc ed64 0cbe
000001a0: 5769 4d3e d2b5 ddbd e5f8 a4be 29e3 2ebc
000001b0: 8d1e ccbd 0d31 223e 33fb 27be 5b89 25be
000001c0: ffbf e5bd 2beb 91bb cc71 e03e 3954 08be
000001d0: 7119 c6bd 540c dabd 4771 1f3e 7a0e 333e
000001e0: 20dc 57be e6ef 8ebd ea2a c5bd 02eb a03e
000001f0: 3d08 743e 0687 f73e 351c a53e af44 923e
00000200: d75e a73e c0a5 d0bb 6810 aa3e f622 8a3e
00000210: bd10 a63e 7f2a 1e3d 58ea 92be 1743 993e
00000220: 383d 863e 142e 963e 865b 7fbe c6fe 71bf
00000230: 8ce6 973e cda7 b33e 8fde 523e ff6f 1dbe
00000240: 40f9 4bbf ad3a 3d3e 24e3 443e 9d00 3e3e
00000250: 58f6 fbbd 0efd acbe 9c83 94bd b778 b5bd
00000260: e08b c1b6 5b90 813d b089 7f3d 0d7b 403d
00000270: e6e8 49bd ea40 93be ea68 7a3e b82d 27be
00000280: 7f2a 873d 3855 88bd b40b 97be 1a7d 283e
00000290: 0ad5 0c3d a28e 563d 6019 fe3d 05d2 a2be
000002a0: 1e97 9f3d 5e22 7b3d 9f55 473e d36f 2a3e
000002b0: 009f 00be 3e8e acbc d867 15be fcb7 89be
000002c0: ba74 3dbe 1953 7fbc d784 84bd 88b1 9d3d
000002d0: dbc6 f5bd c9cd 74be a74b 86be d1af eabb
000002e0: 8036 03bd 5ab2 d5bd 892c 413c bda8 91be
000002f0: 1b25 a93d ef77 0dbe 31ea 54bd dfc8 00bc
00000300: 0db2 d6bd 80c7 2c3c fabf e7bc 42fe efbd
00000310: ecee d23c b73b 39be 8b00 e9bd 546e 32be
00000320: 5d44 043f e2e8 053f 7315 903e de0a 103e
00000330: e9ce 25be 8123 8a3e 2e7d a63e eb01 ae3e
00000340: ff8f 3a3e 0a24 b9be 8577 d13d af5f 853e
00000350: 09c5 b33e bb33 873e a34b a6bd cd7c 8ebe
00000360: f035 013e 918a ab3e d483 b43e 2b20 a53e
00000370: 9b57 d9be f4af 92bd 06ad ea3e 03db 003f
00000380: baf2 eb3e a435 09be c45f a8bd d3ce 01bd
00000390: 651b 9ebd a933 04bd 6ecf a53d 73fc 3bbc
000003a0: 917d 9d3c aeca 663c 74c5 a0bd a4c5 13be
000003b0: df62 7cbd 4de1 b139 0e74 883d c1a2 87bd
000003c0: 120c b0bb fdd8 043b 3ae6 20bd 8ace ba3d
000003d0: 97da 91bd 7e28 06bd b727 193d c56b 06be
000003e0: 32e6 44bc 2520 91bc c6a5 8f3d 8a67 53bc
000003f0: 815b 54bd 7525 eebc b50d 94bd bc02 8ebd
0.2358905 0.050666634 0.02346921 0.15090689 -0.021971637 -0.27746147 -0.28975016 -0.13778634
-0.32192567 -0.1301529 -0.15972973 0.07229733 -0.035439447 0.04897336 0.22159594 -0.15887569
0.04256119 -0.037227135 0.22281404 0.127239 0.004313751 0.09276999 0.23328352 0.20190926
0.046351008 0.31636882 0.14844957 -0.035356708 0.05920224 0.011422831 -0.2730207 -0.10325711
-0.09640397 -0.26493612 -0.17492501 -0.16656792 -0.10315985 -0.07248543 -0.21111517 -0.13004921
-0.34525096 -0.24551125 -0.22950931 -0.2857336 -0.18900315 -0.4920565 -0.23150961 -0.19677053
-0.21603258 -0.2715518 -0.36669147 -0.28145078 -0.34359288 -0.04433993 0.09676606 0.12096896
0.087796055 0.19453782 0.344564 0.34023255 0.44232813 0.42388853 0.47552097 0.35687608
0.17580189 0.45683038 0.4775336 0.46277452 0.2534191 0.12638581 0.50236255 0.5260081
0.27953628 0.25626647 0.17409584 -0.025547974 -0.04278793 -0.061111256 -0.21091509 -0.12587522
0.117662385 -0.0404572 0.009519827 -0.21063389 -0.048527393 0.2164113 -0.10495766 0.20863377
-0.29600862 0.19227132 0.06500357 -0.08647535 -0.042571582 -0.30062607 0.17652473 0.01620438
-0.068526395 -0.2603509 -0.048680197 0.07331046 -0.13303666 -0.19429743 -0.016187163 -0.13710375
0.20059715 -0.10825695 -0.3222114 -0.010674276 -0.099667646 0.15839024 -0.16404419 -0.16165678
-0.11218261 -0.004453083 0.4383682 -0.13313378 -0.09672821 -0.10646883 0.15570556 0.17485991
-0.21080065 -0.06979351 -0.09627326 0.31429297 0.23831268 0.48345202 0.32248083 0.28568026
0.32689545 -0.006367415 0.33215642 0.26979798 0.32434645 0.038614746 -0.28694415 0.29933998
0.2621858 0.2933203 -0.24937257 -0.9452938 0.2966808 0.3508896 0.20592712 -0.15374754
-0.796772 0.18479414 0.19227272 0.18554921 -0.12302846 -0.33786815 -0.07251665 -0.08860915
-5.768132e-06 0.06326362 0.06238717 0.04699235 -0.049294375 -0.28760463 0.24454084 -0.16326034
0.06599902 -0.06656879 -0.29501116 0.16453972 0.034382857 0.05238212 0.12407184 -0.31800857
0.07792495 0.061312072 0.19466256 0.1664422 -0.12560654 -0.02106392 -0.14590394 -0.2689818
-0.18501559 -0.015583777 -0.0647065 0.07699877 -0.12000819 -0.23906626 -0.26229593 -0.007162072
-0.032034397 -0.104344085 0.011790403 -0.2844905 0.082590304 -0.13815282 -0.051981155 -0.007860391
-0.10483179 0.010545611 -0.028289784 -0.11718418 0.025748692 -0.18089186 -0.11377057 -0.174249
0.51666814 0.52308476 0.28141364 0.14066646 -0.16192211 0.26980212 0.3251738 0.33985838
0.18218993 -0.36160308 0.10227875 0.26049563 0.35111263 0.26406655 -0.08119895 -0.2782959
0.12618232 0.33504155 0.35256827 0.32251105 -0.4244965 -0.07162467 0.4583513 0.50334185
0.46083623 -0.13399369 -0.08221391 -0.031691384 -0.07720069 -0.03227583 0.08096205 -0.011473763
0.019224914 0.014086409 -0.07850161 -0.14430863 -0.06161773 0.00033927933 0.06662761 -0.0662284
-0.0053725326 0.0020270937 -0.03928206 0.091214254 -0.07121771 -0.03275346 0.03739139 -0.13127048
-0.012017773 -0.017715523 0.07014041 -0.012903104 -0.051845077 -0.029070595 -0.07229177 -0.06934115

feature_extractor.0.bias f4 [10]
00000000: 7a1c 19bf ada7 39be 88cc 97bf 20a4 b1bd
00000010: fc0b 33bf acf6 13bf 6bbc b6be 71de f0bd
00000020: db27 2abf 944d cbbc
-0.59809077 -0.1813037 -1.1859293 -0.086738825 -0.6994016 -0.57798266 -0.35690627 -0.11761177
-0.66467065 -0.024817266

feature_extractor.3.weight f4 [20, 10, 5, 5]
00000000: 4504 113f d3d3 a13e 5059 043e 114d 17be
00000010: fec5 22be 5c00 5ebe 96a3 103d f78c 373e
00000020: 5131 393e a994 8abe 61fb c5be b54c d5bd
00000030: d7c5 8d3e 4565 1a3f 4301 383e 4a0b 43be
00000040: 6f86 f6be 795a c5be a304 a23d 3132 fcbc
00000050: c906 9f3d 2f99 a33d 1616 ca3d e9bc 7dbc
00000060: 3930 6e3e 84fc 7e3d f0fa 043e 660c 923c
00000070: b856 c2be f047 59be 4e8a 563e 8bd4 95bd
00000080: d0c6 db3d f4bc 2dbe 6def c83b 08cf 98be
00000090: 75b9 06be 7e5a be3b 67d5 e43c 0307 2a3e
000000a0: 4e16 e3be 4e51 f9bd 8357 843e f4d9 d1bd
000000b0: 151c 9ebd d494 323e 6d38 7bbc a605 993c
000000c0: 8647 f8bb 6ee6 3b3e 5d88 7c3e 37be 8ebe
000000d0: 21bf 15bf 550b ccbe df0a 9e3e 7d5a bb3e
000000e0: 168c 043f d2b4 0d3f aa08 ef3d b1f5 803e
000000f0: f608 043c 4251 d93e 525a a73e 67fe 3e3e
00000100: 97b3 f3be 917c b5be 506f 363e ee5d 843e
00000110: 773f 08bc 4988 9ebe c6f1 ac3d 623a f4be
00000120: a611 99bd b433 62be 1f0f 5b3d 8b38 3dbb
00000130: 1679 14bd e268 67bc 518a 133d 66c1 443d
00000140: 800f 803d 11f1 8d3c f818 82bc 04c6 0bbd
00000150: 4201 c13c 5faf 75bd d07b 2bbd ea92 a33c
00000160: 28fa dd3c 89a6 66bd ba4e 0b3d 7751 3cbd
00000170: f334 6a3d 79af 723c 4a2a d9bc ced7 413c
00000180: ed52 e2bb 3299 22bd 2ced 31bc 0142 883c
00000190: c813 34be d485 05bd 8b0c f43c 3fed c93e
000001a0: 206b 84be ac38 033e e679 96be f26f 0cbf
000001b0: bdaa 05be ad1d 0b3e e6d7 a8be bcf1 c13d
000001c0: 3930 ffbd c0a5 c6be ca93 fabc ff4e 2c3e
000001d0: 9d0f 163e 5dbb e4bd 1749 e73c 96dd 52bd
000001e0: e5a0 b73e 385d 4c3d d57e 20be 3fef d53d
000001f0: 6ccd 13be 5d72 64bd b58a 27be 3af8 5ebe
00000200: be7b 65be 88c0 f03e c3b6 56be 7534 f8bd
00000210: 5046 d6bc ac30 7d3e d050 2fbf 3d3b a9bd
00000220: 1d87 8e3d a685 b5bd 797b e83e fed6 863e
00000230: a93c 0a3f d08d e33d eed7 2ebe 7bce 663d
00000240: 71a0 81be 98b8 183d 2af5 b03d 4a1d a4be
00000250: c337 0c3e e3c1 4d3e a6a8 d23e e300 313d
00000260: 88bc 20bd 3542 bd3e 2ccb 00be 7616 93bd
00000270: c153 f13d 7410 6bbf 9d8b 38bd 658d 3d3d
00000280: d173 4abe 98b1 013f bf3f a93e e5ba 94be
00000290: 2efd bebe 6be5 b8bd 3501 6fbe 9c93 1ebd
000002a0: 4d06 cc3d 0eb6 253d 9a2b e5be 656a 853e
000002b0: 072d 763d b44a a43d 1405 bc3d 3230 32be
000002c0: bd26 97be 2acf 123d 3c12 af3e f2a1 803e
000002d0: 873a 013e 077d 62be 65e4 b33d 6354 c9be
000002e0: b57e 853d b77a 99bd 0ac9 6a3d b890 f93e
000002f0: 660c f43d d4c5 c9be 5517 f23e cc3c 48bd
00000300: b9aa e83d e5b3 2ebe da92 83be b280 dd3e
00000310: af9f d3bc 8422 b1bd 50e0 82bd 60bc b73d
00000320: 92a7 bcbe e032 3dbd 9492 1abe 4ba4 40be
00000330: 2169 57be 3c25 263e 4d95 fe3c e2a0 0d3e
00000340: a8f6 3e3e 1566 443e 8b12 8f3e 5431 36be
00000350: e63b e5ba 513b 86be 7125 d33d 002c 94bd
00000360: 040e c73e 2e83 14be 0172 4bbe 4ac4 67be
00000370: 3a1b efbe 278d 163d ed4b 183e fdd8 853d
00000380: 89dd ee3d 7112 453e a838 8ebe 49b0 473d
00000390: da10 a2be 3b7d 0d3e 2877 01bf 9ddc dcbc
000003a0: 4078 7f3e a709 973e 9e4a 77be c7e8 703b
000003b0: f6b4 9ebe a349 38bf ab32 d2be f064 cabd
000003c0: 0adf c13d 8b81 eebe 9860 6cbe 2c02 e53e
000003d0: c173 6c3e 44d9 ad3e 0ce7 933d 8806 423e
000003e0: 3e58 933b b9a3 92bd c321 193f 391a fcbc
000003f0: 088b 95be 3912 9bbe 6cb2 f6bb 059f 5e3e
0.5664714 0.31606922 0.12924695 -0.14775492 -0.1589584 -0.21679825 0.035312258 0.17924868
0.18085219 -0.27066544 -0.3866835 -0.10415021 0.27690002 0.60310775 0.17969231 -0.19047275
-0.4814944 -0.38545588 0.07911041 -0.030785652 0.07764966 0.07988202 0.09867494 -0.015486934
0.23260583 0.062252536 0.1298635 0.017828178 -0.37956786 -0.21218848 0.20951197 -0.0731593
0.1073128 -0.16966611 0.0061320574 -0.29845452 -0.13156684 0.0058091274 0.02793379 0.16604237
-0.44352955 -0.12173711 0.25848016 -0.102466494 -0.077202 0.17439586 -0.015333277 0.018679451
-0.0075768856 0.1834962 0.24661393 -0.27879497 -0.58494765 -0.39852396 0.3086767 0.36592475
0.51776254 0.55354035 0.116715744 0.25187448 0.008058777 0.42444807 0.32686096 0.18651734
-0.47597954 -0.354466 0.178159 0.25852913 -0.008315912 -0.30963352 0.08444552 -0.47700793
-0.07474069 -0.22090036 0.053481217 -0.0028872814 -0.03624829 -0.014124127 0.03602058 0.048036
0.062529564 0.017326863 -0.015881047 -0.03412439 0.02356017 -0.0599817 -0.041866124 0.019967515
0.027096823 -0.056311164 0.034010626 -0.04597613 0.057179403 0.014812344 -0.026509423 0.011831237
-0.006906858 -0.03969688 -0.010859769 0.016633036 -0.17585671 -0.03259833 0.029791137 0.39438817
-0.2586298 0.12814587 -0.29389876 -0.54858315 -0.13053413 0.13585539 -0.32977217 0.09469935
-0.124603696 -0.38798332 -0.03058805 0.1682701 0.14654393 -0.11168549 0.028233094 -0.051480852
0.3586494 0.049893588 -0.15673383 0.10446023 -0.14433831 -0.055773128 -0.16361506 -0.21774378
-0.22410485 0.4702189 -0.20968156 -0.121193804 -0.026156574 0.24725598 -0.68482685 -0.08263252
0.069593646 -0.08863382 0.45406702 0.263359 0.5399881 0.11111033 -0.17074558 0.05634926
-0.2531772 0.037285417 0.08640511 -0.32053596 0.13693146 0.20093493 0.41144294 0.043213736
-0.039242297 0.36964574 -0.12577504 -0.071820185 0.11783553 -0.9182198 -0.04505502 0.046277422
-0.19770743 0.5066161 0.33056447 -0.2904884 -0.37302536 -0.09028133 -0.23340304 -0.03871499
0.09962139 0.040456824 -0.44759828 0.26057735 0.060101535 0.08022061 0.09180656 -0.17401198
-0.29521742 0.0358421 0.341936 0.25123554 0.12619983 -0.22118007 0.08783797 -0.39322194
0.06518308 -0.07494109 0.057320632 0.48743224 0.11916427 -0.39408743 0.47283426 -0.048886105
0.11360688 -0.17060812 -0.25697976 0.4326225 -0.025832979 -0.086491615 -0.063904405 0.089714766
-0.36846596 -0.046191096 -0.15094978 -0.18812673 -0.21036197 0.16225141 0.031077052 0.13830903
0.1864878 0.19179566 0.27943835 -0.17792255 -0.0017489165 -0.2621713 0.10309876 -0.07234955
0.3887788 -0.14503166 -0.19867708 -0.22633472 -0.4670046 0.036755707 0.14872713 0.06535528
0.11663348 0.19245316 -0.277776 0.048752103 -0.31653482 0.13817303 -0.50572443 -0.026960665
0.24948215 0.29499552 -0.24149558 0.003675984 -0.30997437 -0.7198736 -0.41054282 -0.098825336
0.094663695 -0.46583208 -0.23083723 0.4472822 0.23091032 0.33954823 0.07221803 0.18947804
0.0044966033 -0.07160134 0.5981714 -0.030774223 -0.29207635 -0.3028734 -0.0075285938 0.21740349

feature_extractor.3.bias f4 [20]
00000000: 5412 a2be a2f8 d4bb 8ac1 abbe 1162 873e
00000010: 7519 5cbf b3d3 bb3d fb82 25bf c644 86be
00000020: 8ae1 3abe d18f 1c3e e707 88be 0af5 dcbd
00000030: 2a0e c7be 523b 56be 9af1 3ebd f0e5 f93d
00000040: d88e 173e 2cae 48bd 5303 9c3c e0a1 01be
-0.31654608 -0.006499366 -0.33546096 0.26442006 -0.85976344 0.09171238 -0.64652985 -0.26224345
-0.18250099 0.15289237 -0.2656853 -0.10788925 -0.38877994 -0.20921066 -0.046617128 0.1220206
0.14800584 -0.04899423 0.019044554 -0.12659407

classifier.0.weight f4 [50, 320]
00000000: e7ea c1bd f83c 33be 7704 1dbe e49b 35be
00000010: 6c8f 90be d470 9abe f996 febd cde0 493e
00000020: 95cf 11be 2eec 313e 5204 2f3e 32b2 e43c
00000030: 1820 1f3c e541 2c3c d707 53be ae1e 7c3d
00000040: f2cd 09be ec14 fb3c de8f 84bd 386b 29be
00000050: 4bd1 7b3e 0696 403e feb1 023e c529 693d
00000060: 26ec a33d 5b95 6b3e 7e1c 6c3d 4a45 c9be
00000070: 6d50 67be 182a 8ebe 61fd debc 165c 7dbd
00000080: 248a e23d 595d 983e 1669 86be d909 863a
00000090: d9ba 5bbe ebd7 35bd 222a 56be c15f 55be
000000a0: 8728 04be 033f 49bc 4f8e 9f3e 9592 2bbe
000000b0: 3785 1b3e f42c 973e fa49 553d 660f 89bd
000000c0: 4f35 223e 1925 efbb e110 babb 4362 f93d
000000d0: 59bd 8dbe 161e 82ba 0d0b 97bd 9874 2a3e
000000e0: c510 cb3d 1a46 2c3c 03d1 a4bd 64ea 283b
000000f0: 4a65 9cbe aacf 223e 609a 9cbd ff66 41bd
00000100: 24ba f03d eafe a0ba 4f89 27be 2bdf d13d
00000110: cab1 81bd 22e2 a43e 65f7 4ebc daa8 2fbe
00000120: 16e8 553e ab5a 483e d24c bd3a 5b94 5e3e
00000130: 7e0f 96be 0943 39bd 8e98 2abd c819 15be
00000140: dbfe 06bf 2882 03be 074e d83d 368d 7bbe
00000150: 4809 93be e1d3 a9bb dc10 16bd e872 4dbe
00000160: c87b 4d3e 160c 413e 318d 333e b200 02be
00000170: e649 6bbc 31d7 bbbd 1843 1dbe b0cb fd3e
00000180: 0e10 3e3e 112a 303e ee38 e9bd a590 563c
00000190: e0f5 8dbe 3146 383c b1bd b6bd 6b1b f7be
000001a0: 1bff 3f3e c58b 4cbd 2eb2 36bd 1d5e bb3e
000001b0: 40ab 41be e6db bd3d ce8f c9bb 3c12 d73c
000001c0: 0706 003d ce3a 673d 6c28 65bd 60db 033e
000001d0: f317 21be d121 0fbe 4070 043e fbf5 4abe
000001e0: 3826 b7be 1d70 d23c 751d b13d 79fd 53be
000001f0: ffde b6bc 786a e93d 95de 0bbd 442e 923e
00000200: 6f31 b8be a7e0 603d 9547 43be 62a5 16be
00000210: 926b d5be 2506 f5bd 5093 3ebe dcb0 7bbe
00000220: 9f28 0abd 13ad 3a3e c067 b13d 68dd 93be
00000230: 7b97 ba3d 6854 463e f1f5 3c3e 4d30 373d
00000240: 5f36 17be b0cc 1d3e 4311 6e3e 63ba aa3d
00000250: c045 fc3e 74cc 37be 47b7 9c3d 1922 3dbd
00000260: cdb8 3b3e 5e86 88be 063f 82be 8760 4abd
00000270: 96ba c4bd 00f5 503e f27d 433d ff4a b9bd
00000280: 5b7f 923e 0cc0 7f3c f149 cf3d 292a 19be
00000290: 1349 65bd 16e2 5d3e 9c6b c2bb 251e 063e
000002a0: 8b48 dcbe e219 25be 0cd6 3fbd 7402 8cbd
000002b0: f415 02bf b683 0dbe 4040 0dbe ef68 0cbf
000002c0: 89f9 9d3c c2ea 093e 9d1f 2c3e 061b d43e
000002d0: 9bff c0be 02ab b2be 7a08 5bbd 7bdd 99be
000002e0: 8362 08bf e43d b6be 1c22 a0be 899b b3be
000002f0: c6b1 913d 266d 9c3e de01 7c3e c476 263e
00000300: 00ca 9dbe e451 04bd c6ec 4e3e e229 94be
00000310: 392c bebd cbfd 0f3c aec5 9e3e beb9 b43d
00000320: 3afa 6a3c a78c 8f3e 5b80 013e c8cc 693d
00000330: 4180 96be 47b9 5cbd ac37 f5bd be12 56be
00000340: faf0 21be 069f 9abe 627d b8bd 2140 913d
00000350: d651 bcbd efe6 dc3d 27cc 083e a1a9 b83d
00000360: eacb 01be 0ddc 8f3e 60b1 8b3e 6647 063e
00000370: 42aa d8be 64ee 533e 09d7 a0be d420 653a
00000380: 29fc 913e 68a4 113d 6dfc 843e a505 cf3e
00000390: 2ab5 6cbe e3f8 7a3e 3373 8bbe 2304 44be
000003a0: 23c2 c8be 165a 07be 73b5 86be 9af4 08bf
000003b0: 98c6 593d 629c 943c 9490 603e 6df8 6f3d
000003c0: 74c5 d83e 82d5 da3d d435 143e 5d5b bf3c
000003d0: a7a3 0f3e 882c 393b 83a4 963d b3a9 81bd
000003e0: bfeb 8bbe d44e b6be 3620 85bd df09 073e
000003f0: 66bb 1c3e 5180 0ebd 48eb cdbc cff4 10be
-0.09468632 -0.17503726 -0.15333734 -0.17735249 -0.28234422 -0.30164206 -0.124311395 0.19714661
-0.14239343 0.17375252 0.17091492 0.027917001 0.009712242 0.010513757 -0.2060846 0.061552696
-0.13457468 0.030649625 -0.06472753 -0.16544807 0.24591558 0.1880723 0.12763211 0.0569246
0.08004026 0.23006193 0.05764436 -0.39310676 -0.22589274 -0.2776649 -0.02722043 -0.061855398
0.110615045 0.2975872 -0.2625205 0.0010226324 -0.21457995 -0.04439537 -0.2091451 -0.20837308
-0.12906085 -0.01228309 0.3116326 -0.16755135 0.15187536 0.29526484 0.052072503 -0.0669239
0.15840648 -0.0072981236 -0.0056782817 0.12176945 -0.27683523 -0.0009927179 -0.07375155 0.1664604
0.09915308 0.01051476 -0.08047678 0.0025774473 -0.30546027 0.1589953 -0.07646632 -0.047217365
0.117542535 -0.0012283002 -0.16360973 0.10247644 -0.06332739 0.32203776 -0.012632226 -0.17154256
0.20889315 0.19565837 0.001444245 0.2173628 -0.29308695 -0.045229945 -0.041649394 -0.14560616
-0.5273263 -0.1284262 0.105617575 -0.24565586 -0.2871802 -0.0051827286 -0.036637172 -0.20063365
0.2006675 0.18852267 0.17534329 -0.12695578 -0.0143608805 -0.09171904 -0.15357625 0.49569464
0.18560812 0.17203547 -0.113878116 0.013096009 -0.2772665 0.011247204 -0.089228995 -0.48263106
0.18749659 -0.049937982 -0.04460352 0.3659524 -0.18912983 0.09270458 -0.006151176 0.026253812
0.031255748 0.056452565 -0.055946752 0.12876654 -0.15731792 -0.13977744 0.12933445 -0.19820397
-0.35771346 0.025688225 0.086481966 -0.20702161 -0.02232313 0.113972604 -0.034147818 0.28550923
-0.35975215 0.054901745 -0.19070275 -0.14711526 -0.41683632 -0.119640626 -0.18610883 -0.24579185
-0.033730146 0.18230085 0.08662367 -0.28879857 0.09110924 0.19368136 0.18453194 0.044723798
-0.14766835 0.15410113 0.23248772 0.08336332 0.49271965 -0.17949086 0.07652145 -0.046175096
0.18332215 -0.26665014 -0.25438708 -0.049408462 -0.09605901 0.2040596 0.047727533 -0.090475075
0.2861279 0.015609752 0.10121525 -0.14957489 -0.055977892 0.21668276 -0.005933238 0.13097437
-0.43024096 -0.16123155 -0.04683499 -0.068364054 -0.5081475 -0.13819775 -0.1379404 -0.54847616
0.019284027 0.13468459 0.16808935 0.41426867 -0.37695011 -0.34896094 -0.05347488 -0.3005179
-0.53275317 -0.35594094 -0.31276023 -0.350796 0.07113986 0.30552024 0.24610087 0.16256243
-0.30818176 -0.03230466 0.2020751 -0.28938204 -0.092857786 0.008788536 0.31010193 0.0882449
0.014341885 0.28036997 0.1264662 0.05708006 -0.29394725 -0.05388763 -0.11973509 -0.20905587
-0.15814582 -0.3019945 -0.0900829 0.0709231 -0.091952965 0.107862346 0.13359128 0.09016729
-0.12675443 0.28097573 0.27283764 0.13113174 -0.42317396 0.20696408 -0.3141406 0.00087405485
0.28512695 0.03555718 0.25973836 0.40433994 -0.23115984 0.24509005 -0.27236328 -0.19142203
-0.39210615 -0.13217959 -0.2631031 -0.5349823 0.05316791 0.018140975 0.21930152 0.058586527
0.42338145 0.10685255 0.14473659 0.023358995 0.14027272 0.0028255302 0.07355597 -0.06331196
-0.27328297 -0.35607016 -0.065002844 0.1318736 0.15305862 -0.03479034 -0.025136605 -0.14155887

classifier.0.bias f4 [50]
00000000: 0f15 103e f815 083e afce f53d 78ce 263e
00000010: 0181 db3e 8a85 023f 5331 0fbf 07a4 22bc
00000020: 32d5 443e aa26 8b3e cb8f a63e 620a b5be
00000030: f7a3 b0be 8aa5 fd3e 6f8a a73e 4dc8 8f3d
00000040: b2ab 193e 361b febd a8a5 1b3f fe27 1cbe
00000050: 98b9 103f ee41 6a3e 8596 4fbe f84e e53e
00000060: 0356 de3e aadb cebc 97ff e93e 8a87 303d
00000070: fb7e 3a3f 2f10 81bd 11cc 0e3f 5d3f 0abe
00000080: c0ef c9be fd8a a7be 4982 bf3e c05a c13e
00000090: ed9c 4b3f 1ace 1a3f dcd0 923e c05f 6cbe
000000a0: aa22 dd3e 537e 0a3f 26b4 013f 5c65 553f
000000b0: ffe7 aabc e531 43bf 6d32 25bc 9141 f6bd
000000c0: 37ca 0fbf e520 2d3f
0.14070533 0.1328963 0.120023124 0.16289699 0.4287186 0.50985014 -0.5593464 -0.0099268025
0.19221953 0.27177936 0.3253158 -0.35359484 -0.34500095 0.4954036 0.32722804 0.07020626
0.15006903 -0.12407534 0.60799646 -0.15249631 0.56533194 0.22876713 -0.20272262 0.4478681
0.43424997 -0.025251228 0.45702812 0.04309801 0.72850007 -0.06301915 0.5578013 -0.13500734
-0.39440727 -0.32723227 0.37404087 0.3776455 0.79536325 0.60470736 0.28674972 -0.230834
0.4319051 0.54099005 0.5066551 0.8335779 -0.020862577 -0.7624801 -0.010082823 -0.120242245
-0.5616793 0.6762832

classifier.3.weight f4 [10, 50]
00000000: b284 e93d 426b cbbe 9fba 9cbe 5855 e33d
00000010: dcf7 96be 50f2 fcbd 4eff 853d deb7 1cbd
00000020: 15a3 07be e673 873d 7efa 89bd 4017 d83d
00000030: 519a babc 4e45 90be dc9d a7bd ca2b 893d
00000040: f377 7f3d b736 a0be 30e3 13be d28a 683d
00000050: e0c6 9e3d f4f8 013e 8d58 a1bd c1bb 5bbe
00000060: b33d 3bbe f593 3bbe 9d42 de3d b61e 15bc
00000070: 6ce9 1abe 31c2 1abe 19aa 65be 99f1 923d
00000080: a887 a43d f1ca bcbd 36ac 62be 07c4 ad3d
00000090: 0a0e 67be 2016 06be 2c7d 5d3d 1e4d 2fbe
000000a0: 4e7b 5d3d 12c0 cebd 6d6b 96bc ec3d 21bf
000000b0: 536e d13d c3d7 60bd f310 c43c 0e60 73bd
000000c0: d390 77be a16c ddbd 779d 46be 4c1a 4b3d
000000d0: 5a90 d3bc 5749 1fbd 2373 d53d 6c47 573d
000000e0: fcca 6c3d b2b7 44be 6899 ee3d 5202 a43d
000000f0: aff3 39bc 7513 60bd 7a97 4bbd a8e9 8bbd
00000100: 7088 a1bc 4079 ec3d f472 39bd cd91 babc
00000110: a664 d23d 7270 41be 73a2 af3d 0640 07bd
00000120: 0106 e0bd 9af2 7cbd 044d 35bd a3a0 203e
00000130: fdc8 cf3d 5248 653d a8b2 ff3c 3df7 16bd
00000140: c44e fcbd 7820 58be a93a 02be 54c2 2fbe
00000150: f14b cd3d 1b32 00be a3fd f43d f22d 273d
00000160: 9d8f fdbd 6833 f03d 8d55 d1be 90d0 133e
00000170: d7dc 163e 9c4c 413e a7db 3abe 2c0d 53be
00000180: 03bd a5be 2c7b 8cbe bae2 0bbe 1a09 023e
00000190: 6d2b d03d e01b b1bd 9dbf f3bd da4b d63d
000001a0: 252d 05bd 43e5 85bd 39d4 813d 938d 7fbd
000001b0: 03d5 103e e383 853d 13fc 5c3d 87c7 b53d
000001c0: a969 133e 7385 a8bb 1ecc c73d 58dd ecbd
000001d0: dcbe ca3c cd8e 603d 5f1b d03d 88d6 acbd
000001e0: ab17 3dbe 115c b33d c831 57bd c0c8 1d3d
000001f0: 65f9 193d 34df 31bd 01d3 eb3d 4dba d03d
00000200: fe69 9f3d 4077 db3d fb5e 92bc b258 3f3d
00000210: 4c49 fbbd e616 b43d 7ff2 4cbd d5cb b7bd
00000220: 1e2a 043e 9ba5 443d da18 863d 858a 5fbd
00000230: b97c cdbd 0918 023e 9207 21bc 9db1 25bd
00000240: 0575 bd3d c01b a0bd b533 8dbe 46e0 41be
00000250: e73f 3abd 186d 45bc bf72 92bd b84f 863b
00000260: 8f6d b8bd 6ec4 1ebd 367f 65be d53c 91be
00000270: 96a6 e63d bc21 e53d 1b14 173e f013 d4bd
00000280: 8fb0 febd e43a b53d 3f94 0a3e 9153 113e
00000290: ddfe dc3d 968d 0fbe 32eb e7bd 3160 023e
000002a0: 6a9f c2bd d142 cbbd 9f01 ccbd a8d8 0b3e
000002b0: 2b14 b5bd 8f50 ae3d 9f58 d3bd 016b 84bd
000002c0: 363b b2bd 0ce6 d43d 161f 91bd 3d78 0b3e
000002d0: 7467 b4bd 9bcc 983d e436 94bc 7fe0 00be
000002e0: 36ac 81bd 5e45 c4bd f6a6 42bc e553 8f3d
000002f0: 2fc4 20bd 10ff ae3d bd02 a0bd 8c12 ff3d
00000300: 6651 bfbd e7e2 ac3c 526f 043c 5174 ba3d
00000310: a5f3 d2bd 6243 2abe 6b4b d53d a971 9dbd
00000320: 93c1 013e 3fb0 40bc dd2d bb3d 9e32 16be
00000330: 101d d03d 3037 893d 1a58 febc f5e5 b6bd
00000340: 34ec a5bd 956e a1bb 16ee 953d 6bb5 d23d
00000350: 5cb9 93bd 26f4 123e 4b07 813d dfbf a13d
00000360: 5930 5c3d 6fa6 043e b74e 033c a1ff 15bd
00000370: 6a55 c6bd 37a8 42bd 55ab bf3d 2343 663d
00000380: 6487 863d 5fd5 083e 7481 29be ccc4 efbd
00000390: 1133 15be 4ce6 f9bd d9e8 cc3d 573d 33be
000003a0: 6670 bf3b eccf c03d 2688 d03d ed71 2dbe
000003b0: 7427 00bd b58b 04be c7bf ecbc 03cf f3bd
000003c0: 609f 04be f9c0 c1bd ab9b 4cbd e379 4a3e
000003d0: a015 c3bd 3d3f 82bb df4b 18be 5eac 873d
000003e0: 6efe bc3d 8af4 e73d 169d 87bc 770e 25bc
000003f0: 28dc c6bd c056 f43d 6fac 83be 8f4e 01be
0.11402263 -0.3973027 -0.3061113 0.111002624 -0.29485977 -0.12350905 0.06542836 -0.038261287
-0.13245805 0.06613903 -0.06737231 0.105513096 -0.022778662 -0.28177875 -0.08184406 0.06697805
0.062370252 -0.31291744 -0.14442134 0.056773014 0.07752776 0.12692624 -0.07878218 -0.21458341
-0.18285255 -0.1831816 0.10852549 -0.00910156 -0.15128106 -0.1511314 -0.22428168 0.07174987
0.08033687 -0.092183955 -0.22136006 0.08484655 -0.22563949 -0.13094378 0.05407445 -0.17119262
0.05407267 -0.10095228 -0.018361771 -0.6298511 0.10226121 -0.054893266 0.023933863 -0.059417777
-0.2417634 -0.10811735 -0.19396006 0.049585626 -0.025825668 -0.0388883 0.10422351 0.052558348
0.05781077 -0.19210699 0.11650354 0.08008255 -0.011349603 -0.054706056 -0.049705006 -0.06831676
-0.019718379 0.11546564 -0.045275643 -0.022774601 0.102731034 -0.1889055 0.085759066 -0.033020042
-0.10938645 -0.0617548 -0.0442629 0.15686278 0.10145757 0.055977173 0.03121312 -0.03685688
-0.12319711 -0.21106136 -0.1271769 -0.17163974 0.1002425 -0.12519114 0.1196244 0.0408153
-0.12380908 0.11728555 -0.40885583 0.14435029 0.14732681 0.1887688 -0.18247853 -0.20610493
-0.32370767 -0.27437723 -0.13660708 0.12698784 0.10164533 -0.08647895 -0.11901782 0.10463686
-0.032513756 -0.06537869 0.063393064 -0.062390875 0.14143758 0.06519296 0.053951334 0.088759474
0.14395775 -0.0051428615 0.09755729 -0.115656555 0.024749212 0.054823685 0.101614706 -0.08439356
-0.1846606 0.08757795 -0.05253771 0.03852153 0.037591357 -0.043425754 0.11514855 0.10191784
0.07783888 0.107161045 -0.017867556 0.046715446 -0.1226984 0.0879343 -0.05003595 -0.08974425
0.12906691 0.048009496 0.06547709 -0.054575462 -0.100335546 0.12704481 -0.009828465 -0.04045259
0.09250835 -0.07817793 -0.27578512 -0.1893321 -0.0454711 -0.012049936 -0.07150792 0.0040988587
-0.09005272 -0.03876155 -0.22411808 -0.28366724 0.112622425 0.11188075 0.14753763 -0.10355365
-0.1243602 0.08849123 0.13533114 0.14192034 0.10790799 -0.14018854 -0.11324157 0.12732007
-0.09503062 -0.099248536 -0.09961247 0.13656867 -0.08841737 0.08511459 -0.103196375 -0.06465722
-0.087027 0.103954405 -0.07086007 0.13620086 -0.088087946 0.074609004 -0.01809258 -0.12585638
-0.06331675 -0.09583543 -0.011880627 0.069984235 -0.039249595 0.08544743 -0.07813022 0.124547094
-0.093416974 0.02110429 0.008083181 0.09104217 -0.10300378 -0.16627267 0.104147755 -0.076876946
0.12671499 -0.01176077 0.09139607 -0.14667746 0.10161793 0.06699979 -0.03104787 -0.089305796
-0.08101693 -0.0049265125 0.07320802 0.10288509 -0.07213089 0.14350948 0.06300219 0.07897925
0.053757045 0.12954114 0.008014373 -0.03662074 -0.0968426 -0.047523703 0.09358851 0.05621637
0.065687925 0.13362645 -0.16553289 -0.11707458 -0.14570262 -0.12202129 0.1000535 -0.17503868
0.0058422564 0.09414658 0.10182218 -0.1693799 -0.031287625 -0.12943919 -0.02890004 -0.11904719
-0.12951422 -0.09460635 -0.049953144 0.19773059 -0.09525609 -0.0039748237 -0.14872693 0.06624673
0.09228216 0.11325939 -0.016554397 -0.0100742495 -0.0970996 0.11930609 -0.25717494 -0.12627624

classifier.3.bias f4 [10]
00000000: 18a8 7c3f 3b77 313f 3209 9abe b715 23bd
00000010: 063b 12bf 978a 9cbd 6663 48bd d7b9 3abf
00000020: 05fa e93e 2f35 59be
0.9869399 0.69322556 -0.3008514 -0.03981563 -0.5712131 -0.076436214 -0.04892292 -0.7293982
0.45698562 -0.21211694
