day2/domain_adaptation/revgrad_48.pt (torch_old, 91045 bytes, 8 tensors)

feature_extractor.0.weight f4 [10, 3, 5, 5]
00000000: 1308 8f3e 23d6 cc3d 2a40 b73d c2b3 343e
00000010: 4890 53bd 68b9 89be 55cf 97be cd28 25be
00000020: 71e5 9cbe bcff babd 371d 14be 3d08 063e
00000030: 3041 abbd 7278 0d3d 32b4 623e 7d5b 1ebe
00000040: e2c5 343d 42ee cdbd fe4f 333e f7ef e03d
00000050: 2f89 0b3d 51e8 e53d 1ff5 653e 542f 193e
00000060: 10d5 a53d b766 a83e 6e9f 363e 8424 7b3c
00000070: 4e77 843d ed71 c5bc 1a16 8cbe fe90 d9bd
00000080: a5bf e0bd a4d4 83be 89f3 26be e280 26be
00000090: 699c 62bd 8625 debd f3fc 6bbe e164 1fbe
000000a0: 2306 c1be 140d 7bbe 744c 88be 1fae a2be
000000b0: 6bd3 73be fce9 08bf 6379 6ebe 71ad 43be
000000c0: 77f5 84be fee9 8bbe f79d a5be 280c 82be
000000d0: 9b37 a2be 8c87 51bd eb47 ba3d b0f0 283e
000000e0: c3e5 b23d ad53 213e e432 bc3e 34a0 b73e
000000f0: 9110 fe3e 9075 ed3e d039 d83e 4430 9d3e
00000100: 5f4b 1e3e 0d9a 003f 709e f83e 2fcf d43e
00000110: a002 373e 272b 8f3d e750 f73e bd7a fb3e
00000120: 6404 943e 487e 3e3e ceba 1d3e 0313 2fbb
00000130: b646 12bc 1340 dfbc a793 67be e1ea 41be
00000140: 7101 163e ae6e 20bd 1211 383d 2b64 69be
00000150: 0e71 e7bd 57f6 893e 36e7 ddbd 12a6 7c3e
00000160: 6e92 c5be b9f6 2b3e e500 d53d 2745 24bd
00000170: c2d9 2ebd 1a76 cdbe 8329 4c3e a381 4e3d
00000180: c41a 31bd a0d3 80be 941b 90bd 1b3e 603d
00000190: b920 28be 207c 57be e150 8ebc af6e 1ebe
000001a0: 38b4 353e 87fa 0fbe 13e6 bbbe 0470 99bc
000001b0: f2a1 dabd 8ff9 1e3e 4af8 24be bca2 4bbe
000001c0: 86dc bfbd 1a13 3fbd 3913 f73e 95c7 20be
000001d0: f7ea b4bd 41f6 e2bd e561 ef3d 0f36 6d3e
000001e0: f9aa 73be c5ee 7fbd 7c5f 9fbd 906b a83e
000001f0: 298e 7b3e af57 f13e 30fc b23e 544e 9d3e
00000200: d901 b43e 0256 123c 51ce a33e 3608 873e
00000210: 03b9 a23e 42b3 b83d 7633 90be 2935 a43e
00000220: 349b 7d3e 17dd 933e 0af7 88be 3846 7cbf
00000230: 6ae3 953e 8b63 bf3e 94e2 4a3e 9eaa 43be
00000240: 174e 4fbf ecb3 3c3e 9bb7 5f3e 126d 513e
00000250: 229e f0bd 0575 a1be f7e9 f4bd 4d98 c7bd
00000260: c09f 233c 64c5 063d 7bfd 3f3d a961 103d
00000270: c55d 8ebd 0856 a5be 3fc6 713e 7109 57be
00000280: 9b27 763d 0539 b4bd f85b a1be 2557 3b3e
00000290: d066 193d 9d2e c83d 6f08 fa3d 2f88 a6be
000002a0: 5fae 4e3d 827c 173d fc15 7b3e e6d0 433e
000002b0: d656 f7bd dfb7 6bbd 3ef2 2bbe 8d1a 9ebe
000002c0: 393d 37be eed5 f53b fc53 99bd 06ee c03d
000002d0: d2c5 f3bd 9108 6ebe bd93 92be d373 6ebc
000002e0: a400 debc 3ce1 d4bd 6e0f b5ba c4eb 93be
000002f0: 106b d83d e607 d7bd 1239 d53b c350 afbc
00000300: 42c5 e0bd 8001 5ebc cd3a 2ebd 3723 41bd
00000310: 5038 8c3c 1994 49be 11ac 1fbe 16a6 42be
00000320: fd70 f83e 8e24 083f 7a51 aa3e 4504 0c3e
00000330: 8684 42be 1b6e 883e b396 ba3e 9b9c c03e
00000340: 2e0b 3b3e 2e9b b7be 007e a43d 74e3 853e
00000350: 24b0 cb3e 98f1 8b3e 0cc7 69bd 4eaf 99be
00000360: 97af 963d 45e2 b43e 24b7 a43e 5cae 9a3e
00000370: 5a67 e5be 1f75 27be 6f83 e73e 07bb fb3e
00000380: 64e6 023f a435 09be c45f a8bd d3ce 01bd
00000390: 651b 9ebd a933 04bd 6ecf a53d 73fc 3bbc
000003a0: 917d 9d3c aeca 663c 74c5 a0bd a4c5 13be
000003b0: df62 7cbd 4de1 b139 0e74 883d c1a2 87bd
000003c0: 120c b0bb fdd8 043b 3ae6 20bd 8ace ba3d
000003d0: 97da 91bd 7e28 06bd b727 193d c56b 06be
000003e0: 32e6 44bc 2520 91bc c6a5 8f3d 8a67 53bc
000003f0: 815b 54bd 7525 eebc b50d 94bd bc02 8ebd
0.27935848 0.10001781 0.08947785 0.17646697 -0.05165127 -0.26899266 -0.2965037 -0.16128846
-0.306438 -0.09130809 -0.1446427 0.1308908 -0.08362043 0.034538694 0.22139052 -0.15464588
0.04413403 -0.1005521 0.17510983 0.1098327 0.034066375 0.112259515 0.22456788 0.1495946
0.08097279 0.32890865 0.17834255 0.01532853 0.06468068 -0.024102176 -0.27360612 -0.10623358
-0.10974053 -0.2574817 -0.16303839 -0.16260102 -0.055324946 -0.10847001 -0.23045711 -0.15565826
-0.37699994 -0.24516708 -0.2662083 -0.3177347 -0.23811118 -0.5348203 -0.23288493 -0.19109131
-0.25968525 -0.2732696 -0.3234708 -0.253999 -0.3168305 -0.05115466 0.090957485 0.16498065
0.0873523 0.15754576 0.36757576 0.35864413 0.49622014 0.46378756 0.42231607 0.30700886
0.1545844 0.5023506 0.48558378 0.4156432 0.17872095 0.069906525 0.4830391 0.4911708
0.289096 0.1860286 0.15403292 -0.0026714213 -0.008927992 -0.027252233 -0.22614919 -0.18937255
0.14648987 -0.039168052 0.044938155 -0.22792117 -0.1130086 0.26945755 -0.108351156 0.24672726
-0.3858828 0.16793336 0.10400561 -0.04010501 -0.04268814 -0.40129167 0.1993771 0.0504166
-0.043238416 -0.25161457 -0.0703651 0.05474673 -0.16418733 -0.21043444 -0.01737255 -0.1547191
0.17744529 -0.14060412 -0.3669897 -0.018730171 -0.1067542 0.15524887 -0.1611034 -0.19886297
-0.093682334 -0.046649076 0.48256853 -0.15701135 -0.088338785 -0.110821255 0.11688594 0.23165153
-0.2379569 -0.062483568 -0.07781884 0.32894564 0.24565949 0.4713721 0.3495803 0.30723822
0.3515766 0.008931639 0.31993344 0.26373452 0.31781778 0.09018566 -0.28164262 0.32071808
0.24766237 0.28879616 -0.26750976 -0.98544645 0.29275066 0.37380633 0.19812995 -0.19108054
-0.8097853 0.1842801 0.21847384 0.20451763 -0.117489114 -0.3153459 -0.11958688 -0.09745846
0.009986818 0.03290309 0.046872597 0.035249386 -0.06951479 -0.322922 0.23610781 -0.20999695
0.060096364 -0.08799938 -0.3151548 0.18294962 0.037451565 0.09774516 0.1220864 -0.32525775
0.050459262 0.036983974 0.24520105 0.19122657 -0.120771095 -0.0575484 -0.16791627 -0.30879632
-0.17894448 0.007502309 -0.07486722 0.09420399 -0.119029656 -0.23245455 -0.2862834 -0.014553982
-0.027099915 -0.103945225 -0.0013813803 -0.28890812 0.105672956 -0.104995534 0.0065070475 -0.021400815
-0.10975124 -0.013550162 -0.042536546 -0.047152724 0.017116696 -0.19685401 -0.15592982 -0.1900867
0.48523703 0.5318078 0.33265287 0.13673504 -0.18995866 0.26646504 0.364431 0.3761948
0.18265983 -0.3586058 0.08031845 0.26150095 0.39782822 0.2733276 -0.05707459 -0.3001656
0.0735771 0.3532888 0.32170975 0.3021115 -0.44805413 -0.16353272 0.45217463 0.49166128
0.511328 -0.13399369 -0.08221391 -0.031691384 -0.07720069 -0.03227583 0.08096205 -0.011473763
0.019224914 0.014086409 -0.07850161 -0.14430863 -0.06161773 0.00033927933 0.06662761 -0.0662284
-0.0053725326 0.0020270937 -0.03928206 0.091214254 -0.07121771 -0.03275346 0.03739139 -0.13127048
-0.012017773 -0.017715523 0.07014041 -0.012903104 -0.051845077 -0.029070595 -0.07229177 -0.06934115

feature_extractor.0.bias f4 [10]
00000000: 3ee7 17bf 66e2 65be 8c2b 9fbf 20a4 b1bd
00000010: 21f9 3fbf bafc 14bf 0316 d1be f4ba ebbd
00000020: 135c 33bf 6c6a ffbb
-0.5933722 -0.22449645 -1.2435164 -0.086738825 -0.74989516 -0.5819813 -0.40837106 -0.11510268
-0.7006237 -0.007794669

feature_extractor.3.weight f4 [20, 10, 5, 5]
00000000: 92ee 163f 4cc3 943e 41f9 c53d 6343 19be
00000010: dc23 4cbe da3c 5dbe ec26 78bd e995 753e
00000020: f192 4c3e bd49 9ebe 94a6 79be ac1f 3cbe
00000030: bc5f 843e c704 173f aba5 4c3e 3cb9 1ebe
00000040: 98ce 05bf fcd0 e6be cad6 ed3c 5b6d 98bd
00000050: 0f11 093e 7a77 3b3e 8ffe 5f3e 94ca 84bd
00000060: c6f8 113e 1610 43bd 61bd 153e 2542 64bd
00000070: 0bfb d4be 9af3 7ebe 3113 653e 5860 4ebb
00000080: 2813 053e 5355 57be 3524 4d3d 21c1 a3be
00000090: d993 f4bd aeab 753c df49 2b3d d571 d03d
000000a0: ecfa edbe c97d 05be e118 983e da37 3dbe
000000b0: 66b4 0dbe 0b0b 223e cdf2 f5bc e8ab 063d
000000c0: fa53 f0bc b09a 4a3e fb7d 5e3e 442d f0be
000000d0: cb49 f9be c247 12be 56da 8d3e 5c9d ad3e
000000e0: 89e8 0c3f bbec 1d3f b23c 903d 0de3 233e
000000f0: 9287 083e 99a1 c73e dbc7 703e 783d f03d
00000100: 1d73 03bf 47bb a2be 8fc0 353e aa87 443e
00000110: e9b1 723c 1543 95be 2f2c 393e 4df7 03bf
00000120: 600e 203d ad0b 12be 5ff9 0e3e 8b38 3dbb
00000130: 1679 14bd e268 67bc 518a 133d 66c1 443d
00000140: 800f 803d 11f1 8d3c f818 82bc 04c6 0bbd
00000150: 4201 c13c 5faf 75bd d07b 2bbd ea92 a33c
00000160: 28fa dd3c 89a6 66bd ba4e 0b3d 7751 3cbd
00000170: f334 6a3d 79af 723c 4a2a d9bc ced7 413c
00000180: ed52 e2bb 3299 22bd 2ced 31bc 0142 883c
00000190: 4499 36be e424 53bd d99e 113d be2b d63e
000001a0: 36c2 9abe dddd a23d 0ba8 a6be e891 0cbf
000001b0: 407f 06bd 5824 723d e6e1 b8be 23d4 a93d
000001c0: a721 8bbd f28b b8be c306 d7bd d8f0 643e
000001d0: b9de 883d 6de3 8fbe 8a05 91bd cd5e 633c
000001e0: a124 673e 558c 563b fe0d 58be a48b 173e
000001f0: 87d0 9cbd 54d1 1fbc 7a21 62be 1915 9abe
00000200: a0c3 19be 7ef4 b53e f1c8 4ebe 3e7c 69be
00000210: 5719 c4bd b9bc 333e e076 19bf 3438 19be
00000220: c30e 473d 8e0d 20be 236c 033f 50cc 703e
00000230: aadc 183f c2b0 e93d d3e1 85be b11f b93d
00000240: 90ad 55be a959 4e3d 100b d73c f0d3 cbbe
00000250: 6c64 703d 579f 523e 6218 9e3e 5e9a 4bbd
00000260: 9358 06be 6ade ae3e f33c b0be d01d 88bd
00000270: 1f02 903e cdc9 96bf f3a5 efbd f98e b1bd
00000280: fd02 10bd 2ef2 bc3e f539 0d3e 5e97 88be
00000290: d16d f7be 3e1e 86bd 6e85 4dbe 2bc6 35bd
000002a0: f977 073e b64a 6c3c 5b6a 31bf 91b2 2f3e
000002b0: d047 cd3c c24d 913d 690b fa3d 7588 1abe
000002c0: f217 5dbe 3eed 9e3d 3016 b13e aab5 ed3d
000002d0: 74ff 5a3d 7634 95be 64ef 073e c6cb debe
000002e0: bf94 a63d 3dd3 13be 92a8 4bbd c870 203f
000002f0: 8697 883e ab5d f0be e63e 023f 4e80 6fbd
00000300: 859f 773d afb3 63be 83f6 80be 024c be3e
00000310: 8eaf fbbd 50b2 4bbe 5c3f 99bd 5fab 0c3e
00000320: 3df5 fbbe 1e63 cdbd 71a0 67bd 81c6 2bbe
00000330: 0396 66be b3da dd3d ed06 893d f1ba 2b3e
00000340: f765 4d3e b706 5d3e 9f4d 4c3e 778b 88be
00000350: 2ce0 07bd d370 86be 6b3b 5b3e 2d70 d0bd
00000360: 7dae c93e bac3 ecbd 4605 6cbe 68e8 6ebe
00000370: f586 afbe 5429 e33d 68e7 1c3e 8725 7f3e
00000380: b728 363d e2a2 b93e 3e78 17be 838d df3c
00000390: e323 70be 2912 273e 3b0e 34bf d015 75be
000003a0: 0e4b 5e3e 4924 df3e b68d 1cbe 65bc fbbd
000003b0: f79c 42be 0935 00bf a6f1 e8be dafb 8dbe
000003c0: b27d 593e 6453 9cbe 09d8 a2be a87e c03e
000003d0: 1466 9f3e e5fa 353e 66b1 24be f179 643e
000003e0: a9f6 ab3d d3d2 e9bd ba4e 3a3f d10a 3f3d
000003f0: 1c42 96be e77c 94be de56 ddbd b195 693e
0.5895778 0.2905525 0.09666682 -0.14967112 -0.19935554 -0.21605244 -0.060583994 0.23982967
0.19977929 -0.30915633 -0.24379951 -0.18371457 0.2585429 0.58991665 0.19985072 -0.15500349
-0.5226836 -0.45081317 0.029033083 -0.07442733 0.13385414 0.18307295 0.2187445 -0.06483951
0.14255056 -0.047622763 0.14623024 -0.055727143 -0.4159778 -0.24897614 0.22370602 -0.003149053
0.12995589 -0.21028642 0.050083358 -0.31983283 -0.11942262 0.014994545 0.041818496 0.10177962
-0.464805 -0.13036264 0.2970648 -0.18478337 -0.13838348 0.15824525 -0.030023003 0.032878786
-0.029336918 0.19785571 0.21727745 -0.46909535 -0.48689112 -0.14285186 0.2770564 0.33909118
0.5504232 0.6168935 0.07042827 0.16004582 0.13332966 0.38990477 0.23513739 0.11730474
-0.51347524 -0.31783506 0.17749237 0.19192377 0.014812925 -0.29152742 0.18083261 -0.51549226
0.03907621 -0.14262266 0.13962315 -0.0028872814 -0.03624829 -0.014124127 0.03602058 0.048036
0.062529564 0.017326863 -0.015881047 -0.03412439 0.02356017 -0.0599817 -0.041866124 0.019967515
0.027096823 -0.056311164 0.034010626 -0.04597613 0.057179403 0.014812344 -0.026509423 0.011831237
-0.006906858 -0.03969688 -0.010859769 0.016633036 -0.17831904 -0.051548854 0.03555188 0.41830248
-0.30226296 0.07952473 -0.32550082 -0.54910135 -0.0328362 0.05911669 -0.36109847 0.08292415
-0.06793528 -0.3604427 -0.104993366 0.223575 0.06683106 -0.281032 -0.070811346 0.013877583
0.22572567 0.0032737453 -0.21099088 0.14799362 -0.07656961 -0.009754498 -0.22083083 -0.3009422
-0.15016031 0.35538095 -0.2019384 -0.22801301 -0.09575146 0.1755246 -0.59947014 -0.14962846
0.048598062 -0.1563017 0.5133688 0.23515439 0.59711707 0.11410667 -0.26148853 0.09039248
-0.2086699 0.050378475 0.026250392 -0.39810133 0.05868952 0.20568596 0.30877978 -0.049707763
-0.13119726 0.34154063 -0.344215 -0.06646311 0.28126618 -1.1780335 -0.11701574 -0.08669848
-0.0351591 0.36903518 0.1379164 -0.26677984 -0.4832597 -0.06548737 -0.2007043 -0.04437844
0.1322936 0.014422109 -0.6930291 0.17157961 0.025058657 0.07094909 0.122092076 -0.15091117
-0.21591166 0.07760094 0.3458724 0.11606915 0.053466275 -0.29141587 0.13274914 -0.43514842
0.0813384 -0.1443605 -0.049721308 0.6267209 0.26678103 -0.46946463 0.50877225 -0.05847197
0.060454864 -0.22236513 -0.25188074 0.37167364 -0.12289344 -0.1989224 -0.07482788 0.13737248
-0.4921054 -0.10028671 -0.056549493 -0.16774942 -0.22518162 0.10832729 0.06690774 0.16770531
0.20058428 0.21584593 0.19951485 -0.26668903 -0.03317277 -0.26257953 0.21409385 -0.10177646
0.39390936 -0.115607694 -0.23048887 -0.23330843 -0.34282652 0.11091867 0.1532265 0.2491666
0.044472422 0.36257082 -0.14791963 0.027289158 -0.2345119 0.16315521 -0.70334214 -0.23934102
0.21708319 0.4358237 -0.15288433 -0.12291793 -0.1900519 -0.50080925 -0.45496863 -0.2773121
0.21239355 -0.30532372 -0.31805447 0.3759663 0.31132567 0.1777149 -0.16083297 0.22312142
0.08396656 -0.11417165 0.7277638 0.046641175 -0.29347312 -0.29001543 -0.10807584 0.22811009

feature_extractor.3.bias f4 [20]
00000000: eb9b cebe 619a 9abd f748 65be bab4 853e
00000010: 15ab 7abf 4f57 293e 39b4 38bf 0ba1 94be
00000020: d374 89be 021a b73d 9abb 92be f225 9cbd
00000030: dcc9 e9be 35a8 6abe 125c 5f3c ba2a 373e
00000040: 767c 913e 802b ac3c b4ed 153d 9c7d 35bd
-0.4035333 -0.07548977 -0.22391115 0.26114446 -0.979173 0.16537212 -0.7215 -0.29029116
-0.26846942 0.089405075 -0.28658754 -0.07624425 -0.4566182 -0.22915728 0.013632791 0.17887393
0.2841527 0.021016836 0.036603644 -0.044309244

classifier.0.weight f4 [50, 320]
00000000: 484a 1abe 8b40 31be d2b2 3fbb 2de0 d9bd
00000010: 9d00 24be b876 d0be 60fb e5bd 83ae ae3e
00000020: 8938 15bd 56d0 463e 7f76 d93d b871 69bd
00000030: 2d0f 593d d3fe 013e 13dd 30be 9b7d 383c
00000040: 5b8a d3bd c714 96bd 729c 1dbc db2d e7bd
00000050: 7ca7 803e 4a32 aa3d 1101 3a3e 3ebc 7d3d
00000060: ec06 0fbd e1c7 cb3e 51e1 263d 20b5 b1be
00000070: 8ade 8abe fc7a b4be 3c37 64bd b875 39bd
00000080: 9e80 b03d 1649 d03e 92da 8cbe cc33 613b
00000090: d7c2 b7be 3829 4a3d bb29 06bd 8ee3 51be
000000a0: e363 eebd 64e6 c2bc 70cf 8f3e 21b3 2ebe
000000b0: 6ee7 2a3e 1530 833e 3fa0 c6bc dcde ddbb
000000c0: a354 283d 5801 06bd e2bd 1ebc b0ab ecbc
000000d0: 96d9 0abe cb89 8d3d c09e 12bc e681 643e
000000e0: a034 283e ec99 c23d 1b5d b9bd f2bc 373b
000000f0: 82ad 40be 3069 523e fa42 58bd dc6e 15bd
00000100: 17b7 943b 9fee c03c e2a1 7ebd b603 e33c
00000110: 64ab 04bd 5de9 be3e d76d 393d ffa2 52be
00000120: d15f 713e 83c3 643e 0919 9abc c3a5 343e
00000130: ad8e bbbe 2558 44be f4a5 d0bd b589 923c
00000140: 9c6e 11bf 06c2 01be a766 9e3d fb16 adbe
00000150: cbda 9bbe b864 153d 89e5 e53c 5388 b1be
00000160: f9a0 1f3e 28d1 2f3e a6e3 063e 37bb 49be
00000170: 3e87 0bbc 81fc cbbd 249b 1bbe a816 e73e
00000180: 3309 553e 145d 273e 619f bfbd 76b1 033d
00000190: de91 b0be b546 8d3c 1f2d 12bd cab0 e5be
000001a0: 512f 863e c259 833c ef38 053e efce b13e
000001b0: 4ce3 99bb fffe 053e 4b40 7d3d 4c3a 823d
000001c0: 7a27 0b3e 51c9 b93d 4504 bcbc d3ef 1f3e
000001d0: f86e a8be dfa7 3bbe 1785 993d af7f a7be
000001e0: f041 b1be a597 4f3d 1ada 0b3d b0ba 8bbe
000001f0: 062a 8f3c 0792 2e3e 62d0 b8bd aa7f 5d3e
00000200: 02b1 99be ce7e 653d 1890 03be 6dd8 f1bd
00000210: 5947 bfbe 9e52 d4bd 4231 ebbd d2ab 9bbe
00000220: 9bb3 44bd 98ec 653e dc2e 983b 7f1e 7ebe
00000230: 4315 af3d 0720 653e b343 373e d34f 043e
00000240: 0cef 1dbe be7c 083e 0d9d 9c3e 8d9f 683d
00000250: 9ccb 083f fa78 f1bd abfe b83d 42b5 f03b
00000260: 1ee8 b73e c413 46be 17d9 81be d489 923c
00000270: 9dd4 bdbd f18a 3d3e 1573 e2ba 0ff2 72bb
00000280: c3d1 6c3e 1ac8 e7bc a73c 0abc c577 94be
00000290: 6c3c 05be 0681 843e b8c8 293d 5e7a 663e
000002a0: c1c7 cebe 1a4e 25be a8f1 2c3c 5430 95bd
000002b0: dd40 0cbf fd4e c2bd b7c0 1c3d 457c debe
000002c0: 8324 503d 02ae d43d ea94 8f3e 7ae3 d03e
000002d0: 583f d6be 9ebe 9fbe 351b e43d 62f5 83be
000002e0: 027f 0cbf 44b5 ebbe 832f 67be b41a 6cbe
000002f0: 965e 973d 5a0e 963e d0f0 a13e ec2f 6b3e
00000300: 8f01 fabe bda6 5dbe 48bb fd3d 685c dfbe
00000310: 5d1a eebd abee aa3c eca0 5f3e 9b28 283d
00000320: 2e63 28be 3a88 303e 9cbe c43d 92f9 073e
00000330: 8585 84be ddd4 9a3c 30d1 de39 3ddc 23be
00000340: 141c 9cbe 672d eebe a077 0fbe 1828 833e
00000350: 3004 49be d435 02bd 128e 123e c50e 0fbd
00000360: 57ab 35be b34c 543e 353b 453e 7f0c 353d
00000370: 3ed6 c3be fd29 443e e6e9 a4be afd4 70bd
00000380: 1906 c43e c4f8 433d f652 7d3e 4340 d73e
00000390: 4382 abbe 881a 863e d5be 7bbe cadd 38be
000003a0: 3199 debe e276 9bbe 272d cbbe 6c80 00bf
000003b0: b84f 4a3d 9296 8e3d 41ad bd3d bea5 abbc
000003c0: 0ae5 a73e 9065 343e fa05 153d a08c cabd
000003d0: ca03 dc3d e706 d0bd 1528 8d3d 1f1c 9e3d
000003e0: 98f0 28be 194c e1be e136 9dbd 3c4f 0e3e
000003f0: acc5 4d3e 6920 a83d 48cc 033d e652 10be
-0.15067399 -0.17309777 -0.0029250872 -0.10638461 -0.16015859 -0.40715575 -0.112295866 0.34117517
-0.03643087 0.19415411 0.106183045 -0.056993216 0.05299299 0.12694864 -0.17271833 0.011260415
-0.103291236 -0.07328182 -0.009619819 -0.11288043 0.2512778 0.08310373 0.1816447 0.0619471
-0.03491871 0.39800933 0.040742222 -0.347085 -0.2712291 -0.3525008 -0.055716738 -0.04527828
0.08618282 0.4068076 -0.27510506 0.0034363149 -0.35890839 0.049355716 -0.03275464 -0.20496961
-0.11640146 -0.0237915 0.2808795 -0.1706052 0.16689846 0.2562262 -0.024246333 -0.0067709517
0.04109634 -0.032716125 -0.009688826 -0.02889046 -0.13559565 0.069110475 -0.008948982 0.22315177
0.16426325 0.095020145 -0.090509616 0.0028036204 -0.18816188 0.20547938 -0.05279825 -0.036482677
0.0045384276 0.023551283 -0.062166102 0.02771173 -0.032390013 0.37287417 0.045270767 -0.2056999
0.23571707 0.22340207 -0.018810766 0.17641358 -0.3663229 -0.1917425 -0.10187903 0.01788793
-0.568094 -0.1267167 0.07734423 -0.33806595 -0.30440363 0.036473006 0.028063552 -0.3467432
0.1558875 0.1716963 0.13172778 -0.19700323 -0.008516131 -0.09960271 -0.151959 0.45134473
0.2080429 0.163441 -0.09356571 0.03215166 -0.34486288 0.01724563 -0.035687562 -0.44861442
0.26207975 0.01603401 0.1301 0.3472819 -0.0046962854 0.13085555 0.061828893 0.063587755
0.13589278 0.09071601 -0.022951255 0.1561883 -0.32897162 -0.18325756 0.07496088 -0.32714602
-0.3462062 0.05068173 0.034143545 -0.2729087 0.017476093 0.17047893 -0.09024121 0.21630731
-0.3001786 0.056029133 -0.12847936 -0.11808858 -0.3735912 -0.103673205 -0.114840046 -0.30404526
-0.048022848 0.22453535 0.004644258 -0.24816321 0.08548977 0.22375499 0.17896919 0.12921076
-0.1542322 0.13328835 0.3058857 0.056792784 0.53435683 -0.117906526 0.09032949 0.0073458264
0.3591928 -0.19343477 -0.2536094 0.017887987 -0.092690684 0.18510033 -0.0017276729 -0.0037070548
0.23126893 -0.028293658 -0.008437312 -0.28997627 -0.1301133 0.25879687 0.041451186 0.22507617
-0.40386775 -0.16143075 0.010555662 -0.072846085 -0.54786474 -0.09487722 0.038269725 -0.43454185
0.05081607 0.10384752 0.280433 0.4079855 -0.41845202 -0.31200117 0.11138002 -0.2577315
-0.548813 -0.46036732 -0.22576718 -0.23057061 0.07391088 0.29307824 0.31629038 0.229675
-0.48829314 -0.21645637 0.12389237 -0.43625188 -0.11626122 0.020865759 0.2183873 0.04105435
-0.16444084 0.17239466 0.09606668 0.13278797 -0.25883117 0.01890033 0.00042498996 -0.16001983
-0.30490172 -0.46519014 -0.14010477 0.25616527 -0.19630504 -0.031789616 0.14312008 -0.034926195
-0.17741142 0.20732383 0.19260867 0.04420137 -0.3824939 0.19156642 -0.322097 -0.05879658
0.38285902 0.047844663 0.24738678 0.42041215 -0.3349782 0.26192117 -0.24584515 -0.18053356
-0.4347625 -0.30364138 -0.39682886 -0.50195956 0.049392432 0.06962313 0.09261561 -0.020953055
0.3279193 0.17616868 0.036382653 -0.09890103 0.1074291 -0.101575665 0.06892411 0.077202074
-0.16498029 -0.4400337 -0.07676483 0.13897413 0.20094937 0.08209307 0.03217724 -0.14094123

classifier.0.bias f4 [50]
00000000: 2792 2b3e b2ff 993e a963 4c3e f4c7 373e
00000010: 6630 043f f8b6 353f 95ce 3abf 206f aa3c
00000020: cfe2 303e 0c33 ad3e 3068 013f 293e b6be
00000030: cdc1 b5be 0776 0b3f e838 d93e d821 b53c
00000040: f664 3d3e a3b1 9dbd 962f 363f 21c7 01be
00000050: 6610 263f cf73 533e cff7 0bbe d230 113f
00000060: 0d71 0e3f b5e2 313c 4c4b 0d3f 905d 033d
00000070: 0f0a 423f 269b 8cbd 7444 173f bb2a 5cbe
00000080: 82c6 c2be ddd9 b2be 52b9 dd3e efe7 fe3e
00000090: 41d2 6f3f fc31 3a3f 160d b43e ac04 6cbe
000000a0: 25ae de3e 1c24 173f 23af 163f 9fff 753f
000000b0: 7974 5dbd 4f13 57bf 922a 6b3c 8ff7 0ebe
000000c0: 1a7d 25bf 6477 653f
0.16754971 0.30077893 0.19959892 0.1794737 0.5163635 0.70982313 -0.7297147 0.020804942
0.1727402 0.33828008 0.505496 -0.355943 -0.3549942 0.5447697 0.4242623 0.022110865
0.18495545 -0.07699897 0.7116636 -0.12673618 0.6486877 0.20649646 -0.1366875 0.5671512
0.5564125 0.010857274 0.5519302 0.03207165 0.757966 -0.0686553 0.59088826 -0.21500675
-0.38042074 -0.34931841 0.4330545 0.49786326 0.93680197 0.7273252 0.35166234 -0.23048657
0.43492237 0.59039474 0.5886099 0.9609317 -0.054066155 -0.8401384 0.014353411 -0.13961624
-0.64644015 0.896353

classifier.3.weight f4 [10, 50]
00000000: 8ff6 d13d 4a8e 92be f795 90be 35dc ef3d
00000010: 26e4 49be c835 27be ea16 ce3d bbfb 99bd
00000020: b897 c6bd 9b4a 893d a543 8cbd 5f0d 923d
00000030: 434c abbc 57c5 79be db65 b3bd 6931 773d
00000040: 9a49 653d 566e 4ebe 78f0 babd d09e 783d
00000050: cf65 933d 1a8f 0b3e b289 5abd fd9f 0abe
00000060: 7575 f7bd 54dc 3ebe b095 b53d 0b95 10bd
00000070: 6c88 16be 63ed 20be 6b23 6ebe 9062 933d
00000080: 2e9a 953d 30c2 debd 5dd9 55be e769 a43d
00000090: ddad 62be 6d1b 06be c5f5 733d 7057 40be
000000a0: 0809 213d 025e bdbd b712 49bb eba1 0ebf
000000b0: 7ce6 cf3d 7659 e1bd 5a18 b73c 608c acbd
000000c0: 5fd0 93be b9a9 88bd 291a 07be faa3 9a3d
000000d0: 6e41 27bd e8d2 ddbc 99de 803d e630 363d
000000e0: 8f4e c93c 88bb 04be 4678 cf3d f97c 5e3d
000000f0: cb83 b7bc b209 7abd 4285 7fbd 231e 68bd
00000100: 885f 65bc 5b04 c23d 02e4 77bd 9f0d 8bbd
00000110: 2c64 c63d d020 63be 5394 8e3d 3f83 04bd
00000120: 4910 28be c3c3 e6bd 2383 c9bd 8ebb 0a3e
00000130: 4a74 e13d f58f 9a3d 2703 123d 6ca4 70bb
00000140: 7df2 0fbe 9dbe 34be 1ed4 a4bd 5b7a 4cbe
00000150: 1482 b13d 5c4c e0bd 65e1 d33d 4448 103d
00000160: 3090 9ebd d86b a33d f706 c7be d85e cf3d
00000170: b5a9 013e 3ee5 463e d366 15be a36f 14be
00000180: e787 9fbe d39c 5fbe f275 0ebe 2244 0d3e
00000190: 7adb 9d3d 5ea1 9fbd 2cf9 f0bd 74d7 be3d
000001a0: 6b42 8abd 221d 59bd ba2b 7fbb 926d 7bbd
000001b0: dbd5 033e 6951 8e3d 7c5b 6f3d 1205 c83d
000001c0: e782 073e 3169 1abd 37d2 9e3d 5b53 fabd
000001d0: 73c2 a73c 6106 2d3d 8f78 f73d 71c3 fbbd
000001e0: d719 32be ed3a b23d 59c8 68bd 0e41 943a
000001f0: 430a f83c 0309 83bd 5cb3 a53d 4d95 dc3d
00000200: d60b 803d 3c69 e03d c2e0 28bc d417 553d
00000210: f3ad f3bd 4344 823d 0696 aebd 2bfc eabd
00000220: ba17 f43d 9fb0 ea3c 2a02 4d3d 90f3 3bbd
00000230: af21 97bd 0baa 113e 2079 23bc 00dc 04bc
00000240: 9e52 e03d 8a90 8cbd 7dbf 20be 768b 38be
00000250: 1733 a9bd e36a deba add2 9dbd f500 c2bc
00000260: e83b dfbd 4ff7 62bc 38d7 8bbe d83b 52be
00000270: 35f8 1a3e 2f4b c33d 1363 163e b567 0ebe
00000280: 627c cabd beef d13d cddb 103e 1bbc 1a3e
00000290: 8019 ad3d 9592 cfbd 6f86 e8bd 01af d33d
000002a0: ab26 89bd c7c6 e8bd 7b0c 0fbe c91a f53d
000002b0: fa30 12be a0d7 d33d 4b1f d1bd 88c3 adbd
000002c0: d89c 71bd 491e d53d a226 3bbd 7cef f93d
000002d0: 6ed4 39bd 6196 b43d ba85 adbd 2220 e4bd
000002e0: cf77 fbbd 95c2 eabd 57e2 c4bc e7cd 953d
000002f0: b1df f7bc ce90 873d bf77 82bd 6a2f fd3d
00000300: fc73 47bd 8ec0 e5bc 5646 283d f6b6 dd3d
00000310: a16a eabd 76f0 cfbd 003a d33d 36e4 1ebd
00000320: afdf f63d ffd7 19bd 9ca7 ab3d 1cda dbbd
00000330: dfb1 6b3d 7cbc 3e3d 4935 2e3c 7c53 debd
00000340: eeec dcbd dfb2 813b dacb 763d d2c8 e03d
00000350: 9b93 0ebd ca7f 1d3e db6d 793d 22dc c63d
00000360: 159f 213d e40d d73d 8a27 a33b 5a6c 0fbd
00000370: 1d92 f3bd 5f39 b4bd 9cc7 0f3d a187 a83d
00000380: f2d8 603d 98d2 f33d dd0f 16be 0175 7cbd
00000390: 1215 b4bd 442d 81bd 7076 c63d 424d 10be
000003a0: ed87 3fbc ee52 9f3d 8eef f93d 084e e0bd
000003b0: b7fa 87bd 8f12 8bbd 008a c1bd 76d4 53bd
000003c0: 2758 f0bd bac8 f4bb 566f 1dbd 5aae 383e
000003d0: b25f 8abd 08e4 333c 12d1 82be 8735 223d
000003e0: 74d9 c13d 7663 b93d 26ba 1d3c 30e5 a8bd
000003f0: bc07 08be a564 013e 07bc 89be 47e1 c4bd
0.102521054 -0.28624183 -0.28239414 0.11711923 -0.19715938 -0.1632911 0.10062964 -0.07518717
-0.09696907 0.06703683 -0.0684884 0.071314566 -0.020910388 -0.24391685 -0.08759662 0.060349856
0.055978395 -0.20159277 -0.09127897 0.06069833 0.07197153 0.13628808 -0.053353973 -0.13537593
-0.1208295 -0.18638736 0.08866441 -0.03529839 -0.14700478 -0.15715556 -0.23255698 0.07196534
0.07304798 -0.10876882 -0.20883699 0.08028012 -0.22136636 -0.130964 0.059560556 -0.18783355
0.039315253 -0.09246446 -0.003068132 -0.5571582 0.10151383 -0.110033914 0.022350479 -0.08425212
-0.28869912 -0.06672997 -0.13193573 0.07550807 -0.040833883 -0.027078107 0.06292457 0.044480227
0.024573592 -0.12962162 0.10130362 0.054318402 -0.022401711 -0.061044402 -0.062382944 -0.056669366
-0.013999827 0.09473487 -0.06052018 -0.067897074 0.09687075 -0.22180486 0.06961884 -0.03235173
-0.16412462 -0.11267807 -0.098394655 0.13548109 0.110085085 0.07546989 0.035647538 -0.0036719097
-0.14057346 -0.17650838 -0.08048271 -0.1996855 0.086673886 -0.109520644 0.10345725 0.035225168
-0.07742345 0.07979554 -0.388725 0.10125512 0.12662394 0.19423386 -0.14590006 -0.14495711
-0.31158373 -0.21837167 -0.1391218 0.13795522 0.077078775 -0.0779445 -0.11766276 0.09318438
-0.067509495 -0.0530063 -0.0038935975 -0.06138379 0.12874548 0.069491215 0.058436856 0.09766592
0.13233529 -0.037697975 0.07754939 -0.1222293 0.020478463 0.04224241 0.120835416 -0.12293137
-0.1739267 0.087026455 -0.05683169 0.0011310892 0.03027833 -0.06398203 0.08090851 0.10770664
0.062522575 0.10957572 -0.010307493 0.052024677 -0.118984126 0.06360676 -0.085247084 -0.114738785
0.11918588 0.028648673 0.050050892 -0.045886576 -0.073794715 0.14225022 -0.009977609 -0.008109093
0.10953258 -0.06863506 -0.15698047 -0.1802195 -0.08261698 -0.0016969111 -0.07706199 -0.023682097
-0.10900098 -0.013852908 -0.27312636 -0.20530641 0.15133746 0.095358245 0.14686231 -0.13906749
-0.098870054 0.10250805 0.14146347 0.15110819 0.08452129 -0.1013538 -0.11353766 0.10336114
-0.066968285 -0.11366039 -0.13969605 0.119679995 -0.14276496 0.103438616 -0.10211047 -0.0848456
-0.05898747 0.10406167 -0.04569114 0.12203881 -0.045368604 0.08817745 -0.08472772 -0.11138941
-0.12278711 -0.11462895 -0.024033708 0.073146634 -0.030258032 0.06619416 -0.06370496 0.12362559
-0.048694596 -0.028045919 0.041082703 0.10825913 -0.11446119 -0.10153286 0.10313797 -0.038791858
0.12054383 -0.037559506 0.08381578 -0.107349604 0.057542678 0.04656647 0.010632821 -0.10855767
-0.10787378 0.0039580907 0.060253 0.109758034 -0.034808736 0.15380779 0.060895782 0.09709956
0.039458353 0.10500696 0.0049790787 -0.03501544 -0.11893103 -0.08800005 0.03510247 0.08228994
0.054894395 0.11905402 -0.14654489 -0.06163502 -0.08793081 -0.06307462 0.09690559 -0.14091972
-0.011690122 0.077794895 0.122038946 -0.10952383 -0.06639617 -0.06790649 -0.094501495 -0.05171629
-0.11735564 -0.0074702175 -0.038436256 0.1803526 -0.06756534 0.01097966 -0.25550133 0.03960183
0.09465304 0.09052174 0.009626901 -0.08246839 -0.132842 0.12636049 -0.26901266 -0.09613281

classifier.3.bias f4 [10]
00000000: 3acd 743f f3b4 2c3f b3c1 b4be 5d75 2fbd
00000010: 8605 11bf e4e2 643b 0db4 973c 5c9b 3bbf
00000020: 2965 c63e 7d8f 41be
0.9562565 0.67463607 -0.3530403 -0.042836536 -0.56649053 0.0034925276 0.018518472 -0.73283935
0.38749054 -0.18902393
