day2/domain_adaptation/revgrad_38.pt (torch_old, 91045 bytes, 8 tensors)

feature_extractor.0.weight f4 [10, 3, 5, 5]
00000000: 39a6 5b3e ed84 833d 76a6 953b 6c65 133e
00000010: 762e bcbb 1ff0 83be a075 8bbe d368 f5bd
00000020: dc1a adbe 7e8c 07be 259e 31be 31b5 723d
00000030: 9999 93bd 1047 2a3c 13db 483e 01e3 3abe
00000040: 64b0 da3c 9396 68bd 5323 5b3e f095 c33d
00000050: 7e37 2ebd df02 953d 68ce 633e e058 563e
00000060: b86b c73c 06b5 9d3e 0995 273e 4e6f 5abd
00000070: f10e 563d ca0d f53c 051b 7abe b980 b2bd
00000080: 8e59 a8bd 591a 92be 786a 2cbe 9811 33be
00000090: 0d22 e4bd a2c0 e2bd 9c6c 7abe b7e6 11be
000000a0: 5e38 b4be f525 84be 6a91 7fbe 9a7e 95be
000000b0: 3c9b 54be ec99 04bf 7a0f 78be 5601 50be
000000c0: 1742 4ebe 44a1 8dbe 7501 bebe 244e 8abe
000000d0: 3973 c0be ccc3 8bbd 1ffe c33d 3b2d 103e
000000e0: 987f cc3d d134 4c3e a093 993e 701b a93e
000000f0: 3581 db3e ed3d d83e ca2f df3e d360 a83e
00000100: 23c0 2a3e 5393 e63e a88f f03e 32c5 e33e
00000110: 6ab2 823e 86f1 e53d 8926 f93e 0c98 063f
00000120: df19 8a3e ffd6 8a3e c238 263e 9ac3 2cbd
00000130: 21eb 75bd 19b2 72bd 31f5 56be a50d 1abe
00000140: 305f b63d 14d6 82bd 4b7b 20bc de55 59be
00000150: d12a 2bbd 378d 493e 1ee7 c8bd ef31 4d3e
00000160: 3f9a 91be 30e5 563e f8a9 533d e946 94bd
00000170: 2d38 06bd 7981 9ebe 602d 2e3e da53 eb3b
00000180: fa5e 3ebd 871a 70be 68e7 66bd 1736 813d
00000190: 7293 09be 50e2 4abe f422 b7bb 44ee 09be
000001a0: fde1 2d3e 36ca f9bd 181f aabe 7a32 8bbc
000001b0: bc9f d0bd f64e 223e e463 2dbe 533a 15be
000001c0: 566d e9bd 4767 ba3b 01d6 e83e 6d4d 06be
000001d0: 7683 95bd f21c c2bd aad8 093e 7ef8 2f3e
000001e0: ac96 52be 32b6 36bd 1cfa 9ebd 1b38 973e
000001f0: 285d 633e ab4c f23e 9df6 9c3e 10f3 943e
00000200: 9ab0 a63e 8ae8 09bd 0541 9f3e 1327 803e
00000210: c77d a13e 145e d13c 3c44 90be 549f 903e
00000220: 2f76 893e 2637 943e 6e99 7cbe e558 6abf
00000230: 824b 903e 2154 b83e e6c6 513e 8abd 3fbe
00000240: a442 49bf f60f 2d3e 299e 4d3e 93b6 433e
00000250: d478 14be f752 babe 354e 85bd e12f d3bd
00000260: a503 05bc 405c 733d aa3b 953d 8581 e73b
00000270: 5036 6abd cba7 92be d2c5 723e e09b 12be
00000280: 75ba 363d 521f 94bd 9aeb 88be c767 383e
00000290: a3e0 823d b78c 453d 6e02 063e 66be 97be
000002a0: 3727 993d 4ef6 613d 01a4 413e 7171 113e
000002b0: 1b46 19be 95d7 77bd 8cbe 28be 4ab8 84be
000002c0: 57b4 48be f3bf cdbc 6856 8bbd e004 ad3d
000002d0: 2935 26be 0a35 80be 1ad0 86be b25e 8cbc
000002e0: 7df2 abbc cab9 03be 3960 0c3b d744 87be
000002f0: a53e c33d ec70 f3bd 51cb 78bd a956 afba
00000300: 9d9c b1bd 1380 5f3b 5f2f 22bd f1ff 03be
00000310: d1dc 2c3c e652 4ebe 45c3 1abe c81d 45be
00000320: 3de3 083f 97e6 063f a4c0 8f3e f43f 1b3e
00000330: 399f 0dbe aed7 7a3e 2f2f a53e 6d6c ab3e
00000340: 11e2 353e 42f9 b3be 0942 c33d 6c01 823e
00000350: 0ae3 b83e 7e30 903e 7465 74bd 2913 87be
00000360: 4203 173e 2367 b43e b65c b43e 9085 a23e
00000370: 5b6c d0be e054 85bd 1f50 e23e 7584 ef3e
00000380: 8622 e33e a435 09be c45f a8bd d3ce 01bd
00000390: 651b 9ebd a933 04bd 6ecf a53d 73fc 3bbc
000003a0: 917d 9d3c aeca 663c 74c5 a0bd a4c5 13be
000003b0: df62 7cbd 4de1 b139 0e74 883d c1a2 87bd
000003c0: 120c b0bb fdd8 043b 3ae6 20bd 8ace ba3d
000003d0: 97da 91bd 7e28 06bd b727 193d c56b 06be
000003e0: 32e6 44bc 2520 91bc c6a5 8f3d 8a67 53bc
000003f0: 815b 54bd 7525 eebc b50d 94bd bc02 8ebd
0.21450128 0.06421838 0.004566963 0.14394158 -0.0057428433 -0.25769135 -0.27238178 -0.11982884
-0.33809555 -0.13237187 -0.17345484 0.05925483 -0.07207031 0.010392919 0.1961482 -0.18250658
0.026695438 -0.056784224 0.21400194 0.09550083 -0.04253339 0.07275938 0.22246706 0.2093234
0.024343356 0.30802172 0.16365446 -0.053328805 0.052260343 0.029913802 -0.2442437 -0.08715958
-0.08220206 -0.28535727 -0.1683749 -0.1748718 -0.11139307 -0.11071898 -0.24455494 -0.14248167
-0.35199255 -0.2581021 -0.24957815 -0.29198152 -0.20762342 -0.51797366 -0.24224654 -0.2031301
-0.20142399 -0.27662098 -0.37110487 -0.27012742 -0.37587908 -0.06824455 0.09569954 0.14079754
0.09985274 0.19942023 0.2999544 0.33028746 0.42872015 0.42234746 0.43591148 0.3288637
0.16674857 0.45034274 0.469846 0.44486386 0.25526744 0.112277076 0.48662212 0.52575755
0.26972863 0.27117154 0.16232589 -0.042178728 -0.06003869 -0.05925188 -0.2099197 -0.15044267
0.08904874 -0.063884884 -0.00979502 -0.21224162 -0.04178888 0.19682775 -0.09809707 0.2003858
-0.28437993 0.20985866 0.051675767 -0.072400875 -0.032768417 -0.30958155 0.17009497 0.0071816267
-0.046477295 -0.2344762 -0.05637303 0.06309145 -0.13435152 -0.19812894 -0.0055888835 -0.13469797
0.16980739 -0.12196772 -0.33226848 -0.016991843 -0.10186717 0.15850434 -0.16932636 -0.1457303
-0.11397807 0.005688581 0.45475772 -0.13115473 -0.07300465 -0.09478177 0.13461557 0.17184636
-0.2056529 -0.04460735 -0.07762548 0.29534993 0.22203505 0.47324118 0.306569 0.29091692
0.3255661 -0.033669032 0.31104293 0.2502981 0.31541273 0.025557555 -0.2817706 0.28246558
0.2684798 0.28948325 -0.24667904 -0.9154189 0.28182608 0.36001685 0.2048603 -0.18724647
-0.7861731 0.1690062 0.20079865 0.19112615 -0.14499217 -0.36391422 -0.065090574 -0.103118666
-0.008118545 0.05941415 0.07286771 0.0070650005 -0.057180703 -0.2864364 0.23708275 -0.14317274
0.044611413 -0.072325364 -0.2674225 0.18008338 0.06390502 0.0482299 0.13086864 -0.2963745
0.07478183 0.055166535 0.18910219 0.1420343 -0.1496815 -0.06050833 -0.16478938 -0.2592185
-0.19600044 -0.025115943 -0.0680359 0.084481955 -0.16231216 -0.25040466 -0.26330644 -0.017134998
-0.02098965 -0.12863842 0.0021419658 -0.26419708 0.09533433 -0.118867725 -0.060740773 -0.0013377267
-0.0867245 0.0034103438 -0.039595958 -0.12890603 0.010550694 -0.2014881 -0.15113552 -0.19249642
0.5347174 0.526956 0.2807666 0.15161115 -0.1383027 0.24496338 0.3226256 0.3348116
0.17762019 -0.35151106 0.095340796 0.2539171 0.36110717 0.28161997 -0.059667066 -0.26381806
0.14747337 0.35234937 0.35226983 0.31742525 -0.4070767 -0.06510329 0.44201753 0.46780744
0.44362277 -0.13399369 -0.08221391 -0.031691384 -0.07720069 -0.03227583 0.08096205 -0.011473763
0.019224914 0.014086409 -0.07850161 -0.14430863 -0.06161773 0.00033927933 0.06662761 -0.0662284
-0.0053725326 0.0020270937 -0.03928206 0.091214254 -0.07121771 -0.03275346 0.03739139 -0.13127048
-0.012017773 -0.017715523 0.07014041 -0.012903104 -0.051845077 -0.029070595 -0.07229177 -0.06934115

feature_extractor.0.bias f4 [10]
00000000: 742f 15bf d981 48be 794e 96bf 20a4 b1bd
00000010: 30f5 31bf c33f 15bf 7777 b6be ac99 09be
00000020: ccc0 2cbf 218b 2b3c
-0.5827553 -0.19580783 -1.1742698 -0.086738825 -0.6951475 -0.5830042 -0.3563802 -0.13437527
-0.67481685 0.010470183

feature_extractor.3.weight f4 [20, 10, 5, 5]
00000000: 2ba6 053f eb8c 893e 0789 213e 0f32 f8bd
00000010: fcb4 e7bd 7c9d 00be 595e b13d c601 523e
00000020: 241c 2e3e a99f 89be 5ed3 b8be 0b29 dfbd
00000030: 4865 723e 9159 133f 947c 293e 37fa 38be
00000040: 65e0 e4be 1a55 c2be bdd4 d63d d894 21bd
00000050: 58f6 f63d 4452 df3d 20f9 c93d 160c afbd
00000060: 6507 033e da6e 013e 8e80 073e 25a6 febc
00000070: 6924 ccbe 6088 5cbe a323 3a3e 9fb7 d6bd
00000080: a7c8 4b3d fbdc 47be 2a1a 7e3c 0c00 8ebe
00000090: 3af9 04be 3250 473c a48d d33c 2eee 153e
000000a0: 9ae5 d6be 6bd3 ccbd b668 7b3e e620 00be
000000b0: 3f2b 6cbd 2f09 2f3e 661f c8bb 8d49 5d3c
000000c0: 3eab 9f3b 55d7 483e 2087 813e 7725 9cbe
000000d0: b72f 18bf d1e5 d0be d601 b83e f4c1 b63e
000000e0: 4fec df3e 0370 eb3e b01e 273e 008a ac3e
000000f0: d94f 3fbd 98b5 b63e 0646 aa3e 6b10 903e
00000100: 320f dcbe fab2 b9be 1533 103e 3c13 713e
00000110: d094 81bd bc30 b1be 6d28 9d3d b846 f6be
00000120: 3c62 15be f5c3 a3be d44a cebb 8b38 3dbb
00000130: 1679 14bd e268 67bc 518a 133d 66c1 443d
00000140: 800f 803d 11f1 8d3c f818 82bc 04c6 0bbd
00000150: 4201 c13c 5faf 75bd d07b 2bbd ea92 a33c
00000160: 28fa dd3c 89a6 66bd ba4e 0b3d 7751 3cbd
00000170: f334 6a3d 79af 723c 4a2a d9bc ced7 413c
00000180: ed52 e2bb 3299 22bd 2ced 31bc 0142 883c
00000190: 9558 62be c65b 5abd b665 5d3d da66 d13e
000001a0: 10c2 6ebe cfb5 e03d 9ece 8dbe 4a57 05bf
000001b0: 1bc9 b4bd 68ee 0d3e 89e3 86be c9a4 d03d
000001c0: 238d 28be a010 ddbe 119a d1bd b56e 1b3e
000001d0: e3e7 b73d 3c1d 26be a427 8abc 7cd5 afbc
000001e0: 4ed5 ac3e 6ab3 ef3c ebb1 20be 6349 f53d
000001f0: 39e0 e8bd 8ce4 79bd 9b8b 49be 0818 80be
00000200: 0b53 81be 9743 003f 70c2 55be 9fe9 e6bd
00000210: db6d 59bd bb42 463e 7416 31bf 1599 51bd
00000220: a22b 9d3d 2ede 8fbd 18a2 cb3e 9c95 553e
00000230: d164 0d3f 5dcd de3d 616c 19be 921d 1a3d
00000240: 017b 89be ca43 583d 494e ba3d 8ebf 9cbe
00000250: 40fa 8d3d 1012 363e 7f0e c93e 60ba a23d
00000260: b99c d4bd 0801 a33e ffbe 0ebe e0be 94bc
00000270: af5f 103e a4b3 71bf 1794 cfbd 30e3 833d
00000280: c140 30be 538d 093f 0030 ba3e 7147 82be
00000290: 3e3f 9ebe 0a86 e8bd 6d90 83be e7b4 f9bc
000002a0: fa04 fd3d 98b6 f63d f256 efbe 0323 843e
000002b0: 688c 553b f8c2 c23d c7f1 b43d 0494 36be
000002c0: ace7 96be 37bf 563d 4549 a93e 367c 853e
000002d0: 7dc9 893d 402f 84be 1734 673d a663 edbe
000002e0: a117 9abc e7b4 92bd 5001 fb3d 55c1 033f
000002f0: fa7d 313e 9017 b9be 3b0d fe3e b746 e8bc
00000300: ed97 e23d 6a8d 12be fc1e 58be 7880 d73e
00000310: ec29 85bc 9ded a8bd 81c9 1ebd c7c7 f73d
00000320: fbf5 efbe 8f53 17be 41b3 c4bd 9631 e4bd
00000330: 5cfe ecbd e3a7 233d bb30 e4bc c284 333e
00000340: 6edf 3b3e c614 493e 951b 723e 3a1e 61be
00000350: 1a21 33bd 6ea6 84be 38b1 bf3d 31f5 b0bd
00000360: 16f0 ac3e b0ad 48be f95f 15be 45e3 5abe
00000370: edb2 f6be 0340 e33c ca18 6d3e 62b7 d63d
00000380: 3c01 0e3e c179 593e 25a8 86be 56e8 a13c
00000390: 2a54 b7be 8ae0 5f3e df45 07bf 9020 debd
000003a0: ff04 4f3e e5b6 783e 5e4d 78be 9f95 2fbd
000003b0: c87b babe 7977 33bf 4388 d0be 664d debd
000003c0: 6628 0a3e e1e3 d2be 0731 3abe acc9 113f
000003d0: 4775 823e 831c aa3e a88c f43d b074 053e
000003e0: 907a c03d 3f9d a5bd bfb9 123f daa0 94bb
000003f0: 96fa a7be 46c6 90be 21c7 363d 403c 693e
0.5220668 0.26865324 0.15774928 -0.12118923 -0.11313817 -0.12560076 0.086605735 0.20508489
0.17002922 -0.26879624 -0.3609876 -0.108965 0.23671448 0.5755854 0.16551429 -0.180642
-0.4470245 -0.37955552 0.10489795 -0.03944859 0.12058705 0.10904363 0.0986197 -0.08547227
0.1279579 0.12639943 0.13232633 -0.031085083 -0.3987153 -0.21536398 0.18177657 -0.10484242
0.049751904 -0.19517891 0.015509168 -0.2773441 -0.12985697 0.012165116 0.025824375 0.1464164
-0.41972047 -0.10001262 0.24551663 -0.1251255 -0.05765843 0.17093347 -0.0061072586 0.013506305
0.0048727086 0.19613393 0.25298405 -0.30497333 -0.5944781 -0.40800336 0.359389 0.3569485
0.43734977 0.45983896 0.163203 0.33699036 -0.046707008 0.3568542 0.3325655 0.28137526
-0.42980343 -0.3626936 0.14081986 0.23542494 -0.06327212 -0.34607494 0.07673726 -0.4810083
-0.14588255 -0.3198544 -0.0062955413 -0.0028872814 -0.03624829 -0.014124127 0.03602058 0.048036
0.062529564 0.017326863 -0.015881047 -0.03412439 0.02356017 -0.0599817 -0.041866124 0.019967515
0.027096823 -0.056311164 0.034010626 -0.04597613 0.057179403 0.014812344 -0.026509423 0.011831237
-0.006906858 -0.03969688 -0.010859769 0.016633036 -0.22104104 -0.05331018 0.054052077 0.40898782
-0.23316216 0.10972177 -0.276967 -0.5208632 -0.0882742 0.13860476 -0.2634547 0.1018768
-0.1646009 -0.43176746 -0.10234464 0.1517895 0.08979776 -0.1622209 -0.016864605 -0.021464102
0.3375649 0.029260356 -0.1569287 0.11976888 -0.11370892 -0.061008975 -0.19682162 -0.25018334
-0.2525867 0.50103134 -0.20874953 -0.112750284 -0.053083282 0.19361393 -0.69174886 -0.05117138
0.07674338 -0.07024799 0.39772105 0.20857853 0.5523196 0.10879014 -0.1498275 0.037625857
-0.26851657 0.052799024 0.09096963 -0.30614895 0.06932497 0.17780328 0.39268872 0.079457045
-0.10381455 0.31836724 -0.13940047 -0.018157423 0.14099 -0.94414735 -0.10135668 0.06439817
-0.17212202 0.5373127 0.36364746 -0.2544513 -0.30907625 -0.11353691 -0.25696126 -0.030481769
0.12354465 0.12046546 -0.46746022 0.25807962 0.003258491 0.095098436 0.08835178 -0.17829901
-0.29473627 0.05242845 0.33063713 0.26071328 0.06727884 -0.258173 0.05644616 -0.46365088
-0.018810095 -0.07163411 0.1225611 0.51466876 0.17333212 -0.3615079 0.4961947 -0.028354032
0.11064134 -0.14311758 -0.2110557 0.420902 -0.016255341 -0.08248446 -0.038766388 0.120986514
-0.46867356 -0.14777969 -0.096045025 -0.1114227 -0.11571953 0.03995503 -0.027855268 0.17531112
0.1834695 0.1963683 0.23643334 -0.21984187 -0.04373274 -0.25908226 0.09359974 -0.086405165
0.3377692 -0.19597507 -0.14587392 -0.21375759 -0.48183385 0.027740484 0.23153988 0.10484196
0.13867658 0.21237852 -0.2630016 0.019764107 -0.358064 0.21862999 -0.5284099 -0.108460546
0.2021675 0.24288519 -0.24248263 -0.0428673 -0.36422563 -0.70104176 -0.4072896 -0.10854606
0.13491973 -0.41189483 -0.18182765 0.5694835 0.254801 0.33224878 0.119408906 0.13032794
0.09398377 -0.08086633 0.57314676 -0.0045357766 -0.3280837 -0.2827627 0.044623498 0.2277689

feature_extractor.3.bias f4 [20]
00000000: 6f37 c5be 46e9 00bb a81d 9bbe 2116 863e
00000010: 8bb1 43bf 02fb f2bc fd3c 26bf d317 80be
00000020: 504d 00be d36c f73d ba5e 64be c0ed 92bd
00000030: f229 dbbe 7711 95be 04fb 56bd 698a 983d
00000040: eaf2 de3d dabe cb3c 8947 463d f033 cabd
-0.38518855 -0.0019670292 -0.30296063 0.26188758 -0.76442784 -0.029660705 -0.6493681 -0.25018176
-0.12529492 0.120813034 -0.2230176 -0.071742535 -0.4280544 -0.29114887 -0.05248548 0.07448275
0.10886176 0.024871279 0.048408065 -0.098731875

classifier.0.weight f4 [50, 320]
00000000: b2b0 44bb 692a bebd 07e0 28be 3e59 17be
00000010: 6949 bcbe 3d5c 78be 1b7c 34be 02ff 533e
00000020: ed60 3cbe e255 2e3e 7a8c 143e 9c04 0e3d
00000030: e83d a53c 7128 3abc 7cda 21be e075 943d
00000040: e0e7 f6bd e901 83bc 3322 b4bd 9116 75bd
00000050: c5ff 703e 1902 393e dc55 d23d bc55 7a3d
00000060: 750b 0a3e 37ba 9b3e f86a a43d 144c c0be
00000070: 2960 7cbe bcca 65be 4654 58bd 230c 42bd
00000080: 2c36 673e 471e 953e 11ea 7bbe 1a08 37bc
00000090: d57c 68be df78 d53a a457 20be f4bd 5bbe
000000a0: e4f8 c3bd fe69 c1bd 0fb6 7f3e 7428 5cbe
000000b0: 045d a13d a7d7 883e f5b8 ee3b e266 8fbd
000000c0: 299c bb3d a7ad ccbc e731 873c be9b 4d3d
000000d0: c73f 68be 993e 353d 6458 02be 8976 d43d
000000e0: 2712 073e 2b3a bb3c 49e1 e4bd 5e32 4e3d
000000f0: aa63 82be a507 253e 6580 aebd 5a13 62bc
00000100: 1734 273e 0eb3 643b 1d01 1ebe 8760 c93d
00000110: 4999 693b 2ea9 b03e cc86 363c 7ac4 2fbe
00000120: d5f6 233e 8123 413e a2ba 2c3c e394 7a3e
00000130: 6b87 a9be 0837 193c 8612 7abd 8faa 54be
00000140: d796 e1be 9266 fabd e10a e63d e939 2ebe
00000150: 98ce 5ebe cc4d 663d 702e 213d 126b 4abe
00000160: de40 563e 94e7 783e 7310 733e 0421 12be
00000170: f393 803b 0d60 2abd 2a34 6cbd 95cf 113f
00000180: 38c9 7f3e 880b 7a3e cb40 e4bc 9f08 ae3d
00000190: 681a 7bbe 9313 613d afd7 a4bd b96b cfbe
000001a0: 701f 893e 258d d5bc 6771 febd d790 bd3e
000001b0: 6729 17be cb15 963d 00fb 49bd 3712 bf3c
000001c0: 9ef1 8d3d 616d 943d 9aba 96bd 112e 4a3d
000001d0: f863 06be 7ab3 96bd cc4a 0e3e b397 1fbe
000001e0: f869 8bbe 98c2 213d b61e ca3d acc1 83be
000001f0: 2ed8 1fbd 76ad e83d e637 4bbd 6fb7 8e3e
00000200: a27c 9dbe 39ea 7e3d 678b 01be 8597 c4bd
00000210: 415d bcbe ea18 babd f2e1 43be 42eb b7be
00000220: 050e 833b 1e3d 2f3e 49d3 0c3d 18fb b3be
00000230: 7ebf d43d b205 5d3e 5e9d 453e 5611 993d
00000240: d81d 2abe a0f8 393e d669 933e 4f3b d03d
00000250: 8536 f73e 195e d0bd 71fe 133c bd8e d1bc
00000260: 3866 633e 3495 7dbe 8856 5fbe 48d7 873d
00000270: 1dea bebd 6973 563e 82ca 083d 5917 8cbd
00000280: 7e48 6d3e abaf 35bd 0107 723d 5395 43be
00000290: 2c06 10bd 9c98 213e 656a f13b e644 383e
000002a0: 0e91 f1be bb0f 25be d9ab b7bd cadf 42bd
000002b0: a3e9 f1be 1602 57be f849 29be 94fe 07bf
000002c0: 525b 07bb 89bc a63d 5ad5 603d 3da0 be3e
000002d0: 2d13 d9be 316b bdbe d09d c63c 35b6 7bbe
000002e0: ff3e 0cbf b7fa adbe 4eb5 b0be 9ced 85be
000002f0: 9610 0d3e c6aa b63e 0b2a 323e 468a 093e
00000300: 045d b9be b34e b6bd 0e2d fe3d 4f54 8cbe
00000310: 81f9 36bd c691 38bd c3e4 713e 0501 c53d
00000320: fc6e 0abb a95d 683e 5702 103e 82e9 4dbc
00000330: d410 8fbe 93ba 37bd d0b4 2abe b5c9 70be
00000340: c8cc 11be e628 a6be 791b 43be fa01 e43b
00000350: 4004 24be 5f9e 5f3d 321b 983d 58eb e63d
00000360: f174 44be 3b18 743e d500 843e 3a1d 093e
00000370: 86a2 e3be a59f 3a3e f45b 85be d43a 863d
00000380: 691a 993e da8f 4dbc 06ea 0d3e 85dc 9d3e
00000390: 8456 99be fd53 053e f1c5 8abe a120 ffbd
000003a0: 68d4 d3be 290d 19be 879c b0be c672 f7be
000003b0: 3f6d ec3d 537b 5fbc e370 e93d 5f66 813c
000003c0: f4b3 dc3e ce3a 293e 0d6b 1a3e 5c21 9f3d
000003d0: 26a6 413e 40aa 2d3d f759 f23c 2fc5 0bbd
000003e0: 5d7f 7dbe 6114 94be 78c4 2ebd d464 1b3e
000003f0: 6079 583e acea aebc 5c28 3ebc a6a8 2fbe
-0.0030012545 -0.09285433 -0.1649171 -0.14780137 -0.36774758 -0.24253936 -0.17625467 0.20702747
-0.18396349 0.17024949 0.14506713 0.034672365 0.02017112 -0.011362181 -0.15806001 0.07249045
-0.120559454 -0.015992122 -0.087955855 -0.059835974 0.23535068 0.18067206 0.102702826 0.06111692
0.13480933 0.30415508 0.08028215 -0.37558043 -0.24646057 -0.22440618 -0.052814744 -0.047374856
0.22579259 0.29124662 -0.24601008 -0.011171365 -0.2270387 0.0016286633 -0.15658432 -0.2145918
-0.095689565 -0.094440445 0.24971794 -0.21499807 0.078790694 0.2672703 0.007285232 -0.07002045
0.091606446 -0.024985148 0.016503287 0.050197355 -0.22680579 0.04424915 -0.12729031 0.10374171
0.13190518 0.022854885 -0.11175782 0.050341003 -0.25466663 0.16116197 -0.08520583 -0.013798559
0.16328464 0.0034896764 -0.15430112 0.09832864 0.0035644344 0.34504074 0.0111405365 -0.17164794
0.16012128 0.188612 0.010542544 0.24470858 -0.33111128 0.009351499 -0.06105282 -0.20768188
-0.44060394 -0.12226595 0.11232544 -0.17014278 -0.21758497 0.056226537 0.039350927 -0.19767407
0.20923182 0.2430709 0.23736744 -0.14270407 0.003923887 -0.041595507 -0.057666935 0.5695737
0.24979103 0.24418461 -0.027862927 0.08497738 -0.24521792 0.054950308 -0.08048951 -0.40511873
0.26781797 -0.02606828 -0.124239735 0.37024567 -0.14761887 0.073283754 -0.049311638 0.023324115
0.069308504 0.07247425 -0.0735981 0.04936034 -0.13124073 -0.07358451 0.1389572 -0.15585212
-0.27229285 0.03949222 0.09869139 -0.25733697 -0.039024524 0.1136121 -0.049613856 0.27874324
-0.3075915 0.06223509 -0.12650834 -0.095992126 -0.36789897 -0.09086783 -0.1912916 -0.35921675
0.003999474 0.17113158 0.034381185 -0.35152507 0.10388087 0.21584204 0.19298312 0.0747401
-0.16612947 0.18161249 0.28791684 0.10167562 0.48283783 -0.10174198 0.0090328315 -0.025580758
0.22206962 -0.24763948 -0.21810353 0.066328585 -0.09321997 0.20942463 0.03339625 -0.06840391
0.23172185 -0.044356983 0.05908871 -0.19099931 -0.035162136 0.15780872 0.0073674195 0.17995033
-0.4718098 -0.16119282 -0.08968324 -0.047576703 -0.47248563 -0.2099689 -0.16532123 -0.5312283
-0.0020653796 0.08141429 0.054890968 0.37231627 -0.42397442 -0.36995843 0.024245173 -0.24581225
-0.54783624 -0.33980343 -0.34513324 -0.26157844 0.13775858 0.35677165 0.1739885 0.13431653
-0.36203778 -0.089017294 0.12410937 -0.27408072 -0.04467154 -0.045060895 0.23622422 0.09619335
-0.002112328 0.22691979 0.14063393 -0.01256788 -0.27942526 -0.044855665 -0.16670537 -0.23514445
-0.14238274 -0.32453078 -0.19053449 0.0069582434 -0.16017246 0.054594394 0.07427062 0.11275357
-0.19185235 0.23837368 0.25781885 0.13390055 -0.44459933 0.18224962 -0.26046717 0.06554189
0.29902962 -0.012546504 0.13858804 0.30832306 -0.2994882 0.1302032 -0.27104142 -0.12457395
-0.4137299 -0.14946426 -0.3449442 -0.48329753 0.115442745 -0.013640243 0.113984846 0.015795885
0.43106043 0.16526338 0.15079899 0.07770035 0.18911037 0.04239869 0.029583914 -0.034123596
-0.24755616 -0.28921798 -0.042667836 0.15175182 0.21140051 -0.021352135 -0.011606302 -0.17154178

classifier.0.bias f4 [50]
00000000: 65f7 bc3d a947 e53d e9dd ec3d cdba 553e
00000010: 216a d03e 0f2c e53e 3e62 08bf 5780 18bd
00000020: db04 423e 2cf3 5e3e 5bc0 a83e 6b3b bbbe
00000030: 5622 afbe aaea 013f b96f 9a3e 6281 133d
00000040: 9b7f 323e 4e87 03be b74e 173f c447 3cbe
00000050: aea4 023f 3fb4 743e 1652 27be 74a0 dc3e
00000060: 14c8 d63e f053 55bd f2cf d13e 4858 8e3c
00000070: f885 353f d446 c0bd 4f33 063f eafe 06be
00000080: d7b7 d8be 8717 98be 5771 aa3e ce16 b03e
00000090: 9db7 453f 88e4 183f bffc 883e c54f 82be
000000a0: 87a8 d73e 13ae f03e b669 f83e 09de 493f
000000b0: 1fdb 8ebd 9eeb 43bf 1e8b 90bc e08c dabd
000000c0: bc35 14bf be9a 243f
0.09226874 0.11195309 0.115657635 0.2087204 0.4070597 0.44760177 -0.53274906 -0.03723177
0.18947165 0.2177245 0.32959256 -0.3656877 -0.34205884 0.50748694 0.30163363 0.03601206
0.1743149 -0.12844583 0.59104484 -0.18386751 0.5103253 0.23896883 -0.16339907 0.43091166
0.41949522 -0.052082002 0.40978962 0.01737608 0.70907545 -0.093885094 0.5242204 -0.1318318
-0.4232776 -0.2970545 0.33289596 0.343924 0.77233297 0.5972371 0.2675533 -0.25451484
0.42120764 0.47007808 0.4851815 0.78854424 -0.06975388 -0.765314 -0.017644461 -0.10671401
-0.5789449 0.6429862

classifier.3.weight f4 [10, 50]
00000000: c76d 013e 4827 b8be 9ea5 c7be c417 ed3d
00000010: 5f4f adbe eedf a8bd 2e93 e43d a065 e7bd
00000020: 468a 0ebe 8007 8e3d 8355 99bd 1d3a df3d
00000030: f891 24bd 33a6 9dbe 580f a4bd 483a a83d
00000040: 8d75 803d f45a 5bbe d7fa 06be daad 203d
00000050: acf1 c73d 0e61 123e 25bc 83bd 2337 61be
00000060: fa3b 3dbe 6243 26be b9db de3d b821 7f3b
00000070: b600 b6bd c8a6 47be 9616 6dbe 8436 a93d
00000080: 85a3 ab3d 94aa e5bd 7d66 5dbe aded c33d
00000090: 357f 6ebe 8c58 1fbe 48e0 753d c9f9 16be
000000a0: f24d 333d c7fa 34bd f329 a5bb bb47 1abf
000000b0: ef24 ef3d 11b5 96bd df46 883c ed94 b9bd
000000c0: 5d10 92be 601c acbd 7a2e 17be 2a99 4b3d
000000d0: a134 12bd 413d 8fbd 97dd eb3d ee32 7a3d
000000e0: da88 883d 827c 1dbe 3746 e73d 3475 a73d
000000f0: b41b 91bc 96ab f8bc 2b44 64bd 776d afbd
00000100: 2884 343c 37fd b83d ef5b 86bd 5574 3abd
00000110: 813a e73d 1a92 65be c49b 9e3d 3956 86bc
00000120: c626 52be 56e0 88bd 9544 62bd 0cac 273e
00000130: a82a cd3d 6456 963d 8360 4fba a5a2 f1bc
00000140: cd64 10be 5cc3 4cbe 4bce bbbd 9032 4abe
00000150: 5ee3 fa3d d76e 02be 3401 f93d d20e 573d
00000160: 8eb0 b8bd dd54 c93d 8ec7 d2be f979 0f3e
00000170: dfef 273e 1bb6 353e 359c 2abe ca49 51be
00000180: db0e d7be c20a 9cbe 8bfc 81bd 3624 103e
00000190: 4a20 cc3d e2ef 98bd 282b dbbd 1f4c aa3d
000001a0: 868d 89bc 8676 90bd 5d9d 893d cfdc b3bd
000001b0: b468 1c3e 4e39 9d3d 3ffc c33d 4e3c bb3d
000001c0: bec7 0c3e d5be 3f3c e182 b93d 6ab7 f2bd
000001d0: e273 7e3d c903 313d 9f8c d73d 1620 dcbd
000001e0: 73fa 4ebe 346a b63d aec2 d1ba eaa3 2ebb
000001f0: 011b 723d a696 86bd 66ff d33d 58e1 c03d
00000200: 806d c53d 02bd e03d 60ca 58bd 5ab3 573d
00000210: a302 cebd 3b89 9d3d 5cf5 85bd db70 c3bd
00000220: 2740 fb3d d106 4a3d fc7e a13d 42e8 e5bd
00000230: f8b9 1bbe 7a84 003e 8836 84bd 68bc 25bd
00000240: 8784 d63d 6cbd 90bd 6887 83be c940 73be
00000250: 32da 9abd ae2d 21bc 4862 05be bb15 adbc
00000260: b0f1 babd ea7f b2bc 2daa 7abe 3deb 98be
00000270: d16f f73d fc1c f83d 2356 163e 9471 09be
00000280: 8724 1fbe ec07 cb3d 6163 0a3e 7e5d 123e
00000290: 64d1 be3d 0e7b dbbd 0663 45be b0f5 0a3e
000002a0: e3c1 8fbd c2eb d2bd 8d69 e9bd c1dd 0a3e
000002b0: 1550 adbd ab67 e43d a317 63bd 0a73 a3bd
000002c0: 89df 89bd 8de3 c93d 3482 23bd 858d 073e
000002d0: afbc 55bd a76d 7f3d 06da 92bd a46e e1bd
000002e0: 0442 a2bd 6020 98bd 1734 5dbc b0eb 863d
000002f0: ec1a 20bd 10c7 c93d db14 83bd 11b7 053e
00000300: 963f 3bbd c1df 0fbd 6c67 b43c baa8 af3d
00000310: a2da 18be 6bae 09be 292d e33d 9218 a9bc
00000320: 68bb 0a3e 1650 94bb ccfd d03d 2fa4 04be
00000330: e4c9 e03d 0f76 a73d 79a4 3cbd 7bc7 27bd
00000340: 7d36 acbd 0136 e73b a7cd b23d 4de0 ea3d
00000350: 3111 66bd e890 103e 1d0d a93d 43ab c13d
00000360: 4803 923d 04d7 073e 1c56 083d c2d2 a1bc
00000370: 4864 f1bd d78b c3bd a246 9e3d 4466 b43d
00000380: 5ec4 803d e6b2 083e 549e 15be 7f57 ecbd
00000390: 3a8e 01be 2534 a9bd 4db9 b23d f9b4 05be
000003a0: 083e 383d 565b dd3d 2e25 ef3d c025 2fbe
000003b0: 4655 50bd 09d8 01be 7f0f c0bd 3dfd aebd
000003c0: bf66 c6bd 9d76 4dbd 5ac6 87bd 36db 533e
000003d0: 8dac e5bc 1b00 a23b 260b 1bbe 3c42 6b3d
000003e0: 7a23 db3d e1a1 093e 262c 473c ec98 1dbd
000003f0: c0aa 2abe 70e2 023e 186e b3be b9d0 e2bd
0.12639533 -0.3596747 -0.38993543 0.115767986 -0.33849618 -0.08245836 0.11160885 -0.1129868
-0.13919935 0.06935024 -0.07487013 0.10899756 -0.04017827 -0.30790862 -0.08010739 0.08214241
0.06272421 -0.21421415 -0.13181625 0.039228298 0.09762892 0.14294836 -0.0643237 -0.21993689
-0.1847991 -0.16236642 0.108817525 0.003893001 -0.08886854 -0.19497216 -0.23153147 0.08262351
0.08380798 -0.11214176 -0.21621127 0.095668174 -0.23290713 -0.15561122 0.060028344 -0.14743723
0.043775506 -0.044184472 -0.005040401 -0.602657 0.116769664 -0.073587544 0.016635356 -0.090616085
-0.2852811 -0.084038496 -0.14763823 0.049706616 -0.035694722 -0.06994105 0.11516874 0.061083727
0.06666727 -0.15379527 0.11292689 0.081766516 -0.017713405 -0.030355256 -0.055729073 -0.08565801
0.011017837 0.09032672 -0.06560504 -0.0455211 0.112904556 -0.22419015 0.07744554 -0.016398536
-0.20522603 -0.06683414 -0.055241186 0.16374224 0.10017902 0.073406965 -0.00079108047 -0.0294965
-0.14100952 -0.19996399 -0.09170207 -0.1974585 0.12250398 -0.12737595 0.121584326 0.052504368
-0.0901805 0.098306395 -0.41167873 0.14011373 0.16400097 0.17745249 -0.16661151 -0.20438305
-0.4200352 -0.30476958 -0.06346997 0.14076313 0.09967096 -0.07467629 -0.10701591 0.083153
-0.016791116 -0.070538566 0.06719468 -0.0878235 0.15274316 0.076769456 0.095695965 0.091423616
0.1374807 0.011703213 0.09058166 -0.1185139 0.062122233 0.0432165 0.10524868 -0.107483074
-0.20212726 0.089069754 -0.0016003454 -0.0026647993 0.059107784 -0.06571703 0.10351448 0.09417981
0.09640026 0.109735504 -0.052927375 0.052661277 -0.10059097 0.0769219 -0.06540939 -0.0954301
0.122680955 0.049322907 0.078855485 -0.1122594 -0.1520766 0.12550536 -0.064557135 -0.04046288
0.10474496 -0.07067379 -0.25689244 -0.23755182 -0.07561149 -0.009837551 -0.13025773 -0.021128526
-0.091281295 -0.02178951 -0.2447898 -0.29866973 0.12081874 0.12114903 0.14681296 -0.13422233
-0.15541278 0.0991362 0.13514473 0.14293477 0.09317282 -0.1071683 -0.19276056 0.13570285
-0.07019403 -0.102988735 -0.11397085 0.13561155 -0.0846254 0.111525856 -0.055442464 -0.07980926
-0.06732089 0.09857855 -0.039919093 0.13237579 -0.052181896 0.062360432 -0.07170491 -0.11007431
-0.07922748 -0.0742805 -0.013501189 0.065879226 -0.039088175 0.09852421 -0.06400462 0.13058116
-0.045714937 -0.035125498 0.022021972 0.08577104 -0.14927152 -0.13445441 0.11092598 -0.020641599
0.13548052 -0.0045261486 0.10204658 -0.12953256 0.109760076 0.08176815 -0.04605529 -0.040961724
-0.0840883 0.0070559983 0.08730631 0.11468563 -0.05616874 0.14117777 0.08254454 0.09456494
0.07129532 0.13265616 0.033285245 -0.019753817 -0.11786705 -0.09548157 0.07728316 0.08808568
0.06287454 0.13349494 -0.14611179 -0.11540126 -0.12651911 -0.08261899 0.087267496 -0.13057317
0.044981033 0.108084366 0.11677013 -0.17104244 -0.050862573 -0.12680067 -0.09377956 -0.08544395
-0.09687566 -0.050161947 -0.066296294 0.20689091 -0.02803638 0.00494386 -0.15140972 0.057436213
0.10700126 0.13440658 0.012156522 -0.038475916 -0.16666698 0.12781692 -0.35044932 -0.11074967

classifier.3.bias f4 [10]
00000000: 8f3c 7e3f 6ff5 2d3f 44ad 94be 9c50 2fbd
00000010: a4a6 10bf 813b c3bd b0ca 6dbd 97d9 30bf
00000020: 5890 df3e d3f4 55be
0.99311155 0.67952627 -0.2903844 -0.042801484 -0.56504273 -0.09532834 -0.058054626 -0.69082016
0.43664813 -0.20894174
