day2/domain_adaptation/revgrad_3.pt (torch_old, 91045 bytes, 8 tensors)

feature_extractor.0.weight f4 [10, 3, 5, 5]
0	0x3da9ac3b	0.082848035
1	0xbd07b284	-0.03312923
2	0x3d08c3fd	0.033390034
3	0x3ca6d1e3	0.020363754
4	0xbcfd910f	-0.030952958
5	0xbdb7ebe4	-0.089805394
6	0xbe426cd9	-0.18986835
7	0xbe0fd768	-0.14047015
8	0xbe9e218b	-0.30884966
9	0xbdf93572	-0.12168397
10	0xbe2a10c4	-0.16607958
11	0xbe6c7e27	-0.23094998
12	0xbe8c9eb7	-0.2746484
13	0xbdc794e2	-0.09745194
14	0x3d58acdb	0.052899223
15	0xbe9fa834	-0.31183016
16	0xbe09ad08	-0.13444912
17	0xbdd4ab60	-0.1038425
18	0xbcf0bf41	-0.029388072
19	0xbe30ac18	-0.17253149
20	0xbdbe97ef	-0.09306323
21	0xbdfb7e88	-0.12279993
22	0x3d0d35c7	0.034475114
23	0xbd475fc9	-0.048675332
24	0xbd762d43	-0.06010176
25	0xbbe358b8	-0.0069380663
26	0xbdb3f89d	-0.087876536
27	0xbe219dae	-0.15782806
28	0xbd6b248a	-0.057407893
29	0x3ce08e08	0.027411476
30	0xbe9c3d93	-0.30515727
31	0xbd9d6bed	-0.07686601
32	0xbe174d89	-0.14775671
33	0xbe5860a3	-0.21130614
34	0xbd260e0f	-0.04054075
35	0xbdcf66bc	-0.10127017
36	0xbe66ce6a	-0.22539678
37	0xbde2cc48	-0.1107412
38	0xbd83bc4a	-0.06432398
39	0x3d6e2d21	0.058148507
40	0xbe2bf23f	-0.16791628
41	0xbe1a74a3	-0.15083556
42	0xbd8ead22	-0.06966616
43	0xbe67bea7	-0.22631322
44	0xbd31d919	-0.04341993
45	0xbe8b679c	-0.27227485
46	0xbe0a49a0	-0.13504648
47	0xbe03084a	-0.12796131
48	0xbe0fcb20	-0.1404233
49	0x3c5826df	0.013192861
50	0xbe5e134f	-0.21687053
51	0x3d983df8	0.074336946
52	0xbd7dd664	-0.061972037
53	0x3d840175	0.064455904
54	0xbddcfbab	-0.10790189
55	0x3d4bec86	0.049786113
56	0x3ec6af45	0.38805595
57	0x3e926533	0.28592834
58	0x3d943612	0.072368756
59	0xbc09e0aa	-0.0084153805
60	0x3ed05c1e	0.4069528
61	0x3f074c8b	0.5285117
62	0x3f0c90ee	0.54908645
63	0x3f160144	0.5859568
64	0x3e9b7e98	0.3037002
65	0x3ed57bad	0.4169592
66	0x3f134a38	0.57535124
67	0x3f2ed589	0.6829458
68	0x3ed631f8	0.41834998
69	0x3e96801b	0.29394612
70	0x3ead84bf	0.3389034
71	0x3f00c21b	0.5029618
72	0x3e9af3d0	0.3026414
73	0x3ec2cd86	0.38047427
74	0x3e86d589	0.2633479
75	0x3ae4e780	0.0017464012
76	0x3dee46f4	0.11634627
77	0x3d2dea55	0.042459805
78	0x3c86129d	0.016366297
79	0xbd1fd6ed	-0.03902333
80	0x3d9d17aa	0.07670529
81	0x3d047cb2	0.03234548
82	0xbd9459b7	-0.07243674
83	0x3cba0cb2	0.022711132
84	0x3bd969f3	0.0066349446
85	0x3e21d827	0.15805112
86	0xbd636e0e	-0.05552488
87	0x3d23971c	0.03993903
88	0xbdeac689	-0.11463649
89	0xbdcb5bc2	-0.09929611
90	0xbd4a3c22	-0.049373753
91	0xbda66e85	-0.08126549
92	0xbd2e240a	-0.04251484
93	0xbd3199d5	-0.043359596
94	0x3d6a138f	0.05714756
95	0x3d30376d	0.04302161
96	0x3d10de17	0.03536805
97	0xbd94dd66	-0.07268791
98	0x3c523c2f	0.012831732
99	0x3d15f8db	0.03661428
100	0x3d9f8c2e	0.07790409
101	0x3dbb60df	0.09149336
102	0x3e10a396	0.14124903
103	0x3b2dc95c	0.0026517725
104	0x3d80adb3	0.062831305
105	0x3db7c0ee	0.08972345
106	0xbd9baab5	-0.07600919
107	0x3d8adc6e	0.06780325
108	0x3d4a6bb4	0.04941912
109	0xbca29030	-0.019844145
110	0x3b3a6eef	0.002844747
111	0x3cf0142e	0.029306497
112	0xbe0b9871	-0.1363237
113	0xbb115589	-0.0022176227
114	0x3c8f6bcb	0.017507454
115	0x3bafd3ee	0.00536584
116	0x3d4aad2c	0.049481556
117	0xbdec7339	-0.115454145
118	0x3dca9ca1	0.09893156
119	0xbdef4dda	-0.11684771
120	0x3cffd9fb	0.03123187
121	0x3da93d41	0.082636364
122	0xbd787003	-0.060653698
123	0x3e0b13cf	0.13581775
124	0xbccfddf3	-0.025374388
125	0x3e89a4c4	0.2688352
126	0x3e14465a	0.14479962
127	0x3d2c5f22	0.042082913
128	0x3e1a5e3e	0.15075013
129	0xbe894b48	-0.26815248
130	0x3e83f344	0.25771534
131	0x3e196035	0.14978106
132	0x3dc04727	0.09388571
133	0xbe418db9	-0.18901719
134	0xbe892405	-0.26785293
135	0x3e820c0e	0.25399822
136	0x3e3828c3	0.179843
137	0x3df94a08	0.121723235
138	0xbea3cb8e	-0.31991237
139	0xbef2a78b	-0.4739345
140	0x3e303dcc	0.17211074
141	0x3e5dfe2c	0.2167899
142	0xbd86a9d0	-0.06575358
143	0xbe56ba37	-0.20969473
144	0xbebd6145	-0.36988273
145	0x3d5ce2e5	0.05392732
146	0x3c8cfb8b	0.017209789
147	0xbcba4cda	-0.022741724
148	0xbe1538cc	-0.14572448
149	0xbe7de3c8	-0.24793923
150	0x3e0baf09	0.1364099
151	0x3d16e440	0.03683877
152	0x3d7b44e2	0.06134499
153	0x3df37df3	0.11889257
154	0x3aece5dd	0.0018073876
155	0x3c22dc77	0.009940258
156	0xbc886430	-0.016649336
157	0xbe033da5	-0.12816484
158	0x3da15340	0.07877207
159	0xbddb31d6	-0.10702865
160	0xbe5ec8c1	-0.21756269
161	0xbe1a4e48	-0.15068924
162	0xbd9e6c98	-0.07735556
163	0xbd095560	-0.033528686
164	0xbdc8af5e	-0.09799074
165	0xbe7ae0ce	-0.24499819
166	0x3c5254db	0.012837614
167	0xbe0215b1	-0.12703587
168	0x3da4981c	0.08036825
169	0xbde77b9a	-0.11302872
170	0xbd86d77e	-0.065840706
171	0xbbf5d139	-0.007501748
172	0xbdc9652b	-0.098337494
173	0x3db87441	0.09006549
174	0x3ccd7b9f	0.025083361
175	0x3d84d1d2	0.064853325
176	0xbbc2b91c	-0.005942477
177	0x3cdb78ae	0.026790943
178	0xbd889068	-0.06668168
179	0xbdacc062	-0.084351316
180	0xbd078686	-0.033087276
181	0xbe2e3e8f	-0.17016052
182	0xbe167835	-0.14694293
183	0xbe21333c	-0.157422
184	0xbd8c2d93	-0.0684463
185	0xbe6e1c3e	-0.23252961
186	0xbc85a31f	-0.016313134
187	0xbe1c39fd	-0.15256496
188	0xbdc8b3c7	-0.09799915
189	0xbe8c9161	-0.27454665
190	0xbe5b6ad9	-0.21427478
191	0xbd96169f	-0.073285334
192	0x3cf43228	0.029809073
193	0xba6ad929	-0.0008958751
194	0xbe3417a3	-0.17587142
195	0xbe95ffdf	-0.29296777
196	0xbd83a08b	-0.064271055
197	0xbe367ef0	-0.1782186
198	0xbb91ad08	-0.0044456758
199	0x3c93af87	0.018028034
200	0x3e8f847c	0.28030765
201	0x3eaeaabf	0.34114644
202	0xbc299771	-0.010351048
203	0x3e4c356a	0.19942251
204	0x3c9edb50	0.019391686
205	0x3e3f39ce	0.18674394
206	0x3e2931f9	0.1652297
207	0x3e399a4b	0.18125264
208	0x3e561212	0.20905331
209	0xbe2091ab	-0.15680568
210	0x3e41fa1f	0.1894307
211	0x3eb4d1c9	0.35316303
212	0x3ea03f1d	0.31298152
213	0x3ea95dfd	0.3307952
214	0x3cd73731	0.026271435
215	0x3e024080	0.12719917
216	0x3ecec947	0.40387937
217	0x3e8debf8	0.27719092
218	0x3e9f45ab	0.3110784
219	0x3db32ac4	0.08748391
220	0x3d26da76	0.040735684
221	0x3e000375	0.12501319
222	0x3df6657f	0.120310776
223	0x3e61b198	0.22040403
224	0x3df6dd67	0.12053948
225	0xbe0935a4	-0.13399369
226	0xbda85fc4	-0.08221391
227	0xbd01ced3	-0.031691384
228	0xbd9e1b65	-0.07720069
229	0xbd0433a9	-0.03227583
230	0x3da5cf6e	0.08096205
231	0xbc3bfc73	-0.011473763
232	0x3c9d7d91	0.019224914
233	0x3c66caae	0.014086409
234	0xbda0c574	-0.07850161
235	0xbe13c5a4	-0.14430863
236	0xbd7c62df	-0.06161773
237	0x39b1e14d	0.00033927933
238	0x3d88740e	0.06662761
239	0xbd87a2c1	-0.0662284
240	0xbbb00c12	-0.0053725326
241	0x3b04d8fd	0.0020270937
242	0xbd20e63a	-0.03928206
243	0x3dbace8a	0.091214254
244	0xbd91da97	-0.07121771
245	0xbd06287e	-0.03275346
246	0x3d1927b7	0.03739139
247	0xbe066bc5	-0.13127048
248	0xbc44e632	-0.012017773
249	0xbc912025	-0.017715523
250	0x3d8fa5c6	0.07014041
251	0xbc53678a	-0.012903104
252	0xbd545b81	-0.051845077
253	0xbcee2575	-0.029070595
254	0xbd940db5	-0.07229177
255	0xbd8e02bc	-0.06934115

feature_extractor.0.bias f4 [10]
0	0xbe86924c	-0.2628349
1	0xbe2d1838	-0.1690377
2	0xbef4cfec	-0.47814882
3	0xbdb1a420	-0.086738825
4	0xbe5fc870	-0.21853805
5	0xbe28768e	-0.16451475
6	0xbdb4c6d4	-0.08826986
7	0xbcbf9971	-0.023388596
8	0xbea5f8db	-0.32416424
9	0x3d338682	0.04382945

feature_extractor.3.weight f4 [20, 10, 5, 5]
0	0x3e5617ed	0.20907564
1	0x3e37afa7	0.179381
2	0x3d7f7b6a	0.062373556
3	0xbe30ca93	-0.17264776
4	0xbe0eb42c	-0.13935918
5	0x3b81bd93	0.0039593666
6	0x3e6ebac5	0.23313434
7	0x3e6e4082	0.23266795
8	0x3cbf306c	0.023338519
9	0xbe58aef6	-0.21160492
10	0xbe9aa7d2	-0.30206162
11	0xbd4af9c3	-0.049554598
12	0x3e63df51	0.22253157
13	0x3e2a8892	0.1665366
14	0x3db77575	0.0895795
15	0xbeaba553	-0.3352457
16	0xbe466ebf	-0.19378184
17	0x3d45520a	0.04817394
18	0x3da59d5d	0.08086655
19	0x3d39f2e3	0.04539765
20	0x3ce9ee06	0.028555881
21	0x3d1862df	0.037203666
22	0xbc93ce68	-0.018042758
23	0xbb3f68b1	-0.0029206688
24	0xbc081f09	-0.008308181
25	0xbcb0eda0	-0.021597683
26	0x3dc8f3f0	0.098121524
27	0x3e48e06e	0.19616863
28	0xbe2fd795	-0.17172082
29	0x3c9e3265	0.01931114
30	0xbc43a215	-0.011940499
31	0xbd29a542	-0.041417368
32	0xbd510129	-0.051026497
33	0xbdd5aacd	-0.10432968
34	0x3cacd01b	0.021095326
35	0xbe0c4fb6	-0.13702282
36	0xbe3471d5	-0.17621548
37	0xbd8fcebf	-0.070218556
38	0xbd8ff2ca	-0.0702873
39	0x3cde9d3e	0.027174588
40	0xbda447ba	-0.08021493
41	0xbde4b5c9	-0.11167485
42	0xbd606bac	-0.054790184
43	0x3c4a66d2	0.012353616
44	0x3d2f3d5f	0.042783137
45	0x3bf124fd	0.0073591457
46	0xbcf58201	-0.029969217
47	0xbd7398bb	-0.059471827
48	0x3d10f58d	0.035390425
49	0x3bda7e19	0.006667864
50	0x3cc4a07f	0.024002312
51	0x3da04dfd	0.07827375
52	0xbddb5b25	-0.10710744
53	0xbdb9c69d	-0.090710856
54	0xbd679d23	-0.05654634
55	0x3e88d4fa	0.26724988
56	0x3ec98645	0.39360252
57	0x3e9569b7	0.29182217
58	0x3e43dcfa	0.19127265
59	0x3d3e7384	0.046496883
60	0xbdec6002	-0.115417495
61	0x3e72d1af	0.237128
62	0x3e6834e7	0.2267643
63	0x3e86b1b0	0.2630744
64	0x3e0042d8	0.12525499
65	0xbe3c62bc	-0.18397039
66	0xbbd345e2	-0.0064475397
67	0x3d22787e	0.03966569
68	0x3e1db6c7	0.15401755
69	0x3d226748	0.039649278
70	0xbd61f491	-0.055164877
71	0xbdf62290	-0.12018311
72	0xbe6ba764	-0.23013073
73	0xbdab36e2	-0.083600774
74	0xbbdc93da	-0.0067314925
75	0xbb3d388b	-0.0028872814
76	0xbd147916	-0.03624829
77	0xbc6768e2	-0.014124127
78	0x3d138a51	0.03602058
79	0x3d44c166	0.048036
80	0x3d800f80	0.062529564
81	0x3c8df111	0.017326863
82	0xbc8218f8	-0.015881047
83	0xbd0bc604	-0.03412439
84	0x3cc10142	0.02356017
85	0xbd75af5f	-0.0599817
86	0xbd2b7bd0	-0.041866124
87	0x3ca392ea	0.019967515
88	0x3cddfa28	0.027096823
89	0xbd66a689	-0.056311164
90	0x3d0b4eba	0.034010626
91	0xbd3c5177	-0.04597613
92	0x3d6a34f3	0.057179403
93	0x3c72af79	0.014812344
94	0xbcd92a4a	-0.026509423
95	0x3c41d7ce	0.011831237
96	0xbbe252ed	-0.006906858
97	0xbd229932	-0.03969688
98	0xbc31ed2c	-0.010859769
99	0x3c884201	0.016633036
100	0xbd77fe42	-0.060545214
101	0xbd8d930b	-0.06912812
102	0x3b80116d	0.0039083273
103	0xbd9506fd	-0.072767235
104	0x3be1d8ac	0.0068922844
105	0xbc259593	-0.010106462
106	0x3d818aec	0.06325325
107	0xbe640a2b	-0.22269504
108	0xbe537152	-0.20648697
109	0xbe20249c	-0.15638965
110	0x3cab5bb9	0.02091776
111	0x3e42c107	0.19018947
112	0x3d0eaf4f	0.034835156
113	0xbdac1a7d	-0.0840349
114	0xbe3b5d34	-0.18297273
115	0xbd754ef6	-0.059889756
116	0x3d39d740	0.045371294
117	0x3d718601	0.058965687
118	0xbcae380f	-0.021266965
119	0x3df80ae0	0.12111449
120	0xbd72b2b0	-0.05925244
121	0xbc63c4dd	-0.013901916
122	0x3cafd09d	0.02146178
123	0x3cf6d554	0.03013102
124	0x3de2ed25	0.11080388
125	0xbe026d89	-0.12737097
126	0xbd3495bd	-0.044088114
127	0x3de48526	0.111582085
128	0x3c6cdd65	0.014457081
129	0x3e583c6d	0.211168
130	0xbdc9300b	-0.098236166
131	0xbd57b4eb	-0.05266277
132	0xbc1d811d	-0.009613303
133	0x3e018957	0.12650047
134	0x3dd08f60	0.101835966
135	0x3de8e82a	0.11372407
136	0x3e193b69	0.1496407
137	0x3d243f6a	0.04009954
138	0xbc3fd8e0	-0.011709422
139	0x3d8135e0	0.06309104
140	0x3e0c3b0b	0.13694398
141	0x3e829cc3	0.25510225
142	0x3e5269c2	0.20548156
143	0xbae35d89	-0.0017346601
144	0xbcddc6ea	-0.027072389
145	0xbd9ae411	-0.075630315
146	0xbd6dcc9e	-0.058056466
147	0xbc982763	-0.018573469
148	0xbd8dd8f4	-0.06926146
149	0x3dfe53ee	0.12418352
150	0xbde3caa4	-0.11122635
151	0xbcc93a01	-0.024563791
152	0x3dbfe5ae	0.0936998
153	0xbd9c18b1	-0.07621897
154	0x3e074e62	0.13213494
155	0x3c842a54	0.016133465
156	0x3d10397c	0.03521107
157	0xbd8ca35c	-0.06867096
158	0xbdf30d34	-0.11867753
159	0xbb80655b	-0.0039183325
160	0x3e1249fe	0.14286038
161	0x3e3efd3c	0.18651289
162	0x3de39bcb	0.111136995
163	0xbd59b5c0	-0.053151846
164	0xbd217849	-0.039421353
165	0x3b192e12	0.0023373407
166	0x3dff2632	0.12458457
167	0x3d20f50e	0.039296202
168	0x3d2f4f11	0.042800013
169	0xbd2610f3	-0.040543508
170	0xbcd0293a	-0.025410283
171	0x3c884f5f	0.01663941
172	0xbdbb73ef	-0.09152972
173	0x3d7f31ad	0.062303234
174	0xbd59b248	-0.053148538
175	0xbd6cb6d6	-0.057791553
176	0xbdfffc29	-0.124992676
177	0xbca95e57	-0.020674868
178	0x3d9b2d79	0.075770326
179	0x3d6f1f52	0.05837948
180	0xbd0b0bf5	-0.03394695
181	0xbd9fb906	-0.07798962
182	0xbe21d41a	-0.15803567
183	0xbe066b24	-0.13126808
184	0x3caeab1f	0.021321831
185	0xbd0200a1	-0.03173888
186	0x3db82626	0.08991651
187	0x3df5d223	0.12002971
188	0x3da9fb1d	0.08299849
189	0xbdcefae1	-0.10106445
190	0x3d41e5e3	0.047338378
191	0x3ddcf72b	0.10789331
192	0x3e14f568	0.1454674
193	0xbd0ca0f2	-0.034333177
194	0xbdc8fc1d	-0.09813712
195	0x3e3c3e8b	0.18383233
196	0x3df1a26c	0.11798558
197	0xbd53bdf9	-0.051694844
198	0x3b9ed3a6	0.004847008
199	0xbd625073	-0.055252504
200	0xbde137e4	-0.109969884
201	0x3d31864a	0.04334096
202	0xbdb0a6a0	-0.08625531
203	0xbeaa4e5e	-0.33262914
204	0xbdd99425	-0.106239595
205	0x3b8205ea	0.00396799
206	0x3e263ebb	0.16234867
207	0x3da84f13	0.08218207
208	0x3d6468d6	0.05576404
209	0xbcf27fef	-0.02960202
210	0x3df39377	0.11893361
211	0xbcfcf575	-0.030878762
212	0x3d6ea14c	0.058259293
213	0x3e2ddc7b	0.16978638
214	0x3dc306bc	0.09522769
215	0xbceb963e	-0.028758164
216	0xbdaf5230	-0.08560598
217	0xbdcd7991	-0.100329526
218	0x3c4592c5	0.012058918
219	0xbcf1ae40	-0.029502034
220	0xbc762a2e	-0.015024705
221	0xbe1e6e57	-0.15471779
222	0xbe59b760	-0.21261358
223	0xbcd114ff	-0.025522707
224	0x3ba2a326	0.0049632965
225	0xbd8c6fe5	-0.0685728
226	0xbcd56371	-0.026048394
227	0x3d3bc1f4	0.045839265
228	0x3d8bba9b	0.068227015
229	0x3de65adc	0.11247799
230	0xbddb7016	-0.10714738
231	0xbc83dae1	-0.01609558
232	0xbcc56330	-0.024095148
233	0x3e2f2b90	0.17106462
234	0x3e7b0a92	0.24515751
235	0xbd7eae09	-0.06217769
236	0xbd4f1c56	-0.050564133
237	0xbe4dd385	-0.2010022
238	0x3cb28d11	0.021795781
239	0x3e9c190a	0.30487853
240	0xbdf3d0b9	-0.11905045
241	0x3dda5679	0.106610246
242	0x3d88bdbe	0.066768155
243	0x3e72a57d	0.23695941
244	0x3e58cfa5	0.2117296
245	0x3d5e3ad9	0.05425534
246	0x3e08f525	0.13374765
247	0x3e00e772	0.1258829
248	0x3db180b1	0.08667124
249	0xbc84c182	-0.016205553
250	0x3e99f150	0.3006692
251	0x3daec70c	0.08534059
252	0xbe6a4bef	-0.22880529
253	0xbe4915fc	-0.19637293
254	0xbb11e03a	-0.0022258894
255	0x3e36c53d	0.17848678

feature_extractor.3.bias f4 [20]
0	0xbe63c0b4	-0.22241479
1	0x3e2d3606	0.1691514
2	0xbe03f036	-0.12884602
3	0x3dda8359	0.10669584
4	0xbe064e59	-0.13115825
5	0xbe462a50	-0.19352078
6	0xbe2ea8a2	-0.17056516
7	0xbe0575a3	-0.13033156
8	0xbda1dd02	-0.07903482
9	0x3d7b8b3f	0.061412092
10	0xbdb28caf	-0.087182395
11	0x3e16d936	0.14731297
12	0xbe3b7923	-0.18307929
13	0xbe707da0	-0.23485422
14	0x3e53f5f8	0.20699298
15	0x3e4d4f03	0.20049672
16	0x3e880ccb	0.2657226
17	0xbdea082a	-0.114273384
18	0x3e14fb3f	0.14548968
19	0x3debb753	0.11509576

classifier.0.weight f4 [50, 320]
0	0xbe27af7b	-0.16375534
1	0xbde3d258	-0.11124104
2	0xbd863874	-0.06553736
3	0xbc16a59e	-0.00919476
4	0xbe51a72e	-0.2047393
5	0xbe2691b1	-0.16266514
6	0xbd2330be	-0.039841406
7	0xbd094ce4	-0.033520594
8	0x3d92784e	0.071518525
9	0x3d55b3be	0.05217337
10	0x3d6326b7	0.055456843
11	0xbd721faf	-0.059112247
12	0xbc51513a	-0.012775714
13	0x3d02da7e	0.03194665
14	0xbd2d9bcd	-0.04238491
15	0x3e326766	0.17422256
16	0x3d05c493	0.03265817
17	0x3d2789a6	0.040902756
18	0xbcbfcab6	-0.02341209
19	0xbccea548	-0.025225297
20	0x3d74b4d9	0.059742782
21	0x3cf28f40	0.029609323
22	0x3de892b5	0.11356107
23	0x3cb71a00	0.022351265
24	0x3cbd546c	0.023111545
25	0xbcd89d50	-0.0264422
26	0xbd3fa962	-0.046792395
27	0x3c2d3191	0.0105709
28	0xbd5b1ece	-0.053496175
29	0xbd382afb	-0.044962864
30	0xbda76252	-0.0817305
31	0xbcbe859f	-0.023257075
32	0xbe00079e	-0.12502906
33	0x3e026202	0.127327
34	0xbcbee6c7	-0.023303403
35	0x3d2a9bdf	0.041652557
36	0xbda5e2f3	-0.08099928
37	0x3d2e8d18	0.042615026
38	0xbdf3167c	-0.11869523
39	0xbc847438	-0.016168699
40	0xbcb94054	-0.022613682
41	0x3d1cb130	0.038254917
42	0x3e063c86	0.13109025
43	0xbd8b7878	-0.06810087
44	0xbc3f88bc	-0.011690315
45	0x3d48415a	0.04889045
46	0x3d17363b	0.036916953
47	0xbd0e67c3	-0.034766924
48	0xbccaef01	-0.024772169
49	0xbc860daf	-0.016363947
50	0x3d7fe9f6	0.062478982
51	0x3d47b81e	0.048759572
52	0xbb060cd7	-0.002045443
53	0x3e101bae	0.14073059
54	0xbdcd2946	-0.10017638
55	0x3d2cb243	0.04216219
56	0x3cff527f	0.031167267
57	0xbd8f0243	-0.06982853
58	0xbc262215	-0.010139962
59	0x3dccb2b4	0.099950224
60	0xbd46fe44	-0.04858233
61	0x3cf88e56	0.030341309
62	0x3b4e4f59	0.00314804
63	0xbcbd4fd3	-0.023109352
64	0xbd2022db	-0.03909574
65	0xbc88a004	-0.016677864
66	0x3d8abff3	0.06774893
67	0x3d3f4457	0.046696033
68	0x3d2afe9e	0.041746728
69	0x3e07c7a2	0.13259748
70	0xbdd4ac79	-0.10384459
71	0x3bad275a	0.005284232
72	0x3d48853c	0.048955187
73	0xbcb274c2	-0.02178419
74	0x3d4e292f	0.050332244
75	0x3d745afa	0.059657075
76	0xbd960334	-0.0732483
77	0xbd945d34	-0.072443396
78	0x3b490ebc	0.0030678948
79	0xbe14de6d	-0.14537974
80	0xbdd2b82f	-0.102890365
81	0xbdd9294a	-0.106035784
82	0xbd8653cc	-0.06558952
83	0xbddf7a0a	-0.10911949
84	0xbd4546cb	-0.048163217
85	0xba80d56b	-0.0009829229
86	0x3df56191	0.119815
87	0xbd5b877e	-0.053596012
88	0x3d3443d3	0.044009995
89	0x3dadc159	0.08484144
90	0x3d2ed317	0.04268178
91	0x3c24b106	0.010051971
92	0xbd0166e9	-0.031592283
93	0xbd7c2991	-0.06156308
94	0xbda0893a	-0.07838674
95	0x3b7ccce3	0.003857427
96	0xbd90713e	-0.07052849
97	0xbcfd92cf	-0.030953793
98	0xbd78b236	-0.06071683
99	0xbe3332f8	-0.17499912
100	0xbc6005db	-0.013673271
101	0xbe031881	-0.12802316
102	0xbd0e4128	-0.034730107
103	0xbdc725b9	-0.09723992
104	0x3d5b10fa	0.053482987
105	0x3d685bf8	0.056728333
106	0x3da7ffae	0.08203064
107	0x3d43800c	0.047729537
108	0xbccf1eaa	-0.025283176
109	0xbbf4b717	-0.007468115
110	0x3cfae346	0.03062595
111	0xbd0de358	-0.03464064
112	0x3a044d1d	0.0005046891
113	0xbc99fb70	-0.018796653
114	0x3cc26fc0	0.023734927
115	0x3d934fb7	0.07192939
116	0xbd931b38	-0.07182926
117	0xbce9f516	-0.028559249
118	0xbd03c7f9	-0.03217313
119	0xbe0133f2	-0.12617472
120	0xbcf18b97	-0.029485507
121	0x3c8520f5	0.016251067
122	0x3d2dd390	0.04243809
123	0xbdb1f715	-0.08689705
124	0xbd9f82a7	-0.07788592
125	0x3c67c99e	0.01414719
126	0x3d2bad33	0.041913223
127	0x3cdb777e	0.026790377
128	0xbd376184	-0.044770733
129	0xbce0dcc8	-0.027449027
130	0x3cceab76	0.025228243
131	0xbd5631b6	-0.0522935
132	0xbdf0b22a	-0.11752732
133	0x3ba7fa87	0.0051263007
134	0xbd90161d	-0.07035468
135	0xbdc056bb	-0.093915425
136	0x3d01a2a1	0.031649236
137	0x3de9d1e6	0.11416988
138	0x3dd39475	0.1033105
139	0x3cfd6216	0.03093056
140	0xbb20619e	-0.0024472247
141	0x3d87f0e2	0.066377416
142	0x3cc86cc3	0.024465924
143	0x3d1ca608	0.038244277
144	0x3c20c695	0.009812971
145	0x3e2d0f13	0.16900282
146	0x3dd05c21	0.10173822
147	0x3d643ae2	0.055720218
148	0x3e131e0c	0.1436693
149	0xbd9f1f24	-0.077696115
150	0xbd83034c	-0.06397113
151	0x3dc57a6d	0.096424915
152	0xbdffe091	-0.124940045
153	0xbe24666b	-0.16054694
154	0x3cd15feb	0.025558433
155	0xbda56b26	-0.080770776
156	0x3c0c52f6	0.008564701
157	0x3d0b4c87	0.03400853
158	0x3c190b8e	0.009341134
159	0xbc8795ec	-0.01655098
160	0x3d85200c	0.06500253
161	0xbd1cca30	-0.03827876
162	0xbd580f9e	-0.05274927
163	0xbd89cf0b	-0.067289434
164	0x3d95324b	0.07284983
165	0x3c9c33d2	0.019067679
166	0x3d3a0ca9	0.04542223
167	0x3e211086	0.1572896
168	0xbdaef6f7	-0.085431986
169	0xbca9183d	-0.02064144
170	0xbd638679	-0.055548165
171	0xbe500666	-0.20314941
172	0xbdf10034	-0.11767617
173	0xbd16c89d	-0.036812413
174	0xbe01b35b	-0.12666075
175	0xbe565bac	-0.20933408
176	0xbbfd8496	-0.0077367527
177	0x3d599e92	0.05312974
178	0x3d98af90	0.07455361
179	0x3c1b3bb7	0.009474686
180	0xbdf25a45	-0.11833624
181	0xbde81589	-0.113322325
182	0xbd19281e	-0.037391774
183	0xbe0ecc11	-0.13945033
184	0xbc534a9e	-0.012896208
185	0xbab76b21	-0.0013993719
186	0xbd813ba1	-0.063102014
187	0x3c8cf1e7	0.017205192
188	0x3da74a76	0.08168499
189	0x3e1c2f7e	0.15252492
190	0x3d5e26fe	0.054236405
191	0x3c66d368	0.014088489
192	0xbda00d51	-0.0781504
193	0x3d7f2737	0.062293258
194	0xbda1a313	-0.07892432
195	0xbdbaa092	-0.091126576
196	0xba410a86	-0.0007363934
197	0xbd0e794a	-0.03478364
198	0xbd25de9d	-0.040495504
199	0x3e2cdcd9	0.16881122
200	0x3c1cd4bb	0.009572203
201	0x3e12541f	0.14289902
202	0x3d42feaa	0.047606148
203	0xbb123d06	-0.0022314205
204	0xbd836e46	-0.06417517
205	0xbd6a420d	-0.057191897
206	0xbd69b63d	-0.05705856
207	0xbdea6655	-0.114452995
208	0x3cadec17	0.02123074
209	0xbdd85d1b	-0.105646335
210	0xbdafe4a3	-0.08588531
211	0x3ca8f04b	0.020622393
212	0xbd0b1c2d	-0.033962417
213	0x3e678c08	0.22612011
214	0x3b429c74	0.0029695304
215	0x3defbb69	0.117056675
216	0xbc01231e	-0.007881908
217	0x3d6a3614	0.05718048
218	0x3bba1bd9	0.005679589
219	0x3d0f9dbc	0.035062537
220	0xbd8bc72e	-0.068251
221	0xbabb0b89	-0.0014270406
222	0xbe016b02	-0.12638476
223	0xbcf5a7a6	-0.029987168
224	0x3de5c57d	0.112193085
225	0xbd7987be	-0.06092047
226	0x3d462cf6	0.04838272
227	0x3e4fbb9c	0.20286411
228	0xbe00a877	-0.12564264
229	0x3d29c951	0.041451756
230	0x3d674177	0.056458917
231	0xbe02ec18	-0.12785375
232	0xbdb4126d	-0.08792577
233	0xbbbfd611	-0.005854376
234	0x3c43cae3	0.011950227
235	0xbde0eba8	-0.10982448
236	0x3dca19bd	0.098681904
237	0x3d530738	0.051520556
238	0x3c8c1504	0.017099865
239	0x3ddfcf59	0.1092822
240	0x3dcdaf1a	0.100431636
241	0x3d8537d3	0.06504788
242	0x3da1074a	0.078627184
243	0xbb44e561	-0.0030043947
244	0xbbbf6d29	-0.0058418703
245	0xbd497292	-0.04918153
246	0xbd58c23f	-0.052919623
247	0xbd5b1c9c	-0.05349408
248	0xbdee9d2c	-0.11651072
249	0xbe031e8c	-0.12804621
250	0xbbd032c2	-0.006353707
251	0xbd884709	-0.06654174
252	0x3c9a4f6f	0.018836705
253	0x3d0b1412	0.033954687
254	0x3cec2689	0.028826969
255	0xbb37f310	-0.002806846

classifier.0.bias f4 [50]
0	0x3daddf86	0.08489899
1	0x3c1d6c41	0.009608329
2	0x3e111b55	0.14170583
3	0x3db6a561	0.08918262
4	0x3e4c4f7e	0.19952199
5	0x3e3728fc	0.17886728
6	0xbde399a4	-0.11113289
7	0x3d397006	0.04527285
8	0x3d7d7e0b	0.061887782
9	0x3abec64d	0.0014554948
10	0x3d15488a	0.03644613
11	0xbe43a2b2	-0.19105032
12	0xbdbe7ca1	-0.09301115
13	0x3dd18ebb	0.10232302
14	0x3dff1fd3	0.12457242
15	0x3e005775	0.12533362
16	0xbce8a0c6	-0.028396975
17	0x3bb39306	0.005480173
18	0x3de10fbb	0.109893285
19	0x3e28debe	0.1649122
20	0x3e0cd33f	0.13752459
21	0x3e549887	0.2076131
22	0xbc14f5d3	-0.009091812
23	0x3e3aa08a	0.18225303
24	0x3de80293	0.11328616
25	0x3deac0b4	0.114625365
26	0x3e0bbab2	0.13645437
27	0x3d89fdd9	0.06737871
28	0x3da2de96	0.07952611
29	0xbd3d5c82	-0.0462308
30	0x3dc54ed1	0.09634174
31	0xbc7fd74d	-0.015615297
32	0xbd85f323	-0.06540515
33	0x3d02ed97	0.031964865
34	0x3e34a380	0.17640495
35	0x3da7df02	0.08196832
36	0x3e7ff03c	0.24993986
37	0x3e6cf7f8	0.23141468
38	0x3c2817e9	0.010259607
39	0x3d8491d5	0.06473128
40	0x3dcd37d4	0.10020414
41	0x3df47fa2	0.119384065
42	0x3de5dc61	0.112236746
43	0x3ea6b555	0.3256022
44	0xbc89cfa9	-0.016822653
45	0xbe09ad05	-0.13444908
46	0xbce93f71	-0.028472634
47	0x3cf159dc	0.029461794
48	0xbdb8b9a7	-0.090197854
49	0x3d1bb5b9	0.0380151

classifier.3.weight f4 [10, 50]
0	0x3d35523d	0.04426788
1	0xbec62aa6	-0.38704413
2	0x3d705f73	0.058684777
3	0x3e03766b	0.12838142
4	0xbde1d01c	-0.11026022
5	0xbe392b93	-0.18083028
6	0x3c2f650b	0.010705243
7	0x3e0ee012	0.13952664
8	0xbe12d9ab	-0.14340846
9	0x3e64919e	0.22321174
10	0x3dc5a422	0.096504465
11	0x3ddf3266	0.108982846
12	0xbe2ee712	-0.17080334
13	0xbed09a48	-0.40742707
14	0x3dfda777	0.12385457
15	0x3d96a631	0.07355917
16	0x3de3dffc	0.11126706
17	0xbeb6efbe	-0.35729784
18	0xbe48dea1	-0.19616176
19	0x3e21829e	0.15772483
20	0x3e4db2fd	0.2008781
21	0x3e433320	0.19062471
22	0xbca32890	-0.019916803
23	0xbe282712	-0.16421154
24	0xbdbe7bb9	-0.09300942
25	0xbe1d1f5f	-0.15343998
26	0x3e5b5a53	0.21421175
27	0xbdd4ad1f	-0.10384583
28	0xbe576426	-0.21034297
29	0xbe6ce1b3	-0.23132972
30	0xbe93b3b8	-0.28848052
31	0x3e115045	0.14190777
32	0x3e71937b	0.23591416
33	0xbd98a9e1	-0.07454277
34	0xbe82c57c	-0.25541294
35	0x3e13801e	0.14404342
36	0xbecb6f68	-0.39733434
37	0xbe90fb61	-0.28316787
38	0x3e24e610	0.16103387
39	0xbe67a5a7	-0.22621785
40	0x3de49b7d	0.111624695
41	0xbe8e9f94	-0.27856123
42	0x3d1b5e08	0.037931472
43	0xbe88f637	-0.26750347
44	0x3e28fea0	0.16503382
45	0xbe29b1ed	-0.1657178
46	0x3dfac161	0.12243915
47	0xbe83d66c	-0.25749528
48	0xbea14c2c	-0.31503427
49	0x3de3682a	0.11103852
50	0xbeb1ca37	-0.3472459
51	0xbdefb860	-0.117050886
52	0xbe594175	-0.21216376
53	0xbbff54b4	-0.00779208
54	0x3e9d7b1e	0.30757993
55	0x3e979831	0.296083
56	0x3d20047a	0.03906677
57	0xbe9117b3	-0.28338394
58	0x3e237c18	0.15965307
59	0xbd15760f	-0.036489543
60	0xbe0c7201	-0.13715364
61	0xbea18945	-0.3155004
62	0xbde07071	-0.109589465
63	0xbdebfc81	-0.11522771
64	0x3c50b5a6	0.012738621
65	0x3e2aced8	0.16680467
66	0xbe878a6f	-0.26472804
67	0xbe30759c	-0.17232364
68	0x3e12acf3	0.14323787
69	0xbe9c706c	-0.3055452
70	0x3e576e37	0.21038137
71	0x3e299592	0.16560963
72	0xbe1758b6	-0.14779934
73	0xbe44964e	-0.19197962
74	0xbd458a5f	-0.048227664
75	0x3e587780	0.21139336
76	0x3e532011	0.20617701
77	0x3ded0291	0.11572755
78	0x3e297be9	0.16551174
79	0xbc063ecd	-0.008193684
80	0xbe7395d5	-0.23787625
81	0xbe9015a5	-0.28141513
82	0xbe70fc36	-0.23533711
83	0xbe92ad53	-0.2864786
84	0x3e64ad6c	0.2233178
85	0xbe67532c	-0.22590321
86	0x3e69d8e2	0.2283664
87	0x3e2c863a	0.16848078
88	0xbddc067f	-0.107434265
89	0x3e62913d	0.22125717
90	0xbeddda5f	-0.43330666
91	0x3e10e3b0	0.14149356
92	0x3e402936	0.1876572
93	0x3e7bdbb4	0.24595529
94	0xbe77e41c	-0.2420811
95	0xbe08c1ff	-0.13355254
96	0xbe6e75c7	-0.23287116
97	0xbe8d0e56	-0.2755
98	0xbe8f7c69	-0.28024605
99	0x3ceb5a11	0.02872947
100	0x3e1d3021	0.15350391
101	0xbd8182cb	-0.06323775
102	0xbe604e60	-0.21904898
103	0x3e1145dd	0.14186807
104	0xbe4ddc45	-0.20103557
105	0x3ce141a4	0.02749712
106	0xbd94a227	-0.072574906
107	0xbc966333	-0.018357849
108	0x3e660923	0.22464423
109	0x3e4e52ae	0.20148727
110	0x3e084d6d	0.13310786
111	0x3e2662f5	0.16248687
112	0x3e2ba125	0.1676069
113	0xbd1e005f	-0.038574573
114	0x3e161904	0.1465798
115	0xbd50f1c9	-0.051011834
116	0x3d921bf6	0.071342394
117	0xbdbc8faf	-0.09207093
118	0x3e16116f	0.14655088
119	0xbe23740f	-0.15962242
120	0xbe8403a8	-0.2578404
121	0x3da24c5c	0.07924721
122	0x3d1734c7	0.036915567
123	0xbda8c66a	-0.082409695
124	0x3e465ff0	0.19372535
125	0xbe60dd5b	-0.2195944
126	0x3e704598	0.23464048
127	0x3e0e799f	0.13913582
128	0x3e1de170	0.15418029
129	0x3e3f55e8	0.18685114
130	0xbd53f4fa	-0.0517473
131	0x3d95c079	0.07312102
132	0xbe1b6c47	-0.15178023
133	0x3e37e860	0.17959738
134	0xbe5c9543	-0.21541314
135	0xbe115ad4	-0.14194804
136	0x3e53faf0	0.20701194
137	0x3db1dbf0	0.08684528
138	0x3e2e5b1f	0.17026947
139	0xbe1c754b	-0.15279119
140	0xbda26eff	-0.07931327
141	0x3e5b0572	0.21388796
142	0xbe785db8	-0.24254501
143	0xbe23336d	-0.15937586
144	0x3d8d53e8	0.069007695
145	0xbe610188	-0.2197324
146	0xbded8602	-0.115978256
147	0xbe014aca	-0.12626186
148	0xbe1eb58a	-0.15498939
149	0xbe3189a7	-0.17337666
150	0xbe438b21	-0.19096042
151	0xbcd4f913	-0.025997674
152	0xbe2fb1a8	-0.17157614
153	0x3e0d3ca2	0.13792661
154	0xbe9eafa2	-0.30993372
155	0xbea0878d	-0.31353417
156	0x3e510651	0.20412566
157	0x3e24ef20	0.16106844
158	0x3e612cfb	0.21989815
159	0xbddec0b3	-0.10876598
160	0xbe08ebd6	-0.13371214
161	0x3e2bb8d8	0.16769731
162	0x3e078430	0.1323402
163	0x3e1c8402	0.15284732
164	0x3e160b09	0.14652647
165	0xbe5e9723	-0.21737342
166	0xbdc7608a	-0.0973521
167	0x3e488208	0.19580853
168	0xbe14b257	-0.14521156
169	0xbe5b32bd	-0.21406074
170	0xbe475f8a	-0.19470039
171	0x3e1d1a44	0.15342051
172	0xbcfbf180	-0.030754805
173	0x3e1c4d11	0.15263774
174	0xbdbea47c	-0.09308717
175	0xbe133039	-0.14373864
176	0xbd4007c0	-0.04688239
177	0x3d8620b7	0.065492086
178	0xbe3a8afc	-0.18217081
179	0x3e2d8ebb	0.16948979
180	0xbc54660c	-0.012963783
181	0x3daec7cd	0.08534203
182	0xbda80c7b	-0.082055055
183	0xbdab6682	-0.08369161
184	0xbdeeb1fb	-0.11655041
185	0xbe51303c	-0.20428556
186	0xbd1703d9	-0.036868904
187	0x3e4c97af	0.19979738
188	0x3be72efe	0.0070551625
189	0x3e4a203d	0.1973886
190	0xbc8e0de1	-0.017340602
191	0x3e4f1024	0.20221001
192	0xbe5a3922	-0.21310857
193	0xbe00ec38	-0.1259011
194	0xbc8e4165	-0.017365167
195	0x3e29bd38	0.16576087
196	0xbe914e63	-0.28380117
197	0xbe22ded8	-0.1590532
198	0x3e22a480	0.15883064
199	0xbe22b413	-0.15889005
200	0x3e515fb1	0.2044666
201	0xb9aa43de	-0.00032475492
202	0x3e18d282	0.14924052
203	0xbeadf016	-0.33972234
204	0x3e90acae	0.28256744
205	0xbd5a93be	-0.053363554
206	0x3c85994f	0.016308455
207	0xbe68b32b	-0.22724597
208	0xbe5951dd	-0.21222635
209	0x3e01cea9	0.12676491
210	0x3e4ebf63	0.20190196
211	0xbda88063	-0.08227613
212	0x3ce59956	0.028027218
213	0x3e38df56	0.18053946
214	0xbe04970d	-0.12948246
215	0x3e32b205	0.17450722
216	0x3dca79d5	0.09886519
217	0x3e1b2f2c	0.15154713
218	0x3da985fb	0.08277508
219	0x3d36b5f9	0.044607136
220	0xbd93e8a7	-0.07222109
221	0xbe2b8b21	-0.16752292
222	0x3e59812f	0.21240686
223	0x3d823bb7	0.06359046
224	0x3df747dc	0.12074253
225	0x3e5cd786	0.2156659
226	0xbdcb1dec	-0.099178165
227	0xbe6b99cb	-0.23007886
228	0xbe250f1e	-0.16119048
229	0xbe62e0a8	-0.22156012
230	0x3dff8c20	0.124778986
231	0xbeb14326	-0.34621543
232	0x3d3532b2	0.0442378
233	0x3e46540c	0.19367999
234	0x3e70fd5d	0.2353415
235	0xbe7e93aa	-0.24861017
236	0xbe62b749	-0.2214023
237	0xbde0fa64	-0.10985258
238	0xbe47d552	-0.19514969
239	0xbdb69d10	-0.08916676
240	0xbe515f6a	-0.20446554
241	0xbe4a211d	-0.19739194
242	0xbdf17878	-0.11790556
243	0x3e83b61a	0.2572487
244	0xbe8c57dc	-0.2741078
245	0xbd412aed	-0.047160078
246	0xbe87241b	-0.26394734
247	0x3e1359e8	0.14389765
248	0x3dec307f	0.115326874
249	0x3e1b7746	0.15182218
250	0x3d1bfed1	0.03808481
251	0xbe57c918	-0.21072805
252	0xbe197740	-0.14986897
253	0x3e04faf5	0.12986358
254	0xbdab4d90	-0.08364403
255	0xbe1a9427	-0.15095578

classifier.3.bias f4 [10]
0	0x3c87fa3f	0.016598819
1	0x3ed8f079	0.42370966
2	0xbe1b8771	-0.15188386
3	0xbcc45f83	-0.023971325
4	0xbdfab141	-0.1224084
5	0xbd93e9b6	-0.07222311
6	0xbd4351e9	-0.047685537
7	0xbddad3c4	-0.10684922
8	0x3dafa129	0.08575661
9	0xbcae6f44	-0.02129329
