day2/domain_adaptation/revgrad_32.pt (torch_old, 91045 bytes, 8 tensors)

feature_extractor.0.weight f4 [10, 3, 5, 5]
000000 f0 36 76 3e 80 41 37 3d c2 68 d4 3b 0d c2 18 3e
       0.24044394 0.0447402 0.0064822147 0.14917774
000010 69 bf ae bc 87 f9 4b be 68 32 78 be a4 9e c4 bd
       -0.021331506 -0.19919406 -0.24237978 -0.09600571
000020 cc 55 a1 be e8 a6 28 be 41 d2 43 be 71 8b 7c 3d
       -0.3151077 -0.1646992 -0.19123174 0.06165642
000030 8e 4d 5d bd 9b 77 d3 3c 05 f2 31 3e 5b c0 50 be
       -0.05402904 0.025813868 0.1737748 -0.20385878
000040 de 50 bc 3c bf 52 2e bd da 57 41 3e a3 1d b9 3d
       0.02298778 -0.04255938 0.18881169 0.09038856
000050 37 08 6f bd 44 2c 5a 3d c2 42 5d 3e 09 25 34 3e
       -0.058357444 0.05326487 0.21607497 0.17592253
000060 89 33 0c 3c 96 08 ae 3e e0 65 0f 3e 5c c5 62 bd
       0.008557209 0.33990926 0.14003706 -0.055363998
000070 31 3d 8a 3d 04 0a eb 3c 98 75 54 be b1 71 9a bd
       0.067499526 0.0286913 -0.20747983 -0.07541216
000080 3f 75 9e bd 9b 11 86 be 9e 7c 37 be 8a ae 47 be
       -0.07737207 -0.26185307 -0.17918631 -0.19500175
000090 c8 51 d3 bd 21 03 ba bd b3 a2 4f be f5 10 00 be
       -0.10318333 -0.09082628 -0.20276909 -0.12506469
0000a0 c6 4e ac be 47 65 7c be ae 63 6f be 14 4a 99 be
       -0.3365385 -0.24648009 -0.23377869 -0.2993933
0000b0 81 c7 29 be b2 ed f6 be 95 b2 6f be 4c d0 41 be
       -0.16580011 -0.48228222 -0.23407967 -0.18927115
0000c0 dd 80 53 be 11 d1 7c be 94 2b a0 be ed 1d 7d be
       -0.20654626 -0.24689128 -0.31283247 -0.24718447
0000d0 c5 c2 b7 be 04 47 2c bd 4e 39 92 3d 2c b8 1d 3e
       -0.35890785 -0.042059913 0.07139836 0.15402287
0000e0 93 5c ed 3d 1c 50 5b 3e 82 62 90 3e 3f fb 8a 3e
       0.11589923 0.21417278 0.28200155 0.2714481
0000f0 87 5c c4 3e ea f0 e3 3e 23 70 f0 3e d1 18 c3 3e
       0.38351843 0.4451974 0.46960554 0.3810487
000100 8a 11 26 3e c8 a7 e0 3e 7f ed f8 3e 59 83 f0 3e
       0.16217628 0.43878007 0.48618695 0.4697521
000110 bd 33 81 3e c7 54 f9 3d 86 9c 03 3f 51 86 0d 3f
       0.25234786 0.12174373 0.5141071 0.55283076
000120 50 7f 93 3e 55 7c 87 3e 34 48 04 3e fa 86 1d bd
       0.2880807 0.26462045 0.12918168 -0.0384588
000130 1d 2f 5e bd 89 8a 51 bd ee f8 40 be 04 56 0b be
       -0.05424415 -0.051157508 -0.18844959 -0.13607031
000140 2d 37 a8 3d 5c 79 76 bd a0 3f 9d bc 94 5d 64 be
       0.08213649 -0.06017433 -0.019195378 -0.22301322
000150 3c 81 9e bc 1e df 45 3e 3f ea d8 bd 44 7b 24 3e
       -0.019348733 0.19323394 -0.10591554 0.16062647
000160 61 b5 92 be 0e 15 3d 3e c2 97 35 3d 7b 3f a1 bd
       -0.28654006 0.18465063 0.04433418 -0.07873436
000170 9d 51 1f bd 8b e3 a0 be 1b 29 24 3e 1f 06 43 3c
       -0.038896192 -0.31423602 0.16031305 0.011903315
000180 b0 fa b7 bc bd 28 6e be 7f d6 66 bd 96 90 8b 3d
       -0.022458404 -0.23257728 -0.056356903 0.06814687
000190 f1 4e ba bd 0a 15 26 be 03 e0 c2 3c 1f c3 ee bd
       -0.09097088 -0.16218963 0.023788458 -0.1165831
0001a0 6d 3a 24 3e 4d 93 ae bd 94 f3 95 be a7 ce 43 3c
       0.16037913 -0.08524189 -0.29287398 0.011951125
0001b0 3a c1 eb bd c0 97 1d 3e d3 c8 0d be 96 bb 01 be
       -0.115114644 0.1538992 -0.1384614 -0.12669215
0001c0 13 24 07 be e3 7c d2 bc 84 c5 d2 3e 11 cc c8 bd
       -0.13197355 -0.025694316 0.41166317 -0.098045476
0001d0 ee 99 66 bd f9 60 ce bd 1a dc c8 3d 82 d6 2d 3e
       -0.056299143 -0.1007709 0.09807606 0.1697636
0001e0 d8 a7 2f be c3 52 96 bc 61 38 c4 bd 33 c2 8b 3e
       -0.17153871 -0.01835001 -0.09581066 0.272966
0001f0 e6 e4 5e 3e 52 0d f7 3e 63 b1 95 3e e5 70 91 3e
       0.21767005 0.4825235 0.29236898 0.28406444
000200 df af 9d 3e 0d 4f 87 bd 43 c4 a6 3e f4 8a 82 3e
       0.30798241 -0.066068746 0.3257161 0.25496638
000210 0c 45 aa 3e 58 c4 1e bd 6f 9e 97 be 88 b5 94 3e
       0.33255804 -0.038761467 -0.29613063 0.29044747
000220 d6 b2 84 3e af 55 8d 3e e1 63 98 be 7b c3 63 bf
       0.2591769 0.27604434 -0.29763702 -0.88970155
000230 b3 80 8f 3e 6b 27 b0 3e 74 31 3a 3e 34 70 55 be
       0.28027877 0.34405074 0.18182927 -0.20843583
000240 d9 d5 32 bf af 28 12 3e 72 c6 38 3e 04 72 1d 3e
       -0.69857556 0.14273332 0.18044451 0.15375525
000250 a7 cd 0d be 51 22 b0 be 39 c3 c5 bd 90 df a4 bd
       -0.13847981 -0.3440118 -0.096563764 -0.08050454
000260 c4 d7 51 3c c8 bb 7a 3d 5e 9e a5 3d 4b 70 a2 3c
       0.01280779 0.06121424 0.08086847 0.019828936
000270 45 64 da bb b9 46 68 be cc 36 5a 3e 0b 86 cb bd
       -0.006664785 -0.22683229 0.21309966 -0.09937676
000280 04 51 19 3d ff 0f 4c bd fc 2f 68 be 97 24 38 3e
       0.03743078 -0.049819943 -0.22674555 0.17982708
000290 ca be 7c 3d f5 d2 24 3c b7 19 0c 3e b4 86 8d be
       0.061705388 0.010060062 0.13681684 -0.27641833
0002a0 58 27 af 3d 27 51 10 3d 22 fc 42 3e db 88 23 3e
       0.08552426 0.035233643 0.19041494 0.15970175
0002b0 c1 d9 fb bd 7d 96 42 bd 75 76 e9 bd e0 0c 90 be
       -0.12297393 -0.047506798 -0.11399547 -0.28134823
0002c0 6a 9e 39 be db cc da bc 5c b7 d0 bd 2b 5c 52 3d
       -0.18126836 -0.02670901 -0.10191223 0.05135743
0002d0 c3 c3 19 be 3c b6 60 be d8 66 70 be 00 8f 76 bd
       -0.15016083 -0.21944517 -0.23476732 -0.06019497
0002e0 b5 f0 ff bc 4b 55 0b be 1d 41 1e 3c ef d2 82 be
       -0.031242708 -0.13606755 0.009659079 -0.25551555
0002f0 fc ce 97 3d 7c 60 20 be 48 6a dc bd 3e 94 ae bb
       0.07412526 -0.15661806 -0.10762459 -0.0053277304
000300 59 84 b8 bd c7 a5 97 bb aa 68 a0 bd 6a 14 1f be
       -0.09009618 -0.0046279165 -0.07832463 -0.15535131
000310 c3 45 00 3d 9a 7c 38 be 65 f3 14 be 8a db 17 be
       0.03131653 -0.18016282 -0.14545973 -0.14829841
000320 d1 fe 03 3f be 6a 09 3f fa 36 84 3e 98 5c 0e 3e
       0.51560694 0.536785 0.25823194 0.13902509
000330 40 31 df bd a8 76 8f 3e 02 2a af 3e a6 ea a4 3e
       -0.108980656 0.28020215 0.34211737 0.32210273
000340 0c eb 21 3e 51 ef af be a5 53 e7 3d ac 2a 80 3e
       0.1581232 -0.3436227 0.11295251 0.25032556
000350 e1 1b a7 3e 50 a9 90 3e a3 2c b4 bd 2b c8 86 be
       0.32638457 0.28254175 -0.08797576 -0.2632459
000360 9c 0f 2c 3e d2 f0 9f 3e fa 52 b1 3e 04 29 90 3e
       0.1680283 0.3123842 0.3463362 0.28156292
000370 79 d0 be be c9 7a f0 bb cc 0c dd 3e 36 13 e2 3e
       -0.37268427 -0.007338856 0.43173826 0.44155282
000380 0c 12 e4 3e a4 35 09 be c4 5f a8 bd d3 ce 01 bd
       0.4454502 -0.13399369 -0.08221391 -0.031691384
000390 65 1b 9e bd a9 33 04 bd 6e cf a5 3d 73 fc 3b bc
       -0.07720069 -0.03227583 0.08096205 -0.011473763
0003a0 91 7d 9d 3c ae ca 66 3c 74 c5 a0 bd a4 c5 13 be
       0.019224914 0.014086409 -0.07850161 -0.14430863
0003b0 df 62 7c bd 4d e1 b1 39 0e 74 88 3d c1 a2 87 bd
       -0.06161773 0.00033927933 0.06662761 -0.0662284
0003c0 12 0c b0 bb fd d8 04 3b 3a e6 20 bd 8a ce ba 3d
       -0.0053725326 0.0020270937 -0.03928206 0.091214254
0003d0 97 da 91 bd 7e 28 06 bd b7 27 19 3d c5 6b 06 be
       -0.07121771 -0.03275346 0.03739139 -0.13127048
0003e0 32 e6 44 bc 25 20 91 bc c6 a5 8f 3d 8a 67 53 bc
       -0.012017773 -0.017715523 0.07014041 -0.012903104
0003f0 81 5b 54 bd 75 25 ee bc b5 0d 94 bd bc 02 8e bd
       -0.051845077 -0.029070595 -0.07229177 -0.06934115

feature_extractor.0.bias f4 [10]
000000 18 10 09 bf d6 0e 38 be 00 c3 8c bf 20 a4 b1 bd
       -0.5354018 -0.1797441 -1.0997009 -0.086738825
000010 53 3e 31 bf 0a d0 04 bf 85 5d 95 be 0d 48 e7 bd
       -0.69235724 -0.5187994 -0.29172912 -0.112930395
000020 05 d2 23 bf 94 bd 08 bd
       -0.6399234 -0.03338392

feature_extractor.3.weight f4 [20, 10, 5, 5]
000000 90 19 f6 3e 69 f1 9d 3e 17 13 53 3e e4 e3 2f be
       0.48066378 0.30848244 0.20612751 -0.17176777
000010 4b 31 a7 bd 3a 86 ef bd 43 00 82 3d 46 5b 2c 3e
       -0.08163699 -0.116955236 0.06347706 0.16831693
000020 4b a6 0e 3e 59 27 95 be 8f 9b de be 24 db e4 bd
       0.13930623 -0.29131582 -0.43478057 -0.1117461
000030 d8 15 91 3e 4d 4a 19 3f 4d c6 32 3e 07 93 42 be
       0.28336978 0.59879 0.17458458 -0.19001399
000040 e0 aa ca be 2d ab 9c be da 6b da 3d 9d 9c 49 bb
       -0.39583492 -0.30599347 0.10665102 -0.0030763515
000050 73 21 54 3e d5 64 d7 3d f3 a2 af 3d 81 b2 2d bd
       0.20715885 0.10517279 0.08576002 -0.042406563
000060 74 67 20 3e 6d 1d 8f 3d 8c ac 48 3d d8 6c 43 b9
       0.15664464 0.069880344 0.04899268 -0.00018637197
000070 d4 5f a5 be 32 6b 6b be e6 ef 6a 3e 44 a4 1b be
       -0.32299674 -0.2299011 0.22943076 -0.15199381
000080 30 54 ec 3d 51 62 00 be bb 56 88 bd 89 d4 64 be
       0.11539495 -0.12537505 -0.066571675 -0.223467
000090 1a 01 04 be 38 f5 4a 3d dd 37 47 3d 56 de c5 3d
       -0.12891045 0.049550265 0.04863726 0.09661548
0000a0 87 65 c9 be b2 9f 9e bd bc b7 5c 3e 10 3d a6 bd
       -0.39335272 -0.07745303 0.21554464 -0.081171155
0000b0 d8 26 82 bd 0d 2c 3c 3e 64 e0 87 3c 2c 6c 07 bd
       -0.06355065 0.18376179 0.01658649 -0.033062145
0000c0 44 48 f6 bb b6 4b 1a 3e a3 6b 7f 3e 19 5d aa bd
       -0.007515939 0.15067944 0.24943404 -0.08318538
0000d0 cc b8 15 bf dc 32 f8 be 48 61 aa 3e bb b7 40 3e
       -0.584851 -0.48476303 0.33277345 0.18820088
0000e0 53 e0 df 3e b5 1a da 3e 74 dd 1c 3e 5f 9f 8a 3e
       0.43725833 0.425985 0.15318853 0.27074715
0000f0 90 73 11 be 02 89 af 3e 07 99 ab 3e 5b 8a c4 3e
       -0.1420424 0.34284216 0.33515188 0.38386807
000100 a4 b7 b1 be f1 c7 b6 be 55 86 04 3e f8 b9 77 3e
       -0.3471042 -0.35699418 0.12941869 0.24192035
000110 e2 e1 f8 bc 7a 5b 99 be 7a ce e0 3d de 8a de be
       -0.030381147 -0.29952604 0.10976882 -0.43465322
000120 5a 74 02 be 9d a9 97 be d6 54 19 3d 8b 38 3d bb
       -0.12739697 -0.29621592 0.03743442 -0.0028872814
000130 16 79 14 bd e2 68 67 bc 51 8a 13 3d 66 c1 44 3d
       -0.03624829 -0.014124127 0.03602058 0.048036
000140 80 0f 80 3d 11 f1 8d 3c f8 18 82 bc 04 c6 0b bd
       0.062529564 0.017326863 -0.015881047 -0.03412439
000150 42 01 c1 3c 5f af 75 bd d0 7b 2b bd ea 92 a3 3c
       0.02356017 -0.0599817 -0.041866124 0.019967515
000160 28 fa dd 3c 89 a6 66 bd ba 4e 0b 3d 77 51 3c bd
       0.027096823 -0.056311164 0.034010626 -0.04597613
000170 f3 34 6a 3d 79 af 72 3c 4a 2a d9 bc ce d7 41 3c
       0.057179403 0.014812344 -0.026509423 0.011831237
000180 ed 52 e2 bb 32 99 22 bd 2c ed 31 bc 01 42 88 3c
       -0.006906858 -0.03969688 -0.010859769 0.016633036
000190 92 f9 0d be 05 20 bf bd 42 f8 c9 3b fb 23 a0 3e
       -0.13864735 -0.09332279 0.006163628 0.3127745
0001a0 2a 51 63 be a7 9e 2f 3e 42 88 8a be a6 c4 15 bf
       -0.2219893 0.17150365 -0.2705708 -0.58503187
0001b0 2b e4 1c be 33 41 37 3e ae 8a 44 be 6e 28 b7 3d
       -0.15321414 0.17895965 -0.19193527 0.08943258
0001c0 4d 13 4c be 68 c3 c4 be eb 3c 1a be a8 02 d4 3c
       -0.19929238 -0.38430333 -0.15062301 0.025880173
0001d0 e1 c2 1c 3d 87 29 c3 bd 8c 67 04 3d a7 68 ee bd
       0.03827179 -0.09529405 0.032325312 -0.116410546
0001e0 44 63 8e 3e 36 46 8b 3d 1e 92 0b be 82 f8 c0 3d
       0.2781011 0.06800501 -0.13629958 0.09422399
0001f0 da fc 63 bd d9 22 f8 bd 72 e1 39 bd a0 73 5b be
       -0.05566106 -0.12116022 -0.045381017 -0.21430826
000200 ce f1 8b be 71 5d 0c 3f bc 88 6b be a3 74 14 be
       -0.2733292 0.5483008 -0.23001379 -0.14497618
000210 92 6d f3 ba b0 79 67 3e ec a5 17 bf 6b 4f cd bd
       -0.0018572083 0.22605014 -0.5923755 -0.100249134
000220 89 81 d9 3c 07 fa 27 bd f4 e4 e2 3e c6 c1 84 3e
       0.026551025 -0.04100993 0.44315302 0.25929087
000230 3f de c9 3e 91 51 f6 bc 02 cd 43 be 3a a3 30 bd
       0.39427373 -0.03006819 -0.19121173 -0.043124415
000240 21 e6 32 be c7 b4 1f 3d 06 0e 61 bd af ad ab be
       -0.174706 0.038990762 -0.054945014 -0.33530948
000250 ad 0f db 3b 4c d5 42 3e 25 31 a2 3e 27 09 0e 3e
       0.0066852183 0.19026679 0.3167812 0.13870679
000260 2c 20 b5 bd 81 05 a1 3e 6a 76 19 be 05 d7 a1 3d
       -0.08844027 0.31449512 -0.14986578 0.0790234
000270 8e 44 e6 3d 6a 4c 83 bf 3f 49 33 be 4a bb a0 3d
       0.112435445 -1.0257695 -0.1750841 0.078482226
000280 a0 03 93 bd 25 6f cd 3e a0 73 cc 3e 4d 83 ae be
       -0.07178426 0.4012386 0.39931965 -0.3408455
000290 54 29 70 be ab c4 17 be 2b 3a 79 be 86 93 b8 3d
       -0.23453265 -0.14821117 -0.24338596 0.09012513
0002a0 4f 58 b1 3d 64 c1 21 3d 66 c4 fe be 93 dd 5f 3e
       0.08659422 0.039491072 -0.49759215 0.21861868
0002b0 c6 83 ab bc 51 c8 f1 3c cf 24 7a bd 3d 66 2c be
       -0.020936858 0.029514464 -0.06107026 -0.16835876
0002c0 21 be 8e be 82 52 9a 3d 33 43 ab 3e f5 66 89 3e
       -0.27879432 0.07535268 0.33449706 0.26836362
0002d0 dc df f0 bb c2 1f 62 be b4 17 05 3d ac 14 da be
       -0.007350905 -0.22082427 0.03249331 -0.42593896
0002e0 67 6c bb 3b fb d1 bd bd c5 9f 40 3e a5 76 f3 3e
       0.0057197097 -0.09268566 0.18810947 0.47551456
0002f0 a3 33 04 3e e3 d7 9e be e2 de c7 3e 09 e8 37 bd
       0.12910323 -0.31024083 0.39037234 -0.04489902
000300 b3 0d f8 3d 66 20 b0 bd 81 91 4f be c4 b4 c6 3e
       0.12111988 -0.085999295 -0.20270349 0.38809788
000310 22 a8 c4 3c 29 fa 68 bd 8c 17 b7 bc 19 c3 d8 3d
       0.024005953 -0.056879196 -0.022350095 0.10584087
000320 7e 7f c1 be 7a ab e7 bd 18 ad f8 b8 31 01 73 bd
       -0.3779258 -0.113120034 -0.00011857803 -0.059327308
000330 6c 67 b0 bd 72 f5 c4 3c f1 37 4b bd 4a f2 46 3e
       -0.08613476 0.024042819 -0.049613897 0.19428363
000340 62 c8 df 3d ba 68 37 3e f9 69 1a 3e 57 ce 93 be
       0.10926892 0.17911044 0.15079488 -0.28868362
000350 e6 38 b1 bc b9 35 83 be 14 60 47 3d 49 e0 76 3c
       -0.021633577 -0.25626925 0.04867561 0.015068122
000360 45 9b 8d 3e 63 ad 41 be 2a 01 1b be 1a 7a 20 be
       0.27657524 -0.18913798 -0.15137163 -0.15671578
000370 47 7e 87 be 16 53 c9 bc cf 57 8c 3e 5a e3 0e 3c
       -0.2646353 -0.024575751 0.27410743 0.008721197
000380 d5 30 49 3e f4 3b 06 3e a4 39 ab bd 59 63 08 3e
       0.19647534 0.13108808 -0.083606035 0.13319148
000390 cc 25 89 be be 4c d1 3e b9 17 17 bf d3 b7 73 bd
       -0.2678665 0.40878862 -0.5902057 -0.05950148
0003a0 fc 80 78 3e 3a 35 e4 3d f0 1f 17 bd 9a 96 1d 3c
       0.24267954 0.11142965 -0.036895692 0.009618426
0003b0 20 c2 45 be 81 cc 44 bf e1 a3 bd be b2 19 8f bd
       -0.19312334 -0.7687455 -0.37039092 -0.06987323
0003c0 3a 7a ae 3d 82 1b 93 be 9d 5f 8e be e5 20 e0 3e
       0.085194066 -0.28731924 -0.27807322 0.43775097
0003d0 ff d6 3b 3e b3 9b 71 3e 6b 17 54 3c f6 e9 2a 3d
       0.18343733 0.23594551 0.012945036 0.04172703
0003e0 fe 30 e1 3d bc 58 e9 bd 1e 90 fa 3e 98 88 b2 bc
       0.10995673 -0.11393878 0.48938078 -0.021793649
0003f0 e6 6d 92 be ee 0e 57 be 72 2b 96 3d 8e ae 1f 3e
       -0.2859947 -0.21001789 0.07332505 0.15593931

feature_extractor.3.bias f4 [20]
000000 04 5e cd be 42 17 b5 3c 0c 42 ac be f4 15 74 3e
       -0.4011079 0.022105817 -0.3364414 0.238365
000010 21 96 39 bf 5d 32 2d bc 52 a5 0c bf ad 59 54 be
       -0.72494704 -0.01057109 -0.5493976 -0.20737334
000020 2a 2f 80 bd 74 d4 0a 3e 7d a1 70 be 07 55 b5 bd
       -0.06258996 0.13557607 -0.23499103 -0.08854108
000030 8e 2b e0 be 8e 4f 58 be d0 07 8f bd 94 0f 85 3d
       -0.4378323 -0.21124098 -0.06983912 0.06497112
000040 c5 ba 49 3e 64 dd 4b bd ee b5 a5 3d 48 94 c5 bd
       0.19700153 -0.04977168 0.08091341 -0.09647423

classifier.0.weight f4 [50, 320]
000000 e4 70 77 3d 05 bd 98 bd ca 91 37 be d0 e4 06 be
       0.060410395 -0.074579276 -0.17926708 -0.13173223
000010 f3 b5 5b be 6a 1a 8d be a1 41 36 be 44 bb 2a 3e
       -0.21456127 -0.27559215 -0.17798473 0.16672999
000020 e4 d8 19 be 70 d9 ca 3d 62 5c c5 3d be 33 84 bb
       -0.15024143 0.09904754 0.09636761 -0.0040344885
000030 ee 41 26 bc f5 a0 38 3d 24 2b 72 be 91 98 b3 3d
       -0.010147555 0.045075376 -0.2364927 0.08769334
000040 62 7b e2 bd 7c 8e bd bc b1 de ab bd c0 f5 cc bd
       -0.1105869 -0.02313923 -0.083920844 -0.100078106
000050 af 22 66 3e e3 52 89 3e b7 87 21 3e ff b7 94 3d
       0.22474168 0.2682105 0.15774427 0.07261657
000060 59 7b eb 3d fb 1a 35 3e a6 9b 14 3e 59 6b 83 be
       0.11498136 0.17686073 0.145125 -0.25667837
000070 00 ad 9b be 7c d9 75 be d9 fc f2 bd 15 2b d9 bd
       -0.30405426 -0.24008745 -0.11864633 -0.1060392
000080 7d 8d 1f 3d 4b 73 7c 3e b2 34 12 be e1 16 71 3d
       0.038953293 0.24653356 -0.14277914 0.05885971
000090 c6 7b ae be 13 ea 74 3d 33 3d 2b be 70 5d 0b be
       -0.34078807 0.059793543 -0.16722564 -0.13609862
0000a0 12 34 ce bd 4b 54 eb bd 8a 5d 85 3e 6a 6e 40 be
       -0.100685254 -0.11490687 0.26047927 -0.1879212
0000b0 98 de 9a 3d 87 32 6f 3e c0 1a 04 bd f7 d5 e0 bd
       0.07561988 0.23359118 -0.032252073 -0.109783106
0000c0 73 8b 4a 3e 3b 03 96 bc e3 07 2b 3d 3d 2e 30 3e
       0.19779758 -0.018312087 0.04175557 0.17205139
0000d0 cd 5e 4e be f9 0e 6d 3d 6c 12 c3 bd 91 19 fd 3d
       -0.20153351 0.057875607 -0.09524998 0.12358392
0000e0 47 7b 13 3e 1b bb 28 3d 73 50 b3 bd fa 41 06 3d
       0.14402495 0.041194063 -0.08755579 0.032777764
0000f0 1f 7d 89 be 5c 9a aa 3d ad 7b bc bd dc 25 47 bd
       -0.26853272 0.08330223 -0.09203277 -0.04862009
000100 95 23 66 3e d5 71 b1 bd 35 f2 d9 bd a8 d8 03 3e
       0.22474511 -0.0866429 -0.106419004 0.12875617
000110 89 4f 89 3d b9 a2 b8 3e d2 f7 b2 3d e3 ec c3 bd
       0.06704623 0.36061648 0.08738674 -0.09566667
000120 06 ad 77 3e 2e 8b 58 3e 82 eb a0 3d b7 10 80 3e
       0.24187097 0.21146843 0.078574196 0.25012752
000130 0b e7 96 be 94 86 39 bd cc ae 28 bd 73 05 a4 be
       -0.29473147 -0.04529436 -0.041182324 -0.32035407
000140 69 e3 fc be 08 69 41 be c9 ef 66 3d a4 6b 87 be
       -0.4939225 -0.18887722 0.05638102 -0.2644931
000150 6e e3 52 be 23 50 34 bd 3f 4c 41 3d 1c 90 0c bd
       -0.2059457 -0.044021737 0.047191855 -0.03431712
000160 bd 09 2f 3e 81 a0 81 3e 51 d5 72 3e 26 ef cb bc
       0.17093559 0.25317767 0.23714186 -0.024894308
000170 f5 4d 4b bd 8a a9 76 bd ea a1 31 bd f0 18 f7 3e
       -0.049634892 -0.06022028 -0.043367304 0.48261213
000180 31 db 98 3d 72 e0 4a 3e 7e 06 8f bd 96 c5 7a bd
       0.074636824 0.19812182 -0.0698366 -0.06122359
000190 a9 ff b0 be 52 7b a8 bd 50 c5 58 bd 42 f2 9f be
       -0.34570053 -0.082266465 -0.052922547 -0.31239516
0001a0 c7 43 5b 3e 84 13 9e bc ec 3a 98 3c 82 c5 80 3e
       0.21412574 -0.019296415 0.018582784 0.25150687
0001b0 1e 76 a0 bd 67 38 4f 3e 06 1f 1d 3d 3d 0a 81 3c
       -0.07835029 0.2023636 0.038359664 0.015751952
0001c0 38 fc 5d bc 1d 23 95 bd 54 87 a0 bd 67 60 9c 3d
       -0.013548903 -0.07282088 -0.07838312 0.07635575
0001d0 fb 20 03 be ec 4f 46 bd 01 50 8b bc 8a 94 8e be
       -0.1280555 -0.048416063 -0.017005922 -0.278477
0001e0 b1 8a b8 be 0d a9 0f 3e 33 06 55 3e ce 1f 08 be
       -0.36043313 0.14029332 0.20803146 -0.13293383
0001f0 9a 23 81 3b 7c 66 24 3e 5b 39 d1 bc 9f 08 9d 3e
       0.0039410116 0.1605472 -0.025540045 0.3067064
000200 35 66 99 be a0 94 a0 bc ba 46 01 be 58 55 67 be
       -0.2996079 -0.01960212 -0.12624636 -0.2259115
000210 b5 e7 bd be 89 4e f3 bd e5 47 65 be 31 92 be be
       -0.3709084 -0.11880214 -0.22390707 -0.3722091
000220 d5 4d 0e 3c 99 40 de 3d 82 6e 9c 3d 72 b8 65 be
       0.008685549 0.10852165 0.07638265 -0.22433642
000230 4f 29 ee 3d 49 52 20 3e b3 a5 84 3e 52 2b 99 3d
       0.11628973 0.1565639 0.25907668 0.07478966
000240 0c 7d cf bd 7d 54 cb 3d 4b 44 6a 3e 52 78 03 3e
       -0.10131273 0.09928224 0.22877614 0.12838867
000250 8e a9 ee 3e 80 94 17 be bb bf 79 bb 32 ce a8 bc
       0.46613735 -0.14802742 -0.0038108665 -0.020606134
000260 1c 13 eb 3d 35 ab 92 be 73 66 83 be b8 19 33 bd
       0.11478254 -0.28646246 -0.256641 -0.0437257
000270 fa 1b a3 bd cd 07 3d 3e d4 59 01 3d fb 79 3e bd
       -0.079643205 0.18460007 0.031579807 -0.04650305
000280 65 3c 21 3e 2c 83 b0 bd df f1 3c 3d 32 d1 19 be
       0.15745695 -0.08618769 0.046129104 -0.15021208
000290 53 85 57 bd 33 78 4e 3e 6f 49 78 3c 1f a2 58 3e
       -0.052617382 0.2016304 0.015154227 0.21155594
0002a0 72 d8 af be 1a c9 9e bd a5 0d b8 bc f3 60 55 3b
       -0.34344822 -0.07753201 -0.022467444 0.0032559007
0002b0 04 cd 03 bf 41 dd 13 be cd ac d3 bd 7b 63 ff be
       -0.51484704 -0.1443987 -0.103356935 -0.49880585
0002c0 78 48 55 bc 66 ee fc 3d ec 4d 01 3e ad 0d ab 3e
       -0.013017766 0.123501584 0.12627381 0.3340887
0002d0 1e 59 da be e7 be 8c be ef aa fc 3d 0e 63 3b be
       -0.42646116 -0.27489397 0.123372905 -0.18299505
0002e0 a4 42 0e bf 2a 71 67 be c7 02 14 be 96 de 82 be
       -0.55570436 -0.22601762 -0.14454184 -0.25560445
0002f0 33 50 30 3e 73 f6 b4 3e c7 9e ac 3e e4 dc f7 3d
       0.17218094 0.35344276 0.33714887 0.121026784
000300 3d e8 d6 be 9d ef 10 be 69 02 b8 3c 9d 64 bc be
       -0.4197406 -0.14153905 0.022462087 -0.36795512
000310 02 3f 10 bd 27 fe 00 3d 3b fc 66 3e f4 6c 45 3c
       -0.03521634 0.03149238 0.22557156 0.012049902
000320 ce e2 de 3c a6 92 59 3e 27 86 50 3e b3 a0 1e bd
       0.027207758 0.21247348 0.20363675 -0.038727473
000330 3a 99 91 be 34 8f 0a bd a8 63 b1 bd 39 98 a8 be
       -0.28437215 -0.033827975 -0.08661586 -0.32928637
000340 bc f8 de bd fc 41 44 be a3 bd 11 be 07 1f d6 3d
       -0.10887286 -0.19165796 -0.14232497 0.10455137
000350 37 00 1b be cc cc 01 3e 6c 8e b4 3d e2 7e 2b 3e
       -0.151368 0.1267578 0.08816227 0.1674762
000360 84 4f fd bd d9 2d 4d 3e 89 cb 42 3e 23 7a 9c 3d
       -0.12368682 0.2003702 0.19022955 0.07640483
000370 0e c7 bc be d0 1d 6d 3e 03 1f aa be a3 ef 0e 3d
       -0.36870617 0.23155904 -0.33226785 0.034896504
000380 57 13 c2 3e d9 c8 c1 3c b5 a8 bd 3d a4 71 88 3e
       0.3790538 0.023655342 0.09260694 0.266492
000390 dc b0 20 be d5 c9 5c 3d ab 74 4f be 0f 9a 13 be
       -0.15692466 0.05390342 -0.20259349 -0.14414237
0003a0 08 5b b9 be 10 23 e7 bd 72 d0 44 be ee f0 ad be
       -0.36202264 -0.112859845 -0.1922014 -0.33972877
0003b0 7f 8a 42 3e b6 f5 13 3d e6 de c2 3d fb 1a d1 bd
       0.18998145 0.036123 0.09515171 -0.10210224
0003c0 30 ee be 3e 58 f3 8f 3d 63 50 4a 3e 4f f8 96 3d
       0.37291098 0.07028836 0.19757228 0.0737158
0003d0 60 97 74 3e 44 dd 85 bc 6c e8 19 3d c3 d7 70 bc
       0.2388587 -0.01634086 0.03757517 -0.014699879
0003e0 50 f6 49 be b0 55 a3 be 34 2a f3 bc eb 61 01 3d
       -0.19722867 -0.31901312 -0.02968321 0.031587522
0003f0 43 eb 6c 3e 7f 53 be 3b ef f5 c9 bc 63 1b 76 be
       0.2313662 0.0058082934 -0.024653403 -0.24033885

classifier.0.bias f4 [50]
000000 0a 26 54 3d bf 4c 12 3e 71 1b 06 3e 42 b6 72 3e
       0.05179409 0.14287089 0.13096406 0.23702338
000010 89 d0 b8 3e 08 aa bd 3e 3d 0e e7 be 6f 3f 06 be
       0.360966 0.37043786 -0.4512805 -0.13110135
000020 4c de 70 3e 5a de d6 3d df 64 98 3e 3a 9c bf be
       0.235223 0.10491629 0.2976446 -0.3742388
000030 65 f6 7d be a9 64 04 3f 21 ee 91 3e 88 e2 a0 3d
       -0.24801023 0.51716095 0.2850199 0.078557074
000040 08 eb 84 3d 00 30 1e be f7 36 05 3f fe 8d d4 bd
       0.06490141 -0.15447998 0.52036995 -0.10378645
000050 d0 c2 d4 3e 18 63 c3 3e fb 87 4d be 04 53 da 3e
       0.4155488 0.3816154 -0.20071404 0.4264146
000060 f1 a1 bd 3e 4b 00 4e 3d 0b 54 ba 3e 76 0b 84 3d
       0.37037614 0.05029325 0.36392245 0.064474985
000070 f4 19 26 3f a8 d1 42 bd 33 97 00 3f 53 20 97 bd
       0.6488335 -0.047563225 0.5023071 -0.07379212
000080 0b ee c5 be 7d 4c a6 be e6 65 c3 3e aa 00 b5 3e
       -0.38658175 -0.3248023 0.3816368 0.3535207
000090 e9 72 2c 3f 33 17 03 3f 94 1a 8d 3e 49 1b 79 be
       0.6736284 0.51207274 0.2755934 -0.24326815
0000a0 52 46 cf 3e 8a a9 d4 3e 53 dd d4 3e a2 6a 54 3f
       0.40483338 0.41535598 0.41575107 0.8297521
0000b0 ae 9c 23 bb 9c 37 28 bf 26 9e 56 bd 9d 3d e5 bd
       -0.0024965215 -0.65709853 -0.052396916 -0.111933924
0000c0 fa 9d 03 bf f6 7d ff 3e
       -0.5141293 0.49900788

classifier.3.weight f4 [10, 50]
000000 d8 f5 d1 3d 42 f7 d6 be a4 74 a2 be 18 9f 11 3e
       0.10251969 -0.41985518 -0.31729615 0.14220846
000010 8c 78 95 be 76 fa 0e be b0 c8 f8 3d a0 cb 8a bd
       -0.29193532 -0.13962731 0.12147653 -0.0677712
000020 88 14 2d be 66 f8 8e 3d 01 78 25 bd 5d c2 03 3e
       -0.16902363 0.06980972 -0.040397648 0.12867112
000030 5e e0 3d bb 27 2d 9a be b2 0e 11 be 43 50 20 3d
       -0.0028972845 -0.30112574 -0.14165762 0.039139044
000040 c3 39 83 3d 66 a0 77 be 9c 1b 17 be af bf b8 3d
       0.064075015 -0.24182281 -0.14756626 0.09020936
000050 b3 5c d4 3d 9d 76 06 3e f7 dd d0 bd 74 e1 54 be
       0.103692435 0.13131185 -0.101985864 -0.20789129
000060 0d d2 44 be ea e0 41 be 9c 2d 05 3e be d1 12 bd
       -0.19220753 -0.18933454 0.1300568 -0.035844557
000070 04 9a 06 be fa 7e 53 be d8 88 85 be e8 3e c3 3d
       -0.1314469 -0.20653906 -0.26080966 0.09533483
000080 a8 ec ca 3d 7b 1b 8b bd ff c9 96 be 3f 7f 9f 3d
       0.0990842 -0.06792351 -0.29450986 0.07787942
000090 ea 39 7f be 34 b6 38 be bd a8 8a 3d e1 fb 49 be
       -0.24924436 -0.18038255 0.067704655 -0.1972499
0000a0 28 b3 81 3d 7e 1a 15 be 9c 78 3f 3c a1 0e 17 bf
       0.063329995 -0.14560887 0.01168647 -0.59006697
0000b0 66 f9 de 3d 48 ae f7 bd cf 5d 12 3d 92 a2 92 bd
       0.10887413 -0.120937884 0.035733994 -0.07159914
0000c0 66 da 6e be 75 6e 96 bd b3 92 37 be b2 4b 8e 3d
       -0.233255 -0.07345287 -0.17927055 0.069480315
0000d0 6f c0 9d bd 7b e1 21 bd 05 d4 e1 3d da c7 87 3d
       -0.077027194 -0.039521676 0.11026768 0.066299155
0000e0 7c 60 b3 3c ac 86 15 be c1 95 ed 3d f9 a5 c8 3d
       0.021896593 -0.14602154 0.11600829 0.09797282
0000f0 e5 13 38 bd c2 b5 ae bd 2a f3 4c bd d1 24 55 bd
       -0.044940848 -0.08530761 -0.050036587 -0.052037064
000100 26 46 f9 bb ab 28 11 3e ac 64 89 bd 0e fb 11 bd
       -0.0076072393 0.1417567 -0.06708655 -0.035639815
000110 17 1f 01 3e ba 2b 6e be 6f 45 f8 3d bc 35 03 3d
       0.12609516 -0.23258868 0.121226184 0.032033667
000120 62 8d 54 be a9 32 d4 bd 7e ff 59 bc 8a d0 09 3e
       -0.20757058 -0.10361225 -0.013305543 0.13458458
000130 6f 2f be 3d 29 b0 14 3d 72 e1 51 3d 73 25 7a bd
       0.09286391 0.036300812 0.051240392 -0.06107087
000140 02 08 56 be 5d dd 6f be e7 b3 65 bd cb 56 60 be
       -0.20901492 -0.23424287 -0.05607977 -0.21908109
000150 4c e0 08 3e b2 7b c7 bd fd 58 06 3e f6 42 8f 3d
       0.13366812 -0.0974039 0.13119884 0.06995194
000160 36 71 71 bd 7c 7e db 3d c5 cc bc be 21 39 10 3e
       -0.058945857 0.10717484 -0.36874977 0.14084293
000170 c8 e8 06 3e d1 97 5d 3e 98 51 4f be 16 7f 40 be
       0.13174736 0.21639945 -0.2024597 -0.1879848
000180 8c 9a aa be 24 3c aa be b9 c8 0b be 86 0a f8 3d
       -0.33321035 -0.3324901 -0.13650788 0.12111382
000190 f6 74 dd 3d 8a d1 26 bd 87 83 9d bd 58 a5 c4 3d
       0.10813324 -0.040727176 -0.076911025 0.09601849
0001a0 b5 c1 1f bc a6 e1 89 bd 31 37 b4 3c 00 a4 b6 bd
       -0.009750773 -0.06732492 0.021998974 -0.08917999
0001b0 b1 bd 2a 3e 9c 54 be 3d a6 93 96 3d c2 fa 8c 3d
       0.16673924 0.09293482 0.073523805 0.06883766
0001c0 a4 e9 14 3e 5c 39 0b bd 0a 36 d8 3d be 3b d1 bd
       0.14542252 -0.03399025 0.10557182 -0.10216473
0001d0 61 33 4e 3d 9f e8 3a 3d 9e e0 e3 3d 90 3d dd bd
       0.050341967 0.045632 0.11126827 -0.10802758
0001e0 31 8c 87 be 96 59 ac 3d 72 bc a4 bc a5 94 fa 3c
       -0.26474145 0.08415525 -0.020109389 0.030588457
0001f0 6a 53 65 3d b5 ce b7 bd d6 e0 f5 3d d2 37 df 3d
       0.055987753 -0.08974973 0.12005775 0.10899319
000200 9a 2b a3 3d 26 26 f1 3d 46 9f ac 3c 5c dc 36 3d
       0.07967301 0.11774854 0.021072041 0.044643745
000210 da 58 b8 bd 45 9d ef 3d 0e 07 f8 bd 1e be 21 be
       -0.09001322 0.11699919 -0.121107206 -0.1579518
000220 bb 85 0f 3e d9 7e 93 3d 59 08 80 3d a4 f2 ae bd
       0.14015858 0.07201929 0.06251592 -0.08542374
000230 9f 7f 0e be 6b 05 0e 3e 1d 7f a6 bd 2c 08 37 bd
       -0.13915871 0.13869254 -0.08129714 -0.044685528
000240 ec 7e f8 3d 44 80 b4 bd 67 e4 9b be 3f c8 3c be
       0.121335834 -0.08813527 -0.30447695 -0.18435763
000250 db 14 7c bd df 02 ed bc a7 22 b0 bd 75 9e cf bc
       -0.061543327 -0.028932033 -0.086003594 -0.025344113
000260 95 b7 a9 bd 88 47 8a 3b b1 3a 91 be 9f 09 9c be
       -0.082869686 0.004219953 -0.2836509 -0.3047609
000270 1f 15 0b 3e a9 48 f9 3d b8 11 35 3e 20 0e ac bd
       0.13582276 0.12172062 0.1768254 -0.08401132
000280 3a ff 93 bd 62 d8 e4 3d 29 2a 16 3e 02 4f 15 3e
       -0.07226415 0.11174084 0.1466452 0.1458092
000290 2e 30 d9 3d 2a 87 d7 bd dc 35 c8 bd f2 54 0d 3e
       0.10604893 -0.105238274 -0.09775898 0.13801935
0002a0 b8 4c 02 bd 62 40 d7 bd b8 8b 20 be c2 0d f0 3d
       -0.031811446 -0.10510327 -0.15678298 0.11721374
0002b0 5e 74 ea bc d0 5b e0 3d cc c1 a9 bd d8 77 aa bd
       -0.028619941 0.10955012 -0.08288917 -0.0832364
0002c0 56 cd ab bd 05 49 d1 3d a2 f8 a8 bd 0c c6 f8 3d
       -0.08388774 0.102190055 -0.08250548 0.121471494
0002d0 b8 4a 81 bd 79 31 aa 3d 78 31 09 bd ab 98 f1 bd
       -0.063130796 0.083102174 -0.033494443 -0.11796697
0002e0 7a 51 b3 bd 6d 3f c5 bd d6 df 0d 3c 35 ee 83 3d
       -0.08755775 -0.09631238 0.008659324 0.06441919
0002f0 84 4c 6c bc 1f ff dc 3d da 4a 9c bd e2 7c 0a 3e
       -0.01442254 0.10790848 -0.07631464 0.13524202
000300 0e fb 21 bd 8e a7 62 bd 0d a2 0f 3c 6b a4 f0 3d
       -0.039546065 -0.055335574 0.008766663 0.1175011
000310 51 d1 3e be 07 55 2b be 7f c3 07 3e 7b c6 62 bd
       -0.18634535 -0.16731654 0.1325817 -0.055365067
000320 3c 0b 21 3e 2f 40 99 b9 70 9a ce 3d cb 89 46 be
       0.15726942 -0.00029230255 0.1008805 -0.19388501
000330 8d 4b 11 3e 52 e0 cf 3d da 3c bf 3b 42 c1 95 bd
       0.14188977 0.101502076 0.0058361115 -0.073122516
000340 38 76 9d bd e3 23 c1 3c 14 cf b2 3d 32 8e da 3d
       -0.07688564 0.023576682 0.08730903 0.10671653
000350 4d 36 a4 bc e0 f8 16 3e b1 5b a8 3d 9d a5 e7 3d
       -0.020045424 0.14743376 0.08220614 0.11310885
000360 45 14 8b 3d f3 b6 04 3e 41 cc 98 3c b3 20 90 bb
       0.067909755 0.12960415 0.018652083 -0.0043984293
000370 d6 10 c1 bd a7 97 8d bd 7f 4d d4 3d 17 d9 94 3d
       -0.09427039 -0.06913691 0.10366344 0.07267969
000380 c3 9a 9f 3d a8 be 1d 3e 9d 1e 44 be 41 c4 17 be
       0.0779319 0.15404761 -0.19152303 -0.14820959
000390 92 3a d4 bd 96 b0 10 be bf 09 e4 3d a4 c3 39 be
       -0.10362734 -0.14129862 0.111346714 -0.18141037
0003a0 b3 a8 00 3d 19 50 f6 3d f1 bf 04 3e 2e 00 1b be
       0.031410884 0.12026996 0.12963845 -0.15136787
0003b0 9b ac 29 bd 4a 6e 1a be aa 80 ca bd d3 ec c0 bd
       -0.041424375 -0.15081134 -0.09887822 -0.09420171
0003c0 89 44 03 be 48 ea b8 bd 20 7c a2 bd 08 0c 4c 3e
       -0.12819113 -0.090290606 -0.07933831 0.19926465
0003d0 d1 62 28 bd 01 a4 b4 3c 30 ba 3a be c0 d9 83 3d
       -0.041109864 0.02205086 -0.18235087 0.06438017
0003e0 69 c7 aa 3d 92 06 1d 3e 10 a1 f5 3c ca c3 8f bd
       0.08338816 0.15334538 0.029984027 -0.07019766
0003f0 a9 5d 28 be c5 8e 05 3e dc 86 97 be 08 6f b5 bd
       -0.16441979 0.13042744 -0.29595077 -0.08859068

classifier.3.bias f4 [10]
000000 a9 a2 71 3f bc 88 29 3f 62 3d aa be ab 33 dd bd
       0.94388825 0.66224265 -0.33249956 -0.108008705
000010 63 90 fb be 5b 1b e4 bd 2b f5 ad bc 8a fc 07 bf
       -0.49133596 -0.1113803 -0.02123507 -0.5311972
000020 45 23 c3 3e 3d 46 61 be
       0.38112846 -0.2199945
