day2/domain_adaptation/revgrad_34.pt (torch_old, 91045 bytes, 8 tensors)

feature_extractor.0.weight f4 [10, 3, 5, 5]
0	0x3e6a4d32	0.2288101
1	0x3d478b35	0.048716743
2	0x3c9383c2	0.018007163
3	0x3e257686	0.16158494
4	0xbcc951c7	-0.024575127
5	0xbe5a1117	-0.21295582
6	0xbe825046	-0.2545187
7	0xbdd90e96	-0.10598485
8	0xbea6fe54	-0.32615912
9	0xbe34d7b8	-0.17660415
10	0xbe2af672	-0.16695574
11	0x3da0ab27	0.07845145
12	0xbce5bc42	-0.02804387
13	0x3ce14f22	0.027503554
14	0x3e260715	0.16213639
15	0xbe3190d2	-0.17340401
16	0x3d548124	0.05188097
17	0xbd0e75fb	-0.034780484
18	0x3e420524	0.18947273
19	0x3d8210f3	0.06350889
20	0xbd4bc346	-0.049746774
21	0x3dafdef6	0.08587448
22	0x3e4e155c	0.20125335
23	0x3e3403ec	0.17579621
24	0x3c4aae87	0.012370712
25	0x3ea9d3eb	0.33169493
26	0x3e173179	0.14764966
27	0xbd2a9aef	-0.041651662
28	0x3d9d395d	0.07676957
29	0x3cb69282	0.022286657
30	0xbe5bb912	-0.21457317
31	0xbdac6907	-0.0841847
32	0xbda26361	-0.07929111
33	0xbe8ad60d	-0.27116433
34	0xbe491e3d	-0.19640441
35	0xbe324d34	-0.17412263
36	0xbdbb64b2	-0.091500655
37	0xbd8947e0	-0.06703162
38	0xbe58b541	-0.21162893
39	0xbe1a48ca	-0.1506683
40	0xbea705f7	-0.32621738
41	0xbe6a0420	-0.22853136
42	0xbe6f0d69	-0.2334496
43	0xbe9dcc9a	-0.3082016
44	0xbe584e84	-0.21123701
45	0xbefcb881	-0.49359515
46	0xbe605d6b	-0.21910636
47	0xbe5f0a92	-0.21781376
48	0xbe64a9e9	-0.2233044
49	0xbe872f39	-0.26403216
50	0xbeafec0a	-0.3435977
51	0xbe90f2ef	-0.28310344
52	0xbec32e4a	-0.38121253
53	0xbd59ca01	-0.05317116
54	0x3d958d1d	0.07302306
55	0x3e192369	0.14954914
56	0x3db9565b	0.09049674
57	0x3e4a9a0f	0.19785331
58	0x3e913635	0.2836167
59	0x3e9141d7	0.28370544
60	0x3ecf1226	0.40443534
61	0x3ee171fd	0.4403228
62	0x3ef56435	0.47928014
63	0x3ebc5cd7	0.3678958
64	0x3e23bf4b	0.15990941
65	0x3eea5a92	0.45772225
66	0x3efd3ca1	0.4946032
67	0x3eead755	0.4586741
68	0x3e766a0e	0.24063894
69	0x3dc9c1e9	0.098514386
70	0x3f02aacb	0.5104186
71	0x3f0ebda0	0.55758095
72	0x3e81259d	0.2522401
73	0x3e7c4a8b	0.24637811
74	0x3e0a1a24	0.13486534
75	0xbd34e839	-0.044166777
76	0xbd861aba	-0.065480664
77	0xbd608aff	-0.054820057
78	0xbe3b4050	-0.18286252
79	0xbe0289f2	-0.12747934
80	0x3dbcd075	0.092194475
81	0xbd91543f	-0.07096147
82	0xbb32b387	-0.0027267651
83	0xbe491905	-0.1963845
84	0xbcac9368	-0.021066383
85	0x3e409177	0.1880549
86	0xbdf04b16	-0.117330715
87	0x3e3b3c71	0.18284775
88	0xbe8b0b37	-0.27156994
89	0x3e4ab55d	0.19795747
90	0x3d4a0505	0.049321193
91	0xbda2e9fd	-0.07954786
92	0xbce505b6	-0.027956825
93	0xbe929a85	-0.28633514
94	0x3e2c7490	0.1684134
95	0x3c09a556	0.008401236
96	0xbd49e92a	-0.04929463
97	0xbe7101f2	-0.23535898
98	0xbd28eb2e	-0.04123991
99	0x3d807654	0.06272569
100	0xbde374aa	-0.11106236
101	0xbe3bef01	-0.18352892
102	0x3c50e611	0.012750165
103	0xbddff6e6	-0.10935764
104	0x3e330563	0.17482524
105	0xbdbd197c	-0.092333764
106	0xbea28423	-0.31741437
107	0x3c5db5c3	0.013532105
108	0xbdbba725	-0.0916274
109	0x3e219187	0.1577817
110	0xbe216915	-0.15762742
111	0xbe1a8f39	-0.15093698
112	0xbdf7a88c	-0.12092695
113	0xbbd2b11d	-0.006429805
114	0x3ed8a23a	0.4231127
115	0xbdde0c85	-0.10842232
116	0xbd896b40	-0.067099094
117	0xbdb9b980	-0.090685844
118	0x3e08ff3d	0.13378616
119	0x3e2bdac4	0.16782671
120	0xbe3e169a	-0.1856331
121	0xbd39951e	-0.045308225
122	0xbdbc8fbb	-0.09207102
123	0x3e96bad9	0.29439428
124	0x3e591b57	0.21201836
125	0x3ef622f9	0.48073557
126	0x3e964ee1	0.29357055
127	0x3e94fed2	0.29100662
128	0x3eaa698b	0.33283648
129	0xbd1c7f6a	-0.03820745
130	0x3ea95b84	0.33077633
131	0x3e7e38c4	0.24826342
132	0x3eb07a62	0.3446837
133	0x3b9aa169	0.0047189486
134	0xbe94a5a0	-0.29032612
135	0x3e8fc893	0.28082713
136	0x3e7c40ed	0.24634142
137	0x3e920d90	0.28525972
138	0xbe8ed765	-0.27898708
139	0xbf6a7884	-0.9159014
140	0x3e901d83	0.28147516
141	0x3eafe083	0.34350976
142	0x3e4978fd	0.1967506
143	0xbe3f723e	-0.18695924
144	0xbf3fd784	-0.74938226
145	0x3e1bdc67	0.15220796
146	0x3e332350	0.1749394
147	0x3e2e6914	0.17032272
148	0xbe011a9e	-0.1260781
149	0xbebc4c5b	-0.36777005
150	0xbd93d066	-0.07217483
151	0xbdaa7b3d	-0.08324287
152	0x3c74ac41	0.014933647
153	0x3d680cb2	0.056652732
154	0x3d685fdf	0.056732055
155	0x3c8ad046	0.016945016
156	0xbc83511d	-0.016029889
157	0xbe768799	-0.24075164
158	0x3e522518	0.20521963
159	0xbe0d8d07	-0.13823329
160	0x3d1441cf	0.036195572
161	0xbd618bcf	-0.055064972
162	0xbe6aacb5	-0.22917445
163	0x3e2e5a32	0.17026594
164	0x3d6d6a85	0.057962913
165	0x3c6099e6	0.013708567
166	0x3df559c0	0.11980009
167	0xbe98119b	-0.29700932
168	0x3da2182a	0.07914765
169	0x3d0c7821	0.03429425
170	0x3e485c33	0.19566421
171	0x3e21320b	0.15741746
172	0xbde0ed92	-0.10982813
173	0xbcc874b0	-0.024469703
174	0xbde8515b	-0.11343642
175	0xbe8884eb	-0.26663908
176	0xbe3e81eb	-0.18604247
177	0xbca67432	-0.020319078
178	0xbdc2ee04	-0.09518054
179	0x3d3c1dd9	0.045926902
180	0xbe23ef26	-0.16009197
181	0xbe69f826	-0.22848567
182	0xbe77611e	-0.24158141
183	0xbd83212d	-0.06402812
184	0xbd4a125b	-0.04933391
185	0xbe109940	-0.1412096
186	0x3bd02b94	0.006352851
187	0xbe803230	-0.2503829
188	0x3d8b831a	0.06812115
189	0xbe1a7673	-0.15084247
190	0xbdccc4d3	-0.09998479
191	0xbc871111	-0.01648763
192	0xbdd58963	-0.10426595
193	0xbc0072ca	-0.007839868
194	0xbd9d6510	-0.07685292
195	0xbe0e9295	-0.13923104
196	0x3cfe5b42	0.031049374
197	0xbe280f80	-0.16412163
198	0xbdfa811d	-0.12231658
199	0xbe191b50	-0.14951825
200	0x3f07b7a4	0.5301459
201	0x3f0890c7	0.5334591
202	0x3e8a17a1	0.26971152
203	0x3e0f9ae1	0.14023925
204	0xbe0675b7	-0.13130842
205	0x3e853430	0.26016378
206	0x3eaa0b1b	0.33211598
207	0x3ea657fa	0.32488996
208	0x3e109f6b	0.14123313
209	0xbebee151	-0.37281278
210	0x3dd2298b	0.1026183
211	0x3e7c8b0d	0.24662419
212	0x3eafaf6d	0.34313527
213	0x3e86c004	0.2631837
214	0xbdb7ad62	-0.08968617
215	0xbe85e649	-0.26152256
216	0x3e1ba75d	0.15200563
217	0x3e9f2a4e	0.31086963
218	0x3ead2723	0.3381892
219	0x3e8fb9f3	0.28071555
220	0xbebf2a3b	-0.37336907
221	0xbcb87192	-0.022515092
222	0x3ee8b019	0.45446852
223	0x3eeffcfb	0.46872696
224	0x3ee7d210	0.45277452
225	0xbe0935a4	-0.13399369
226	0xbda85fc4	-0.08221391
227	0xbd01ced3	-0.031691384
228	0xbd9e1b65	-0.07720069
229	0xbd0433a9	-0.03227583
230	0x3da5cf6e	0.08096205
231	0xbc3bfc73	-0.011473763
232	0x3c9d7d91	0.019224914
233	0x3c66caae	0.014086409
234	0xbda0c574	-0.07850161
235	0xbe13c5a4	-0.14430863
236	0xbd7c62df	-0.06161773
237	0x39b1e14d	0.00033927933
238	0x3d88740e	0.06662761
239	0xbd87a2c1	-0.0662284
240	0xbbb00c12	-0.0053725326
241	0x3b04d8fd	0.0020270937
242	0xbd20e63a	-0.03928206
243	0x3dbace8a	0.091214254
244	0xbd91da97	-0.07121771
245	0xbd06287e	-0.03275346
246	0x3d1927b7	0.03739139
247	0xbe066bc5	-0.13127048
248	0xbc44e632	-0.012017773
249	0xbc912025	-0.017715523
250	0x3d8fa5c6	0.07014041
251	0xbc53678a	-0.012903104
252	0xbd545b81	-0.051845077
253	0xbcee2575	-0.029070595
254	0xbd940db5	-0.07229177
255	0xbd8e02bc	-0.06934115

feature_extractor.0.bias f4 [10]
0	0xbf1355e6	-0.57552946
1	0xbe370e14	-0.17876464
2	0xbf8fd38a	-1.1236432
3	0xbdb1a420	-0.086738825
4	0xbf325535	-0.69661266
5	0xbf09a1fe	-0.53762805
6	0xbeb3ae58	-0.3509395
7	0xbe02b502	-0.12764362
8	0xbf238870	-0.6388006
9	0x3d547965	0.051873583

feature_extractor.3.weight f4 [20, 10, 5, 5]
0	0x3f05eb7d	0.5231245
1	0x3ea8104b	0.3282493
2	0x3e5ccb4e	0.2156193
3	0xbe1db579	-0.15401258
4	0xbdd49f38	-0.10381931
5	0xbda9d870	-0.08293235
6	0x3d92933a	0.071569875
7	0x3e2af3fe	0.16694638
8	0x3e196382	0.14979365
9	0xbe83d9b2	-0.25752026
10	0xbed6b4f6	-0.41934937
11	0xbe0dcb47	-0.13847075
12	0x3e861473	0.26187477
13	0x3f1a5726	0.6028923
14	0x3e434ad2	0.1907151
15	0xbe6b03ed	-0.22950716
16	0xbed37f40	-0.41308022
17	0xbe941e20	-0.28929234
18	0x3e23536a	0.15949789
19	0x3c80d78b	0.015727779
20	0x3e48794e	0.19577524
21	0x3e0dfcea	0.1386601
22	0x3df3c7f5	0.11903373
23	0xbd7758ca	-0.06038741
24	0x3dc51ea0	0.09624982
25	0x3d1fd878	0.0390248
26	0x3d0ad603	0.033895504
27	0xbc26d431	-0.010182426
28	0xbea3d8cf	-0.3200135
29	0xbe772aa6	-0.24137363
30	0x3e281868	0.1641556
31	0xbe07b1b3	-0.1325138
32	0x3e0210ae	0.12701675
33	0xbe1b599a	-0.15170899
34	0xbd43b079	-0.04777572
35	0xbe8466dc	-0.25859725
36	0xbdb61d4a	-0.08892305
37	0x3d88bc37	0.06676524
38	0xba89fa5e	-0.0010526886
39	0x3dc1b5be	0.09458493
40	0xbee1371d	-0.4398736
41	0xbdb984c1	-0.09058524
42	0x3e60f29c	0.21967548
43	0xbe14aeb8	-0.14519775
44	0xbd8e6cbe	-0.06954335
45	0x3dddb6ad	0.10825858
46	0xbcf6d24e	-0.030129578
47	0xbcaebe84	-0.02133108
48	0xbc907f12	-0.017638717
49	0x3e1bcc9e	0.15214774
50	0x3e8a6859	0.27032736
51	0xbe284835	-0.16433795
52	0xbf13517e	-0.5754622
53	0xbef641a9	-0.4809697
54	0x3eade420	0.33963108
55	0x3e858ef5	0.2608563
56	0x3ed68467	0.4189789
57	0x3eea46e7	0.4575722
58	0x3e36135c	0.17780823
59	0x3e98a04e	0.29809803
60	0xbde92fd0	-0.11386073
61	0x3eb79047	0.35852262
62	0x3ec09619	0.37614515
63	0x3eaf71fb	0.34266648
64	0xbec448f4	-0.3833691
65	0xbeb04a4d	-0.34431687
66	0x3e399e4c	0.18126792
67	0x3e85ef11	0.26158956
68	0xbc46d82e	-0.012136502
69	0xbe9da73a	-0.30791646
70	0x3e019c4e	0.12657282
71	0xbed5fc9a	-0.41794282
72	0xbe517645	-0.20455272
73	0xbea2cd9b	-0.3179749
74	0x3ce09c43	0.027418261
75	0xbb3d388b	-0.0028872814
76	0xbd147916	-0.03624829
77	0xbc6768e2	-0.014124127
78	0x3d138a51	0.03602058
79	0x3d44c166	0.048036
80	0x3d800f80	0.062529564
81	0x3c8df111	0.017326863
82	0xbc8218f8	-0.015881047
83	0xbd0bc604	-0.03412439
84	0x3cc10142	0.02356017
85	0xbd75af5f	-0.0599817
86	0xbd2b7bd0	-0.041866124
87	0x3ca392ea	0.019967515
88	0x3cddfa28	0.027096823
89	0xbd66a689	-0.056311164
90	0x3d0b4eba	0.034010626
91	0xbd3c5177	-0.04597613
92	0x3d6a34f3	0.057179403
93	0x3c72af79	0.014812344
94	0xbcd92a4a	-0.026509423
95	0x3c41d7ce	0.011831237
96	0xbbe252ed	-0.006906858
97	0xbd229932	-0.03969688
98	0xbc31ed2c	-0.010859769
99	0x3c884201	0.016633036
100	0xbe41cdd5	-0.18926175
101	0xbd9157b4	-0.07096806
102	0x3c920edf	0.017829357
103	0x3eab3814	0.33441222
104	0xbe9d9df3	-0.30784568
105	0x3e0affa4	0.13574082
106	0xbe83d25f	-0.25746438
107	0xbf0fa42a	-0.5610987
108	0xbe07e86b	-0.13272254
109	0x3de6f9e2	0.1127813
110	0xbe46b911	-0.19406535
111	0x3daa4a02	0.08314897
112	0xbe571092	-0.21002415
113	0xbed0e5a5	-0.40800205
114	0xbe1b0b12	-0.15140942
115	0x3d9bca51	0.07606948
116	0x3d5174ba	0.05113671
117	0xbdd93870	-0.10606468
118	0x3c897a25	0.016781876
119	0xbdc47e46	-0.09594397
120	0x3e8660c4	0.262457
121	0x3d1c0797	0.038093176
122	0xbde25210	-0.110508084
123	0x3e11adb3	0.14226417
124	0xbd599b5a	-0.05312667
125	0xbdaf76ae	-0.08567558
126	0xbd84b688	-0.064801276
127	0xbe6366a2	-0.2220712
128	0xbe88a702	-0.26689917
129	0x3f02ba9d	0.51066
130	0xbe7b2a23	-0.24527793
131	0xbe1979d5	-0.14987881
132	0xbcec0b07	-0.028813852
133	0x3e71c75f	0.2361121
134	0xbf15d841	-0.585331
135	0xbe033e4a	-0.1281673
136	0x3cde33bd	0.02712428
137	0xbc8ba421	-0.017046036
138	0x3eee376c	0.4652666
139	0x3e8d7463	0.2762786
140	0x3ed3374d	0.4125313
141	0x3d9f1ee3	0.07769563
142	0xbe0343d2	-0.1281884
143	0x3d8fe842	0.070267215
144	0xbe1855da	-0.148765
145	0x3d89f214	0.06735626
146	0x3bfe7e09	0.0077664894
147	0xbe9b7b28	-0.30367398
148	0xbcfd673d	-0.030933017
149	0x3dfcd82a	0.123459175
150	0x3eab1dfe	0.3342132
151	0x3dd91b2a	0.10600884
152	0xbd2d214d	-0.042268086
153	0x3ecafc3b	0.39645562
154	0xbe15e045	-0.14636333
155	0xbcc40a1e	-0.023930606
156	0x3e3ea932	0.1861923
157	0xbf5fded5	-0.8744939
158	0xbe0e7eec	-0.13915604
159	0x3dd6d419	0.10489673
160	0xbe27d18e	-0.16388533
161	0x3f06d7ac	0.5267284
162	0x3eda5e88	0.42650247
163	0xbec2f2e0	-0.38075924
164	0xbe9920c8	-0.29907823
165	0xbddaa96b	-0.10676845
166	0xbe951730	-0.29119253
167	0x3d893985	0.06700424
168	0x3e1533eb	0.14570586
169	0x3dfaa6a5	0.12238816
170	0xbf02ab2d	-0.51042444
171	0x3e5619b1	0.20908238
172	0x3d8db9bd	0.069201924
173	0x3e084991	0.13309313
174	0x3d9d9384	0.07694152
175	0xbe587bd9	-0.21140994
176	0xbe9b2830	-0.30304098
177	0x3d425a2d	0.04744928
178	0x3e99cca3	0.30038938
179	0x3e68ccf1	0.22734429
180	0x3d5fa040	0.054596186
181	0xbe4f3b27	-0.20237409
182	0x3db0925b	0.08621665
183	0xbedc571d	-0.43035212
184	0x3b00d882	0.0019660299
185	0xbd3da1b5	-0.046296794
186	0x3e373c5f	0.17894123
187	0x3f0a5426	0.5403465
188	0x3e4b08ce	0.19827577
189	0xbe839729	-0.25701264
190	0x3edde71f	0.43340394
191	0xbd3c294a	-0.045937814
192	0x3d788510	0.060673773
193	0xbe1703df	-0.1474757
194	0xbe80a9a0	-0.25129414
195	0x3ecc3c8a	0.39889938
196	0x3c6b2c70	0.014353856
197	0xbd6d77af	-0.057975467
198	0xbcc42dbf	-0.023947595
199	0x3d8c7521	0.06858278
200	0xbed9b02a	-0.42517215
201	0xbe4e878c	-0.20168895
202	0xbdb4979e	-0.08817981
203	0xbcec238a	-0.02882554
204	0xbb8f1d2a	-0.0043674903
205	0x3d8938cd	0.06700287
206	0xbdb4c420	-0.088264704
207	0x3e0fb6e4	0.14034611
208	0x3e4bc797	0.19900356
209	0x3e85bc93	0.26120433
210	0x3e7ff5c3	0.24996094
211	0xbe989106	-0.29798144
212	0xbd452af2	-0.04813666
213	0xbe5478f7	-0.2074927
214	0x3dca489d	0.09877131
215	0x3c58d91e	0.0132353585
216	0x3e9bd9b4	0.30439532
217	0xbe193bbd	-0.14964195
218	0xbd9c8fc8	-0.076446116
219	0xbe3e1fed	-0.18566866
220	0xbe89eb6c	-0.26937425
221	0x3c09e0c8	0.008415408
222	0x3e7d8aa2	0.24759915
223	0x3ccccb5b	0.024999311
224	0x3def6f3a	0.11691137
225	0x3e955738	0.29168105
226	0xbe199675	-0.14998801
227	0x3b5c35af	0.0033601334
228	0xbed8ce9d	-0.42345133
229	0x3e7f0810	0.2490542
230	0xbf13f5fd	-0.57797223
231	0xbdd89f70	-0.10577285
232	0x3e57d791	0.21078326
233	0x3e02a800	0.127594
234	0xbdc23efe	-0.09484671
235	0x3d5fd1e0	0.05464351
236	0xbe7a7ce4	-0.24461704
237	0xbf369267	-0.7131714
238	0xbeb3e76c	-0.35137498
239	0xbda9e6a1	-0.08295942
240	0x3d9020d6	0.07037513
241	0xbe7ac6b5	-0.24489863
242	0xbe7f375d	-0.24923463
243	0x3ed3e82d	0.41388074
244	0x3e0ffe1b	0.14061777
245	0x3e51b77a	0.20480147
246	0x3cdf3783	0.02724815
247	0x3d419405	0.047260303
248	0x3df2084e	0.1181799
249	0xbdb5e307	-0.08881193
250	0x3eec80b3	0.4619194
251	0xbd1b0589	-0.037847076
252	0xbe98a307	-0.2981188
253	0xbe8d0982	-0.27546316
254	0x3cf21a36	0.029553514
255	0x3e1824dc	0.1485781

feature_extractor.3.bias f4 [20]
0	0xbeea9abf	-0.45821187
1	0x3c38568e	0.011251105
2	0xbeb2cfba	-0.34924108
3	0x3e6254f8	0.22102726
4	0xbf31d0c0	-0.6945915
5	0xbd045dc3	-0.03231598
6	0xbf185341	-0.59502035
7	0xbe616b5d	-0.22013612
8	0xbdc7fbd1	-0.09764827
9	0x3dee1d83	0.11626723
10	0xbe5b17ee	-0.21395847
11	0xbd9d021b	-0.07666417
12	0xbedd86e5	-0.4326698
13	0xbe916bff	-0.28402707
14	0xbd7c128b	-0.06154112
15	0x3cc25e84	0.02372671
16	0x3e4f2eb1	0.20232655
17	0xbd7dbc9e	-0.061947457
18	0x3da2d8c3	0.079515
19	0xbd4038e5	-0.04692926

classifier.0.weight f4 [50, 320]
0	0x3ce871db	0.028374603
1	0xbdcea180	-0.100893974
2	0xbe54d99a	-0.20786133
3	0xbe4e91b2	-0.20172766
4	0xbe81e22c	-0.25367868
5	0xbe888890	-0.2666669
6	0xbe0485e8	-0.12941706
7	0x3e4fd552	0.20296219
8	0xbe36d537	-0.17854773
9	0x3d67d5f8	0.05660054
10	0x3dbe891d	0.09303496
11	0x3d0d92bd	0.03456377
12	0xbcb33b07	-0.021878732
13	0x3cd7eb62	0.026357356
14	0xbe85d705	-0.2614061
15	0xbac08e6b	-0.0014690881
16	0xbe11fdd5	-0.14256985
17	0x3b1aff33	0.0023650646
18	0xbdb94c58	-0.090477645
19	0xbe03c9ba	-0.12869921
20	0x3e4bb60d	0.19893666
21	0x3e5679bc	0.20944875
22	0x3e0a2350	0.13490033
23	0x3db84aa0	0.089986086
24	0x3d9ab0c0	0.07553244
25	0x3e152073	0.1456316
26	0x3dd6cd32	0.10488357
27	0xbe7dac28	-0.24772704
28	0xbeaa6fb9	-0.33288363
29	0xbe605e05	-0.21910866
30	0xbdc636c6	-0.09678416
31	0xbd941a29	-0.07231552
32	0x3dac2f17	0.08407419
33	0x3e978b21	0.29598334
34	0xbe1bf894	-0.15231544
35	0x3d4167b2	0.047218032
36	0xbe894b83	-0.26815423
37	0x3d91044b	0.07080897
38	0xbe45ad05	-0.19304283
39	0xbe22458e	-0.15846846
40	0xbe24baab	-0.16086833
41	0xbe07b3a8	-0.13252127
42	0x3e8419fd	0.25801077
43	0xbe2b1895	-0.16708596
44	0x3d96ca1b	0.07362767
45	0x3e7cc0f3	0.2468298
46	0xbcb45e71	-0.02201769
47	0xbd8ba766	-0.06819038
48	0x3e49768b	0.19674127
49	0x3c1e5b48	0.009665318
50	0xbb42bdb6	-0.0029715127
51	0x3e1758ff	0.14780043
52	0xbe80ebb6	-0.25179833
53	0x3dfc3032	0.1231388
54	0xbdb3afef	-0.08773791
55	0x3e05dc34	0.13072282
56	0x3ddc5649	0.10758645
57	0x3d3a9e91	0.045561377
58	0xbda0cfa2	-0.07852103
59	0x3d8018b9	0.062547155
60	0xbe4616d4	-0.19344646
61	0x3e31841c	0.17335552
62	0xbdd5d61c	-0.10441229
63	0xbd10197a	-0.035180546
64	0x3e229608	0.15877545
65	0xbd587b66	-0.052852057
66	0xbd899cb0	-0.06719339
67	0x3df77543	0.12082913
68	0xbb1d0d36	-0.0023964173
69	0x3ec29ad4	0.3800875
70	0x3cb899d7	0.022534294
71	0xbe29224e	-0.16516992
72	0x3e711db2	0.23546484
73	0x3e561dff	0.2090988
74	0xbd594baf	-0.053050693
75	0x3e50ff0d	0.20409794
76	0xbe9cd645	-0.30632225
77	0x3d1c4aa9	0.03815714
78	0xbc7e815c	-0.015533771
79	0xbe842351	-0.25808194
80	0xbf047340	-0.5173836
81	0xbe35ee7d	-0.17766757
82	0xbc92dcb1	-0.0179275
83	0xbe975dfb	-0.2956389
84	0xbe88d369	-0.26723793
85	0xbdfd9f50	-0.12383902
86	0xbbd2a9ee	-0.0064289486
87	0xbd621ddc	-0.055204257
88	0x3e16f0cc	0.14740294
89	0x3e604800	0.21902466
90	0x3e384f08	0.17998898
91	0xbdf0236b	-0.117255054
92	0x3b462bb4	0.0030238451
93	0xbd5e9c44	-0.054348245
94	0xbd819469	-0.06327135
95	0x3edcfd8c	0.4316219
96	0x3e20cd8b	0.15703408
97	0x3e6a95bf	0.22908686
98	0xbc884766	-0.016635608
99	0xbc7555df	-0.014974087
100	0xbeab55d9	-0.33463934
101	0xbda2fbd1	-0.079581864
102	0xbd360be6	-0.04444494
103	0xbe9d5d48	-0.3073523
104	0x3e4ffa22	0.20310262
105	0xbce154f6	-0.027506333
106	0x3bca86d2	0.0061806226
107	0x3eac45a5	0.33646885
108	0xbda1f936	-0.07908861
109	0x3df31a61	0.11870266
110	0x39cc693d	0.0003898832
111	0x3c7031b8	0.014660291
112	0x3d0cab38	0.034342974
113	0xbd27c48f	-0.040958937
114	0x3c7218ea	0.014776448
115	0x3de76d83	0.113001846
116	0xbe2cf5f1	-0.16890694
117	0xbd872a8c	-0.06599912
118	0x3cf0e4a0	0.029405892
119	0xbe7b6727	-0.24551068
120	0xbe936f8b	-0.28796038
121	0x3d8c9cf9	0.06865878
122	0x3df49c9a	0.11943932
123	0xbe41e898	-0.18936384
124	0xbd3000e3	-0.042969596
125	0x3e5c6074	0.21521169
126	0xbc18d978	-0.009329192
127	0x3ea5ed7d	0.32407752
128	0xbeadafae	-0.33923095
129	0x3c86fe03	0.016478544
130	0xbe0df4b4	-0.13862878
131	0xbe6c8ea3	-0.23101287
132	0xbec28735	-0.3799378
133	0xbda38e42	-0.07986118
134	0xbe66b1cb	-0.2252876
135	0xbeb7134d	-0.35756913
136	0x3d607974	0.054803327
137	0x3e10bf6e	0.14135525
138	0x3d5ec68d	0.05438857
139	0xbe50717b	-0.2035579
140	0x3e09f78e	0.13473341
141	0x3e315601	0.17317964
142	0x3e6acf1e	0.22930571
143	0x3d84d1b8	0.06485313
144	0xbcb4136a	-0.021981914
145	0x3e3ee3cb	0.18641584
146	0x3ea25aee	0.3171
147	0x3e178b40	0.14799213
148	0x3f0f438b	0.5596244
149	0xbe00b52f	-0.12569116
150	0x3d38fc46	0.04516246
151	0x3d623b27	0.055232193
152	0x3e3f631d	0.18690152
153	0xbe94df54	-0.29076636
154	0xbe690238	-0.22754753
155	0x3cf2c6f9	0.029635893
156	0xbdf74197	-0.12073057
157	0x3e447372	0.19184664
158	0x3d4bacc5	0.049725313
159	0x3c680127	0.014160431
160	0x3e7354fd	0.23762889
161	0xbc3fca18	-0.011705898
162	0x3e1612f4	0.14655668
163	0xbe00548c	-0.12532252
164	0xbb368950	-0.002785284
165	0x3e8ce5d8	0.27519107
166	0x3d861bff	0.065483086
167	0x3e223728	0.15841353
168	0xbec0c300	-0.37648773
169	0xbe075a05	-0.13217933
170	0xbcf99e41	-0.03047097
171	0xbcf53cce	-0.02993622
172	0xbeda1f38	-0.42601943
173	0xbe00c9df	-0.12577008
174	0xbe1807cc	-0.14846724
175	0xbef79810	-0.48358202
176	0xbd31e733	-0.04343338
177	0x3e0d0b9e	0.13773963
178	0x3dac27b2	0.08406009
179	0x3eac4c6f	0.33652064
180	0xbef14483	-0.47122583
181	0xbe974c50	-0.2955041
182	0x3e074dd5	0.13213284
183	0xbe88b428	-0.26699948
184	0xbf15a421	-0.58453566
185	0xbe7edf0a	-0.2488977
186	0xbe23e8ba	-0.16006747
187	0xbe826038	-0.25464034
188	0x3e3df448	0.18550217
189	0x3e94073a	0.28911763
190	0x3e68829c	0.22706074
191	0x3dc4dce0	0.09612441
192	0xbed67d1f	-0.41892335
193	0xbdd9e4a7	-0.10639315
194	0x3c8b8ab5	0.017033914
195	0xbeb9e4a2	-0.36307245
196	0xbd3c20c7	-0.045929696
197	0x3c9417e5	0.0180778
198	0x3e725c5f	0.2366805
199	0x3c5b2963	0.013376567
200	0xbcbe1aaa	-0.023206074
201	0x3e35b760	0.17745733
202	0x3e4de1cf	0.2010567
203	0xbd635532	-0.05550117
204	0xbe896954	-0.2683817
205	0xbd3caf23	-0.04606546
206	0xbdce8ddf	-0.100856535
207	0xbeabb6f3	-0.33538017
208	0xbdc53606	-0.09629445
209	0xbe7957a9	-0.24349846
210	0xbe35f9c6	-0.17771062
211	0x3da1425f	0.078739874
212	0xbe7ab4d3	-0.24483041
213	0x3e033bc7	0.12815772
214	0x3e0a2aa8	0.13492835
215	0x3e1fa602	0.1559067
216	0xbdcd8851	-0.10035766
217	0x3e867cc6	0.2626707
218	0x3e684204	0.22681433
219	0x3d2a0823	0.041511666
220	0xbebaf48a	-0.36514693
221	0x3e4cd229	0.20002045
222	0xbe9dc59d	-0.3081483
223	0x3ca3f370	0.020013541
224	0x3e95facd	0.29292908
225	0xbd44369f	-0.047903653
226	0x3d968aa3	0.073506616
227	0x3e8c0f4d	0.27355424
228	0xbe876eb4	-0.26451647
229	0x3d1d8dbe	0.038465254
230	0xbe49424c	-0.19654197
231	0xbe686f09	-0.22698607
232	0xbeb3f2b6	-0.3514611
233	0xbdc730b9	-0.0972609
234	0xbe7ea13d	-0.24866195
235	0xbebdb285	-0.37050262
236	0x3e3e3025	0.18573053
237	0x3cd3fb80	0.02587676
238	0x3d780109	0.060547862
239	0xbddbdc1c	-0.10735342
240	0x3ec91593	0.39274272
241	0x3d995507	0.07486921
242	0x3e52729b	0.20551531
243	0x3db1e0bb	0.08685442
244	0x3e59d8f2	0.21274164
245	0xbc61c7cc	-0.013780545
246	0x3d975d60	0.07390857
247	0xbc558a2b	-0.01303343
248	0xbe688600	-0.22707367
249	0xbe9d2aac	-0.3069662
250	0x3ca02041	0.01954663
251	0x3d2b089f	0.04175627
252	0x3e64b82d	0.22335882
253	0x3cb5a961	0.022175493
254	0xbc4dded9	-0.012565338
255	0xbe3fdd57	-0.18736778

classifier.0.bias f4 [50]
0	0x3d69a92f	0.05704611
1	0x3e170d9c	0.14751285
2	0x3da2843b	0.07935377
3	0x3e715b51	0.2356999
4	0x3ebe5e3d	0.37181273
5	0x3eab38ec	0.33441865
6	0xbeeb3c60	-0.459445
7	0xbd898979	-0.06715674
8	0x3e7360d8	0.23767412
9	0x3e15d634	0.14632493
10	0x3e8f0c3a	0.27939016
11	0xbea880e9	-0.3291085
12	0xbe6cb925	-0.23117502
13	0x3f050244	0.5195658
14	0x3e9cb46b	0.30606398
15	0x3d4dfc3c	0.050289378
16	0x3dacd815	0.08439652
17	0xbe1735bd	-0.14766593
18	0x3f017051	0.50562006
19	0xbdddd8cd	-0.10832367
20	0x3ee22f22	0.44176584
21	0x3eada5df	0.33915612
22	0xbe444ed5	-0.19170697
23	0x3ef45ca8	0.4772694
24	0x3ed708be	0.41998857
25	0x3bf3e17b	0.007442651
26	0x3ecb831e	0.39748472
27	0x3d002599	0.031285856
28	0x3f3773e8	0.71661234
29	0xbd903deb	-0.0704306
30	0x3f0336a8	0.51255274
31	0xbcdc2e56	-0.026877563
32	0xbec56d72	-0.38560063
33	0xbe97ba41	-0.29634288
34	0x3ebe4e41	0.37169078
35	0x3eafc0ef	0.34326884
36	0x3f2be14c	0.6714065
37	0x3f0c2dd2	0.54757416
38	0x3e91042d	0.28323498
39	0xbe6bc684	-0.23024946
40	0x3ed8500b	0.42248568
41	0x3edd397c	0.4320792
42	0x3ee28a12	0.44245964
43	0x3f48226f	0.7817754
44	0xbc2a48d7	-0.010393343
45	0xbf2df72e	-0.6795529
46	0xbcdaa38c	-0.026689313
47	0xbd974bd5	-0.07387511
48	0xbf061d96	-0.52388895
49	0x3f08f05c	0.5349176

classifier.3.weight f4 [10, 50]
0	0x3e0cf35d	0.1376471
1	0xbed18a90	-0.40926027
2	0xbe957c7d	-0.2919654
3	0x3dfcbe6f	0.1234101
4	0xbe9e75df	-0.30949304
5	0xbe0bf607	-0.1366807
6	0x3e0c23ba	0.13685504
7	0xbdfda599	-0.12385101
8	0xbdee5b58	-0.11638516
9	0x3dca5f75	0.09881488
10	0xbd9b1390	-0.075720906
11	0x3de2e748	0.1107927
12	0xbc79f480	-0.015256047
13	0xbe7f123b	-0.24909298
14	0xbd73d554	-0.059529617
15	0x3d9531a1	0.072848566
16	0x3d7bcede	0.06147658
17	0xbe4f894c	-0.20267218
18	0xbe09a3d2	-0.13441399
19	0x3da5ddc6	0.080989406
20	0x3da7e070	0.08197105
21	0x3e17324a	0.14765278
22	0xbd62803c	-0.055298075
23	0xbe3e6e0c	-0.18596667
24	0xbe3c51d1	-0.18390585
25	0xbe34967e	-0.17635533
26	0x3dec52ee	0.11539255
27	0xbcd4cc41	-0.025976302
28	0xbe0cf8d6	-0.13766798
29	0xbe16efb6	-0.1473988
30	0xbe92f835	-0.28704992
31	0x3de317bd	0.11088512
32	0x3dc0d5f7	0.094158106
33	0xbdd5a9e4	-0.10432795
34	0xbea4981c	-0.321473
35	0x3db6df2e	0.08929287
36	0xbe608407	-0.21925364
37	0xbe33da82	-0.17563823
38	0x3d3b2a58	0.04569468
39	0xbe62b7bf	-0.22140406
40	0x3d747f30	0.059691608
41	0xbdcfbef4	-0.10143843
42	0x3cb155a4	0.021647282
43	0xbf142567	-0.5786957
44	0x3e03d06f	0.1287248
45	0xbdbc7c3d	-0.09203384
46	0x3d38e8d7	0.04514393
47	0xbdb57fd9	-0.08862276
48	0xbe5c8e97	-0.21538769
49	0xbd74e598	-0.05978927
50	0xbe58cdd5	-0.21172269
51	0x3d9e5b24	0.077322274
52	0x3c343cc9	0.01100082
53	0xbdac8f0c	-0.084257215
54	0x3df9feb5	0.12206785
55	0x3d925382	0.07144834
56	0x3c885727	0.01664312
57	0xbdb1ce45	-0.08681921
58	0x3db683ae	0.08911835
59	0x3da111bd	0.078647114
60	0xbd2d1851	-0.042259518
61	0xbd6d6af2	-0.05796332
62	0xbd499832	-0.04921741
63	0x3c1bb43f	0.009503423
64	0xbc47ad8a	-0.012187371
65	0x3df8432e	0.121221885
66	0xbda0f0fe	-0.078584656
67	0xbd13dd9a	-0.036100008
68	0x3ddce007	0.10784917
69	0xbe78b146	-0.24286374
70	0x3ded4264	0.11584929
71	0xbc905ac0	-0.017621398
72	0xbe364a2c	-0.17801732
73	0xbe1d5f62	-0.15368417
74	0xbd3502d3	-0.044192147
75	0x3e10de19	0.14147224
76	0x3deb13a1	0.11478353
77	0x3d111fcc	0.035430714
78	0x3d1de876	0.03855177
79	0xbbed2300	-0.0072368383
80	0xbe113a7f	-0.1418247
81	0xbe6f914f	-0.23395275
82	0xbd870036	-0.06591837
83	0xbea44c42	-0.3208943
84	0x3de5672b	0.11201318
85	0xbdd0cee5	-0.10195712
86	0x3e0a3230	0.13495708
87	0x3d64310a	0.05571083
88	0xbd605d07	-0.054776218
89	0x3e012fee	0.1261594
90	0xbec0f4aa	-0.37686664
91	0x3df07818	0.11741656
92	0x3e183778	0.1486491
93	0x3e419d22	0.18907598
94	0xbe4501b3	-0.1923893
95	0xbe2fc0cc	-0.1716339
96	0xbeaa321a	-0.3324135
97	0xbeaece08	-0.34141564
98	0xbdb44a00	-0.08803177
99	0x3dfd5a58	0.12370747
100	0x3dec0548	0.11524445
101	0xbd98f65d	-0.07468865
102	0xbdc858f9	-0.09782595
103	0x3d94bd52	0.072626725
104	0xbc253542	-0.010083498
105	0xbd69e2e6	-0.057101153
106	0x3d1eea1d	0.038797487
107	0xbdb0bf7f	-0.08630275
108	0x3e2d14b8	0.16902435
109	0x3dc7f08b	0.09762677
110	0x3db52f93	0.08846965
111	0x3de8fad2	0.11375965
112	0x3e181b44	0.14854151
113	0xbce5cef4	-0.028052785
114	0x3dc105df	0.09424948
115	0xbda874e6	-0.082254216
116	0x3d93f970	0.07225311
117	0x3bb399a6	0.005480963
118	0x3e11e256	0.14246497
119	0xbdf86c5d	-0.12130044
120	0xbe7cd8df	-0.24692105
121	0x3db01449	0.08597619
122	0xbcc9a1f3	-0.024613356
123	0x3bcfbd1d	0.0063396827
124	0x3d810298	0.06299323
125	0xbdae839e	-0.08521198
126	0x3dd7e915	0.10542504
127	0x3de8202c	0.11334261
128	0x3ddecd05	0.10878948
129	0x3dfeb06f	0.12435996
130	0x3c98400c	0.018585227
131	0x3d694b1f	0.056956407
132	0xbde26ec6	-0.110562846
133	0x3ddfc183	0.10925581
134	0xbde03c96	-0.10949056
135	0xbdee5a3f	-0.11638307
136	0x3e1d2174	0.15344793
137	0x3d7a6486	0.061131023
138	0x3d9c4742	0.07630779
139	0xbdc1a9b2	-0.09456195
140	0xbdb07398	-0.08615798
141	0x3e17e1e1	0.1483226
142	0xbd74d531	-0.059773628
143	0x3c249d61	0.010047288
144	0x3dc73cda	0.097284034
145	0xbde226e3	-0.11042573
146	0xbe8cfa01	-0.27534488
147	0xbe2ef559	-0.1708578
148	0xbdb7e539	-0.089792676
149	0xbc0c0e11	-0.008548276
150	0xbd847d4e	-0.064692125
151	0xbb1f066c	-0.0024265302
152	0xbdf83882	-0.12120153
153	0xbca3d806	-0.020000469
154	0xbe6dc643	-0.23220162
155	0xbe856a82	-0.26057822
156	0x3e00b71a	0.12569848
157	0x3e0015da	0.12508336
158	0x3e2cb1ea	0.16864744
159	0xbdabdebb	-0.08392092
160	0xbdc1bd84	-0.09459975
161	0x3dd76512	0.105173245
162	0x3e176326	0.14783916
163	0x3e099312	0.13435009
164	0x3dd36eed	0.10323892
165	0xbe10af72	-0.14129427
166	0xbe15423f	-0.14576052
167	0x3e153557	0.14571129
168	0xbd6f9925	-0.05849566
169	0xbe11d805	-0.14242561
170	0xbe3c41e9	-0.18384518
171	0x3e029453	0.12751894
172	0xbc6baaba	-0.014383966
173	0x3de9a026	0.11407499
174	0xbd7da828	-0.061927944
175	0xbd8d65e1	-0.069041975
176	0xbda166bd	-0.07880924
177	0x3dde52d2	0.108556405
178	0xbd219745	-0.039450902
179	0x3e03d902	0.1287575
180	0xbd0ab0c8	-0.033859998
181	0x3dabc1ef	0.08386599
182	0xbd96a698	-0.07355994
183	0xbe155a71	-0.14585282
184	0xbd0d1110	-0.0344401
185	0xbdcea9db	-0.10090991
186	0xbc9c7621	-0.019099297
187	0x3db02476	0.08600704
188	0xbcba5d1a	-0.022749472
189	0x3dc6d052	0.09707703
190	0xbdf698a7	-0.12040835
191	0x3df560e1	0.11981369
192	0xbd389994	-0.04506834
193	0x3b946dbc	0.004529683
194	0x3bf2c561	0.0074087833
195	0x3dd6b25c	0.10483238
196	0xbe0f6df6	-0.1400679
197	0xbdecb6b9	-0.11558289
198	0x3e007d24	0.12547737
199	0xbd1d4138	-0.038392276
200	0x3e0d1b4f	0.13779949
201	0xbc87df3c	-0.016585939
202	0x3dd4b1c1	0.10385466
203	0xbe02097f	-0.12698935
204	0x3dfca16a	0.12335475
205	0x3d9cb3c0	0.07651472
206	0x3b81e574	0.0039641205
207	0xbd1d2e7f	-0.03837442
208	0xbddb5cfe	-0.10711096
209	0x3bada5cb	0.005299305
210	0x3dd10d2e	0.10207592
211	0x3df80de4	0.121120244
212	0xbd48a6b2	-0.048987098
213	0x3e1a357b	0.15059464
214	0x3da3be6e	0.07995306
215	0x3db11f9b	0.086486064
216	0x3d44d4c9	0.04805449
217	0x3dfe599a	0.12419434
218	0x3ca1d832	0.01975641
219	0xbb9d16aa	-0.0047939615
220	0xbe109bd7	-0.14121948
221	0xbd994337	-0.07483523
222	0x3db03ce6	0.086053655
223	0x3d903be4	0.07042673
224	0x3dc54a1d	0.096332766
225	0x3e17cc46	0.14824018
226	0xbe24218b	-0.1602842
227	0xbde61774	-0.11234942
228	0xbe15c063	-0.14624171
229	0xbe03dfb0	-0.12878299
230	0x3df829c1	0.12117339
231	0xbe345fe8	-0.1761471
232	0x3d157738	0.03649065
233	0x3dea3cb9	0.11437363
234	0x3dfbfacf	0.12303697
235	0xbe3dcce5	-0.18535192
236	0xbd28ddc9	-0.041227136
237	0xbdcea20b	-0.10089501
238	0xbdb3cf35	-0.08779756
239	0xbdaf1812	-0.08549513
240	0xbdd8f0eb	-0.105928265
241	0xbd787204	-0.06065561
242	0xbd38b4f1	-0.045094434
243	0x3e4d60c0	0.20056438
244	0xbd0e381c	-0.03472148
245	0x3c94bf82	0.018157724
246	0xbe2a5a00	-0.16635895
247	0x3d65c99a	0.056100465
248	0x3dcbe032	0.09954871
249	0x3e0ea54c	0.13930243
250	0xbb83df37	-0.004024412
251	0xbd430856	-0.04761537
252	0xbe2cab31	-0.1686218
253	0x3df41352	0.119177476
254	0xbe9d061b	-0.3066872
255	0xbda546f0	-0.08070171

classifier.3.bias f4 [10]
0	0x3f702b05	0.9381564
1	0x3f28cc9d	0.65937215
2	0xbe91dbc8	-0.28487992
3	0xbd7ce7b4	-0.061744407
4	0xbf1117f2	-0.5667716
5	0xbdb8afa4	-0.09017876
6	0xbd78621d	-0.060640443
7	0xbf1d5937	-0.61464256
8	0x3ed029e6	0.40656966
9	0xbe3b557e	-0.18294331
