day2/domain_adaptation/revgrad_47.pt (torch_old, 91045 bytes, 8 tensors)

feature_extractor.0.weight f4 [10, 3, 5, 5]
00000000: 7fa5 883e 2335 bd3d 488e 963d b13e 313e
00000010: 76c5 d3bc 12ae 90be c1d8 a6be 5b38 20be
00000020: d9c5 9bbe 7171 b7bd ec46 25be d898 d93d
00000030: af7d a8bd 1596 103d 8940 5c3e 97dd 26be
00000040: d638 323d 8eea c7bd b69e 4b3e 02ad e73d
00000050: 716a ff3c 54e3 f83d 9957 683e ce65 2c3e
00000060: e47b 9c3d a4a2 a33e 0a2e 2e3e e76d 61bb
00000070: b928 783d 20aa 71ba 9553 93be 2e59 10be
00000080: 6c7b e1bd d723 83be 8083 23be 3435 3bbe
00000090: 19a5 acbd 487e e6bd 5d66 6dbe a8cc 21be
000000a0: 4131 c4be 799e 7fbe 8aa5 89be d073 97be
000000b0: dd28 69be 341c 08bf c1bb 64be 5ffd 42be
000000c0: ac28 75be 768a 89be 5ac6 a7be 8b3d 81be
000000d0: 1e3b a9be 54d3 6cbd a2ca d53d b92e 203e
000000e0: 8bc0 7e3d 36b9 293e d207 bc3e fd7a b73e
000000f0: 201a f33e a851 e23e 4fc9 da3e c709 a03e
00000100: 1f11 193e 4db0 fa3e 0f91 f73e e766 d63e
00000110: 635b 563e 1e11 af3d 53c5 f53e ce61 013f
00000120: c3f3 953e ca32 5c3e 6c66 2e3e de02 ad3a
00000130: 6cf0 d3bc da2c 25bd b514 61be dbb3 45be
00000140: 7edc 0e3e 867b 59bd 715c 123d 6532 6dbe
00000150: 64d0 dbbd 3f87 823e 236f f4bd bd93 823e
00000160: a983 babe e50d 4a3e 5b02 a43d a455 74bd
00000170: 90a8 32bd 2ff5 c5be 1a33 493e 9d0b fc3c
00000180: 6bc0 5cbd a3ba 83be 2add bcbd 4fb4 173d
00000190: 0441 20be e985 64be 24c5 dcbc 1a77 17be
000001a0: b838 2e3e 4619 11be 6380 c0be ee2e bbbc
000001b0: 89e4 e0bd 095e 213e da55 2ebe 3c5e 53be
000001c0: 143f a6bd fbd0 cabc cd2d 033f a790 30be
000001d0: 0f20 d0bd f6f0 dbbd 141c 073e 77cd 6c3e
000001e0: 31d3 7fbe 9d6d 8ebd 2781 a5bd 65e5 9c3e
000001f0: 572a 6a3e a78c f33e a2ec aa3e 28ca 993e
00000200: 4c96 b73e fd8f 053b 6f01 a33e 5e30 823e
00000210: 84cb a33e 3242 ad3d 3f17 8abe 6f2f a03e
00000220: d92a 783e 32a3 9f3e ce2d 76be 812f 6fbf
00000230: 937b 8d3e 3af2 b83e 76ae 513e 072c 37be
00000240: b6ec 4dbf 723a 2b3e cfb6 523e 76f0 473e
00000250: cca6 18be 5ec2 adbe e7cc a5bd 37d8 98bd
00000260: 214c 783c fc16 203d 2899 623d 80cc 653d
00000270: c1c8 52bd b325 a2be 494b 723e 680f 35be
00000280: 12ce 893d be6a 98bd a945 98be 13bd 333e
00000290: d917 463d 1c22 ac3d 0b94 0d3e 8baf a2be
000002a0: bfe4 1d3d 8cbd 203d 440a 613e d229 4c3e
000002b0: 5ce2 05be 5f12 7bbd b988 13be ff8b 8abe
000002c0: d92a 21be 44cd 453c 1522 8fbd 2fb7 ca3d
000002d0: ae42 cbbd 2446 60be 71db 8fbe f41a 44bc
000002e0: cada d13a eb94 c7bd fc9b 293c 6171 8abe
000002f0: 546c cb3d fce4 c2bd 612a e9bb d099 5dbb
00000300: 6d29 cdbd f1de cabc 4860 1cbd a6f9 97bd
00000310: bce2 f63c 96cd 4ebe 354f 20be 1c36 29be
00000320: 11d0 063f ca4e 0e3f 9a80 ac3e 27cb 133e
00000330: 998b 36be a0d8 923e b4e9 bf3e d549 c03e
00000340: d79c 3d3e ff81 a9be a897 a93d bc53 893e
00000350: 0837 d13e 380a 893e 0d53 46bd ec93 a2be
00000360: 00f3 af3d d4e6 b53e 3f81 9e3e 8d3c 9c3e
00000370: 355a f6be aebd 19be fbb1 e23e 0341 f93e
00000380: b846 073f a435 09be c45f a8bd d3ce 01bd
00000390: 651b 9ebd a933 04bd 6ecf a53d 73fc 3bbc
000003a0: 917d 9d3c aeca 663c 74c5 a0bd a4c5 13be
000003b0: df62 7cbd 4de1 b139 0e74 883d c1a2 87bd
000003c0: 120c b0bb fdd8 043b 3ae6 20bd 8ace ba3d
000003d0: 97da 91bd 7e28 06bd b727 193d c56b 06be
000003e0: 32e6 44bc 2520 91bc c6a5 8f3d 8a67 53bc
000003f0: 815b 54bd 7525 eebc b50d 94bd bc02 8ebd
0.26688763 0.09238651 0.07351357 0.17309071 -0.025850993 -0.28257805 -0.32587245 -0.15646498
-0.30424383 -0.08957184 -0.16140336 0.10624856 -0.08227097 0.03529938 0.21508993 -0.16295467
0.043511234 -0.09761535 0.19884762 0.113122955 0.031178685 0.121527344 0.22689666 0.1683571
0.07640818 0.31960022 0.1700975 -0.0034397782 0.06058571 -0.0009218771 -0.28774706 -0.1409652
-0.11009869 -0.2561328 -0.15968132 -0.18282014 -0.084299274 -0.11254555 -0.2318358 -0.15800726
-0.38318828 -0.24962796 -0.2688411 -0.29580545 -0.22769494 -0.53168035 -0.22337247 -0.19041966
-0.23941296 -0.2686345 -0.32768518 -0.25242266 -0.33052915 -0.057818726 0.1043904 0.15642823
0.062195342 0.16574559 0.36724716 0.3583602 0.4748087 0.44202924 0.4273171 0.3125746
0.14947937 0.48962632 0.48352858 0.41875383 0.20933299 0.08548187 0.4800211 0.50539863
0.29287538 0.2150375 0.17031258 0.0013199707 -0.025871478 -0.040325977 -0.21980555 -0.1930689
0.13951299 -0.053096317 0.03573269 -0.23163755 -0.10733107 0.2549381 -0.1193526 0.2550334
-0.36428574 0.19731863 0.08008262 -0.059651986 -0.043617785 -0.38663623 0.196484 0.030767256
-0.05389444 -0.2572833 -0.09221871 0.03703719 -0.15649801 -0.22316708 -0.026949473 -0.14791527
0.17013824 -0.14169797 -0.3759795 -0.022849526 -0.109810896 0.15758528 -0.17024937 -0.20641416
-0.081175 -0.024757853 0.5124176 -0.1724268 -0.10162365 -0.10739319 0.13194305 0.23125254
-0.24982907 -0.06954501 -0.080812745 0.30643764 0.22867714 0.47568247 0.33383662 0.30037045
0.35856855 0.0020380013 0.3183703 0.25427526 0.31991208 0.084598914 -0.2697086 0.3128619
0.24235095 0.31179196 -0.2404091 -0.9343186 0.27633342 0.36122304 0.20476708 -0.17887889
-0.8043932 0.16721514 0.20577548 0.19525322 -0.14907378 -0.33937353 -0.08095723 -0.07463115
0.015154869 0.03908442 0.055321842 0.05610323 -0.051460985 -0.31669387 0.23661532 -0.17681658
0.06728758 -0.074422345 -0.29740646 0.17552595 0.048362587 0.08404943 0.13826005 -0.31774554
0.038548227 0.039243266 0.21976572 0.19937828 -0.1307463 -0.061296817 -0.14407624 -0.27059934
-0.15739001 0.012072865 -0.069889225 0.09898221 -0.099248275 -0.21901757 -0.28097108 -0.011969317
0.0016010639 -0.09745201 0.010352131 -0.27039626 0.09932771 -0.095163316 -0.0071156477 -0.0033813603
-0.10017667 -0.02476451 -0.03817776 -0.074206635 0.030137412 -0.20195612 -0.15655215 -0.16524547
0.52661234 0.5558897 0.33691865 0.14432965 -0.1782669 0.28680897 0.3748299 0.3755633
0.18516861 -0.33106992 0.08280879 0.26821697 0.40862298 0.2676561 -0.048419047 -0.3175348
0.085912704 0.3552767 0.30957982 0.30514947 -0.48115698 -0.15013763 0.44276413 0.48682413
0.52842283 -0.13399369 -0.08221391 -0.031691384 -0.07720069 -0.03227583 0.08096205 -0.011473763
0.019224914 0.014086409 -0.07850161 -0.14430863 -0.06161773 0.00033927933 0.06662761 -0.0662284
-0.0053725326 0.0020270937 -0.03928206 0.091214254 -0.07121771 -0.03275346 0.03739139 -0.13127048
-0.012017773 -0.017715523 0.07014041 -0.012903104 -0.051845077 -0.029070595 -0.07229177 -0.06934115

feature_extractor.0.bias f4 [10]
00000000: 91a7 1ebf be93 6bbe 564a 9cbf 20a4 b1bd
00000010: 1d01 3dbf 0846 15bf 587a cfbe 39ac febd
00000020: 3b85 35bf 797c 77bb
-0.61974436 -0.23005578 -1.2210186 -0.086738825 -0.73829824 -0.58309984 -0.40523028 -0.124351926
-0.7090642 -0.00377634

feature_extractor.3.weight f4 [20, 10, 5, 5]
00000000: c062 133f 9bf8 9c3e 02dd af3d 68d8 13be
00000010: 5a7a 5abe 423a 46be ea59 afbc b9c0 5b3e
00000020: 6c64 5d3e 5b1f 8cbe 8c69 93be df67 28be
00000030: af57 7c3e df65 1b3f 4934 4f3e d20f 57be
00000040: df30 09bf 588e ecbe 98d1 0b3d b5fa 68bd
00000050: 603c 9c3d ad97 1d3e 329b 103e 1858 fabd
00000060: 81ee e33d f953 6abd 1433 0b3e f6dd 27bd
00000070: 7240 cdbe 3991 6abe 2a86 563e 16eb abbb
00000080: abc3 173e 2168 64be 3e73 8d3d e3b4 a2be
00000090: c8ea 9cbd ac83 013c 1b59 303d f7ae 233e
000000a0: 0bf6 e7be da4b e2bd b5ed 903e d34f 37be
000000b0: 4cfa c9bd 8920 113e d059 04bd b630 083d
000000c0: 8238 0dbd 9e47 603e 4a7f 6c3e 1477 ebbe
000000d0: 6697 08bf 012e 4fbe 5b5e 913e 94c8 c63e
000000e0: bb7e 093f 55c3 223f 00db da3d c489 163e
000000f0: c276 163e 50ec ce3e 3c45 863e 24d2 453e
00000100: a29a e7be 0803 abbe 030d 2e3e 9a41 393e
00000110: c1bd 433d bb10 80be 0db0 073e fce7 0bbf
00000120: 72bb 1ebc 661c 21be 6ba4 123e 8b38 3dbb
00000130: 1679 14bd e268 67bc 518a 133d 66c1 443d
00000140: 800f 803d 11f1 8d3c f818 82bc 04c6 0bbd
00000150: 4201 c13c 5faf 75bd d07b 2bbd ea92 a33c
00000160: 28fa dd3c 89a6 66bd ba4e 0b3d 7751 3cbd
00000170: f334 6a3d 79af 723c 4a2a d9bc ced7 413c
00000180: ed52 e2bb 3299 22bd 2ced 31bc 0142 883c
00000190: 7136 5ebe e89a 9cbd 6cbc b63a 944e cf3e
000001a0: be23 93be ff09 dd3d b03e 97be e397 0bbf
000001b0: 59f5 97bd a5c7 083d 8428 a2be c024 f03d
000001c0: 3e02 79bd 03fb bbbe 0a57 e8bd 550e 6b3e
000001d0: cd73 a63d f511 72be f7f3 dbbc 681e 133c
000001e0: 9d06 7d3e 4792 84bc c859 2ebe f7ca 473e
000001f0: 0cc1 a5bd 9a64 273c 94fd 54be f0d2 8abe
00000200: 8076 58be 2139 a73e 0fe7 13be 5cde 50be
00000210: eae6 a3bd ae86 353e 7854 19bf 8cbe 06be
00000220: d94c f33d 2365 28be c995 fb3e af8b 843e
00000230: ef47 0e3f 17cf e93d 7a5c 71be 83ff 463d
00000240: 4d63 74be b147 26bc a438 473c 602c d4be
00000250: 957b 063d 873e 2c3e 3a61 d13e 29bb 4dbd
00000260: af26 b7bd 76cb c53e bb5c b3be eb91 01bd
00000270: f157 983e d333 90bf dc28 52bd e5c8 63bd
00000280: f30f 5fba 0e72 f03e 984a 683e b6b6 4dbe
00000290: 53c7 ebbe a925 33bc fcee 49be f509 b5bc
000002a0: a7f2 063e 642b 063d 6d5d 26bf df97 8a3e
000002b0: 2fe5 a43d 4402 ae3d dbd5 153e b28a 46be
000002c0: c3b7 90be aecf 763b 0373 983e 9818 ee3d
000002d0: 1af3 1e3d 05fc a5be d19c 6a3d ca43 02bf
000002e0: 6eec 30bb c906 f2bd 7688 c1bb 382e 233f
000002f0: 4458 8e3e 2979 ecbe 1e89 083f d00a 6f3b
00000300: c4a9 093e ddb1 20be 34a5 80be aaf2 da3e
00000310: 261f 93bd c4f3 2bbe c577 86bd 5d6c f13d
00000320: 4c76 f7be 734b 3ebd 1397 abbc 8e2d 27be
00000330: c9ed 5abe 68fe 063e 02a9 c73d 1f0b 463e
00000340: 4a2d 643e 0fa4 463e 875f 653e 422d 79be
00000350: fbc1 d6bc 2c63 36be 77bf 473e 7420 05be
00000360: 38e3 bb3e fef2 11be c1f6 39be 5319 8dbe
00000370: 8f4a d9be a990 083d 6fe4 e13d 8e8e 5b3e
00000380: b7a8 26bb 52db cf3e 7ed3 5cbe 1015 27bc
00000390: 5d01 25be 0c51 523e 1869 2ebf 7018 6ebe
000003a0: b665 483e 0912 b23e 9f25 60be 0aec 11bd
000003b0: 8b99 61be be17 08bf 07f0 e6be 4c09 4fbe
000003c0: 74e1 463e cbca 9fbe 5469 90be 095f fd3e
000003d0: 5f93 b23e c467 483e f4f7 f4bd 0ecc 523e
000003e0: 755b 2a3d 1cdb e7bd d56c 373f 274e ed3c
000003f0: 800b 99be 408f 8fbe c583 aabd 68a2 4d3e
0.57572556 0.3065842 0.08587076 -0.14438021 -0.21335736 -0.19358161 -0.021405179 0.21460237
0.21620339 -0.27367672 -0.28791463 -0.16445874 0.24642824 0.6070232 0.20234789 -0.21002129
-0.53590196 -0.4620235 0.03413543 -0.056879718 0.07628703 0.15389891 0.14121702 -0.12223834
0.111294754 -0.05720899 0.13593704 -0.040983163 -0.4008823 -0.2290696 0.20949617 -0.0052465303
0.14820735 -0.22305347 0.06906746 -0.3177863 -0.076619685 0.007904928 0.043053728 0.15984713
-0.45304903 -0.11049624 0.28306356 -0.17901544 -0.098621935 0.14172567 -0.032312214 0.03324958
-0.03447772 0.2190232 0.23095432 -0.45989287 -0.53356016 -0.20232393 0.283923 0.38824904
0.53709 0.63579303 0.10686302 0.14700991 0.1469374 0.40414667 0.26224697 0.19318444
-0.45235163 -0.3340075 0.16997151 0.18091431 0.047788385 -0.25012764 0.13250752 -0.54650855
-0.009688245 -0.1573349 0.14320533 -0.0028872814 -0.03624829 -0.014124127 0.03602058 0.048036
0.062529564 0.017326863 -0.015881047 -0.03412439 0.02356017 -0.0599817 -0.041866124 0.019967515
0.027096823 -0.056311164 0.034010626 -0.04597613 0.057179403 0.014812344 -0.026509423 0.011831237
-0.006906858 -0.03969688 -0.010859769 0.016633036 -0.21700455 -0.076467335 0.0013941652 0.40489638
-0.28738207 0.10792922 -0.29540014 -0.54528636 -0.07419843 0.03339352 -0.31671536 0.117257595
-0.060793154 -0.36714944 -0.113447264 0.22954686 0.08127556 -0.23639663 -0.02684973 0.008979417
0.24709554 -0.016183032 -0.17026436 0.19511019 -0.080934614 0.010216856 -0.20799857 -0.27114058
-0.21138954 0.32660773 -0.1444361 -0.20397323 -0.08003028 0.17727157 -0.59894514 -0.13158625
0.11879892 -0.1644483 0.49137715 0.2588782 0.5557851 0.114164524 -0.23570433 0.04858352
-0.23866005 -0.0101489285 0.0121595 -0.41440105 0.0328327 0.16820727 0.4089449 -0.050227318
-0.08942925 0.3863179 -0.35031685 -0.0316333 0.29754594 -1.1265815 -0.051308498 -0.05561151
-0.00085091515 0.46962017 0.22684705 -0.2008923 -0.4605051 -0.010934272 -0.19720072 -0.022099474
0.13178502 0.032756224 -0.64986306 0.27068993 0.08051526 0.08496526 0.1463236 -0.19388846
-0.282652 0.0037660408 0.29775247 0.11625785 0.03880606 -0.32418838 0.057278458 -0.5088469
-0.0026996392 -0.118177004 -0.00590616 0.637424 0.27801716 -0.46186188 0.53334224 0.003647495
0.13443667 -0.1569285 -0.2512604 0.42763263 -0.071836755 -0.16792208 -0.06565813 0.11788247
-0.4833244 -0.046458673 -0.020946061 -0.16325971 -0.2137977 0.13182986 0.097490326 0.1934018
0.22282901 0.19398521 0.22399722 -0.2433367 -0.026215544 -0.17811269 0.19506632 -0.13000661
0.36696792 -0.1425285 -0.18160535 -0.27558383 -0.42439696 0.033341084 0.110298984 0.21441099
-0.0025430152 0.40597016 -0.21565053 -0.010197893 -0.16113801 0.2053873 -0.6812911 -0.2325151
0.1957005 0.34779385 -0.21889351 -0.035625495 -0.22031228 -0.5316123 -0.45105 -0.2021839
0.19421941 -0.31209406 -0.2820536 0.4948657 0.3487806 0.19570833 -0.11961356 0.20585653
0.041591126 -0.11321089 0.7165044 0.02896793 -0.29891586 -0.2803898 -0.08325914 0.20081484

feature_extractor.3.bias f4 [20]
00000000: 8a34 d0be ebaa 08bc cc43 82be ce8a 8e3e
00000010: b571 78bf dc47 f83d 25d0 33bf 967a 93be
00000020: 976d 82be 5dab c93d 0804 92be 602c 91bd
00000030: 0e01 d2be c37f 58be d2d9 8dbc c7a7 073e
00000040: b96c 583e 66b4 87bc e465 1f3d 39bf db3c
-0.40665084 -0.008341531 -0.2544235 0.27840275 -0.97048503 0.12123081 -0.7023948 -0.28804463
-0.25474235 0.09847138 -0.285187 -0.07088542 -0.4101643 -0.21142487 -0.017315779 0.13247596
0.21135224 -0.016565513 0.03891553 0.02682458

classifier.0.weight f4 [50, 320]
00000000: bc25 55be ba0b 5cbe bac4 6dbd d5a4 bbbd
00000010: 514e 1dbe 11e7 e8be 42c2 f0bd 0790 a53e
00000020: e4c6 a3bc b358 443e 268c c53d faf3 07bd
00000030: 2306 003d 18cf f23d e6b2 3abe 6cd6 963b
00000040: 9190 c3bd 4f1b 72bd 23ff 26bc ab6e bfbd
00000050: cf98 7b3e 39c4 e23d dad4 233e b112 8f3d
00000060: 9768 27bd 0a35 d03e f750 413d d4e8 cbbe
00000070: 4e3c 89be 49d7 abbe bfda 5dbd 7945 1abd
00000080: 4da7 9b3d 8c9f af3e 49b1 aebe 0e52 a5bd
00000090: bc83 b7be df16 8f3c 2697 aabd 8c3b 31be
000000a0: 3136 03be f292 14bd 376e 8d3e 8e7d 0fbe
000000b0: 3320 1a3e 643a 873e 5083 ac3c 439d 26bc
000000c0: a834 9b3d 66f7 b1bc 31fd 7a3b 0490 783c
000000d0: 2de8 06be eefe 833d cbfe 28bd db39 493e
000000e0: 577d ed3d cdf3 143d e2f9 03be c285 72bc
000000f0: 1f2e 20be d64e 483e 24b2 e8bd 2904 b0bd
00000100: a350 f839 2743 a23d c0f7 b4bd 2c87 19bd
00000110: f502 a1bb 3f5a de3e f16d c53d f6b9 48be
00000120: 475a 713e 51a5 143e 10df b8bb b181 4d3e
00000130: 5911 b2be 742c 7cbe 5e13 e9bd 3ba6 d93c
00000140: e389 06bf f570 ddbd 973e ed3d 2d20 a2be
00000150: aee8 9dbe d9d4 e53c cae8 673d 3c10 97be
00000160: 7535 223e f5e6 333e 8303 263e 8c86 1dbe
00000170: de4a 073c 5ae8 bebd 5fbc fcbd d4ac e93e
00000180: d30d 6d3e 086d 2e3e 6f51 a7bd 7db3 7d3d
00000190: 2366 a5be aaaf 693d 594e 2d3c ab2c e8be
000001a0: bae8 983e 89b6 e13c d442 cb3d 2902 ba3e
000001b0: f0e9 793d 3f36 213e 484a 7c3d 1ad2 b03d
000001c0: 5dfd 1e3e b1da 393d f1fa 9abd c8e4 cf3d
000001d0: ba37 a1be 6078 34be 556c 2d3d f81a bebe
000001e0: 74bd cabe 636c a7bc 1212 773c ed1e 87be
000001f0: 576f 26bc d662 de3d 478f 05be 4f12 4e3e
00000200: 7972 a7be c2b1 7a3c 1589 13be ac0b fabd
00000210: 0dc7 a8be 8795 d7bd 5fe5 dfbd 143c 9bbe
00000220: 88ac 7fbd bd33 253e 2760 103d 0913 91be
00000230: dbf6 d03d a96e 693e b1fa 4a3e bbf0 e13d
00000240: 0c50 53be 28af a13d c31b 913e 53db 743d
00000250: ac70 063f 87d2 1fbe fe63 c43d 6d0c acba
00000260: 9f7b 9c3e 8f02 62be 5e36 84be a47f 8f3c
00000270: 9c53 27be 5804 133e a90e 05bd 1093 b9bd
00000280: e64c 603e 2870 aabc 483a 6c3c fcee 85be
00000290: 9b90 33be 8722 813e 65a2 2d3d cddf 263e
000002a0: 2ce0 d4be 6b08 3dbe f5ed 67ba b8dc 05be
000002b0: 2358 00bf b71d 0bbe e943 043d 422f b4be
000002c0: 70ad 933d e5df e73d 812e 9c3e 2885 c93e
000002d0: 789b dbbe 8c0d 86be ef72 f13d 51fc 8abe
000002e0: 3d8a 10bf 6a8a debe 4753 40be 8373 84be
000002f0: 933b a23c 5a0f a33e afc3 853e 8feb 5e3e
00000300: b5f6 cebe a6cf 2bbe 18a5 083e 770d c4be
00000310: a46f 01be 5584 733c 6f2a 5a3e 12b8 a53d
00000320: 24d2 d9bd 8827 5c3e 5a65 f53d 5e5a 1c3e
00000330: f427 8bbe 8172 38bc c078 2bbd 18c5 49be
00000340: 3b8d 8bbe 228e f9be 496a 1abe 4b0d 5e3e
00000350: 9064 2dbe 7d35 27bd 3ce8 bf3d 257e c6bc
00000360: c463 3ebe 3f00 4a3e 9129 4c3e 1b64 4d3d
00000370: b79e c1be 6df8 583e 4fc7 bcbe 90ba a2bd
00000380: e793 c83e b5f1 ab3d b4ff 833e 391b d73e
00000390: 040f b9be 2777 823e 11ed 88be a03b 5cbe
000003a0: 043d cfbe 70da 91be 0912 b5be f14d d7be
000003b0: e56e 4d3d 5241 ae3d 804b a33d 9ccf 13bd
000003c0: c4b4 983e ccc3 f53d 2abf 723d 984a 4ebd
000003d0: 3a90 ad3d cbfb 97bd 6023 f53c 3102 253d
000003e0: 0062 5fbe ce37 cabe d4fa ddbd db3e b73d
000003f0: 49fc 583e 5c69 803d 495c c5bc d1c4 1abe
-0.20815176 -0.21488848 -0.05804894 -0.091622986 -0.15361907 -0.4548879 -0.11755802 0.32336447
-0.0199923 0.19174461 0.09645872 -0.03319166 0.031255852 0.11855906 -0.18232307 0.004603198
-0.09549058 -0.059108075 -0.010192665 -0.0934728 0.2457001 0.11072583 0.15999165 0.06985987
-0.04087123 0.40665466 0.047196355 -0.3982607 -0.2680382 -0.33562687 -0.05416369 -0.03766391
0.076002695 0.34301412 -0.34119633 -0.08072291 -0.35842693 0.01746696 -0.083296105 -0.17307872
-0.12813641 -0.03627295 0.2762315 -0.14012739 0.15051346 0.26411736 0.021058708 -0.01016933
0.07578403 -0.021724414 0.0038297886 0.015171055 -0.13174506 0.06445108 -0.041258615 0.19650976
0.11596172 0.03636532 -0.12888291 -0.014802398 -0.15642594 0.19561324 -0.11362103 -0.085945435
0.00047362325 0.079229645 -0.08836317 -0.037482426 -0.0049136826 0.43428227 0.0964011 -0.19602188
0.23569594 0.14516188 -0.0056418255 0.20069005 -0.3477886 -0.24626333 -0.11380647 0.026568523
-0.5255415 -0.108125605 0.11584204 -0.31665173 -0.30841583 0.028055595 0.05661849 -0.29504573
0.15840705 0.17568572 0.16212277 -0.15383357 0.008257596 -0.09321661 -0.123406164 0.4563967
0.23149805 0.1703378 -0.08169829 0.06193875 -0.32304487 0.057052292 0.010577762 -0.4534658
0.29865056 0.02755286 0.09924856 0.36329773 0.061014116 0.1574335 0.061594278 0.08633824
0.15526338 0.045374576 -0.075673945 0.101510584 -0.31487828 -0.17624044 0.04233964 -0.3712995
-0.39597666 -0.020437425 0.015079992 -0.26390782 -0.010158381 0.10858695 -0.13042937 0.20124172
-0.32704523 0.01530117 -0.14407761 -0.122092575 -0.32964364 -0.10526567 -0.10932421 -0.30319273
-0.062420398 0.16133018 0.035247948 -0.28334835 0.10203334 0.2279612 0.19822194 0.11032244
-0.20636004 0.078947365 0.28341493 0.059779476 0.52515674 -0.15607654 0.095893845 -0.0013126262
0.30563065 -0.22071289 -0.2582273 0.017516918 -0.16340488 0.14357126 -0.032484684 -0.09061253
0.21904334 -0.020805433 0.014418192 -0.26158893 -0.17535631 0.25221655 0.0423912 0.1629631
-0.4157728 -0.18460242 -0.0008847409 -0.13072479 -0.50134486 -0.13585554 0.032291327 -0.35192305
0.07210815 0.11322001 0.3050423 0.39359403 -0.4289205 -0.2618221 0.117895 -0.27145627
-0.56460935 -0.43464977 -0.18781768 -0.25869378 0.019803798 0.3184765 0.26125857 0.21769546
-0.40422598 -0.1677843 0.13344228 -0.38291523 -0.12640244 0.014863093 0.2130525 0.08091749
-0.10635784 0.21499455 0.11982222 0.15268847 -0.2717892 -0.011257769 -0.041863203 -0.19704092
-0.27256188 -0.4874125 -0.15079607 0.21684758 -0.16932893 -0.040822495 0.09370467 -0.024230072
-0.18592745 0.19726656 0.19937731 0.050144296 -0.37816402 0.21188517 -0.3687081 -0.0794574
0.3917534 0.08395711 0.25781024 0.42012957 -0.3614427 0.2548153 -0.26743367 -0.2150712
-0.4047624 -0.28486967 -0.35365322 -0.42051652 0.050154585 0.085085526 0.07973385 -0.036086664
0.29825413 0.12000236 0.05926434 -0.050364107 0.08474775 -0.074210726 0.029924095 0.040285293
-0.21814728 -0.394957 -0.10838857 0.089475356 0.21189989 0.06270096 -0.024091857 -0.15114142

classifier.0.bias f4 [50]
00000000: 5d93 1b3e f09f 903e efcb 423e 4fe9 3d3e
00000010: f3c6 073f 269d 2c3f a742 2cbf e493 0e3d
00000020: 2c05 1f3e c81b aa3e 29eb fb3e c896 c3be
00000030: 590c b3be 2969 0b3f 388e dc3e 8ab3 583d
00000040: 06fa 1e3e 4822 89bd f41b 3a3f b81e 10be
00000050: bbf4 1f3f 1a79 2e3e 0e74 00be 3e80 0e3f
00000060: 9135 0a3f 6e24 3d3c 8175 043f a40f 473b
00000070: e53f 473f 50fe 72bd 231d 0c3f 7f12 56be
00000080: 98ea c3be 0643 b1be d7f4 c93e d232 fd3e
00000090: f1c0 633f 1219 383f 88b9 9f3e f5e8 3cbe
000000a0: aa0f ce3e 1490 183f df58 1d3f 8c16 633f
000000b0: 6cfd 49bd 31da 50bf be06 953d 78d8 f0bd
000000c0: 07d8 20bf 9f8a 643f
0.15192933 0.28247023 0.19023107 0.18546031 0.5303795 0.6742729 -0.67289203 0.03480901
0.15529317 0.3322432 0.4920285 -0.38200974 -0.34970358 0.54457337 0.43077254 0.052905597
0.15525064 -0.06695992 0.72698903 -0.14074218 0.62482804 0.17038384 -0.12544271 0.5566443
0.53987986 0.01154433 0.51741797 0.0030374313 0.7783187 -0.059324563 0.5473196 -0.20905493
-0.38264918 -0.34621447 0.3944461 0.49452835 0.8896628 0.71913254 0.31196237 -0.18448241
0.40246326 0.59594846 0.6146373 0.8870628 -0.049313948 -0.81582934 0.072766766 -0.11760038
-0.6282963 0.8927402

classifier.3.weight f4 [10, 50]
00000000: 916d e33d 2a52 9cbe d834 babe 1c1f f43d
00000010: 6ef3 8ebe fe16 09be 2ede db3d 4b6a eebd
00000020: 60a2 c6bd 5cbc b83d 6d80 bfbd a863 c43d
00000030: 6c44 e0bb b464 8bbe 0730 cdbd 11a1 7e3d
00000040: 2b78 943d 2b25 64be 3909 bfbd eaf8 5a3d
00000050: c7d9 9a3d a0a1 e53d 7aef 58bd 711b 25be
00000060: bcf4 03be 86f6 33be 77ae da3d 8796 59bc
00000070: 6ea2 25be ad63 07be d65b 4dbe 0bc3 bf3d
00000080: ea4c 9c3d 10b5 edbd 32c5 48be 7e24 ce3d
00000090: fbed 4ebe 3365 16be 5a64 563d 6d07 33be
000000a0: 17b2 db3c b44e e7bd 9b7b b3bc b373 0abf
000000b0: 4c99 f63d 4d3c c7bd ef73 4e3c 57c1 e8bd
000000c0: 48c7 4dbe 2448 7bbd adaa 22be f902 8d3d
000000d0: b5d9 99bc 3161 77bd 1e52 673d 144a 283d
000000e0: bbdd 6a3d fb7c c5bd 2ad5 ec3d 4f8d 163d
000000f0: 5ff7 c5bc 503e 8bbd 8b99 83bd 57fb 70bd
00000100: 3799 c73c a9a9 873d 9b07 4dbd d59e a1bd
00000110: 946a b83d 7335 90be 1e74 a23d 7ef5 e0bb
00000120: 42ef 4abe 6873 1cbe ad30 5fbd a0fe 233e
00000130: 6a0f de3d 6b28 973d 6372 613d ef6c 153c
00000140: d5d3 e5bd 19d3 3ebe b59f f8bd 567e 2bbe
00000150: c245 e83d acc1 c1bd 2a41 e23d 99fa 243d
00000160: 6efa 55bd abe0 f33d f765 b3be ed96 123e
00000170: ed57 093e a2b7 343e 9667 18be 2489 0ebe
00000180: f938 9bbe 9c62 30be f255 31be 1c2d e93d
00000190: 85f5 c13d 6667 bcbd 8886 dabd 8628 ca3d
000001a0: 853e 8fbc 3581 3bbd 1c52 55bc 9b4d 2ebd
000001b0: beb8 f73d 067c 9e3d ec40 8a3d 2b14 b73d
000001c0: a451 073e b7b2 09bd 38dd 8d3d 955c c8bd
000001d0: 6311 013d c161 423d 12cd cd3d bf7c 06be
000001e0: d43a 31be 91f7 983d 042d 87bd 74c5 903c
000001f0: 3a5d 203d a256 a3bd 6fcb a73d 79be c33d
00000200: e49c 883d 1e7b f73d 763d c33b 9438 103d
00000210: 1ffd b3bd b977 843d 940f 8dbd e130 e1bd
00000220: f6f4 da3d 5bf1 243d 3dd0 633d 06ed 5bbd
00000230: 8aee 73bd c235 023e 3348 44bd c8b0 0bbd
00000240: 815e bf3d 126e cbbd 9f23 29be a55f 46be
00000250: 405f a5bd 7936 d83b 009f 76bd fc13 cebc
00000260: 1593 97bd e907 48bc 9878 62be 67ae 66be
00000270: 8ae6 f93d 94d7 b83d a051 0c3e 729d 27be
00000280: 8750 b0bd 5a59 c63d d218 033e 6edd 103e
00000290: f4d1 b13d ac66 e7bd b08e b8bd 6e46 f63d
000002a0: 2a46 1bbd 2401 bfbd 8ad9 8fbd fd61 083e
000002b0: 7495 e7bd 62a7 d13d 9b10 b0bd 6398 d4bd
000002c0: eeb7 13bd e572 c33d 36ff 56bd ff2c ed3d
000002d0: 55ba d8bc d6c5 b73d a015 cabd 77c4 04be
000002e0: 5a9c dabd f79b c4bd 0766 eabc 62ec 663d
000002f0: fd1f 4dbc 00e4 823d 5d7d b2bd 8000 e03d
00000300: f333 45bd 9653 023d 9fe3 383d 1f27 df3d
00000310: 71fe eebd 42f3 0ebe e1d1 c93d 65f3 f3bc
00000320: d7eb df3d fcb8 17bd b523 963d e18b d1bd
00000330: 6104 433d b335 e93c b455 b0bb f737 d9bd
00000340: b192 dbbd cc46 ce3b 99ea 3f3d 93a3 df3d
00000350: ae56 57bd 939d 143e 4ff1 873d b75c c33d
00000360: cafb c53c 7855 e63d e52e 603d 7531 f7bc
00000370: 127c 0fbe 3ccc 9dbd 6abf 3d3d b761 9b3d
00000380: 2013 5b3d 1cd7 133e accb 45be f573 9abd
00000390: 24c2 afbd e70c c4bd 5496 dc3d a306 15be
000003a0: 8748 703c 5b3b 9e3d f12c de3d 7c65 23be
000003b0: 21f2 84bd 9777 b4bd a342 99bd 070e 1cbd
000003c0: a9e7 07be 9617 83bd 316b 1abd 85d9 3d3e
000003d0: bc13 69bd 5441 803c 0829 87be 9a93 363d
000003e0: f474 b63d f1e6 033e 702e 553c de43 91bd
000003f0: 26c0 d2bd e29f d53d 8d95 9cbe 1fce d8bd
0.111048825 -0.30531436 -0.36368442 0.11919996 -0.27920097 -0.13387677 0.10735737 -0.116413675
-0.09698939 0.09020302 -0.09350667 0.095893204 -0.006844094 -0.27225268 -0.10018926 0.062165324
0.07249483 -0.22279803 -0.09327931 0.05346004 0.07561069 0.11212468 -0.052962758 -0.1612375
-0.12886328 -0.1757451 0.10677808 -0.013280517 -0.16175243 -0.13221617 -0.20054564 0.09363373
0.07631858 -0.116068006 -0.19606474 0.10065554 -0.2020797 -0.14687042 0.052341796 -0.17483301
0.026818318 -0.11294308 -0.021909526 -0.54082793 0.12040958 -0.09728298 0.012600883 -0.11365002
-0.20095551 -0.061348096 -0.1588542 0.068853326 -0.018780569 -0.060395423 0.056474797 0.04108627
0.057340365 -0.09642979 0.11564095 0.036755856 -0.024165807 -0.067989945 -0.0642577 -0.058833446
0.02436505 0.06624157 -0.05005608 -0.07891623 0.09004703 -0.2816578 0.07932304 -0.0068652024
-0.19817832 -0.15278399 -0.05448978 0.160151 0.10842784 0.07380756 0.05504073 0.00912021
-0.112220444 -0.18635215 -0.12139837 -0.16747412 0.1134143 -0.09460768 0.11047585 0.04027805
-0.05224078 0.119080864 -0.3503873 0.14315386 0.13412447 0.17648175 -0.14883265 -0.13919502
-0.30316904 -0.17225116 -0.17317942 0.11385557 0.09470657 -0.09199409 -0.10670191 0.098710105
-0.017485866 -0.04577752 -0.013020065 -0.04255448 0.12095784 0.07738499 0.06750664 0.089393936
0.13214737 -0.0336177 0.0692696 -0.097832836 0.031510722 0.047456507 0.1004888 -0.13133524
-0.17307597 0.074690945 -0.06600383 0.017672278 0.039151408 -0.07975508 0.08193099 0.09557814
0.066705495 0.120840296 0.0059582544 0.035210207 -0.087885134 0.06468148 -0.06887737 -0.10995651
0.10691254 0.040269237 0.055618513 -0.05369284 -0.05955366 0.1271582 -0.047920417 -0.03410414
0.09344197 -0.099331036 -0.16517495 -0.19372423 -0.08074808 0.0065982905 -0.060210228 -0.025156014
-0.074011005 -0.012208917 -0.22116315 -0.22527467 0.12202175 0.09025493 0.13703012 -0.16368654
-0.08609109 0.09685011 0.12802437 0.14146969 0.086826235 -0.1129888 -0.090115905 0.12025152
-0.03790871 -0.093263894 -0.07023914 0.1331863 -0.11307803 0.10237004 -0.08596917 -0.10380628
-0.03606408 0.09543399 -0.052489482 0.11580848 -0.026456038 0.08973281 -0.09867406 -0.1296557
-0.10674353 -0.096000604 -0.028613104 0.056377776 -0.012519834 0.06391144 -0.087153174 0.10937595
-0.048145246 0.031817995 0.04513895 0.10896134 -0.116696246 -0.13959983 0.09854484 -0.029779145
0.10933655 -0.03704165 0.07331029 -0.10231758 0.047611598 0.028467989 -0.0053813104 -0.106063776
-0.107213385 0.0062950607 0.04685459 0.10919871 -0.0525729 0.14513235 0.06637823 0.09539168
0.024167914 0.112467706 0.054732222 -0.03017495 -0.14012173 -0.0770497 0.046325125 0.07586997
0.053485036 0.14437526 -0.19315976 -0.07541648 -0.08581951 -0.095727734 0.1077086 -0.14553313
0.014665729 0.07726165 0.10848416 -0.15956682 -0.06491495 -0.088118725 -0.07483413 -0.038099315
-0.13271965 -0.06400983 -0.037699882 0.18540008 -0.056903586 0.01565615 -0.26398492 0.044574358
0.08909026 0.12881066 0.01301156 -0.07093023 -0.10290556 0.10430886 -0.30582848 -0.105861895

classifier.3.bias f4 [10]
00000000: 3d11 723f 1217 303f 7b96 b9be 9d75 dcbc
00000010: c8d9 11bf 1f40 04bc a549 dc3b 9c90 3cbf
00000020: 40c4 cd3e 2ae8 3cbe
0.94557554 0.687852 -0.3624762 -0.026911551 -0.5697293 -0.008071928 0.0067226463 -0.73658156
0.4018879 -0.18447939
