day2/domain_adaptation/revgrad_7.pt (torch_old, 91045 bytes, 8 tensors)

feature_extractor.0.weight f4 [10, 3, 5, 5]
0	0x3e318323	0.17335181
1	0x3cadacb0	0.021200508
2	0x3d636ba4	0.055522576
3	0x3e0ec472	0.13942125
4	0x3d122bb8	0.035686225
5	0xbbacc790	-0.005272813
6	0xbe36f044	-0.17865092
7	0xbdf0ec90	-0.11763871
8	0xbe752e06	-0.23943338
9	0xbe02bfbe	-0.12768456
10	0xbdf6b869	-0.12046892
11	0xbdf659e9	-0.12028868
12	0xbe429e6b	-0.19005744
13	0xbc4fae4a	-0.012675831
14	0x3ddde750	0.10835135
15	0xbe79e14e	-0.24402353
16	0xbdba1935	-0.09086839
17	0xbdbaecc6	-0.09127192
18	0x3c97c475	0.018526295
19	0xbe032272	-0.12806109
20	0xbdcfcab5	-0.10146085
21	0xbe0d0e91	-0.13775088
22	0x3dceb8dd	0.100938536
23	0xbb9ec6cf	-0.004845477
24	0xbdb9bdc9	-0.09069402
25	0x3d9ef0d1	0.07760776
26	0xbd81c44d	-0.063362695
27	0xbe2cbd6a	-0.1686913
28	0x3cc55ef9	0.024093138
29	0x3d9cc7e6	0.07655315
30	0xbe7fe45b	-0.24989454
31	0xbe02d4cf	-0.12776493
32	0xbe3d8973	-0.18509464
33	0xbe42c105	-0.19018944
34	0xbdaf601a	-0.08563252
35	0xbe07f9d4	-0.13278896
36	0xbe4f3d54	-0.20238239
37	0xbdded257	-0.10879963
38	0xbd658681	-0.056036476
39	0x3d3d9b91	0.046290938
40	0xbe40210b	-0.18762605
41	0xbe40d31d	-0.18830533
42	0xbe072e30	-0.13201213
43	0xbe80973d	-0.25115386
44	0xbd8c03d2	-0.06836666
45	0xbeaafdd1	-0.33396772
46	0xbe562e1e	-0.2091603
47	0xbdf5c8d6	-0.12001197
48	0xbe213476	-0.15742669
49	0xbd91925a	-0.071079925
50	0xbe86723f	-0.26259038
51	0xbd88c1a6	-0.066775605
52	0xbe57de93	-0.21080999
53	0x3d4987a8	0.049201638
54	0xbdb1be0e	-0.08678828
55	0x3d989033	0.07449379
56	0x3e85ecbf	0.26157185
57	0x3e669857	0.2251905
58	0x3ddd5b14	0.108083874
59	0xbcde208d	-0.02711513
60	0x3eb12985	0.3460199
61	0x3f04913c	0.5178411
62	0x3f101add	0.5629099
63	0x3f172e5c	0.59055114
64	0x3e82d4c4	0.25552952
65	0x3ecfd652	0.405932
66	0x3f11d22a	0.5696131
67	0x3f261b28	0.6488519
68	0x3ec5c6cd	0.38628235
69	0x3e66f81a	0.2255558
70	0x3eb13627	0.34611627
71	0x3f0111c5	0.5041774
72	0x3ebab8c4	0.3646909
73	0x3ebf6610	0.37382555
74	0x3e2b4140	0.1672411
75	0xbdb9bf5a	-0.090697005
76	0x3d3b0b4f	0.04566508
77	0xbc17a300	-0.009255171
78	0xbcb9488c	-0.0226176
79	0xbd3ae96d	-0.04563277
80	0x3d408575	0.047002275
81	0xbca66366	-0.020311069
82	0xbdf2d627	-0.118572526
83	0xbc709c0f	-0.014685645
84	0x3d1aa3c7	0.037753846
85	0x3e2fc5ac	0.1716525
86	0xbdb64da2	-0.08901526
87	0x3d725e1b	0.059171777
88	0xbd12bac7	-0.035822656
89	0xbc9fc0ae	-0.019501057
90	0xbd2dc128	-0.042420536
91	0xbda28eea	-0.07937415
92	0x3c35d911	0.011099116
93	0x3caa8f82	0.020820383
94	0x3e04983d	0.129487
95	0x3c986677	0.018603547
96	0x3d70a670	0.058752477
97	0xbc9bc0e5	-0.019012878
98	0x3dac49fe	0.084125504
99	0x3e009446	0.12556562
100	0xbc99fe9e	-0.018798169
101	0x3c93070a	0.017947692
102	0x3dc2c589	0.09510333
103	0xbca49b09	-0.020093458
104	0x3dad549d	0.08463404
105	0x3d3aa423	0.04556669
106	0xbe0cdada	-0.1375536
107	0x3c868a6b	0.016423425
108	0x3c87cf9c	0.016578488
109	0x3cc37b78	0.023862585
110	0xbc34e168	-0.011040069
111	0xbcdef021	-0.027214112
112	0xbe1ba56c	-0.15199822
113	0x3d098125	0.033570427
114	0x3d307b20	0.04308617
115	0xbcf6d200	-0.030129433
116	0x3c1b244b	0.009469102
117	0xbddd6d69	-0.10811884
118	0x3df68d4a	0.120386675
119	0xbdba20a4	-0.09088257
120	0xbd29b4b3	-0.041432094
121	0x3d70e2ad	0.058809925
122	0xbd3feb04	-0.046854988
123	0x3e2c5adc	0.16831535
124	0x3d141f49	0.03616265
125	0x3e9e3896	0.30902547
126	0x3e42ff1c	0.19042629
127	0x3de6dfd9	0.11273164
128	0x3e5e2658	0.21694314
129	0xbe650666	-0.22365722
130	0x3ea4b9e9	0.32173088
131	0x3e4802bf	0.19532298
132	0x3e266c32	0.1625221
133	0xbe0bb59f	-0.13643502
134	0xbe8acc90	-0.27109194
135	0x3ea57794	0.32317793
136	0x3e567470	0.20942855
137	0x3e415829	0.18881287
138	0xbe93f32b	-0.2889646
139	0xbf1ba346	-0.6079601
140	0x3e553b23	0.2082334
141	0x3e708dcb	0.2349159
142	0xbcc54033	-0.024078464
143	0xbe85d92c	-0.26142251
144	0xbefe7cd3	-0.49704608
145	0x3d56317d	0.05229329
146	0x3ce538ba	0.02798115
147	0xbc97f5ba	-0.018549789
148	0xbe4ca3dd	-0.19984384
149	0xbe98916a	-0.29798442
150	0x3d4b7c12	0.04967887
151	0x3c2d1a18	0.010565303
152	0x3daeb6e2	0.08530976
153	0x3e0d6826	0.1380926
154	0x3d14f798	0.036368936
155	0x3d244350	0.040103257
156	0x3d1548f7	0.036446538
157	0xbdf02906	-0.117265746
158	0x3e0527ce	0.13003466
159	0xbcbf951e	-0.023386534
160	0xbdebd239	-0.11514706
161	0xbd29767a	-0.041372754
162	0xbd9548cf	-0.07289278
163	0x3d6e82d6	0.058230244
164	0x3c0c5262	0.0085645635
165	0xbdf0fcbc	-0.11766955
166	0x3d8b0629	0.06788284
167	0xbe0f9203	-0.14020543
168	0x3e134c93	0.1438468
169	0xbcd9822a	-0.026551325
170	0x3d2d7cba	0.042355277
171	0x3d25727a	0.040392376
172	0xbdcab387	-0.098975234
173	0x3dba833c	0.09107062
174	0xbca30e70	-0.019904345
175	0xbd2a9a98	-0.04165134
176	0xbd7f5f7b	-0.062346917
177	0x3c3d030b	0.01153637
178	0xbdb8c8f0	-0.09022701
179	0xbdb94b8c	-0.090476125
180	0xbd55e5dd	-0.052221168
181	0xbe3c16ac	-0.18368024
182	0xbe5256a7	-0.20540868
183	0xbe392100	-0.18078995
184	0xbd82cdfd	-0.063869454
185	0xbe6274d8	-0.22114885
186	0x3bdaa8f9	0.006672975
187	0xbe5f9556	-0.21834311
188	0xbdb733f6	-0.08945458
189	0xbe8638a0	-0.26215076
190	0xbe3a5326	-0.18195781
191	0xbdc0b0b4	-0.094087034
192	0xbd37b87b	-0.04485367
193	0xbb2ab515	-0.0026047875
194	0xbe21026c	-0.1572358
195	0xbe845282	-0.25844198
196	0xbd9a1832	-0.07524146
197	0xbe62b70d	-0.22140141
198	0xbd45e313	-0.048312258
199	0xbd89e20b	-0.067325674
200	0x3e83e1e4	0.25758278
201	0x3ea64816	0.32476872
202	0x3c7fa271	0.015602694
203	0x3e39a48c	0.18129176
204	0x3c87a8f8	0.016560063
205	0x3e515651	0.20443083
206	0x3e4223b9	0.1895894
207	0x3e2bd279	0.16779508
208	0x3e38f5b0	0.18062472
209	0xbe2ea967	-0.1705681
210	0x3e3fd424	0.18733269
211	0x3eb33cf1	0.35007432
212	0x3e83145f	0.2560148
213	0x3ea1ebc9	0.31625202
214	0x3b609c9f	0.003427304
215	0x3dbbc8cd	0.09169159
216	0x3ead7ec7	0.33885786
217	0x3e62dfd9	0.22155704
218	0x3ea3103b	0.3184832
219	0x3e093e70	0.13402724
220	0x3d05952e	0.032612972
221	0x3df8b057	0.12143009
222	0x3e2f01a9	0.17090477
223	0x3e8f23cb	0.27956995
224	0x3e202686	0.15639696
225	0xbe0935a4	-0.13399369
226	0xbda85fc4	-0.08221391
227	0xbd01ced3	-0.031691384
228	0xbd9e1b65	-0.07720069
229	0xbd0433a9	-0.03227583
230	0x3da5cf6e	0.08096205
231	0xbc3bfc73	-0.011473763
232	0x3c9d7d91	0.019224914
233	0x3c66caae	0.014086409
234	0xbda0c574	-0.07850161
235	0xbe13c5a4	-0.14430863
236	0xbd7c62df	-0.06161773
237	0x39b1e14d	0.00033927933
238	0x3d88740e	0.06662761
239	0xbd87a2c1	-0.0662284
240	0xbbb00c12	-0.0053725326
241	0x3b04d8fd	0.0020270937
242	0xbd20e63a	-0.03928206
243	0x3dbace8a	0.091214254
244	0xbd91da97	-0.07121771
245	0xbd06287e	-0.03275346
246	0x3d1927b7	0.03739139
247	0xbe066bc5	-0.13127048
248	0xbc44e632	-0.012017773
249	0xbc912025	-0.017715523
250	0x3d8fa5c6	0.07014041
251	0xbc53678a	-0.012903104
252	0xbd545b81	-0.051845077
253	0xbcee2575	-0.029070595
254	0xbd940db5	-0.07229177
255	0xbd8e02bc	-0.06934115

feature_extractor.0.bias f4 [10]
0	0xbec717a3	-0.3888522
1	0xbe37be10	-0.17943597
2	0xbf21fb60	-0.6327419
3	0xbdb1a420	-0.086738825
4	0xbeb7b76d	-0.3588213
5	0xbe84bd80	-0.25925827
6	0xbca0249f	-0.019548712
7	0xbd98bbf0	-0.07457721
8	0xbec42f02	-0.38317114
9	0xbc22b115	-0.009929915

feature_extractor.3.weight f4 [20, 10, 5, 5]
0	0x3e65e459	0.22450389
1	0x3e43da17	0.19126163
2	0x3de783f9	0.11304469
3	0xbe4c2b0e	-0.19938299
4	0xbd6a16e6	-0.057150744
5	0x3cc5a34d	0.02412572
6	0x3e95fb9f	0.29293534
7	0x3e704e0a	0.2346727
8	0xbc5b79d6	-0.013395747
9	0xbe82b0ca	-0.25525504
10	0xbeac4b05	-0.33650985
11	0xbd2a423e	-0.04156708
12	0x3e9c7211	0.30555776
13	0x3e7a5b55	0.24448903
14	0x3d2c93a7	0.042133
15	0xbeb96cab	-0.3621572
16	0xbe87da75	-0.26533857
17	0xbd6697b1	-0.056297008
18	0xbca99759	-0.020702051
19	0xbd4d72db	-0.050158363
20	0x3dcff40d	0.10153971
21	0x3d6b565c	0.057455406
22	0x3c74bc48	0.014937468
23	0x3d8488f3	0.064714335
24	0x3cdd1119	0.026985692
25	0x3dd8f967	0.10594445
26	0x3d9c3b11	0.076284535
27	0x3e0f1423	0.13972525
28	0xbe6b743a	-0.22993556
29	0xbd81804e	-0.063233
30	0x3d259ae0	0.040430903
31	0xbdb7938f	-0.089636914
32	0xbc94afc6	-0.018150222
33	0xbdbc534b	-0.091955744
34	0xbd13c55d	-0.036076892
35	0xbde62fea	-0.11239608
36	0xbe5ea846	-0.21743879
37	0xbdb3959e	-0.087687716
38	0xbcdaafe2	-0.026695196
39	0x3c57c0cb	0.013168524
40	0xbdeb2491	-0.11481584
41	0xbe4d219a	-0.20032349
42	0xbc922dcd	-0.017844105
43	0x3d1c5e72	0.038176008
44	0x3cf4a742	0.029864911
45	0xbd311d64	-0.04324092
46	0xbda49769	-0.08036692
47	0x3cfc6751	0.030810984
48	0x3dd88841	0.10572863
49	0x3cadef0e	0.021232154
50	0x3d1d5ae3	0.038416754
51	0x3c2bbbbd	0.010481772
52	0xbe82d72b	-0.25554785
53	0xbe366a4b	-0.17813985
54	0x3dc18cfd	0.094507195
55	0x3e8ab5b7	0.27091762
56	0x3ec86094	0.39136183
57	0x3e70d9d6	0.23520598
58	0x3d91e404	0.07123569
59	0x3d495538	0.049153537
60	0xbd0d0d36	-0.034436427
61	0x3e5ddc0e	0.21665975
62	0x3e57259f	0.21010445
63	0x3e7f9353	0.24958543
64	0x3cd7c3bd	0.026338452
65	0xbe007869	-0.12545933
66	0x3d58a701	0.052893642
67	0x3c85d1ba	0.016335357
68	0x3d347854	0.044060066
69	0xbdc1f418	-0.09470385
70	0x3d08ac12	0.033367224
71	0xbdc802b8	-0.097661436
72	0xbe78b524	-0.2428785
73	0xbdc80a65	-0.097676076
74	0xbd2563e1	-0.040378455
75	0xbb3d388b	-0.0028872814
76	0xbd147916	-0.03624829
77	0xbc6768e2	-0.014124127
78	0x3d138a51	0.03602058
79	0x3d44c166	0.048036
80	0x3d800f80	0.062529564
81	0x3c8df111	0.017326863
82	0xbc8218f8	-0.015881047
83	0xbd0bc604	-0.03412439
84	0x3cc10142	0.02356017
85	0xbd75af5f	-0.0599817
86	0xbd2b7bd0	-0.041866124
87	0x3ca392ea	0.019967515
88	0x3cddfa28	0.027096823
89	0xbd66a689	-0.056311164
90	0x3d0b4eba	0.034010626
91	0xbd3c5177	-0.04597613
92	0x3d6a34f3	0.057179403
93	0x3c72af79	0.014812344
94	0xbcd92a4a	-0.026509423
95	0x3c41d7ce	0.011831237
96	0xbbe252ed	-0.006906858
97	0xbd229932	-0.03969688
98	0xbc31ed2c	-0.010859769
99	0x3c884201	0.016633036
100	0xbd55f970	-0.052239835
101	0xbdecd530	-0.115641
102	0x3ded38db	0.1158311
103	0x3e6abe76	0.22924218
104	0x3e91dbd1	0.2848802
105	0xbd0aa03b	-0.033844214
106	0xbc9e73ef	-0.01934239
107	0xbeb4225c	-0.35182464
108	0xbe9faf08	-0.31188226
109	0xbe043f04	-0.12914664
110	0xbb3c7b69	-0.0028760082
111	0x3e59ae9f	0.21258019
112	0xbd6143e1	-0.054996375
113	0xbe541fb6	-0.20715222
114	0xbe802d05	-0.25034347
115	0xbd388e2c	-0.04505746
116	0x3d27de6a	0.040983595
117	0x3da4eb1a	0.080526546
118	0x3d49842c	0.049198315
119	0x3dc050b4	0.09390393
120	0x3d178054	0.036987618
121	0x3d002f24	0.031294957
122	0x3da8c0e4	0.08239916
123	0x3b732fcf	0.0037107354
124	0x3d98383f	0.07432603
125	0xbe138535	-0.14406283
126	0xbcb1a3d3	-0.021684563
127	0x3ccd6c24	0.02507598
128	0xbccae4ce	-0.024767306
129	0x3e9f66c7	0.311331
130	0xbdf52692	-0.11970247
131	0xbcef9bf0	-0.029249161
132	0x3c91748f	0.017755775
133	0x3e5f79a3	0.21823744
134	0x3ccfaebe	0.025351878
135	0x3d42ba53	0.047540974
136	0x3b2b327e	0.0026122625
137	0x3cd1b0f8	0.02559708
138	0x3e2d436d	0.16920252
139	0x3e166dd6	0.14690337
140	0x3e29c06f	0.16577314
141	0x3eafcf7c	0.34337986
142	0x3e1b3329	0.15156235
143	0xbd0fa6d0	-0.035071194
144	0xbe13235a	-0.14368954
145	0x39cc38ab	0.00038952133
146	0x3d1c3686	0.038137935
147	0x3d6b2377	0.05740687
148	0xbe3e153e	-0.18562791
149	0xbd488785	-0.048957366
150	0x3e51e43b	0.2049722
151	0x3db99385	0.0906134
152	0x3db79187	0.08963304
153	0xbe1d01b8	-0.15332687
154	0xbdd4966f	-0.103802554
155	0x3b53a9aa	0.0032297173
156	0xbd2c6f90	-0.04209858
157	0xbd5e3c71	-0.05425686
158	0xbdcf3766	-0.10117988
159	0xbb1d6a0a	-0.0024019503
160	0x3d9ed4b4	0.07755414
161	0x3e2838a4	0.16427857
162	0x3d76ded2	0.06027109
163	0xbe65b9da	-0.22434178
164	0xbdf28bb0	-0.118430495
165	0xbe05a71c	-0.13052028
166	0x3d4dd5e2	0.050252803
167	0x3d80fd78	0.06298345
168	0xbdfee3b8	-0.12445778
169	0xbc8cd113	-0.017189538
170	0xbe0a6fc5	-0.13519199
171	0x3e1a06e9	0.15041699
172	0xbbaf8aba	-0.0053571137
173	0x3d2a856d	0.04163115
174	0xbda9723c	-0.082737416
175	0xbdd556cf	-0.10416948
176	0xbe0995ae	-0.13436005
177	0xbc05658d	-0.008141887
178	0x3db59a65	0.08867339
179	0x3daa9111	0.083284505
180	0x3ca791b2	0.020455215
181	0xbc40b557	-0.011761985
182	0xbe331e13	-0.17491941
183	0xbe3f055e	-0.18654391
184	0x3cf1f903	0.029537683
185	0xbc83e8b4	-0.016102172
186	0x3e11bb16	0.14231524
187	0x3e21dce2	0.15806916
188	0x3dbb13c5	0.0913463
189	0xbdb9c3b0	-0.090705276
190	0xbca1166d	-0.019664014
191	0x3d867b52	0.0656649
192	0x3e2dc393	0.16969137
193	0xbc2b8f8b	-0.010471235
194	0xbdba95cb	-0.09110602
195	0x3e5c57e8	0.21517909
196	0x3e144d5f	0.1448264
197	0xbbed905e	-0.007249876
198	0xbcaa38af	-0.020778982
199	0xbdc4c5f8	-0.09608072
200	0xbda73975	-0.08165256
201	0xbcd5510d	-0.026039625
202	0xbe176c97	-0.14787517
203	0xbed3690a	-0.41291076
204	0xbe6cadde	-0.231132
205	0xbd6a831e	-0.05725395
206	0x3dcfe33b	0.10150763
207	0x3e28043d	0.16407867
208	0xba69bb11	-0.00089161197
209	0xbd3c9170	-0.046037138
210	0x3de5e9f9	0.11226267
211	0xbd8c5150	-0.06851447
212	0x3e43fadc	0.19138664
213	0x3e3464ff	0.17616652
214	0x3d21e815	0.03952797
215	0xbd1dc650	-0.038519204
216	0xbe589a9f	-0.21152733
217	0xbdf02831	-0.11726416
218	0x3ddab7c8	0.10679585
219	0x3d210bc2	0.039317854
220	0xbda9f0de	-0.08297895
221	0xbea484a6	-0.32132453
222	0xbe614421	-0.21998645
223	0xbce490e6	-0.027901124
224	0xbd0409a0	-0.03223574
225	0x3bb6fc14	0.0055842493
226	0x3d5212af	0.05128735
227	0xbc8913f9	-0.016733157
228	0xbe080c8d	-0.13286038
229	0x3e2cec5b	0.16887037
230	0xbcf7deba	-0.030257571
231	0x3db28d84	0.08718398
232	0x3d956653	0.072949074
233	0x3e7ea712	0.2486842
234	0x3e4e6380	0.20155144
235	0xbd9d050c	-0.07666978
236	0xbd465dfa	-0.048429467
237	0xbe86de6a	-0.26341563
238	0x3e2e32dd	0.1701159
239	0x3ef29c48	0.47384858
240	0xbdd0c9e2	-0.10194756
241	0x3e3b0f64	0.1826759
242	0x3da0f180	0.078585625
243	0x3ec6dc53	0.3883997
244	0x3e67672d	0.22597952
245	0x3e6818a7	0.22665654
246	0x3df644c5	0.120248355
247	0xbbc3dc26	-0.0059771715
248	0x3d9e40a7	0.07727175
249	0xbdb3b9c0	-0.087756634
250	0x3e873680	0.26408768
251	0x3d23833b	0.039920073
252	0xbe974321	-0.29543403
253	0xbe841ffe	-0.25805658
254	0xbcb4b0f1	-0.022057028
255	0x3e2830f6	0.16424927

feature_extractor.3.bias f4 [20]
0	0xbeecc933	-0.46247253
1	0x3e59ca70	0.2126863
2	0xbe9a4789	-0.30132702
3	0x3c494ba4	0.012286101
4	0xbeba1e2d	-0.36351147
5	0xbe734e04	-0.2376023
6	0xbe8b91cf	-0.2725968
7	0xbe38282d	-0.17984076
8	0xbe4ac74f	-0.19802593
9	0xbd151b6f	-0.036403116
10	0xbe4ccc9c	-0.19999927
11	0x3e02b8f3	0.12765865
12	0xbe6d1c68	-0.23155367
13	0xbe97d9cd	-0.29658356
14	0x3e219cd9	0.15782489
15	0x3e0c59d8	0.13706148
16	0x3ebe0d1e	0.37119383
17	0xbe5f556f	-0.21809934
18	0x3e98abd4	0.29818594
19	0x3d86cd8f	0.06582176

classifier.0.weight f4 [50, 320]
0	0xbe656c0c	-0.22404498
1	0xbe123a06	-0.14279947
2	0xbd9bf6c5	-0.07615427
3	0xbddbed57	-0.10738628
4	0xbe95dc84	-0.29269803
5	0xbe687166	-0.22699508
6	0xbdbcbe5a	-0.09215994
7	0x3d12884a	0.035774507
8	0x3e18e3b7	0.14930616
9	0x3dacf398	0.08444899
10	0x3d8fb9d7	0.07017868
11	0x3bf91e9a	0.007602525
12	0x3dc1b977	0.09459203
13	0x3d5a8e63	0.053358447
14	0xbe0e390d	-0.1388895
15	0x3e848902	0.2588578
16	0x3c7e3eac	0.015517872
17	0xbd67d94a	-0.056603707
18	0xbd768ce2	-0.06019295
19	0x3cba0538	0.022707567
20	0xbce7bde4	-0.02828879
21	0x3d0c99cc	0.03432636
22	0x3dc2bea8	0.09509021
23	0x3d84ee8b	0.06490811
24	0x3d969b35	0.07353822
25	0xbd37c91a	-0.04486952
26	0x3d7d80dd	0.06189047
27	0x3b146f4a	0.0022649341
28	0xbe0f7b9e	-0.14012
29	0xbdc15a53	-0.09441056
30	0xbd5f60f1	-0.05453581
31	0xbc9e810c	-0.019348644
32	0xbe052727	-0.13003217
33	0x3e296160	0.16541052
34	0xbd3fd5f5	-0.046834905
35	0xbc3805a2	-0.011231812
36	0xbdc9f4e8	-0.09861165
37	0x3dc4b7c4	0.09605363
38	0xbde21892	-0.11039843
39	0xbd6b84ed	-0.057499815
40	0xbd3f5746	-0.04671409
41	0x3d14b4e4	0.036305323
42	0x3e20ba23	0.15696006
43	0xbe127d8d	-0.14305706
44	0x3d1bd11c	0.03804122
45	0x3dd144cd	0.10218201
46	0xbd126dbb	-0.03574918
47	0xbe0252ba	-0.1272687
48	0xbcb893b6	-0.022531372
49	0xbd101d45	-0.035184164
50	0x3dac8a43	0.08424809
51	0x3d2279bd	0.03966688
52	0xbde6edbe	-0.112758145
53	0x3e1520e6	0.14563331
54	0xbd495807	-0.049156215
55	0x3d2ee233	0.04269619
56	0x3cf6d5c9	0.030131238
57	0xbcf248e8	-0.02957578
58	0xbcec97a4	-0.028880902
59	0x3d9836f2	0.07432355
60	0xbddba92e	-0.10725628
61	0x3df900bb	0.121583425
62	0xbd1449af	-0.036203083
63	0xbd51f8a7	-0.051262524
64	0xbbf92bf3	-0.007604116
65	0xbcf4cf57	-0.029884024
66	0x3cf28071	0.029602261
67	0x3d6ccdcc	0.05781345
68	0x3da75d3f	0.08172082
69	0x3e3a978e	0.18221876
70	0xbd1937aa	-0.0374066
71	0x3be5d823	0.007014291
72	0x3d4ddabd	0.050257433
73	0x3ce82f22	0.028342787
74	0xbcc62477	-0.02418731
75	0x3da57d7e	0.08080576
76	0xbddaa554	-0.10676065
77	0xbdefc4e6	-0.11707477
78	0xbd012a37	-0.0315344
79	0xbe531357	-0.20612846
80	0xbe2b00b5	-0.16699488
81	0xbdc20024	-0.09472683
82	0x3bc42336	0.005985643
83	0xbdfac11c	-0.12243864
84	0xbdca65f0	-0.09882724
85	0xbc6506f0	-0.013978705
86	0x3e050449	0.12989916
87	0xba91499f	-0.0011084563
88	0x3e08f319	0.13373984
89	0x3dd62708	0.10456663
90	0x3dea1f4b	0.1143175
91	0x3d964037	0.07336467
92	0xbcfc4b27	-0.030797554
93	0xbd9cc894	-0.07655445
94	0xbe02ab0e	-0.12760565
95	0x3dc4fd84	0.09618667
96	0x3d3dbf98	0.046325296
97	0x3d8affdc	0.067870826
98	0xbd87993a	-0.066210225
99	0xbe6956b4	-0.22786981
100	0xbd06594e	-0.03280001
101	0xbe11d530	-0.14241481
102	0xbd950685	-0.07276634
103	0xbe22d974	-0.15903264
104	0x3df352a9	0.118810005
105	0x3e002582	0.12514308
106	0x3e1e8bc3	0.15483002
107	0x3ded07e2	0.11573769
108	0xbd398737	-0.045294967
109	0x36bf8da8	5.7087345e-06
110	0x3d10fa9e	0.035395257
111	0x3c28e1b6	0.01030772
112	0x3cc6e358	0.024278328
113	0xbc76cd7a	-0.015063638
114	0xbcb6ce2c	-0.022315107
115	0x3d9ecc21	0.07753778
116	0xbd805959	-0.06267042
117	0xbcc2cbda	-0.023778845
118	0xbce5672f	-0.028003303
119	0xbe2ce012	-0.16882351
120	0xbd68e898	-0.056862444
121	0xbbfe7270	-0.007765107
122	0x3d998c62	0.07497479
123	0xbd82b380	-0.06381893
124	0xbcc46ece	-0.023978617
125	0x3db7b66f	0.08970343
126	0x3dc5bed5	0.09655539
127	0x3dfdd05c	0.12393257
128	0xbd8a688b	-0.06758221
129	0xbbe7b61e	-0.0070712706
130	0x3b56a575	0.0032752429
131	0xbd074116	-0.033021055
132	0xbe5806fc	-0.21096414
133	0xbcea3122	-0.028587881
134	0xbd4cf3a9	-0.05003706
135	0x3c52479b	0.012834455
136	0xbb8d80d8	-0.004318338
137	0x3cd17c37	0.025571926
138	0x3c9179ea	0.017758328
139	0xbcf1b3ba	-0.029504646
140	0x3a36d8fc	0.0006975082
141	0x3d595464	0.053058997
142	0x3c6e40be	0.014541803
143	0x3c919e0f	0.017775564
144	0xbc78d47e	-0.015187381
145	0x3e149caa	0.14512888
146	0x3e164235	0.14673693
147	0x3dde8f5d	0.10867188
148	0x3e09744c	0.1342327
149	0xbdcf0cd0	-0.10109866
150	0x3cd48e2d	0.025946701
151	0x3da80286	0.08203606
152	0xbe131008	-0.14361584
153	0xbe3c87f0	-0.18411231
154	0x3a318071	0.00067711534
155	0xbdd5361b	-0.104107104
156	0x3dbc6646	0.091991946
157	0x3d8b4ae6	0.06801395
158	0x3a7d1292	0.0009653951
159	0x3dd66e61	0.10470272
160	0x3d766413	0.060154032
161	0x3c40383c	0.011732157
162	0x3c3e0f2b	0.011600296
163	0xbd54abca	-0.051921643
164	0x3d8b112b	0.06790384
165	0x3b8f78f1	0.004378431
166	0x3d849a7a	0.064747766
167	0x3e60636d	0.21912928
168	0xbe1b1d34	-0.15147859
169	0xbcf56705	-0.02995635
170	0xbc3d437c	-0.011551734
171	0xbe199b9b	-0.15000765
172	0xbe75c56b	-0.2400109
173	0xbc8fb4b1	-0.017542215
174	0xbde99a79	-0.114064164
175	0xbe42562f	-0.18978189
176	0x3d16bed1	0.03680307
177	0x3d8b6346	0.06806044
178	0x3db20f9d	0.08694384
179	0x3dbfaa3e	0.09358643
180	0xbe0544f4	-0.13014585
181	0xbde3185c	-0.110886306
182	0xbbcc19e1	-0.006228671
183	0xbe1d71c3	-0.15375428
184	0xbe16180f	-0.14657615
185	0xbda7ae01	-0.081874855
186	0xbd812a9c	-0.06306955
187	0xbd6fe0e0	-0.058564067
188	0x3da7757a	0.08176704
189	0x3ea7833e	0.32717317
190	0x3e518b34	0.20463258
191	0xbbcebb32	-0.0063089365
192	0xbdd1af12	-0.1023847
193	0x3d1ce8eb	0.038308065
194	0xbd9ad957	-0.075609855
195	0xbde7085c	-0.11280891
196	0x3db74cc8	0.08950192
197	0x3d251151	0.040299717
198	0xbb3089fe	-0.0026937719
199	0x3e50a828	0.20376647
200	0x3db2a0ed	0.087221004
201	0x3e257759	0.16158809
202	0x3cc95147	0.024574889
203	0xbc744c1d	-0.014910725
204	0xbdb6d1d4	-0.0892674
205	0xbda365cd	-0.07978401
206	0xbe1e03ed	-0.15431185
207	0xbe8540a5	-0.26025882
208	0x3dc1758d	0.09446249
209	0xbe0f3c44	-0.13987833
210	0xbdd17c13	-0.102287434
211	0x3d0e27b0	0.034705818
212	0xbd37a7f6	-0.044837914
213	0x3e93dd4c	0.28879774
214	0x3daf58ca	0.08561857
215	0x3e210d6e	0.1572778
216	0xbdf57009	-0.1198426
217	0x3c4a7297	0.012356422
218	0xbd56b2e1	-0.052416686
219	0x3d70b00c	0.05876164
220	0xbe609cfe	-0.21934888
221	0xbd78423f	-0.060610052
222	0xbeaf9d0f	-0.34299514
223	0x3d04821d	0.03235065
224	0x3df03ab2	0.11729945
225	0xbd44186e	-0.04787486
226	0x3d9891fe	0.07449721
227	0x3e87c070	0.26514006
228	0xbe1f093d	-0.15530868
229	0x3cb610fe	0.0222249
230	0x3db21843	0.08696034
231	0xbdb6c7fa	-0.08924861
232	0xbe122266	-0.14270934
233	0x3c60c90a	0.013719806
234	0xbc783000	-0.015148163
235	0xbe48b9ab	-0.19602077
236	0x3d214d14	0.039380148
237	0x3c165fd6	0.0091781225
238	0x3cd5d520	0.026102602
239	0x3daba177	0.08380406
240	0x3e1cf81f	0.15329026
241	0x3db9277a	0.09040733
242	0x3e048f2c	0.1294524
243	0xbd73988d	-0.059471656
244	0xbccb4ab8	-0.024815902
245	0xbdd4d527	-0.10392218
246	0xbc1bc9a6	-0.009508526
247	0xbd871a0f	-0.06596767
248	0xbe40409a	-0.18774644
249	0xbe0bfc6b	-0.13670509
250	0x3bc9b027	0.006155032
251	0xbd6e7434	-0.05821629
252	0x3d7458b9	0.059654925
253	0xbd920d5c	-0.07131454
254	0xbceb009f	-0.02868682
255	0xbca08112	-0.019592796

classifier.0.bias f4 [50]
0	0x3d4a22e0	0.049349666
1	0xbdb3e525	-0.0878394
2	0x3e50a85a	0.20376721
3	0x3e1a54b6	0.15071377
4	0x3e578be8	0.21049464
5	0x3e150865	0.14553984
6	0xbe3c6792	-0.18398884
7	0x3c1a91c9	0.009434172
8	0x3db754af	0.08951699
9	0xbdaa9e0e	-0.08330928
10	0x3df3cf62	0.119047895
11	0xbe8d288b	-0.27569994
12	0xbe0f7bf2	-0.14012125
13	0x3e56c981	0.20975305
14	0x3e0410a2	0.1289697
15	0x3dfd33ec	0.12363419
16	0x3bfa9a75	0.0076478072
17	0xbdb24aaf	-0.08705651
18	0x3e193c6e	0.14964458
19	0x3e10487a	0.14090148
20	0x3e5d049a	0.21583787
21	0x3e74b6b9	0.23897828
22	0xbdd182eb	-0.10230049
23	0x3e6dfad1	0.2324021
24	0x3e132af9	0.14371862
25	0x3dd24931	0.102678664
26	0x3e067442	0.13130286
27	0x3dcb9d56	0.09942119
28	0x3e0361f3	0.12830333
29	0xbc22c1d8	-0.009933911
30	0x3e3f74dc	0.18696922
31	0x3b083aa4	0.0020786906
32	0xbe1b7279	-0.15180387
33	0xbd4daf09	-0.050215755
34	0x3e5bc5e5	0.2146221
35	0x3e01cc00	0.12675476
36	0x3e9c6bcd	0.30550995
37	0x3e8d152b	0.27555212
38	0xbbd571d4	-0.0065138135
39	0x38c88fa4	9.563498e-05
40	0x3e0d7a98	0.13816297
41	0x3e255aec	0.16147965
42	0x3e027e92	0.12743595
43	0x3ea94346	0.33059138
44	0xbd0fc3df	-0.035098907
45	0xbe818e6c	-0.25303972
46	0xbc550373	-0.013001311
47	0xbd001c3e	-0.031276934
48	0xbe15eb06	-0.14640436
49	0x3da91434	0.082558066

classifier.3.weight f4 [10, 50]
0	0x3daf6902	0.085649505
1	0xbee721d9	-0.4514301
2	0x3ce228a7	0.027607275
3	0x3e13164d	0.14363976
4	0xbe3a4e1d	-0.1819386
5	0xbe36f1fa	-0.17865744
6	0x3c4321c1	0.011909903
7	0x3d839904	0.0642567
8	0xbe4d92b2	-0.20075491
9	0x3e38239d	0.17982335
10	0x3d8edcdd	0.0697572
11	0x3e40b434	0.18818742
12	0xbddec4ef	-0.10877406
13	0xbed4b4bd	-0.41544142
14	0x3db14cea	0.08657248
15	0x3e025fdc	0.1273188
16	0x3dfab0e3	0.1224077
17	0xbe998dd3	-0.29991016
18	0xbe2192f9	-0.15778722
19	0x3e107567	0.14107285
20	0x3e38c2e5	0.18043096
21	0x3e399eea	0.18127027
22	0x3d35e250	0.04440528
23	0xbe1bcb0d	-0.15214176
24	0xbe0c9d96	-0.1373199
25	0xbdc8c684	-0.09803489
26	0x3e4644ff	0.19362257
27	0xbda8f544	-0.08249906
28	0xbe7e01d7	-0.2480539
29	0xbe51689b	-0.2045006
30	0xbed95c4c	-0.4245323
31	0x3dfb7aec	0.12279305
32	0x3e4233a5	0.18965013
33	0xbd04a5b7	-0.0323846
34	0xbebf003d	-0.3730487
35	0x3e0601b7	0.13086592
36	0xbecb7ff1	-0.3974605
37	0xbeab25eb	-0.33427367
38	0x3df3f9e1	0.11912895
39	0xbe241bc8	-0.16026223
40	0x3def6ba4	0.11690453
41	0xbe3d8b00	-0.18510056
42	0x3d13d665	0.036093134
43	0xbea210e0	-0.316535
44	0x3e3f0e3e	0.18657777
45	0xbcd9c1c6	-0.026581656
46	0x3da600ae	0.081055984
47	0xbe69e295	-0.2284034
48	0xbeb08e23	-0.34483442
49	0xbcaeafe7	-0.021324111
50	0xbebccb72	-0.36873966
51	0x3cce7b7c	0.025205366
52	0xbe409b2b	-0.18809192
53	0xbda9d9ee	-0.0829352
54	0x3e8566cc	0.2605499
55	0x3e52bb05	0.20579155
56	0xbdbd3b37	-0.0923981
57	0xbe4ce22e	-0.20008156
58	0x3e1b1c41	0.15147497
59	0x3d8cb98a	0.06871326
60	0xbd6101de	-0.05493342
61	0xbe6410e8	-0.22272074
62	0xbdf17c32	-0.117912665
63	0xbda6b2d3	-0.08139577
64	0x3d0ca5db	0.03433786
65	0x3e12caea	0.14335218
66	0xbe451c97	-0.19249187
67	0xbe657018	-0.22406042
68	0x3df509da	0.1196477
69	0xbebf3332	-0.37343746
70	0x3e5d043f	0.21583651
71	0x3e01dd27	0.12682019
72	0xbe25f04c	-0.16204947
73	0xbe105806	-0.14096078
74	0xbcb2656d	-0.02177688
75	0x3e59de93	0.21276312
76	0x3e4a1343	0.1973391
77	0x3daa984f	0.08329832
78	0x3de46393	0.11151805
79	0x3d2920c8	0.04129103
80	0xbe5f9184	-0.21832854
81	0xbe9e451a	-0.30912095
82	0xbe221adb	-0.15830557
83	0xbe7c3b00	-0.24631882
84	0x3e42f62a	0.19039217
85	0xbddddba7	-0.10832911
86	0x3e36a07b	0.17834656
87	0x3e298959	0.165563
88	0xbd83a461	-0.06427837
89	0x3e28870b	0.16457765
90	0xbf032056	-0.51221216
91	0x3e21ee40	0.15813541
92	0x3e20e651	0.15712859
93	0x3e8cc5dd	0.27494708
94	0xbe717623	-0.23580222
95	0xbe18c930	-0.14920497
96	0xbe9ce630	-0.3064437
97	0xbe929df3	-0.2863613
98	0xbe466160	-0.19373083
99	0x3dbefd8b	0.09325703
100	0x3e2ec9ee	0.17069218
101	0xbd22d658	-0.039755195
102	0xbe312b1a	-0.17301598
103	0x3e03883d	0.1284494
104	0xbdcfb336	-0.10141604
105	0x3d01df85	0.031707305
106	0xbd119fa8	-0.03555265
107	0xbd7318b0	-0.059349716
108	0x3e441c37	0.19151388
109	0x3e1dae94	0.15398628
110	0x3dd632f5	0.10458938
111	0x3de74d3e	0.1129403
112	0x3e2fde25	0.17174585
113	0xbd6d4c76	-0.057934247
114	0x3e0fb5f6	0.14034256
115	0xbe0d5d09	-0.13805021
116	0x3d8cbcbd	0.068719365
117	0xbb16d318	-0.0023014005
118	0x3e1fc5bc	0.15602773
119	0xbdcbe406	-0.099556014
120	0xbe967a5e	-0.29390234
121	0x3dcb0aa1	0.09914137
122	0x3ccfc203	0.025361067
123	0xbcd3d3e1	-0.025857868
124	0x3e0f6443	0.1400309
125	0xbe2586c7	-0.16164695
126	0x3e4ef36e	0.20210049
127	0x3e1f4b24	0.15556008
128	0x3e18c69a	0.1491951
129	0x3e19e964	0.15030438
130	0xbd806408	-0.062690794
131	0x3da919c4	0.082568675
132	0xbd972e4e	-0.07381879
133	0x3e0882dd	0.1333117
134	0xbdcfa4a6	-0.10138826
135	0xbe4baff2	-0.19891337
136	0x3e5c4fd1	0.21514823
137	0x3d6cfbae	0.057857208
138	0x3df7a741	0.12092448
139	0xbe0a50db	-0.13507406
140	0xbdc8c3c7	-0.098029666
141	0x3e5d66b7	0.21621214
142	0xbe24dcf0	-0.16099906
143	0xbdd89b1d	-0.105764605
144	0x3db966bc	0.09052798
145	0xbe33283d	-0.17495818
146	0xbe60b7d1	-0.2194512
147	0xbe1c9345	-0.15290554
148	0xbe00ac79	-0.12565793
149	0xbdc13c39	-0.09435315
150	0xbe2a40e5	-0.16626318
151	0xbcf37fcb	-0.029724022
152	0xbe1cd17e	-0.1531429
153	0x3db7c2f3	0.089727305
154	0xbead4b60	-0.3384657
155	0xbeb4a877	-0.35284778
156	0x3e32ab68	0.17448199
157	0x3e39ed70	0.18156981
158	0x3e5984bf	0.21242045
159	0xbe25ba6d	-0.16184397
160	0xbd597361	-0.05308855
161	0x3e0ed638	0.13948905
162	0x3df92e66	0.12167053
163	0x3e2aaf33	0.16668396
164	0x3de48fc1	0.111602314
165	0xbe901169	-0.28138283
166	0xbe05c416	-0.13063082
167	0x3e36a5d6	0.17836699
168	0xbd7d76ef	-0.061881002
169	0xbdf71946	-0.120653674
170	0xbe61f8eb	-0.22067611
171	0x3e13e32f	0.14442132
172	0xbd826bf8	-0.0636825
173	0x3e1c2c2d	0.15251227
174	0xbd72640f	-0.059177455
175	0xbe1f4a5d	-0.15555711
176	0xbdfc7bec	-0.12328324
177	0x3dd81dec	0.10552582
178	0xbd8aa5d7	-0.06769913
179	0x3e15fcf6	0.14647278
180	0xbd10be7b	-0.035337906
181	0x3da4b76c	0.080427974
182	0xbdc4b0d2	-0.09604038
183	0xbe0a11a7	-0.13483296
184	0xbe2c02bf	-0.16797923
185	0xbe54ab64	-0.20768505
186	0xbcb224a7	-0.021745993
187	0x3e355d04	0.17711264
188	0xbc56bb16	-0.013106128
189	0x3e4fc984	0.20291716
190	0xbd9dba11	-0.07701505
191	0x3e2d0ef4	0.16900235
192	0xbe6da418	-0.23207128
193	0xbdaf0c45	-0.08547262
194	0xbd0913e2	-0.033466227
195	0x3e059ce5	0.13048132
196	0xbe6dd6b7	-0.23226438
197	0xbe1b801e	-0.15185592
198	0x3e08161e	0.13289687
199	0xbddf5022	-0.10903956
200	0x3e3dfb2c	0.18552846
201	0xbd10eb0e	-0.035380416
202	0x3deebda0	0.11657262
203	0xbe91d83c	-0.28485286
204	0x3e5e3403	0.21699528
205	0x3d5db839	0.054130767
206	0x3d52294c	0.051308915
207	0xbe7e15bd	-0.2481298
208	0xbe1b5d85	-0.15172394
209	0x3e205c94	0.15660316
210	0x3e304797	0.1721481
211	0xbba8fb11	-0.0051568826
212	0xbc1109c5	-0.008852427
213	0x3e26fce0	0.16307402
214	0x3c947896	0.018123906
215	0x3e279256	0.16364416
216	0x3da8829f	0.08228039
217	0x3e31b953	0.17355852
218	0x3cb6dd69	0.022322373
219	0xbc2ac54b	-0.010423015
220	0xbd6e0f97	-0.058120336
221	0xbe5513ba	-0.20808306
222	0x3e32c6da	0.17458668
223	0x3d3355a0	0.04378283
224	0x3dd17f9c	0.10229418
225	0x3e46016a	0.19336477
226	0xbe30c7f9	-0.17263784
227	0xbe67fb3f	-0.22654437
228	0xbe58dd25	-0.2117811
229	0xbe593890	-0.21212983
230	0x3e290ded	0.16509219
231	0xbe690f83	-0.22759824
232	0x3d384f06	0.044997238
233	0x3e37dbf3	0.17954998
234	0x3e55b871	0.2087114
235	0xbe2b4867	-0.16726838
236	0xbe196796	-0.14980921
237	0xbdf36dc1	-0.11886168
238	0xbdcca51b	-0.09992429
239	0xbe15e7a4	-0.14639145
240	0xbe262954	-0.16226703
241	0xbd2184ec	-0.039433405
242	0xbdb98e73	-0.09060373
243	0x3e7ac835	0.24490435
244	0xbe6c74f0	-0.23091483
245	0xbcbb2b19	-0.022847699
246	0xbe72f1f6	-0.23725113
247	0x3dfdd9e2	0.123950735
248	0x3df233ec	0.118263096
249	0x3e38fe54	0.18065768
250	0x3d8bc352	0.06824364
251	0xbe065d42	-0.13121513
252	0xbde20177	-0.11035436
253	0x3df8a5cf	0.121410005
254	0xbe13703b	-0.14398281
255	0xbcb7e017	-0.022445722

classifier.3.bias f4 [10]
0	0x3e0a8b07	0.13529597
1	0x3f0a0940	0.53920364
2	0xbe4f1491	-0.20222689
3	0x3d5b2bcf	0.053508576
4	0xbdcd9d04	-0.10039714
5	0xbe2a4b24	-0.16630226
6	0xbe17fa1b	-0.14841501
7	0xbe219a64	-0.15781552
8	0x3e5a9a8a	0.21348014
9	0xbe21ebce	-0.15812609
