day3/solutions/simple_autoencoder/simple_autoencoder_3.pt (torch_old, 876595 bytes, 12 tensors)

encoder.0.weight f4 [128, 784]
0	0xbb87c786	-0.004143658
1	0xbb9bf4d3	-0.00475941
2	0xbbe34613	-0.0069358437
3	0xbba6bd29	-0.0050884676
4	0xbbcd2c4c	-0.006261384
5	0xbbc745df	-0.0060813273
6	0xbbf023fb	-0.007328508
7	0xbbbf7cd5	-0.0058437386
8	0xbba10a3b	-0.0049145496
9	0xbba9c324	-0.0051807333
10	0xbbd9fd87	-0.0066525373
11	0xbba04f9c	-0.0048923027
12	0xbbe5b15a	-0.0070096673
13	0x3a883464	0.001039159
14	0x3b529afc	0.0032135835
15	0xbbf9acf7	-0.007619496
16	0xbbbd3b71	-0.0057749082
17	0xbbc4364e	-0.005987919
18	0xbb908754	-0.0044106636
19	0xbc02140e	-0.007939352
20	0xbb9d5a42	-0.0048020193
21	0xbbf64ed3	-0.007516721
22	0xbb868980	-0.0041057467
23	0xbbc402d7	-0.005981784
24	0xbbf200c1	-0.007385344
25	0xbbcf15e4	-0.0063197482
26	0xbbdce19f	-0.0067407633
27	0xbbe6c792	-0.0070428336
28	0xbb8e1a4c	-0.004336631
29	0xbbf724f1	-0.0075422456
30	0xbba4aef7	-0.0050257402
31	0xbc0323e4	-0.008004162
32	0xbba5e67c	-0.0050628763
33	0xbc0f81f6	-0.008759012
34	0xbbaeaa87	-0.005330387
35	0xbbc5cbad	-0.006036243
36	0xb7059390	-7.961775e-06
37	0xbb38326d	-0.0028106228
38	0xba041c0e	-0.0005039581
39	0x3af81e76	0.0018929977
40	0xbaafbeb2	-0.0013408272
41	0x3b160e2d	0.0022896633
42	0x3c2edc50	0.010672644
43	0x3c9c9f6a	0.019118983
44	0xba289cd4	-0.00064320606
45	0xbba82f48	-0.0051325895
46	0xbb70339a	-0.003665185
47	0xbbae7bb8	-0.005324807
48	0xbbc667d1	-0.0060548563
49	0xbbc3a3e6	-0.005970466
50	0xbc094c4d	-0.008380008
51	0xbbf1fdd6	-0.007384996
52	0xbc023ce8	-0.0079490915
53	0xbbd86634	-0.0066039804
54	0xbba732e3	-0.0051025017
55	0xbbc30141	-0.005951077
56	0xbbc99f94	-0.0061530564
57	0xbc0d988b	-0.008642326
58	0xbbe416d3	-0.0069607287
59	0xbbc51c50	-0.006015338
60	0xbbd9be73	-0.006645018
61	0xbc0856ac	-0.008321445
62	0xbba3e39c	-0.0050014984
63	0x3a9c9835	0.0011947217
64	0x3c665b66	0.014059877
65	0x3ce22707	0.0276065
66	0x3d1db871	0.038505975
67	0x3d23a0db	0.039948326
68	0x3d72896a	0.05921308
69	0x3dd3a46a	0.10334094
70	0x3dd1cdfa	0.10244365
71	0x3d35d173	0.0443892
72	0x3c279b4d	0.010229898
73	0xbca7f8cc	-0.020504378
74	0xbd0b2d97	-0.033979025
75	0xbc8745ff	-0.016512869
76	0xbcb2e075	-0.021835545
77	0xbcd049a6	-0.025425743
78	0xbc8acb4e	-0.016942646
79	0xb9623145	-0.00021571394
80	0xba84d18a	-0.0010133248
81	0xbc060476	-0.0081797745
82	0xbc0215a9	-0.0079397345
83	0xbbc5214f	-0.0060159336
84	0xbba65b29	-0.005076785
85	0xbb97a942	-0.0046283314
86	0xbbb8bcb7	-0.005637731
87	0xbb9d8513	-0.0048071234
88	0xbbd3899b	-0.006455613
89	0x3c2d2659	0.010568225
90	0x3a2469e3	0.0006271882
91	0xbc6e527a	-0.014546031
92	0xbc99d998	-0.018780515
93	0xbc7ae21c	-0.015312698
94	0xbd3d0a37	-0.04615232
95	0xbbf681bb	-0.0075227893
96	0x3ce3b9fa	0.027798641
97	0x3d3cd213	0.04609878
98	0x3d9e02a3	0.07715347
99	0x3d786a25	0.060648102
100	0x3d2d6405	0.042331714
101	0x3ce4d49a	0.027933408
102	0xbc185c8b	-0.009299408
103	0xbd513ffe	-0.05108642
104	0xbd03c5d9	-0.032171104
105	0xbd1ee4b8	-0.038792342
106	0xbd34b35a	-0.044116355
107	0x3c4ad5ac	0.012380045
108	0x3cd7cfc7	0.026344193
109	0x3a5cc0be	0.0008421055
110	0xbb9f6c66	-0.004865217
111	0xbba2c8d3	-0.004967788
112	0xbba5096d	-0.005036524
113	0xbba88369	-0.0051426184
114	0xbc14eca3	-0.009089622
115	0x396e25b4	0.00022711494
116	0x3be4ba69	0.0069802296
117	0x3d2831be	0.041063063
118	0x3cbcdf30	0.023055643
119	0x3d11754a	0.035512246
120	0x3cbb8bd8	0.022893831
121	0xbcd37b63	-0.025815671
122	0xbd4bb4c1	-0.049732927
123	0x3cc37556	0.023859661
124	0x3d0c3898	0.03423366
125	0x3da831c5	0.08212618
126	0x3e0d843e	0.13819978
127	0x3e208f1c	0.15679592
128	0x3e1d2470	0.15345931
129	0x3de45f8d	0.11151037
130	0x3d7cd716	0.06172856
131	0x3cca83c2	0.02472103
132	0x3c3768f6	0.011194458
133	0xbb5da518	-0.0033820327
134	0xb9cf10f3	-0.00039494745
135	0x3c35aa65	0.0110879885
136	0x3cff09e8	0.031132653
137	0x3cf59868	0.0299799
138	0x3a495590	0.00076802913
139	0xbbf22375	-0.0073894807
140	0xbb7f367b	-0.0038942385
141	0xbc10e0ec	-0.008842688
142	0xbb36a4f8	-0.0027869325
143	0x3b9fda08	0.0048782863
144	0x3bd0acf9	0.006368276
145	0x3d456ca3	0.048199307
146	0x3bb2c878	0.0054560266
147	0xbca6cde9	-0.020361857
148	0xbce2dd2f	-0.02769336
149	0xbd54b556	-0.051930748
150	0x3ce56c01	0.028005602
151	0x3cb7c93e	0.022434827
152	0x3da19656	0.078900024
153	0x3dd40fc4	0.103545696
154	0x3e02bdb6	0.12767681
155	0x3e07ea47	0.13272963
156	0x3e26c920	0.1628766
157	0x3dfa26e6	0.122144505
158	0x3c964380	0.018342733
159	0xbd008cf6	-0.03138443
160	0xbd07297c	-0.032998547
161	0x3c7568e3	0.01497862
162	0x3d2e95d2	0.04262335
163	0xbc5fa7c7	-0.013650841
164	0x3c8f93ac	0.01752647
165	0x3d5f5f7e	0.054534428
166	0x3bf30ee8	0.0074175484
167	0xbb84e85a	-0.004056019
168	0xbbfaa587	-0.007649127
169	0xbb7debc1	-0.0038745257
170	0xbbe63e47	-0.007026467
171	0xba93f516	-0.0011288251
172	0xbaa77026	-0.0012774512
173	0x3c8948fc	0.016758434
174	0xbcc9c327	-0.024629189
175	0xbd5536bd	-0.052054156
176	0x3c67f7f2	0.014158236
177	0x3d0079cb	0.03136615
178	0x3d94d075	0.072663225
179	0x3ca83238	0.020531759
180	0x3d1963d1	0.037448708
181	0x3d113d43	0.035458814
182	0x3da0f3f2	0.07859029
183	0x3dc75b43	0.09734204
184	0x3d828f74	0.06375018
185	0x3dca1214	0.098667294
186	0x3d3a2511	0.045445506
187	0x3c77f638	0.015134387
188	0x3cb3ccfd	0.021948332
189	0x3d52b15b	0.05143867
190	0x3d137d39	0.036008094
191	0xbc6a7b37	-0.014311603
192	0xbcc72e65	-0.024314115
193	0xbb0885d7	-0.0020831728
194	0x3b2de701	0.0026535394
195	0xbb678ac4	-0.0035330513
196	0xbbe35219	-0.006937277
197	0xb928f455	-0.0001611275
198	0xbc080135	-0.008301069
199	0x3b079dd6	0.0020693443
200	0xbc459041	-0.012058319
201	0xbd13a205	-0.036043186
202	0xbd5c11f0	-0.053728044
203	0x3c67a164	0.0141376
204	0x3d810ef4	0.0630168
205	0x3d4087a9	0.047004376
206	0x3d2782fc	0.0408964
207	0xbcdc3d65	-0.026884744
208	0xbd3da12c	-0.046296284
209	0xbc09bfb6	-0.008407524
210	0x3d1dc47c	0.03851746
211	0x3d4b85dd	0.04968821
212	0x3d58ddb3	0.052945804
213	0x3d2196ec	0.03945057
214	0x3d51b9fe	0.051202767
215	0x3c693b46	0.014235323
216	0x3d04032f	0.0322296
217	0xbcdc34ca	-0.02688064
218	0xbd21a928	-0.03946796
219	0xbd7f2449	-0.062290464
220	0xbd2e2ac0	-0.04252124
221	0xbcbee5ae	-0.02330288
222	0xbb8bf1a3	-0.0042707487
223	0x3a879218	0.0010343222
224	0xbb3d5a01	-0.0028892758
225	0xbbbcf2f5	-0.0057662674
226	0xbbe6ef26	-0.0070475517
227	0xb95352f4	-0.0002015343
228	0xbd6db0ba	-0.058029868
229	0xbd3997ab	-0.045310657
230	0xbc64e38f	-0.01397027
231	0x3c201f98	0.009773158
232	0x3c4574a6	0.012051737
233	0x3cb0d8c0	0.02158773
234	0xbc99eb22	-0.018788878
235	0xbd8e1dcb	-0.06939276
236	0xbd39e928	-0.04538837
237	0x3c98471b	0.018588593
238	0x3d01117c	0.031510815
239	0x3c79ddab	0.015250604
240	0x3dbc6456	0.09198825
241	0x3d9f9e2c	0.07793841
242	0x3d8a727c	0.067601174
243	0x3d4acbc9	0.04951075
244	0x3ce20b66	0.027593326
245	0xbd05d7a4	-0.032676354
246	0xbcb71bd0	-0.02235213
247	0xbd38c1f0	-0.04510683
248	0xbd0106f2	-0.031500764
249	0xbccaeb68	-0.024770454
250	0xbc9cd8aa	-0.019146282
251	0xbb082449	-0.002077358
252	0xbb8aefb1	-0.004239999
253	0xbad77b10	-0.0016439874
254	0x3b81691e	0.0039492985
255	0x3c748943	0.014925304

encoder.0.bias f4 [128]
0	0x3cbf044e	0.023317482
1	0x3c1b59d7	0.009481869
2	0xbce341f4	-0.02774141
3	0x3d5a7a9c	0.053339586
4	0xbd0711ce	-0.032975964
5	0xbd3f1e9e	-0.04666006
6	0x3c57cb6e	0.01317106
7	0xbca51a6b	-0.020154199
8	0xbd579e70	-0.052641332
9	0xbcf5ddf2	-0.030013058
10	0xbd29249c	-0.04129468
11	0x3d4ca498	0.049961656
12	0x3cc952c2	0.024575595
13	0x3d881dda	0.06646319
14	0x3be1a2bc	0.0068858545
15	0x3c965aee	0.018353906
16	0x3d4f3d08	0.050595313
17	0xbcd7ba3e	-0.026333924
18	0xbd997d18	-0.07494563
19	0xbd73277e	-0.059363835
20	0xbc2cc440	-0.0105448365
21	0xbd231c1e	-0.039821737
22	0xbc5fa3c4	-0.013649885
23	0xbacc69db	-0.0015595512
24	0xbb8c1fd7	-0.0042762565
25	0xbc84627b	-0.01616024
26	0xbd5b6216	-0.05356034
27	0xbaad2438	-0.0013209647
28	0x3d84fd70	0.06493652
29	0x3c0ad18c	0.008472811
30	0xbd71b009	-0.05900577
31	0xbdb69160	-0.08914447
32	0xbc4a8936	-0.012361815
33	0xbd6aad65	-0.05729427
34	0xbcd8d1bb	-0.026467195
35	0x3caf7b57	0.021421118
36	0xbb2c46f0	-0.00262874
37	0x3b2a410d	0.0025978715
38	0xbcde9399	-0.02716999
39	0xbdc43890	-0.09581101
40	0x3dd3bc20	0.10338616
41	0xbbdfd0b5	-0.0068302997
42	0xbd1ef128	-0.038804203
43	0xbcbfd730	-0.02341804
44	0xbc10c89a	-0.00883689
45	0xbd464135	-0.04840203
46	0xbcee56df	-0.029094158
47	0xbc3ba0f1	-0.011451946
48	0xbc85ff2c	-0.016357027
49	0x3cb70ba4	0.022344418
50	0xbbc7be5b	-0.00609569
51	0x3ce6b143	0.028160697
52	0xbc910a2c	-0.017705046
53	0xbc7e9015	-0.0155372815
54	0xbbaa5ab1	-0.0051987995
55	0x3c1b9574	0.009496082
56	0xbb5e95ce	-0.0033963802
57	0xbcd838e5	-0.026394317
58	0xbd8a1f43	-0.06744244
59	0x3d485206	0.04890635
60	0xbc01ee68	-0.007930376
61	0x3bdff714	0.006834874
62	0x3d6bb2ad	0.057543445
63	0x3cbeb2ff	0.023278711
64	0x3cf18c55	0.02948586
65	0xbd27fc8f	-0.041012343
66	0x3d653037	0.055954184
67	0x3bbddb4f	0.005793966
68	0xbd4d3498	-0.050098985
69	0x3ab93aa8	0.0014131861
70	0xbc8efa1b	-0.017453244
71	0xbbfa8870	-0.007645659
72	0xbc0e7dc9	-0.008696982
73	0x3d01038f	0.031497534
74	0x3b9e9b00	0.004840255
75	0xbcb6460e	-0.022250202
76	0xbc5e0dd6	-0.013553103
77	0xbcae3072	-0.021263335
78	0x3cc4733e	0.023980733
79	0x3bca86dc	0.0061806273
80	0x3ce2b6e9	0.027675109
81	0xbca485f2	-0.020083401
82	0xbbd60407	-0.006531242
83	0xbce45ed7	-0.027877254
84	0xbd9c114f	-0.07620489
85	0x3af25073	0.001848711
86	0xbd04903e	-0.032364123
87	0x3c4bfb1b	0.012450005
88	0x3b23dd78	0.0025003832
89	0xb9cb0c35	-0.00038728272
90	0x3d9ae624	0.07563427
91	0xbc825ff0	-0.015914887
92	0x3bdbc626	0.0067069707
93	0x3c0e3f84	0.0086821355
94	0xbb56b4cc	-0.0032761572
95	0x3c0c22c4	0.008553211
96	0x3bf63c11	0.0075144847
97	0xbc9eeac9	-0.019399064
98	0x3d33ec29	0.04392639
99	0xbbe7aa50	-0.0070698634
100	0xbcb8b79c	-0.02254849
101	0xbd24bd7c	-0.04021977
102	0xbd9068bb	-0.07051226
103	0x3b6cbedd	0.0036124506
104	0xbbb2297c	-0.005437074
105	0xbc259472	-0.010106193
106	0xbbb8d53f	-0.0056406553
107	0x3cbe9593	0.023264682
108	0xbd345ee4	-0.044035807
109	0xbd27bae5	-0.04094972
110	0xbc2e90e9	-0.010654666
111	0xbc8495e6	-0.016184758
112	0xbc03ca8e	-0.008043898
113	0xbd31d4b1	-0.04341573
114	0x3d57a4e8	0.0526475
115	0xbc8fbf43	-0.017547255
116	0x3d08233e	0.033236735
117	0x3d9e81ab	0.07739576
118	0x3bdc1f2e	0.006717584
119	0xbba74990	-0.005105205
120	0x3d7b8097	0.06140193
121	0xbc9382a8	-0.018006638
122	0x3dcd40ec	0.100221485
123	0xbc2aa261	-0.010414691
124	0xbb7f157c	-0.0038922718
125	0xbd1e2e88	-0.038618594
126	0xba065483	-0.00051242876
127	0xbd0055af	-0.031331714

encoder.2.weight f4 [64, 128]
0	0xb21f3d29	-9.268924e-09
1	0xaa6a2caf	-2.0798878e-13
2	0x058f6bad	1.3487209e-35
3	0xba34f2c5	-0.00069026306
4	0x958ff268	-5.813969e-26
5	0x0e29a299	2.0909146e-30
6	0xb2fe8dc7	-2.9633965e-08
7	0xa5ab3338	-2.9698479e-16
8	0x8144e722	-3.6165344e-38
9	0x383db124	4.5226087e-05
10	0xac33fca4	-2.5577674e-12
11	0xb38abf6e	-6.4609466e-08
12	0xb3146476	-3.4550304e-08
13	0xb320a76b	-3.740517e-08
14	0x169bc48b	2.5165637e-25
15	0xabc34883	-1.3875709e-12
16	0xb4d1f387	-3.9106473e-07
17	0xadaa7b48	-1.938151e-11
18	0xa679afa1	-8.662725e-16
19	0xb488f8fd	-2.5513137e-07
20	0x9526248c	-3.3552263e-26
21	0xa609a4bc	-4.775468e-16
22	0x019dde2c	5.799149e-38
23	0x81a072f9	-5.8939695e-38
24	0xb45b01c7	-2.0396611e-07
25	0x8153a3ac	-3.8872008e-38
26	0x1a6ac3c3	4.85482e-23
27	0x01b88441	6.77807e-38
28	0xb8bef6e8	-9.105896e-05
29	0x933e919c	-2.4053162e-27
30	0xa6d52b3e	-1.4791565e-15
31	0x2e0d8d70	3.218531e-11
32	0x016f5672	4.395939e-38
33	0x8190541b	-5.301793e-38
34	0x00377e25	5.096204e-39
35	0xaf9ab971	-2.81442e-10
36	0xb64a9ddd	-3.0192234e-06
37	0x21dde88f	1.50371e-18
38	0xb86071d1	-5.351176e-05
39	0xa9e504de	-1.0170487e-13
40	0xb6f64608	-7.339524e-06
41	0xb7dc8f89	-2.6292882e-05
42	0xa53ec54d	-1.6546721e-16
43	0xb7c21af8	-2.313916e-05
44	0xb4c8c5ab	-3.7396725e-07
45	0xb11082bd	-2.1029074e-09
46	0x01995356	5.6322905e-38
47	0xa97beb6e	-5.59374e-14
48	0x94febb73	-2.5721381e-26
49	0xa00f9901	-1.2163196e-19
50	0x2582779c	2.2632456e-16
51	0xb60cd951	-2.098812e-06
52	0x9f5548e2	-4.5164792e-20
53	0xa464d4d0	-4.9619878e-17
54	0x81176084	-2.7803566e-38
55	0xa8e19008	-2.5042482e-14
56	0xa39371f3	-1.5986031e-17
57	0x8079be5c	-1.1180383e-38
58	0xa285d317	-3.6273222e-18
59	0x2f15218b	1.3563388e-10
60	0x8121dde2	-2.9730223e-38
61	0xb4a33ee2	-3.040687e-07
62	0x9b6a3a2a	-1.937482e-22
63	0xad69d464	-1.3291677e-11
64	0xb4a22293	-3.0200007e-07
65	0x254a8f79	1.7569318e-16
66	0xb38c4d5d	-6.53333e-08
67	0xab264c94	-5.908132e-13
68	0x9a7b7c04	-5.2005762e-23
69	0xb25ff108	-1.30351125e-08
70	0xa46cb6a3	-5.1329042e-17
71	0xb63d5669	-2.8213492e-06
72	0x811b7b0a	-2.855728e-38
73	0xa6164374	-5.213312e-16
74	0xa1c800c2	-1.3552728e-18
75	0x2c06c546	1.9152054e-12
76	0xb0b11c4d	-1.2886489e-09
77	0x33c1d52b	9.026038e-08
78	0x32eeb6de	2.7790005e-08
79	0x222e815a	2.3649875e-18
80	0x2e2d60f5	3.942176e-11
81	0x81ad6a01	-6.370227e-38
82	0x8125e00d	-3.0466462e-38
83	0xb05caa93	-8.0277934e-10
84	0xb563e16b	-8.4892116e-07
85	0x80b050a2	-1.6191973e-38
86	0xae3ae319	-4.2493207e-11
87	0x0ae50db6	2.2057055e-32
88	0xabf7a746	-1.7596833e-12
89	0x81b39a5a	-6.59757e-38
90	0xb8a0eeb7	-7.6738586e-05
91	0xb67adb1a	-3.7380437e-06
92	0xb4b66f36	-3.3981058e-07
93	0xb3026c89	-3.0366696e-08
94	0x0158ad2d	3.9797182e-38
95	0xb2ee76ee	-2.776093e-08
96	0xb2eaf341	-2.7351804e-08
97	0xb6b2eb1f	-5.332185e-06
98	0xb797264d	-1.8018438e-05
99	0x0127cfc3	3.0822117e-38
100	0x0badc805	6.693813e-32
101	0x819e4098	-5.813272e-38
102	0x00b97e80	1.7034946e-38
103	0xb52a4913	-6.343627e-07
104	0xa283b433	-3.5698414e-18
105	0x33ab00f7	7.9629835e-08
106	0x01a7531a	6.1465356e-38
107	0x8192abd2	-5.387848e-38
108	0xaa6f9c69	-2.128173e-13
109	0x80779e5a	-1.098523e-38
110	0x015cfd43	4.0589325e-38
111	0xb582f4a8	-9.756959e-07
112	0x8031ffff	-4.591773e-39
113	0xb01af125	-5.636756e-10
114	0xb5449b77	-7.324192e-07
115	0x0078cec5	1.1094434e-38
116	0x8018e567	-2.286346e-39
117	0xb8287b06	-4.0168896e-05
118	0x813cbca6	-3.4665495e-38
119	0x00fa18ca	2.2967767e-38
120	0xb4456c5b	-1.8386474e-07
121	0x00656983	9.313236e-39
122	0xb99c85ba	-0.00029854273
123	0xb7a85148	-2.006501e-05
124	0x01a083e6	5.896398e-38
125	0x806275a2	-9.042077e-39
126	0x01325b91	3.2759132e-38
127	0x80e47ae1	-2.0982574e-38
128	0xaeef7ec3	-1.0890979e-10
129	0xa298ba15	-4.1396705e-18
130	0x814db442	-3.7781882e-38
131	0xba0aee40	-0.0005299784
132	0xa0d437a5	-3.595102e-19
133	0x00b7aa90	1.6867082e-38
134	0xb1af3592	-5.0992606e-09
135	0xabb499b8	-1.2832435e-12
136	0x006c57e7	9.949767e-39
137	0x3108a23a	1.988282e-09
138	0x88337d58	-5.4013194e-34
139	0xb2812b6a	-1.5037319e-08
140	0xacf00a4a	-6.8223526e-12
141	0xb3daacf6	-1.01828775e-07
142	0x08d46cb2	1.278484e-33
143	0x8f70dbe7	-1.1875265e-29
144	0xae76ff4d	-5.6160677e-11
145	0xabab3710	-1.2165564e-12
146	0x803ed264	-5.769275e-39
147	0xad1361e0	-8.377715e-12
148	0x8b0b4f59	-2.683012e-32
149	0x816d9d72	-4.3642987e-38
150	0x0091bcfa	1.3383939e-38
151	0x0150cbfa	3.8349912e-38
152	0xaec3333f	-8.8766765e-11
153	0x0176a83c	4.5303766e-38
154	0x816310bc	-4.1705322e-38
155	0x80d3fc7e	-1.9467867e-38
156	0xb574fb54	-9.1262814e-07
157	0x00339a9c	4.739074e-39
158	0xa2f66ab5	-6.6791414e-18
159	0xa2f60346	-6.66819e-18
160	0x011ec4ee	2.9161307e-38
161	0x00f0ca69	2.211313e-38
162	0x8008a333	-7.93229e-40
163	0x11bce32f	2.9801183e-28
164	0xb1db7c9d	-6.3879058e-09
165	0x9ea8fbcd	-1.7891834e-20
166	0xb803d989	-3.143543e-05
167	0x9a2f6fa8	-3.6279347e-23
168	0xb675775e	-3.6577326e-06
169	0xb0b6e103	-1.3306195e-09
170	0xa7edfbcd	-6.6053717e-15
171	0xb821b0de	-3.855011e-05
172	0xb2181a02	-8.853478e-09
173	0x2b707b3c	8.543615e-13
174	0x00432627	6.166665e-39
175	0xa31ac707	-8.390502e-18
176	0x015de0fd	4.075271e-38
177	0x96015f30	-1.0450573e-25
178	0x00bb819a	1.721973e-38
179	0xb164ac1f	-3.3276206e-09
180	0x1bae5a0e	2.8844082e-22
181	0x2f2bc931	1.5623837e-10
182	0x013bff44	3.452962e-38
183	0x0f973532	1.491024e-29
184	0x01185f71	2.7986467e-38
185	0x014ba886	3.740612e-38
186	0x81287fb2	-3.0948344e-38
187	0xab2630cc	-5.9042766e-13
188	0x8187e700	-4.9922637e-38
189	0xac24c47e	-2.3414877e-12
190	0x011d98de	2.8946023e-38
191	0x12169314	4.751294e-28
192	0xb385f24f	-6.237371e-08
193	0x00104a18	1.495948e-39
194	0xb15a633c	-3.1779583e-09
195	0xb26c2df3	-1.3747456e-08
196	0xa3013bd5	-7.005774e-18
197	0xa77ef866	-3.5384238e-15
198	0x8f991444	-1.5094771e-29
199	0xb14c6e71	-2.9748686e-09
200	0x00eb9854	2.1635987e-38
201	0x9c7bb29a	-8.327977e-22
202	0xa3af7951	-1.9024918e-17
203	0x9a81f615	-5.3750716e-23
204	0xb0b1eaf8	-1.2945227e-09
205	0x27fcef51	7.020352e-15
206	0x30a9e56d	1.2361575e-09
207	0x01a39cfd	6.010201e-38
208	0xa9874155	-6.0065376e-14
209	0x8108a6e4	-2.5098993e-38
210	0x019f7386	5.8573144e-38
211	0xa8231c72	-9.054486e-15
212	0xb10ac498	-2.0193394e-09
213	0x016123d2	4.1351673e-38
214	0x85a917e0	-1.5901454e-35
215	0x8113e286	-2.7162158e-38
216	0xa9ddeb54	-9.8551945e-14
217	0x016c8b98	4.3446508e-38
218	0xb606722d	-2.0034015e-06
219	0xb5e246ec	-1.6858953e-06
220	0xb2fde0c0	-2.9555281e-08
221	0xb4a10aca	-2.9996437e-07
222	0x0013afe5	1.807973e-39
223	0xaff650a7	-4.4804446e-10
224	0xb24e4509	-1.2006475e-08
225	0xb0b88a9e	-1.3427159e-09
226	0xb7517e87	-1.248683e-05
227	0x0101a924	2.381491e-38
228	0x00fe8c63	2.3376577e-38
229	0x8f607ec7	-1.1068469e-29
230	0x01339f3e	3.2991358e-38
231	0x2925d29c	3.6820034e-14
232	0xa8c5e9b7	-2.1972751e-14
233	0x2da0887e	1.8250509e-11
234	0x813c927c	-3.4635244e-38
235	0x81818cfa	-4.758941e-38
236	0xa37144b8	-1.3079188e-17
237	0x80115973	-1.593292e-39
238	0x80c516ab	-1.8099724e-38
239	0xa7ec5994	-6.560028e-15
240	0x01909028	5.31041e-38
241	0xa7623c7c	-3.139659e-15
242	0xb46b0cb8	-2.1890708e-07
243	0x009d06f1	1.4420663e-38
244	0x015b3524	4.0262074e-38
245	0xb549a4f4	-7.5118373e-07
246	0x018c614e	5.1567503e-38
247	0x806c5a49	-9.950622e-39
248	0xadcba3db	-2.3151195e-11
249	0x819a6281	-5.671201e-38
250	0xb7fceaec	-3.0150135e-05
251	0xb4aa8ae2	-3.1766018e-07
252	0x812ea610	-3.2077897e-38
253	0x01531408	3.876895e-38
254	0x000d5fc8	1.228221e-39
255	0x80a1ab45	-1.4846955e-38

encoder.2.bias f4 [64]
0	0xa2c3f8e1	-5.3118367e-18
1	0x0c0e5ec8	1.0967804e-31
2	0xa267526a	-3.1349967e-18
3	0xb4ca6799	-3.770081e-07
4	0x8058e726	-8.164444e-39
5	0x3dca4d9b	0.09878083
6	0xbd8d4107	-0.068971686
7	0xbcb4570f	-0.022014169
8	0x3e21a62b	0.15786044
9	0x3e4e9b66	0.20176467
10	0xbb029b5e	-0.0019929032
11	0x009be053	1.4314974e-38
12	0x3d81cca8	0.06337863
13	0x3d23d155	0.039994556
14	0x3df13824	0.11778286
15	0x3da25a8a	0.07927425
16	0x3d95f80a	0.073227
17	0xb546ae46	-7.401435e-07
18	0x3d58bf3f	0.05291676
19	0x3d9c7f8d	0.07641516
20	0xabd5c47d	-1.5189097e-12
21	0x3df6f264	0.12057951
22	0x3dd19c61	0.10234905
23	0x3cbda02d	0.023147667
24	0x3d361306	0.044451736
25	0x0090b2fe	1.3288522e-38
26	0x3d83867a	0.06422134
27	0xb457b71e	-2.0090053e-07
28	0x3d9726ec	0.07380471
29	0x3d22b11e	0.039719693
30	0x3d860a60	0.065449476
31	0x3d7ff933	0.062493514
32	0x3dc43be3	0.09581735
33	0x3d81f018	0.063446224
34	0x3d8da9cb	0.06917151
35	0x3c381820	0.011236221
36	0x3d48e513	0.049046587
37	0x3e0c2ec6	0.13689718
38	0x3e0ec00b	0.13940446
39	0x0577e7fa	1.16564916e-35
40	0x3bf1377c	0.0073613506
41	0x3d07a01c	0.033111677
42	0x97aca47d	-1.1156762e-24
43	0x00f2efe7	2.2310251e-38
44	0x3b593e90	0.0033148862
45	0xb91e449c	-0.00015093613
46	0x3dbc41d9	0.09192247
47	0x3e05cfdb	0.13067572
48	0xbd55243f	-0.05203652
49	0x3d8a5c37	0.0675587
50	0xbb39e37b	-0.0028364349
51	0x1281e477	8.197365e-28
52	0x8117a4ca	-2.785255e-38
53	0x3e2e7ceb	0.1703984
54	0x3dadb35a	0.08481474
55	0x3db54dfe	0.088527665
56	0xbd022fd3	-0.03178389
57	0x940e658a	-7.189193e-27
58	0xbd63bad0	-0.05559808
59	0xb30b79e4	-3.247432e-08
60	0x3d9d190d	0.07670794
61	0x3ca947b1	0.020664068
62	0x3d04ef16	0.032454573
63	0xbdd2a227	-0.10284834

encoder.4.weight f4 [3, 64]
0	0xbb95ada2	-0.004567818
1	0xbc907ee2	-0.017638627
2	0x3c891cea	0.01673742
3	0x3b8bb31f	0.0042632963
4	0xb530be3b	-6.584193e-07
5	0x3e84fda9	0.25974777
6	0xbe194dc5	-0.14971073
7	0x3db04d29	0.08608467
8	0x3eb53522	0.353921
9	0x3dd94767	0.10609322
10	0x3ca42b5f	0.020040212
11	0x3b0adfc8	0.0021190513
12	0x3e53dd16	0.20689806
13	0xbd9c45d6	-0.07630508
14	0xbc770997	-0.01507797
15	0x3e9df92e	0.30854172
16	0xbe1f69a6	-0.15567645
17	0xb9fa1388	-0.00047698268
18	0xbe8c022e	-0.27345413
19	0x3d955a03	0.07292559
20	0x3c21e5bd	0.009881434
21	0x3e58fa72	0.21189287
22	0xbe623eb2	-0.22094229
23	0x3d202a65	0.03910293
24	0x3da60bab	0.08107694
25	0xb9b42c10	-0.00034365105
26	0x3d8d6ea7	0.06905871
27	0xbc32b3ff	-0.010907172
28	0xbc0c082c	-0.00854687
29	0xbe80aa29	-0.25129822
30	0x3d927527	0.07151251
31	0xbea7b450	-0.32754755
32	0x3cd70afd	0.026250357
33	0xbdbb899e	-0.09157108
34	0xbecb749c	-0.39737403
35	0x3dc8d869	0.09806902
36	0x3eadb187	0.33924505
37	0x3dbe21ce	0.092837915
38	0x3dc678b0	0.09690988
39	0xba27f36a	-0.0006406816
40	0xbd91dca8	-0.07122165
41	0x3e2c5a31	0.1683128
42	0xbb0a69d7	-0.0021120214
43	0xb63ae498	-2.784922e-06
44	0xbf0348b0	-0.5128279
45	0x3e560ffe	0.20904538
46	0x3e4ba1e3	0.19885974
47	0xbdda2e3d	-0.106533505
48	0x3d3659ab	0.044519108
49	0x3dae8099	0.08520622
50	0xbe29afc5	-0.16570957
51	0x3a7a2373	0.00095420255
52	0x9c3bbf76	-6.2120567e-22
53	0x3dcbebb7	0.099570684
54	0x3ec4bacd	0.38423768
55	0x3e2521d7	0.1612619
56	0xbede9ff0	-0.43481398
57	0x3c19ca27	0.009386576
58	0xba2eb64d	-0.0006664738
59	0xbc36e200	-0.011162281
60	0xbeda6c00	-0.42660522
61	0xbe26c677	-0.16286646
62	0xbdf1202d	-0.11773715
63	0x3f2c2bbc	0.67254233
64	0xbc2711f5	-0.010197152
65	0xb9de263e	-0.00042371632
66	0xbb5d3abb	-0.003375693
67	0x3d3f29e8	0.046670824
68	0x3844b286	4.6896304e-05
69	0xbde909a7	-0.11378794
70	0xbbf5d967	-0.007502723
71	0x3d61a62d	0.05509012
72	0xbe951d9c	-0.29124153
73	0xbee2429c	-0.44191444
74	0xbc3b29d4	-0.011423547
75	0x3c977612	0.018488917
76	0xbcfd3e0d	-0.030913377
77	0x3e6823b3	0.22669868
78	0xbd6a969c	-0.05727254
79	0x3d41305a	0.047165252
80	0xbef28271	-0.47365144
81	0xbc80b798	-0.015712544
82	0xbdb54f2d	-0.08852992
83	0x3cc454e8	0.023966268
84	0x3ce84b19	0.028356122
85	0xbda18ff6	-0.078887865
86	0xbf59088f	-0.84778684
87	0x3da6a784	0.0813742
88	0xbd8c64cb	-0.06855162
89	0x38cb3de2	9.691321e-05
90	0x3d8b9c64	0.068169385
91	0x3c608132	0.013702678
92	0x3cfdaa2e	0.030964937
93	0xbe377649	-0.17916216
94	0xbe04cdc7	-0.12969123
95	0x3ea9ecaf	0.33188388
96	0x3e11c22c	0.14234227
97	0xbe252572	-0.16127566
98	0xbf11ae03	-0.56906146
99	0x3d79bac7	0.06096914
100	0xbe1a4678	-0.15065944
101	0xbddd271a	-0.10798474
102	0xbe1700e3	-0.14746432
103	0xbac25b11	-0.0014828165
104	0x3dfe6630	0.124218345
105	0xbe4745d0	-0.19460225
106	0x3ba7e251	0.0051234146
107	0x2b90ee1f	1.0297907e-12
108	0xbed86210	-0.42262316
109	0xbe4d4c11	-0.20048548
110	0x3dae1fc7	0.08502155
111	0xbe790512	-0.2431834
112	0x3da2e7ee	0.07954393
113	0xbcdfdeb6	-0.027327877
114	0x3e38c3cf	0.18043445
115	0xb966d1f5	-0.00022012724
116	0x3408857d	1.271455e-07
117	0xbe5ba550	-0.2144978
118	0xbd2b790e	-0.041863494
119	0x3d41e06d	0.04733317
120	0x3c48b8f3	0.012251127
121	0x3c970c36	0.01843844
122	0xbd544f29	-0.051833306
123	0x3bf716dd	0.0075405673
124	0xbda6df29	-0.08148033
125	0xbe3e79a0	-0.18601084
126	0x3c61057a	0.013734216
127	0x3ed51cff	0.41623685
128	0xbb39dc76	-0.0028360165
129	0x3839ba3b	4.4280878e-05
130	0x3be8ed71	0.0071083833
131	0xbc17dfab	-0.009269635
132	0x2e038031	2.989981e-11
133	0xbe21c51f	-0.15797852
134	0x3e18eeec	0.14934891
135	0x3dcd237e	0.10016535
136	0x3cee85be	0.029116508
137	0xbd8d5173	-0.06900301
138	0xbcbf83b5	-0.023378232
139	0xb9af3a0f	-0.00033421858
140	0x3e385c79	0.18004026
141	0x3e35e1c3	0.17761903
142	0xbe6d1ecf	-0.23156284
143	0xbd62baf5	-0.055354077
144	0x3d8e3d1e	0.06945251
145	0x3bff8a05	0.0077984356
146	0xbe5841bf	-0.2111883
147	0xbdd491c6	-0.103793666
148	0xbc4dac46	-0.01255328
149	0xbd86a354	-0.06574121
150	0x3e7f3187	0.24921237
151	0x3e40a17b	0.188116
152	0x3e2a0400	0.16603088
153	0x398d55ab	0.00026957443
154	0xbdd22728	-0.10261375
155	0x3c010acf	0.007876112
156	0x3f068d4a	0.5255934
157	0xbe897f26	-0.2685482
158	0x3e0b0c1c	0.13578838
159	0xbcde12d3	-0.027108585
160	0xbdf2a6c3	-0.118482135
161	0xbe1f2d80	-0.155447
162	0x3d7ee532	0.062230296
163	0xbe13448c	-0.14381617
164	0x3d5b92b2	0.053606696
165	0xbe5ccfbb	-0.21563618
166	0xbe93ac42	-0.2884236
167	0x3889fdeb	6.579965e-05
168	0xbe0724b2	-0.13197592
169	0x3e3fb6a3	0.18722014
170	0x3a8d3378	0.0010772785
171	0xb1985e52	-4.434505e-09
172	0x3f004d5c	0.5011804
173	0xbe046157	-0.12927757
174	0x3e5003c2	0.20313933
175	0xbe97d197	-0.29652092
176	0x3cc4bc89	0.024015682
177	0x3d485a5a	0.04891429
178	0xbe754758	-0.23952997
179	0xb7abe17f	-2.0489793e-05
180	0x00e9f159	2.148425e-38
181	0x3d7af92a	0.061272778
182	0xbe3fae7b	-0.18718903
183	0xbdc226cd	-0.09480057
184	0x3d68d822	0.056846745
185	0x3ad2d8d8	0.0016086353
186	0xbcd7fa70	-0.026364535
187	0x3ce068e0	0.027393758
188	0x3dd4991b	0.10380765
189	0x3dba398a	0.09093006
190	0x3ef51d4a	0.47873908
191	0xbec541e6	-0.3852684

encoder.4.bias f4 [3]
0	0xbd8a4bcb	-0.067527376
1	0xbdc6aa8e	-0.097004995
2	0xbdca637e	-0.09882258

decoder.0.weight f4 [64, 3]
0	0xbee827a0	-0.4534273
1	0x3f405e20	0.75143623
2	0xbe25de40	-0.16198063
3	0xbc69f30e	-0.01427914
4	0xbe92b816	-0.2865607
5	0xbf157191	-0.58376414
6	0xbf79842f	-0.9746732
7	0x3e57e2b4	0.21082574
8	0x3e15cd35	0.14629062
9	0xbd9b74d0	-0.075906396
10	0xbe249337	-0.16071783
11	0xbdc31002	-0.095245376
12	0x3eb363cc	0.35037076
13	0x3e609004	0.21929938
14	0xbeb839ba	-0.35981542
15	0xbf371924	-0.71522737
16	0x3f10e917	0.56605667
17	0x3e9dbc42	0.30807692
18	0x3d2b4565	0.041814227
19	0xbe906eca	-0.28209525
20	0xbe999793	-0.29998454
21	0xbebbfbaa	-0.36715442
22	0xbf0b8615	-0.5450147
23	0x3ec8ec50	0.39242792
24	0x3dcb2fac	0.09921202
25	0xbe9e7e49	-0.30955723
26	0x3ea3cd49	0.31992558
27	0xbeb6dc3c	-0.357149
28	0x3f1efc50	0.6210375
29	0x3d4cf856	0.05004152
30	0xbda7e291	-0.08197511
31	0x3f088943	0.53334445
32	0x3e274b74	0.16337377
33	0x3dc1addc	0.09456989
34	0xbee9cee1	-0.4566565
35	0x3ced41a4	0.028961964
36	0xbeea4dc1	-0.45762447
37	0xbd830d5b	-0.06399032
38	0xbe71f072	-0.23626879
39	0x3e77dbc5	0.24204929
40	0x3f394fc9	0.7238737
41	0x3e2fb2ba	0.17158023
42	0x3ebbe879	0.367008
43	0x3f231950	0.637105
44	0xbeeaa379	-0.45827845
45	0xbef08b4f	-0.46981284
46	0xbe043fdb	-0.12914984
47	0x3f48a879	0.7838207
48	0xbf6e913e	-0.9319037
49	0xbe6455b1	-0.22298314
50	0x3eb1df94	0.3474089
51	0x3dc4d2a2	0.096104875
52	0xbee1d708	-0.44109368
53	0x3ed98a5f	0.4248838
54	0xbe9427fc	-0.28936756
55	0x3f82303f	1.0170974
56	0xbe7c2fc6	-0.24627599
57	0x3f07845d	0.52936345
58	0x3e8d0a7f	0.2754707
59	0xbec791c4	-0.38978398
60	0xbf70bf8e	-0.9404229
61	0x3eee0873	0.4649082
62	0xbda940f2	-0.082643405
63	0x3ea2e998	0.31818843
64	0x3da409e7	0.08009701
65	0xbf00339a	-0.5007874
66	0x3eba2af6	0.36360902
67	0x3f138ac1	0.57633597
68	0x3e4ef65e	0.20211169
69	0x3e8cdcd6	0.27512234
70	0xbe3880a3	-0.18017821
71	0x3ef401c9	0.47657612
72	0xbee036d1	-0.43791822
73	0xbeeb256c	-0.45926988
74	0x3f148627	0.580172
75	0x3e573db5	0.21019633
76	0xbf054c18	-0.52069235
77	0x3eb2acf9	0.34897593
78	0x3de6fb21	0.11278368
79	0xbe9575e6	-0.29191512
80	0x3e144de1	0.14482833
81	0xbf05351f	-0.5203418
82	0xbe7e8619	-0.24855842
83	0x3f0b2efa	0.54368556
84	0xbf146061	-0.5795956
85	0xbee9b0ac	-0.45642602
86	0xbeabc075	-0.3354527
87	0xbc8f7e18	-0.01751618
88	0x3c25cf92	0.010120289
89	0x3caff2c7	0.02147807
90	0xbef0c714	-0.47026885
91	0x3f909991	1.1296865
92	0x3f2eba67	0.6825318
93	0x3f0a9102	0.54127514
94	0x3e2c8121	0.16846134
95	0x3e8a6529	0.27030304
96	0xbef064bd	-0.46951857
97	0x3de640dc	0.1124284
98	0xbe8a69da	-0.27033883
99	0xbf659e99	-0.89695126
100	0x3e3d8e2e	0.18511268
101	0x3f14ab90	0.58074284
102	0xbe376ff9	-0.17913808
103	0xbeed04cc	-0.46292722
104	0xbeee65da	-0.46562082
105	0x3dd62842	0.10456897
106	0xbe8b7681	-0.2723885
107	0xbdc01743	-0.09379437
108	0x3e459426	0.19294795
109	0x3dc22667	0.09479981
110	0x3f6a9701	0.91636664
111	0x3d923e73	0.071408175
112	0xbda875ba	-0.082255796
113	0x3e6132c5	0.21992023
114	0x3edf4352	0.4360605
115	0x3e79e70b	0.24404542
116	0xbe94d0ce	-0.29065555
117	0xbd7d65d5	-0.061864693
118	0xbf29e535	-0.6636537
119	0x3d43e3c9	0.047824655
120	0xbf01289b	-0.50452584
121	0xbe58e98e	-0.21182844
122	0xbe6d4c24	-0.23173577
123	0x3f102c42	0.5631753
124	0x3f0133ff	0.50469965
125	0xbea83a3b	-0.32856926
126	0xbce072e7	-0.02739854
127	0x3e4d7778	0.20065105
128	0xbf12b7b4	-0.5731156
129	0xbd81d6ea	-0.0633982
130	0xbeb8cb15	-0.3609244
131	0xbe9a427e	-0.30128855
132	0x3c11feaa	0.008910814
133	0x3cef1625	0.029185364
134	0x3c69fb37	0.014281086
135	0xbf281bd8	-0.65667486
136	0xbe901f94	-0.28149092
137	0x3e93bd69	0.28855446
138	0x3ee45b34	0.44600832
139	0x3f0901cc	0.53518367
140	0xbd558186	-0.052125476
141	0xbf27a2f5	-0.6548303
142	0xbed61f3a	-0.418207
143	0x3f0a89d1	0.5411654
144	0xbea1080e	-0.31451458
145	0x3ea8603d	0.32885924
146	0xbeb04e42	-0.34434706
147	0xbf35766b	-0.70883816
148	0x3e960005	0.2929689
149	0xbf3a57bd	-0.7279013
150	0x3eaea142	0.34107405
151	0xbe291144	-0.16510493
152	0xbd968d66	-0.07351188
153	0x3e320536	0.173848
154	0x3f81e542	1.0148089
155	0x3dc22e21	0.09481455
156	0xbddd57b7	-0.10807746
157	0x3e1fd376	0.1560801
158	0x3f3e5a55	0.74356586
159	0x3e9d8300	0.30764008
160	0xbe9cea62	-0.3064757
161	0x3e0a34a7	0.13496648
162	0x3e847a40	0.2587452
163	0xbea6db72	-0.32589298
164	0xbdccbf64	-0.09997442
165	0x3dfc4af8	0.12318987
166	0x3ed05653	0.4069086
167	0xbf1d9bd9	-0.6156593
168	0x3da83792	0.08213724
169	0xbe098468	-0.13429415
170	0x3e2e2f93	0.17010336
171	0x3ddb0012	0.10693373
172	0xbe8d2106	-0.27564257
173	0x3d6049b6	0.054757796
174	0x3f05df69	0.5229402
175	0x3e6f7cad	0.23387404
176	0x3d089e92	0.03335435
177	0x3eafd3b4	0.34341204
178	0x3e3489c9	0.17630686
179	0x3e86bc41	0.263155
180	0xbf5829c0	-0.84438705
181	0xbe5bb25f	-0.21454762
182	0x3ebab15f	0.36463448
183	0x3f19f360	0.60136986
184	0x3e7fcf1f	0.24981354
185	0x3e99b7ea	0.30023128
186	0x3ee9fd12	0.4570089
187	0xbe90e295	-0.28297868
188	0xbe0077c6	-0.1254569
189	0xbe7125b7	-0.23549543
190	0xbf142c69	-0.57880265
191	0x3e146111	0.14490153

decoder.0.bias f4 [64]
0	0xbf6edbad	-0.9330395
1	0xbf408974	-0.75209737
2	0x3ed2815d	0.4111432
3	0x3f20b67f	0.62778467
4	0x3e439f30	0.19103694
5	0x3f575ebc	0.8412893
6	0x3f49e941	0.7887154
7	0xbebb1ef7	-0.36547062
8	0xbf4b0faa	-0.79320776
9	0xbd2b38ac	-0.041802093
10	0x3fb32af8	1.3997488
11	0xbf0f2e5c	-0.55930114
12	0xbf841902	-1.0320132
13	0xbf013f53	-0.5048725
14	0x3f3e46b4	0.74326634
15	0xbf039d4b	-0.51411885
16	0xbedf2f94	-0.43590987
17	0x3f34be6e	0.7060307
18	0x3f0c1fa8	0.54735804
19	0xbeb238a6	-0.34808844
20	0xbe84d37e	-0.25942606
21	0xbf481c7b	-0.7816846
22	0x3d660662	0.05615843
23	0xbf4acef6	-0.7922205
24	0xbe6bfdba	-0.23046008
25	0xbeb2adb0	-0.34898138
26	0x3f402e26	0.75070417
27	0x3f5703df	0.8399028
28	0x3ec35a75	0.3815495
29	0x3f92021e	1.1406896
30	0xbce6a423	-0.028154438
31	0xbddc1b44	-0.10747388
32	0x3fb9b9d0	1.450983
33	0xbecf9daf	-0.4054999
34	0xbe1ff483	-0.15620618
35	0xbdca6f5d	-0.09884522
36	0x3df01e32	0.11724509
37	0x3f896753	1.0734657
38	0x3f850100	1.039093
39	0xbefd99d9	-0.4953144
40	0xbf018cd0	-0.5060549
41	0xbe92cd4d	-0.28672257
42	0x3f2db7c2	0.6785852
43	0x3ec5fbbf	0.3866863
44	0x3f99f6a1	1.202839
45	0xbf83b6a9	-1.0290118
46	0xbf882768	-1.0637026
47	0xbeacba46	-0.33735865
48	0x3fa554c5	1.2916495
49	0xbe9744f9	-0.2954481
50	0x3e32a237	0.17444693
51	0x3f329b22	0.69767964
52	0x3cc6fb5a	0.024289776
53	0xbf96d7d1	-1.1784612
54	0xbef7ea8b	-0.4842113
55	0xbf4f0396	-0.80864847
56	0x3f96a104	1.1767888
57	0x3f82b273	1.0210708
58	0x3f1aed81	0.6051865
59	0x3f8892b3	1.0669769
60	0x3e00f9f5	0.12595351
61	0xbf960ee6	-1.1723297
62	0xbf090596	-0.5352415
63	0x3f319b3d	0.693775

decoder.2.weight f4 [128, 64]
0	0xbe07aa25	-0.13248499
1	0xbe9ec9fb	-0.31013474
2	0x3d801e92	0.06255831
3	0x3ce60c92	0.028082166
4	0x0150f517	3.837941e-38
5	0xbe3b4817	-0.18289219
6	0xbd736de5	-0.059430975
7	0x3de6bcb4	0.11266461
8	0x3d4063e7	0.046970274
9	0xbf07a9a2	-0.52993214
10	0xbe6df99a	-0.23239747
11	0x3d15dc21	0.036586884
12	0xbe9766a3	-0.29570493
13	0x814bab90	-3.7408301e-38
14	0x811be622	-2.8634116e-38
15	0x3e3cb26c	0.18427438
16	0x3e7b02b4	0.2451275
17	0x3bb5d960	0.0055495948
18	0xbdf695fc	-0.12040326
19	0x80b32c23	-1.6454387e-38
20	0xbe80f46a	-0.25186473
21	0xbbae0485	-0.0053105974
22	0x3bb12cae	0.0054069376
23	0xbe98720b	-0.29774508
24	0x3e19331c	0.14960903
25	0x3c4802b2	0.012207674
26	0xbb424fb7	-0.0029649565
27	0x3e0ea589	0.13930334
28	0x3d3661c6	0.044526838
29	0xbd857fea	-0.06518538
30	0xbc84cf04	-0.016211994
31	0x3b6bc030	0.0035972707
32	0xbe14bfc0	-0.14526272
33	0x3b607664	0.0034250254
34	0x3b8e881e	0.0043497225
35	0xbd1d1732	-0.0383522
36	0xbedef87c	-0.43548954
37	0x3b6b3c09	0.0035893938
38	0x3b7ef2f2	0.003890213
39	0x3db86864	0.09004286
40	0x3d0be058	0.034149498
41	0x818eff8e	-5.2529265e-38
42	0x3c8ed7e5	0.01743693
43	0xbd15c094	-0.03656061
44	0xbdc3c8d5	-0.0955979
45	0x3e6ae2e6	0.22938117
46	0x814068f4	-3.534013e-38
47	0x3e4e8d39	0.2017106
48	0xbf27f121	-0.6560231
49	0xbea70556	-0.32621258
50	0xbe86d3af	-0.26333377
51	0xbbc30a43	-0.005952151
52	0xbe14a6af	-0.1451671
53	0xbdd4b45e	-0.10385965
54	0xbd035f59	-0.032073352
55	0x013068cb	3.240128e-38
56	0xbcb6b1f6	-0.022301655
57	0xbd6d844c	-0.057987496
58	0x3b10fa50	0.0022121854
59	0xbec2d689	-0.38054302
60	0x3e1ae635	0.1512688
61	0x3de7e2ce	0.113225564
62	0xbe9a9a97	-0.30196068
63	0xbb6bb214	-0.0035964297
64	0xbe113703	-0.14181142
65	0xbd8320a7	-0.06402712
66	0x3df620b5	0.12017957
67	0x3d986456	0.074410126
68	0xbdb4af1e	-0.088224635
69	0x3dc949ca	0.09828527
70	0xbd6d87e3	-0.05799092
71	0xbeedd9ae	-0.4645514
72	0xbb2cdd63	-0.0026377074
73	0xbe22a4ed	-0.15883227
74	0xbd14920a	-0.036272086
75	0xbd72c53e	-0.059270136
76	0xbdf15063	-0.11782911
77	0xbecfcba3	-0.4058505
78	0xbe2d9c30	-0.16954112
79	0xbe336c07	-0.17521678
80	0xbe09ce8b	-0.13457696
81	0x3e59d237	0.21271597
82	0x3de069fa	0.109577134
83	0xbe1857ca	-0.14877239
84	0x3d2e02ec	0.042483255
85	0xbdbaeb7a	-0.09126945
86	0x3e3e1983	0.1856442
87	0xbdb3cdf1	-0.087795146
88	0x3ccdccd4	0.025122084
89	0x3df28ea1	0.118436106
90	0xbcd191f2	-0.025582287
91	0xbd2dbbf1	-0.042415563
92	0xbabb19e1	-0.001427468
93	0x3ea5846a	0.32327586
94	0xbeabbb9f	-0.3354158
95	0x3da5b7f2	0.080917254
96	0x3dcb7951	0.09935249
97	0xbe167f96	-0.14697108
98	0xbd7e9432	-0.06215305
99	0x3cc953d4	0.024576105
100	0xbe035b01	-0.12827684
101	0x3e5f9306	0.21833429
102	0x3e15bf2f	0.14623712
103	0xbe3af824	-0.1825872
104	0xbe386ed8	-0.18011034
105	0xbe6b884f	-0.23001216
106	0x3e44264f	0.19155239
107	0x3da6ae9f	0.08138775
108	0x3e4ef3a6	0.20210132
109	0xbea1d451	-0.31607297
110	0x3df90fb1	0.12161196
111	0xbe9bda31	-0.30439904
112	0x3dc723aa	0.09723599
113	0xbe2200a7	-0.15820561
114	0x3d9d1665	0.07670287
115	0xbe7ccfbf	-0.24688624
116	0x3ea56f4c	0.32311475
117	0x3d896c69	0.06710131
118	0xbcedb3be	-0.029016372
119	0x3db08a99	0.086201854
120	0x3e0ca9e6	0.13736686
121	0xbcf05652	-0.029338036
122	0x3d8ca71c	0.06867811
123	0x3e27b83d	0.16378875
124	0x3df0527c	0.11734483
125	0xbb05cce4	-0.0020416314
126	0xbd3c68d8	-0.045998424
127	0x3dd63b29	0.10460503
128	0x3d14c8c0	0.036324263
129	0x3da7da16	0.081958935
130	0xbe4dd80b	-0.20101945
131	0xbd4356cc	-0.047690198
132	0x3db06b72	0.086142436
133	0xbe0b991b	-0.13632624
134	0xbdcbd853	-0.0995337
135	0x3d4fa676	0.05069586
136	0x3ccb3373	0.024804806
137	0x3dad5fc9	0.08465535
138	0x3d0918fd	0.033471096
139	0x3cd8fb30	0.026486963
140	0x3dc8728b	0.09787472
141	0x3e446d9f	0.19182442
142	0x3de43c85	0.11144356
143	0x3e00a120	0.12561464
144	0x3cc4179d	0.023937041
145	0xbd632aab	-0.055460613
146	0xbe7b2a20	-0.24527788
147	0x3cc81dbe	0.024428245
148	0xbeb4ca71	-0.353107
149	0x3dc616b5	0.096723
150	0x3d67f6ed	0.05663197
151	0x3e1b4823	0.15164237
152	0x3e178f0a	0.14800659
153	0xbd95ce58	-0.073147476
154	0xbd504600	-0.050848007
155	0x3cb8cd82	0.022558931
156	0xbd99f0c7	-0.07516628
157	0xbe4f1e64	-0.20226437
158	0x3d8f15c7	0.069865756
159	0xbdd6a346	-0.10480361
160	0xbdfe3b0e	-0.124136075
161	0xbce73796	-0.028224748
162	0x3cf09441	0.029367568
163	0x3d85e2c9	0.065373965
164	0x3dcb79d9	0.0993535
165	0xbe89d957	-0.2692363
166	0x3e052afe	0.13004681
167	0x3dd3b359	0.10336942
168	0xbb7f211e	-0.0038929651
169	0x3cb424b1	0.021990152
170	0x3d783122	0.06059373
171	0x3d565147	0.052323606
172	0xbe6c50ed	-0.23077746
173	0x3e48469a	0.19558182
174	0xbda675af	-0.08127915
175	0x3de71b3c	0.112844914
176	0x3e689fc2	0.22717193
177	0xbdb39a83	-0.08769705
178	0xbde7de34	-0.11321679
179	0x3e5f1c26	0.21788082
180	0x3d767a63	0.06017531
181	0x3cb1247f	0.021623848
182	0x3d5887d3	0.052863907
183	0x3db44fc0	0.088042736
184	0xbe62d2ff	-0.22150801
185	0x3cf2a98d	0.029621864
186	0xbd7241a8	-0.059144646
187	0xbde84a12	-0.11342253
188	0x3d94ac22	0.07259394
189	0xbd45bf0b	-0.048277896
190	0x3deb308f	0.11483871
191	0xbde2420d	-0.110477544
192	0xbe6442df	-0.22291134
193	0x3dd3b00a	0.10336311
194	0x3c065512	0.008198993
195	0x3d75ef57	0.060042705
196	0xbc150535	-0.00909548
197	0x3e843853	0.25824222
198	0xbdf865ea	-0.121288136
199	0xbdea79e0	-0.11449027
200	0x3d1f4411	0.038883273
201	0xbc324d55	-0.010882695
202	0x3c5dd8a4	0.013540421
203	0x3d144184	0.036195293
204	0xbe931121	-0.28724006
205	0xbeb9de98	-0.36302638
206	0xbe80d1d7	-0.25160095
207	0x3e34f839	0.17672814
208	0xbec21ab5	-0.37911
209	0x3de97bae	0.11400543
210	0x3c6b3430	0.014355704
211	0x3db2234d	0.08698139
212	0x3dae746c	0.085182995
213	0x3e3c7992	0.1840575
214	0xbc8bfdb5	-0.01708875
215	0x3d4a2938	0.049355716
216	0xbe93e04a	-0.28882056
217	0xbcf27d63	-0.029600805
218	0x3dbc578f	0.09196388
219	0x3ec2a49d	0.38016215
220	0x3dcef0a1	0.1010449
221	0x3d8c828d	0.06860838
222	0xbbc3d9ab	-0.005976876
223	0x3e1143dd	0.14186044
224	0x3ea9a63c	0.3313464
225	0x3d2d0623	0.04224218
226	0x3b8c7e06	0.004287484
227	0x39c3bec7	0.00037335439
228	0x3dad0048	0.08447319
229	0x3d2a8a24	0.041635647
230	0xbe39f177	-0.18158518
231	0x3d7894a9	0.06068865
232	0x3d94ef93	0.07272258
233	0x3bbf24b3	0.0058332323
234	0xbe6ee241	-0.23328497
235	0x3bcb0f0b	0.0061968616
236	0x3b8a74d3	0.0042253523
237	0xbf3e4925	-0.7433036
238	0xbe378665	-0.17922361
239	0xbbed9cee	-0.0072513735
240	0x3e5e9fa4	0.21740586
241	0xbcb731e4	-0.022362657
242	0x3c49e618	0.012322925
243	0xbe3f90c2	-0.18707564
244	0xbc2054b1	-0.009785817
245	0xbb28ab17	-0.0025736743
246	0x3bab0e1d	0.0052201883
247	0xbe05dfe5	-0.1307369
248	0x3be52dbe	0.0069939783
249	0xbc6dec6d	-0.0145217
250	0xbe18e7d7	-0.1493219
251	0x3d8127b4	0.06306401
252	0xbd4bfd8b	-0.049802344
253	0x3e7eb380	0.24873161
254	0xbb01f0f9	-0.0019827469
255	0xbe02cca8	-0.12773383

decoder.2.bias f4 [128]
0	0xbd9c02ae	-0.076176986
1	0x3dca4a27	0.09877425
2	0xbda555a7	-0.080729775
3	0x3e0274c0	0.12739849
4	0xbcbe213b	-0.023209205
5	0x3e77b896	0.24191508
6	0xbc9fe270	-0.019517154
7	0xbe32cb75	-0.17460425
8	0x3dfd906a	0.123810604
9	0xbe9f86d0	-0.3115754
10	0x3e2a5045	0.16632183
11	0x3e0787f5	0.13235457
12	0x3e1b4601	0.15163423
13	0xbd917770	-0.07102859
14	0x3e7d3ce5	0.2473026
15	0x3ea013c4	0.3126508
16	0x3da3fb88	0.0800696
17	0x3c296dd2	0.010341125
18	0xbd2bc6dc	-0.041937694
19	0x3c0fb7d0	0.008771852
20	0xbd455d19	-0.048184488
21	0xbb65be81	-0.0035056176
22	0xbe5c58c2	-0.21518233
23	0x3c649536	0.01395159
24	0x3e2e9397	0.17048489
25	0x3d8d708b	0.069062315
26	0x3a198458	0.00058562076
27	0x3bf80a9e	0.007569625
28	0x3e700350	0.23438764
29	0xbc9ae07c	-0.01890587
30	0xbf308c8d	-0.68964463
31	0xbe157ceb	-0.14598434
32	0x3e015db5	0.12633403
33	0x3e8fa733	0.2805725
34	0xbf2e5203	-0.6809389
35	0x3e11128a	0.14167228
36	0x3e5d0f63	0.21587901
37	0x3c8f3b4c	0.01748433
38	0x3e72db62	0.237165
39	0xb95bbfef	-0.00020956968
40	0xbe621713	-0.22079115
41	0x3df47742	0.11936809
42	0xbe8d0130	-0.27539968
43	0x3e82629e	0.25465864
44	0x3d4be65c	0.049780235
45	0xbe59acc1	-0.21257307
46	0xbdb50450	-0.08838713
47	0x81823fb7	-4.7845884e-38
48	0xbd41c4de	-0.047306888
49	0x3e18e950	0.14932752
50	0x3e19b277	0.15009485
51	0xbdba95de	-0.09110616
52	0xbe906d76	-0.28208512
53	0xbc21ed41	-0.009883226
54	0xbe862f6b	-0.26208052
55	0xbc1aebfe	-0.009455679
56	0x3e6f2e4d	0.23357506
57	0xbd3c5d7f	-0.045987602
58	0x3d7c1c34	0.061550334
59	0x3e7c630d	0.2464716
60	0x3d65eca3	0.056133877
61	0xb591db4c	-1.0867166e-06
62	0x3da87e27	0.08227187
63	0xbd9cca21	-0.076557405
64	0x3e95c0b1	0.29248574
65	0xbd3df6ef	-0.046378072
66	0x3e40cbb3	0.18827705
67	0x3d3e7387	0.046496894
68	0x3e182afc	0.14860147
69	0xbd8e29e9	-0.069415875
70	0x3df2e58a	0.11860187
71	0x3e710b8a	0.23539558
72	0x3e2454bc	0.16047949
73	0xbd5e4574	-0.054265454
74	0x3ed22ea5	0.41051212
75	0x3dfb3765	0.12266425
76	0xbda85b3a	-0.08220525
77	0xbed6e4bc	-0.41971385
78	0x3db7ee67	0.089810185
79	0xbe2cf0e8	-0.16888773
80	0xbd1874c6	-0.03722074
81	0xbd233375	-0.039843995
82	0xbc225085	-0.009906893
83	0xbd786a5f	-0.06064832
84	0x3e769405	0.24079902
85	0x3e548a28	0.20755827
86	0xb707faa9	-8.104988e-06
87	0x3e14ac05	0.14518745
88	0x3e64b19e	0.2233338
89	0x3e06e6b3	0.13173942
90	0xbeb06480	-0.34451675
91	0x3e1f80f8	0.15576541
92	0xbe9e50ff	-0.3092117
93	0x3d8bcc4c	0.06826076
94	0x3e8d1690	0.27556276
95	0x3db1b1e6	0.086765096
96	0xbe1ebe81	-0.15502359
97	0xbeb55e5d	-0.35423556
98	0x3e879c66	0.2648651
99	0x3e4cd679	0.2000369
100	0x3e8dcf71	0.27697328
101	0x3d8b9a6d	0.06816564
102	0xbd71e39c	-0.059054956
103	0x3e57db4c	0.21079749
104	0x3e24f119	0.16107596
105	0x3ebf488d	0.3736004
106	0xbd770f88	-0.060317546
107	0xbe9698da	-0.2941349
108	0xbe0c462f	-0.13698648
109	0x3e3c559e	0.18392035
110	0xbbe460ef	-0.006969563
111	0xbe943054	-0.2894312
112	0x3d87f375	0.066382326
113	0xbd9e7f3e	-0.07739113
114	0xbda6172c	-0.081098884
115	0x3ef9f4ed	0.48819676
116	0x3c4bd80a	0.012441644
117	0xba38e1e4	-0.00070527033
118	0xbd3e4a63	-0.04645766
119	0x3c9baaf0	0.019002408
120	0x3e4974c1	0.19673444
121	0x3e103f6d	0.14086695
122	0x3e307171	0.17230774
123	0xbe810804	-0.25201428
124	0x3ec20d11	0.37900594
125	0xbd349f7e	-0.044097416
126	0xbd55420e	-0.052064948
127	0xbdba7bd6	-0.09105651

decoder.4.weight f4 [784, 128]
0	0xb9398328	-0.00017691834
1	0xbbf70c5e	-0.007539316
2	0x3b33866d	0.0027393356
3	0x3b1af207	0.0023642795
4	0xbc3734b1	-0.011181996
5	0xbb54885f	-0.0032429916
6	0xbb777550	-0.0037759133
7	0xbbaaefe5	-0.005216586
8	0xbc84a0aa	-0.016189892
9	0x3a92f772	0.001121266
10	0xbb690d10	-0.0035560764
11	0xbc17dcd4	-0.009268958
12	0x3c1601b3	0.009155679
13	0x3aef23c4	0.0018244912
14	0xbc5ef0ac	-0.013607185
15	0x3a02fbf2	0.0004996649
16	0xbc1ae2c9	-0.009453484
17	0xbb489987	-0.0030609088
18	0x3bdcf98b	0.006743615
19	0xbc4c5442	-0.0124712605
20	0xb94597e4	-0.00018843968
21	0x9e87dd45	-1.4385196e-20
22	0x3ba1ec78	0.0049415193
23	0xbb7f0868	-0.0038914923
24	0xbb9fcf6e	-0.0048770225
25	0x3bd8eb3a	0.006619838
26	0xbb9e2ed3	-0.004827359
27	0x3b2bd590	0.0026219822
28	0xbc1a0974	-0.009401668
29	0xbc1677cf	-0.009183838
30	0xb72410a8	-9.77904e-06
31	0x37464910	1.1818731e-05
32	0xbc042c5c	-0.008067217
33	0x3825cab8	3.9527862e-05
34	0x3c27dfbb	0.010246213
35	0xb86e10b0	-5.6759163e-05
36	0x3ab134a3	0.0013519715
37	0x3aac1986	0.0013130165
38	0xbb963371	-0.004583769
39	0x01479d4a	3.6663377e-38
40	0x39b37a68	0.0003423274
41	0xbb1f2935	-0.0024286036
42	0x3bf6153c	0.0075098556
43	0xbc1944ca	-0.0093547795
44	0xbbe51c3c	-0.006991891
45	0x3c8e1e41	0.01734841
46	0xbbe56981	-0.0070011024
47	0x00e4ddcf	2.1018063e-38
48	0x3ad0b683	0.0015923533
49	0xbc6004ec	-0.0136730485
50	0xb8559810	-5.0924777e-05
51	0xbbb28f3d	-0.0054492042
52	0xba61eca0	-0.0008618329
53	0xbb8218be	-0.0039702347
54	0xbbc26a0f	-0.0059330533
55	0xb6fb3b80	-7.4873096e-06
56	0xbc52f9aa	-0.012876907
57	0xb8c107b2	-9.2043905e-05
58	0xbb802159	-0.0039102254
59	0x3b6e2347	0.0036336945
60	0xbaa724d1	-0.0012752061
61	0x81a8290a	-6.177234e-38
62	0xbb8f5df8	-0.0043752156
63	0xbbc8c22a	-0.006126662
64	0xbc82eb7f	-0.015981434
65	0xb8bf9611	-9.135542e-05
66	0xbbd2b10f	-0.0064297984
67	0xba4f2425	-0.00079018093
68	0x3b8a82c2	0.0042270133
69	0xbb035d52	-0.0020044637
70	0xbb978ada	-0.0046247067
71	0xbc7103e2	-0.014710398
72	0xba590e80	-0.0008280054
73	0xbb908553	-0.0044104247
74	0xbd7b1e9f	-0.0613085
75	0xbbe85169	-0.007089783
76	0xba675245	-0.000882421
77	0xbb43e346	-0.0029890104
78	0xbc04e00a	-0.008110056
79	0xba9e6564	-0.001208466
80	0x393abb15	0.00017808036
81	0xbba4164c	-0.005007541
82	0xb9e28e5e	-0.0004321215
83	0xbb41f96c	-0.002959813
84	0xbb8caa10	-0.004292734
85	0x3a44a4c2	0.00075013575
86	0x8005dc66	-5.38242e-40
87	0xbc005cf1	-0.007834659
88	0xbc87fa0b	-0.016598722
89	0xbc2b7329	-0.010464468
90	0x3c0d3b5d	0.00862011
91	0xba07cea5	-0.0005180634
92	0x3c41b60a	0.011823187
93	0x39d978b4	0.00041479396
94	0xbc1aaf2d	-0.009441179
95	0x3abc8857	0.0014383894
96	0xbbe1656d	-0.006878546
97	0x3afcadee	0.0019277909
98	0xbc79ba2e	-0.015242143
99	0x3b048020	0.002021797
100	0xba5806ee	-0.00082407787
101	0xbb7f014f	-0.0038910692
102	0x3b8c811b	0.0042878515
103	0xbca3f79a	-0.020015527
104	0xbb4c7887	-0.003119977
105	0xbb8a81dd	-0.0042269067
106	0xb8ab37fb	-8.1643426e-05
107	0x3b3f468a	0.0029186332
108	0x3b9d323b	0.0047972477
109	0xbba46c27	-0.0050177756
110	0xba0c0601	-0.0005341471
111	0x3c129e5f	0.008948891
112	0x3b24556b	0.0025075327
113	0x3b8ba59d	0.004261686
114	0x3beffbf8	0.007323738
115	0xbbbc101c	-0.005739225
116	0xbb32ac76	-0.002726344
117	0xbb76f03d	-0.0037679814
118	0xbc8f2944	-0.017475732
119	0x3ba7423d	0.0051043318
120	0xbac5eaa1	-0.0015099832
121	0x3a326f3a	0.0006806735
122	0xba240245	-0.00062564417
123	0xbb263713	-0.0025362417
124	0x3aac09af	0.0013125445
125	0x3ac5df22	0.0015096406
126	0xbc539b7c	-0.012915488
127	0xba8b65d6	-0.0010635208
128	0xb932c900	-0.00017050281
129	0xbbf6c645	-0.00753096
130	0x3b33d446	0.0027439757
131	0x3b1ac9f8	0.0023618918
132	0xbc3772c2	-0.011196794
133	0xbb5502cd	-0.003250289
134	0xbb77869c	-0.0037769442
135	0xbbaaef65	-0.0052165263
136	0xbc848b99	-0.016179847
137	0x3a92c59d	0.0011197809
138	0xbb68fe2a	-0.0035551884
139	0xbc1831df	-0.009289234
140	0x3c15e938	0.009149842
141	0x3aed4410	0.0018101949
142	0xbc5e1b0d	-0.013556254
143	0x3a067c89	0.00051302515
144	0xbc1ab370	-0.009442195
145	0xbb486bec	-0.0030581905
146	0x3bdc1ec4	0.0067175347
147	0xbc4c198d	-0.012457264
148	0xb9459436	-0.00018842597
149	0x9f7c407a	-5.341641e-20
150	0x3ba12898	0.004918169
151	0xbb7e60b9	-0.0038814975
152	0xbb9fd279	-0.004877385
153	0x3bd8b4b8	0.00661334
154	0xbb9dc2ed	-0.0048144967
155	0x3b2c1959	0.0026260226
156	0xbc19f636	-0.00939708
157	0xbc167590	-0.0091833025
158	0xb71e7368	-9.444404e-06
159	0x371fbc20	9.52094e-06
160	0xbc043bcc	-0.008070897
161	0x380148b4	3.0823707e-05
162	0x3c27e0fc	0.010246512
163	0xb85f4f40	-5.324115e-05
164	0x3ab1aeec	0.0013556159
165	0x3aabf889	0.0013120334
166	0xbb960a27	-0.004578847
167	0x00e2ea00	2.0838766e-38
168	0x39b2b7b0	0.00034087664
169	0xbb1f4cbb	-0.002430721
170	0x3bf6846e	0.007523111
171	0xbc196d15	-0.009364386
172	0xbbe49d66	-0.006976771
173	0x3c8df500	0.01732874
174	0xbbe58bd2	-0.0070051933
175	0x0139e3c8	3.414256e-38
176	0x3ad085f3	0.0015909061
177	0xbc601e5c	-0.013679113
178	0xb8728f94	-5.7831014e-05
179	0xbbb24b3d	-0.005441098
180	0xba5ffc2f	-0.0008544353
181	0xbb81f000	-0.003965378
182	0xbbc279a6	-0.005934912
183	0xb6ffb6db	-7.6208794e-06
184	0xbc52b9b0	-0.012861654
185	0xb8f3612c	-0.000116052426
186	0xbb8076bf	-0.0039204056
187	0x3b6dfd74	0.00363144
188	0xbaa8946e	-0.0012861618
189	0x8159b214	-3.998437e-38
190	0xbb8f0f2c	-0.0043658223
191	0xbbc8b20b	-0.00612474
192	0xbc830ae0	-0.015996397
193	0xb828d805	-4.0255505e-05
194	0xbbd2bbdc	-0.006431086
195	0xba4df752	-0.0007856983
196	0x3b8a9328	0.004228968
197	0xbb03a0c9	-0.002008485
198	0xbb97dff7	-0.004634853
199	0xbc70eec0	-0.01470536
200	0xba5b5bb8	-0.0008367854
201	0xbb8fb7b7	-0.004385914
202	0xbd7b2e68	-0.061323553
203	0xbbe84fda	-0.007089597
204	0xba658de2	-0.0008756799
205	0xbb444226	-0.0029946654
206	0xbc049abc	-0.008093532
207	0xba9e2e59	-0.0012068256
208	0x392f8bb4	0.00016741344
209	0xbba45ccb	-0.0050159446
210	0xb9deb3d4	-0.00042477122
211	0xbb423c40	-0.0029637963
212	0xbb8c860a	-0.0042884396
213	0x3a44b0e4	0.00075031654
214	0x806ddae3	-1.0088591e-38
215	0xbc004180	-0.007828116
216	0xbc880950	-0.016606003
217	0xbc2bffc5	-0.010497992
218	0x3c0d4484	0.008622292
219	0xba073869	-0.0005158247
220	0x3c41ce39	0.0118289525
221	0x39d9c7fd	0.00041538468
222	0xbc1aa879	-0.009439581
223	0x3abd183c	0.0014426778
224	0xbbe1a07e	-0.0068855872
225	0x3afcf84e	0.0019300075
226	0xbc798e2c	-0.01523165
227	0x3b04d112	0.0020266217
228	0xba58f6aa	-0.0008276502
229	0xbb7ea305	-0.0038854491
230	0x3b8c80ee	0.0042878306
231	0xbca3e8ba	-0.020008434
232	0xbb4ce200	-0.0031262636
233	0xbb8a3ef3	-0.00421893
234	0xb840f322	-4.6002802e-05
235	0x3b3e9dbc	0.0029085716
236	0x3b9d9918	0.00480951
237	0xbba4e0dc	-0.005031688
238	0xba0b5786	-0.0005315471
239	0x3c129c75	0.008948435
240	0x3b261345	0.0025341075
241	0x3b8bec02	0.0042700777
242	0x3beff3dd	0.007322772
243	0xbbbc5c73	-0.0057483255
244	0xbb336ec0	-0.0027379245
245	0xbb768d0e	-0.0037620696
246	0xbc8f403f	-0.01748669
247	0x3ba6aee5	0.005086767
248	0xbac62cf2	-0.0015119596
249	0x3a3238b3	0.000679861
250	0xba22e9f8	-0.00062146736
251	0xbb278ea1	-0.0025567191
252	0x3aab8533	0.0013085961
253	0x3ac596f5	0.0015074896
254	0xbc537816	-0.012907049
255	0xba8c180a	-0.0010688317
