day3/solutions/simple_autoencoder/simple_autoencoder_7.pt (torch_old, 878661 bytes, 12 tensors)

encoder.0.weight f4 [128, 784]
0	0xbce3b022	-0.027793948
1	0xbcd44b65	-0.025914857
2	0xbcb66d1f	-0.02226883
3	0xbcdeee7b	-0.027213326
4	0xbcecbd9c	-0.028899007
5	0xbcc3c4b3	-0.023897504
6	0xbcc6f92d	-0.024288738
7	0xbcde3f0c	-0.027129672
8	0xbccfde0b	-0.025374433
9	0xbcbd22bc	-0.023087852
10	0xbcdc2047	-0.02687086
11	0xbcc95cd2	-0.024580393
12	0xbcdc4af4	-0.02689121
13	0xbcc38a87	-0.023869766
14	0xbce06e2f	-0.02739629
15	0xbcf42c0f	-0.029806165
16	0xbccf82f9	-0.025331007
17	0xbcbc35b6	-0.02297483
18	0xbcbff7b2	-0.02343354
19	0xbcefd8e0	-0.029278219
20	0xbcf19c28	-0.029493406
21	0xbce4c090	-0.027923852
22	0xbce66f33	-0.028129196
23	0xbcf72fd4	-0.030174173
24	0xbcbc29e3	-0.022969192
25	0xbcc8a7f9	-0.024494158
26	0xbceb74b2	-0.028742168
27	0xbcd61e30	-0.026137441
28	0xbcb8face	-0.02258053
29	0xbcc3d91c	-0.023907237
30	0xbcd572a0	-0.026055634
31	0xbcd0c792	-0.025485788
32	0xbcbfabe9	-0.023397403
33	0xbcd2a95f	-0.025715528
34	0xbcf72a39	-0.0301715
35	0xbd088560	-0.03333032
36	0xbd12e650	-0.035864174
37	0xbd08e744	-0.033423677
38	0xbd0b666e	-0.03403323
39	0xbd17596f	-0.036950525
40	0xbd13aaca	-0.03605155
41	0xbd0dc218	-0.03460893
42	0xbd0b1ea7	-0.03396478
43	0xbccde65d	-0.02513426
44	0xbcb50281	-0.02209592
45	0xbcb80777	-0.022464497
46	0xbccd0048	-0.025024548
47	0xbceedd1f	-0.029158173
48	0xbcb39260	-0.021920383
49	0xbcf5e2d2	-0.030015383
50	0xbce9a495	-0.028520862
51	0xbcd48537	-0.025942428
52	0xbcb95041	-0.022621276
53	0xbcd5585a	-0.026043106
54	0xbcc46a68	-0.02397652
55	0xbcf666a4	-0.03007824
56	0xbcbb71c6	-0.0228814
57	0xbcb7576c	-0.022380553
58	0xbcee3c92	-0.029081617
59	0xbcd5c7e5	-0.026096294
60	0xbcb6c6ad	-0.022311533
61	0xbce726b5	-0.0282167
62	0xbd1220e4	-0.0356759
63	0xbd2b4a5c	-0.04181896
64	0xbd13a267	-0.03604355
65	0xbd270f44	-0.040786043
66	0xbd139e50	-0.03603965
67	0xbd2f8565	-0.042851824
68	0xbd335023	-0.043777596
69	0xbd68408d	-0.056702185
70	0xbd711b10	-0.0588637
71	0xbd3e82f8	-0.04651162
72	0xbd29f5d2	-0.0414942
73	0xbd115a15	-0.0354863
74	0xbd3ffe94	-0.046873644
75	0xbd610b3d	-0.05494236
76	0xbd5ecf29	-0.054396782
77	0xbd4803d6	-0.048831783
78	0xbd134e6b	-0.035963457
79	0xbcbb63d8	-0.022874758
80	0xbcce8ec1	-0.025214555
81	0xbceb95b1	-0.028757902
82	0xbcd92d6c	-0.026510917
83	0xbcf59458	-0.029977962
84	0xbcc32d1c	-0.02382522
85	0xbcb490ba	-0.022041667
86	0xbcb861a5	-0.022507498
87	0xbd010c4e	-0.031505875
88	0xbcbf9fbf	-0.023391603
89	0xbcdaccf8	-0.026709065
90	0xbc8231e0	-0.015892923
91	0xbd0a8c90	-0.033825457
92	0xbd6a9e7a	-0.05728004
93	0xbd1ec7de	-0.038764827
94	0xbd4d6307	-0.050143268
95	0xbd323f06	-0.043517135
96	0xbd08945f	-0.033344623
97	0xbd43b29e	-0.047777764
98	0xbcdd84c4	-0.027040847
99	0xbd1bf4c4	-0.038075224
100	0xbc843958	-0.016140625
101	0xbd86b164	-0.06576803
102	0xbddfa7fe	-0.10920714
103	0xbd9aa685	-0.07551292
104	0xbdca6ba0	-0.09883809
105	0xbdc3c002	-0.09558107
106	0xbd293c59	-0.041317318
107	0xbb88dde3	-0.0041768416
108	0xba1320a4	-0.0005612469
109	0xbcaac96b	-0.020847997
110	0xbcd2a876	-0.025715094
111	0xbcd39118	-0.025826022
112	0xbcc53ec3	-0.024077779
113	0xbcbc29cc	-0.022969149
114	0xbce58192	-0.028015886
115	0xbc9cedbb	-0.019156327
116	0xbc5040ef	-0.012710794
117	0xbbfc25af	-0.007694922
118	0x3ab8f10d	0.0014109925
119	0xbc3b3b7d	-0.011427757
120	0xbd3dfccb	-0.04638366
121	0xbc4596ff	-0.012059926
122	0xbcbd6e82	-0.023123983
123	0xbcdb7a33	-0.026791668
124	0x3c67bd45	0.0141442465
125	0x3c9df60a	0.01928236
126	0x3bb893a4	0.0056328345
127	0x3c66b564	0.014081333
128	0x3d278611	0.04089934
129	0xbad15937	-0.0015972023
130	0xbd8bea45	-0.06831793
131	0xbd4d0abd	-0.05005907
132	0xbd092b80	-0.03348875
133	0xbd7cdcef	-0.061734136
134	0xbd512b6e	-0.05106681
135	0xbce5f5da	-0.028071333
136	0xbc6ef433	-0.014584589
137	0x3b99e9f0	0.004697077
138	0xbc908527	-0.017641617
139	0xbcf3dfe0	-0.029769838
140	0xbcef0ab8	-0.029179916
141	0xbcd63723	-0.026149338
142	0xbce52cdf	-0.027975498
143	0xbc63c8f8	-0.013902895
144	0xbc841d18	-0.016127154
145	0xbc0efed0	-0.008727744
146	0x3c85369e	0.016261395
147	0x3c87ca54	0.01657597
148	0xbc17e009	-0.009269723
149	0xbc20766f	-0.009793862
150	0x3caed213	0.021340406
151	0x3b70d36c	0.003674711
152	0x3cc31e99	0.023818301
153	0x3b7cef24	0.0038594687
154	0x3c66aac5	0.014078801
155	0x3cf58cba	0.02997433
156	0x3cd7c52d	0.026339138
157	0xbc24f5e7	-0.010068393
158	0x3c21def2	0.009879814
159	0x3d473b51	0.048640553
160	0x3d78f63f	0.060781714
161	0x3cf7cbe2	0.030248586
162	0x3ad3ffb6	0.001617423
163	0xbc6110ac	-0.013736885
164	0x3ba1aad6	0.0049336953
165	0x3cb27316	0.021783393
166	0xbbc451e5	-0.005991208
167	0xbce8b482	-0.028406385
168	0xbcbc8fb9	-0.023017751
169	0xbcba2885	-0.0227244
170	0xbcef7af5	-0.029233435
171	0xbc677217	-0.014126322
172	0x3c0e3bac	0.008681219
173	0x3c2755d3	0.010213333
174	0x3d84c28b	0.064824186
175	0x3d5fa496	0.05460032
176	0x3d788ab8	0.060679168
177	0x3d22e4f8	0.039769143
178	0xbb6a79ac	-0.0035778088
179	0x3c28c73e	0.010301409
180	0xbcd85385	-0.026407013
181	0xbc3eff11	-0.011657492
182	0xbc86bc4c	-0.016447209
183	0x3c9c007b	0.019043198
184	0x3c933475	0.01796935
185	0x3ce04dd1	0.027380856
186	0x3d7e6b0c	0.062113807
187	0x3d8dd05e	0.069245085
188	0x3e04a43d	0.12953277
189	0x3d9cb188	0.07651049
190	0x3d9feebd	0.078092076
191	0x3d96225f	0.073307745
192	0x3d0cd0a6	0.03437867
193	0x3c94cf22	0.018165175
194	0x3c6ece05	0.014575486
195	0xbcd0a89f	-0.02547103
196	0xbcf40c50	-0.029791027
197	0xbc69cc2f	-0.014269873
198	0xbcb4ce54	-0.022071041
199	0x3bf46164	0.007457899
200	0x3cf613e6	0.030038785
201	0x3c6bac99	0.014384412
202	0x3d18276a	0.037146963
203	0x3d020754	0.03174527
204	0x3d281394	0.041034296
205	0x3cbad24b	0.022805354
206	0xbc91a0f1	-0.017776938
207	0xbc8d3f26	-0.017242026
208	0x3c884733	0.016635513
209	0x3b6715e7	0.0035260858
210	0xbb5538d8	-0.0032535102
211	0x3d3b6289	0.045748267
212	0x3d501607	0.050802257
213	0x3d855d37	0.0651192
214	0x3dae2e62	0.085049406
215	0x3d9311b5	0.07181112
216	0x3d48934a	0.04896859
217	0x3c8fbb35	0.017545322
218	0x3d59a187	0.05313256
219	0x3da2a88d	0.07942305
220	0x3d492fee	0.049117975
221	0x3c76e563	0.0150693385
222	0x3c39c29e	0.011337904
223	0xbc851616	-0.016245883
224	0xbcd9f503	-0.026606089
225	0xbcaba343	-0.020951873
226	0x3c9cd30c	0.019143604
227	0x3d3e0d24	0.04639925
228	0x3d3e725c	0.04649578
229	0x3c7d55f4	0.015462387
230	0x3d49f866	0.049309157
231	0x3d31850b	0.04333977
232	0x3d7d203f	0.06179833
233	0xba518a02	-0.0007993282
234	0x3c542896	0.01294913
235	0x3c2eba27	0.010664499
236	0xbcf2f415	-0.029657403
237	0xba991610	-0.0011679549
238	0x3d155a80	0.03646326
239	0x3ca015de	0.019541677
240	0x3d8c811f	0.068605654
241	0x3d2bd48a	0.04195074
242	0x3c8c35d0	0.017115504
243	0xbca2cb8b	-0.019872447
244	0xbd1938bb	-0.037407618
245	0xbba8a726	-0.005146879
246	0x3d0976e4	0.03356065
247	0x3d77f6f3	0.060538244
248	0x3ddfde63	0.10931089
249	0x3cd5ec3d	0.026113624
250	0xbb699484	-0.00356415
251	0xbc90f597	-0.017695231
252	0xbcc55553	-0.024088537
253	0xbc4ed0f7	-0.012623063
254	0x3befe079	0.0073204604
255	0x3ce8be63	0.028411096

encoder.0.bias f4 [128]
0	0x3d4bc522	0.049748547
1	0x3cd133c6	0.025537383
2	0xbc59e71c	-0.01329973
3	0x3d7129cc	0.05887775
4	0x3c613cce	0.013747407
5	0xbd07495f	-0.033028957
6	0x3c17431b	0.009232308
7	0x3d4c7ef9	0.049925778
8	0x3ca92493	0.020647323
9	0x3d86693b	0.0656304
10	0x3cf4c616	0.029879611
11	0x3d051480	0.032490253
12	0xbbff689b	-0.0077944524
13	0x3d0a8223	0.033815514
14	0xbcf91607	-0.030406011
15	0x3caa9957	0.020825071
16	0x3d1db492	0.038502283
17	0xbd8d46ac	-0.06898245
18	0xbd10e741	-0.03537679
19	0x3c870275	0.016480664
20	0x3c0a68cd	0.008447838
21	0xbca3e653	-0.020007288
22	0xbc2b680e	-0.01046182
23	0x3d02dfb4	0.03195162
24	0x3c82f721	0.01598698
25	0xbc85908e	-0.01630428
26	0xbcfa542f	-0.03055772
27	0x3cc5d403	0.024148947
28	0x3cec26ec	0.028827153
29	0x3d77d838	0.060508937
30	0x3b70dbbe	0.003675207
31	0xbab90ea1	-0.001411874
32	0xbcd91f6c	-0.02650424
33	0x3b025945	0.0019889635
34	0xbc4bcce2	-0.012438985
35	0xbca08d8c	-0.019598745
36	0xbc501717	-0.012700818
37	0x3bc0534d	0.005869305
38	0xbc22afcd	-0.0099296095
39	0x3cfd1424	0.030893393
40	0xbb836b41	-0.0040105884
41	0x3d865cbe	0.06560658
42	0xbaccea0c	-0.0015633716
43	0xbd75d162	-0.060014136
44	0xb8aac273	-8.142451e-05
45	0xbc454a24	-0.012041602
46	0xbc26076e	-0.010133607
47	0x3cb4d440	0.022073865
48	0xbd181baf	-0.037135776
49	0x3c86aa38	0.016438589
50	0x3c55b956	0.013044676
51	0x3c066209	0.008202084
52	0x3d1e58ce	0.03865891
53	0x3d1debb1	0.03855485
54	0x3bdfee0a	0.0068337964
55	0xbaf1127b	-0.0018392348
56	0x3cb12688	0.021624818
57	0x39b0f694	0.0003375305
58	0x3c075254	0.008259375
59	0x3d2d06f4	0.04224296
60	0x3ba81aad	0.005130133
61	0xbd1a47d1	-0.037666146
62	0xb93b679d	-0.00017872309
63	0xbac9d8c6	-0.0015399687
64	0x3d213064	0.03935279
65	0x3d3f59f5	0.04671665
66	0x3db161b3	0.08661213
67	0xbcc87e48	-0.024474278
68	0xbb2c0930	-0.0026250593
69	0x3cc78bba	0.024358619
70	0xbc431ef9	-0.01190924
71	0x3bb275fa	0.005446193
72	0x3c9f767b	0.019465676
73	0xbd2cc20a	-0.042177238
74	0xbccae15d	-0.024765665
75	0xbba726a9	-0.005101044
76	0xbb890fe0	-0.0041828007
77	0xbc087afe	-0.008330105
78	0x3cb09d77	0.02155946
79	0xbbc85531	-0.006113671
80	0x3b469722	0.0030302485
81	0x3c066584	0.008202914
82	0x3c805ce7	0.0156693
83	0xbc7c4b88	-0.015398867
84	0x37ecca28	2.8227529e-05
85	0x3b96b323	0.0045989915
86	0x3bb6c776	0.005577977
87	0xbbceff91	-0.006317087
88	0xbb146e8a	-0.0022648894
89	0x3da5cc61	0.08095623
90	0xbae081fd	-0.0017128583
91	0x3c0a0427	0.008423842
92	0xbc08c6a4	-0.008348141
93	0xbb8b9729	-0.004259963
94	0x3cf29818	0.02961354
95	0x3c7ef85d	0.015562144
96	0xbcd0296d	-0.025410378
97	0x3d1b6b4f	0.037944134
98	0x3c7ccd90	0.015429869
99	0xbc744f37	-0.014911464
100	0x3ce3fda7	0.027830912
101	0x3d4eed17	0.050519075
102	0x3d7e180e	0.06203466
103	0x3cce7d37	0.025206191
104	0x3a64b3ff	0.0008724331
105	0xbc2cdc04	-0.010550503
106	0x3ca595f2	0.020213101
107	0xbd66f0ca	-0.056381978
108	0xbb202a73	-0.0024439364
109	0xba0fad61	-0.00054808526
110	0x3cf79ccf	0.03022614
111	0x3d56de79	0.05245826
112	0xbd0018e4	-0.031273738
113	0xba1bafb9	-0.00059389655
114	0x3d512160	0.05105722
115	0x3ccb23aa	0.02479728
116	0xbbb73f75	-0.0055922815
117	0xbce55044	-0.027992375
118	0x3d19b3d9	0.03752503
119	0x3c6c6670	0.01442872
120	0xbc0be74e	-0.008539034
121	0x3d2e0663	0.04248656
122	0x3c4211b3	0.01184504
123	0x3c4405f9	0.011964315
124	0x3c9fbcb1	0.019499155
125	0x3c3d78a0	0.011564404
126	0x3ca07594	0.019587316
127	0xbc57a38c	-0.013161551

encoder.2.weight f4 [64, 128]
0	0x3cf5caac	0.030003868
1	0x3d7a64af	0.061131176
2	0xbdfac1aa	-0.1224397
3	0x3dc93a21	0.0982554
4	0x3d068650	0.032842934
5	0xbc904ca0	-0.017614663
6	0xbd0b08fa	-0.033944108
7	0xbcbe1f00	-0.023208141
8	0x3ace92cf	0.0015760305
9	0xbd1eacee	-0.038739137
10	0x3cc440e7	0.02395673
11	0x3e0782a7	0.13233434
12	0x3d18f8ce	0.037346654
13	0x3e0658c7	0.13119803
14	0x3b5f1bf7	0.0034043768
15	0xbd86a804	-0.06575015
16	0x3d95a9cd	0.073077776
17	0xbe9bebe6	-0.30453414
18	0x3cd5d6b2	0.026103351
19	0x3dcca82a	0.09993012
20	0xbda49d4c	-0.080378145
21	0xbbd1125b	-0.006380362
22	0x3c57fab4	0.013182331
23	0xbda22e78	-0.079190195
24	0xbca59ee9	-0.020217376
25	0xbdc8014d	-0.09765873
26	0xbe0f57a2	-0.13998273
27	0xbd9e2811	-0.07722486
28	0x3dbbdf07	0.091733985
29	0xbd060873	-0.0327229
30	0xbb131548	-0.0022443105
31	0xbd239932	-0.03994102
32	0xbdc75e48	-0.097347796
33	0xbda59cea	-0.080865696
34	0x3dbb2ae8	0.09139043
35	0x3d55e89a	0.05222378
36	0xbe1db8e3	-0.1540256
37	0xbe7ece2e	-0.24883339
38	0xbc59f53d	-0.013303098
39	0x3e017613	0.12642698
40	0xbd90be5b	-0.070675574
41	0x3ddbea8f	0.10738098
42	0x3c220e7b	0.009891148
43	0xbd63a6b5	-0.055578906
44	0x39627be3	0.00021599191
45	0x3ce56b4e	0.028005268
46	0xbcabc84d	-0.020969534
47	0x3d1f2a9b	0.03885899
48	0x3e63b14e	0.22235605
49	0x3cdd6382	0.027024988
50	0x3d155de0	0.03646648
51	0xbd85a1dc	-0.06525013
52	0xbc4b41d9	-0.012405836
53	0xbcbead9a	-0.023276139
54	0xbd180c4c	-0.037121102
55	0x3b7134a9	0.003680507
56	0x3d34212e	0.043976955
57	0xbdb9fc3f	-0.09081315
58	0x3b2012d5	0.0024425287
59	0x3da676df	0.081281416
60	0x3c45b74a	0.012067625
61	0xbd146715	-0.03623112
62	0xbb308108	-0.0026932377
63	0xbd1f2e32	-0.038862415
64	0x3db37baa	0.087638214
65	0xbd1f5750	-0.038901627
66	0x3cde1785	0.027110824
67	0xbe17d6b5	-0.14827998
68	0x3d49f43e	0.049305193
69	0xbbf2d685	-0.0074108266
70	0xbd65d97a	-0.056115605
71	0x3d1d358b	0.03838114
72	0xbddd5c5a	-0.1080863
73	0x3df4dca6	0.11956148
74	0xbe137953	-0.1440175
75	0x3c108bd8	0.008822404
76	0x3d0b91e1	0.034074668
77	0x3a96e41c	0.0011512074
78	0xbcb7d42b	-0.022440037
79	0x3c94c063	0.018158143
80	0xbc46d04b	-0.012134622
81	0xbd5b3ecf	-0.053526696
82	0x3d763244	0.06010653
83	0x3d73b44d	0.05949812
84	0xbc545a54	-0.012960989
85	0x3d9d86f8	0.07691759
86	0xbc42c3a3	-0.011887464
87	0x3d19ea8c	0.037577197
88	0xbbbffd5f	-0.0058590616
89	0x3e1fc97f	0.15604208
90	0xbdf737e4	-0.12071207
91	0x3de428ad	0.11140571
92	0xbd44e6f1	-0.048071805
93	0xbcd40de4	-0.02588553
94	0x3d5db898	0.05413112
95	0x3d5189f3	0.05115695
96	0xbd0105ae	-0.031499557
97	0xbcea6b0c	-0.028615497
98	0xbce230b1	-0.027611108
99	0x3e229051	0.15875365
100	0xbdbfbde8	-0.093623936
101	0x3e17f4c8	0.1483947
102	0x3d96f8eb	0.07371696
103	0x3e19ae7a	0.15007964
104	0xbd786bf2	-0.06064982
105	0x3a916285	0.0011091983
106	0x3d834408	0.0640946
107	0xbba1437c	-0.004921375
108	0x3b427fe3	0.0029678277
109	0x3a3b8025	0.0007152579
110	0x3dd460a5	0.10369996
111	0x3d4f56fb	0.05062006
112	0x3cc6e0c9	0.024277108
113	0x3b1b6bc8	0.0023715366
114	0x3db432b7	0.087987356
115	0xbde3844c	-0.11109218
116	0x3d8f9c34	0.07012215
117	0x3db97d70	0.090571284
118	0x3df5870b	0.11988648
119	0xbda9c7b6	-0.08290045
120	0x3e80fd67	0.2519333
121	0x3b757c21	0.003745802
122	0xbe00dc52	-0.12584046
123	0xbe047070	-0.12933517
124	0xb900aefd	-0.0001227222
125	0x3da13b62	0.078726545
126	0x3d82bb9d	0.06383441
127	0x3aef2436	0.0018245045
128	0xbd09acb7	-0.03361198
129	0x3bff826c	0.00779753
130	0xbf1459ff	-0.57949823
131	0x3dc4ffe0	0.09619117
132	0x3d18d11c	0.037308797
133	0x3cf95d0b	0.030439874
134	0xbdcbf6b5	-0.09959165
135	0x3cf1607e	0.029464956
136	0x3e0e9efd	0.13927837
137	0x3cdf9e9f	0.027297316
138	0x3d1361a8	0.035981804
139	0x3dce90e4	0.100862294
140	0xbd90f3fb	-0.070777856
141	0xbdc96a45	-0.098347224
142	0xbe9198ca	-0.2843688
143	0x3d8e572b	0.0695022
144	0xbc87ef1e	-0.016593512
145	0xbed57f38	-0.41698623
146	0xbe00e613	-0.12587766
147	0x3d6f657f	0.058446404
148	0xbd9dfa22	-0.07713725
149	0xbe7f2e7f	-0.2492008
150	0xbde5ad65	-0.11214713
151	0x3e26c93c	0.16287702
152	0xbc3443f2	-0.011002528
153	0x3c97290a	0.018452186
154	0xbe27c1db	-0.16382544
155	0xbd16544d	-0.03670149
156	0x3e0ccae5	0.13749273
157	0x3d903226	0.07040815
158	0x3ce3b9e9	0.02779861
159	0xbd3681cf	-0.04455739
160	0xbe59c83a	-0.21267787
161	0x3d5acf65	0.053420443
162	0x3daf3e5e	0.085568175
163	0x3d51d292	0.051226206
164	0xbe890f7d	-0.2676963
165	0xbe0fd98b	-0.1404783
166	0x3d48714a	0.048936166
167	0xbe0a1ae2	-0.13486817
168	0xbd914e8e	-0.07095061
169	0x3e0d156f	0.13777708
170	0x3c8d6bb7	0.017263277
171	0x3e3952f4	0.1809805
172	0x3a1f6eca	0.00060818775
173	0x3de963f7	0.1139602
174	0xbc51ab5e	-0.012797205
175	0x3dffe438	0.12494701
176	0x3d6151f4	0.055009797
177	0xbe326de1	-0.17424728
178	0xbb7ca598	-0.003855085
179	0x3bac90e1	0.0052662943
180	0x3d346faf	0.044051822
181	0xbc41362c	-0.011792701
182	0x3dace1ee	0.0844153
183	0xbc018277	-0.00790464
184	0x3e25a8b7	0.16177641
185	0xbe0736e4	-0.13204533
186	0xbda2e33a	-0.07953496
187	0x3c956d49	0.018240588
188	0x3e8b88b3	0.2725273
189	0x3e685996	0.22690424
190	0xbb4fd6a8	-0.0031713638
191	0x3e2ec14c	0.17065924
192	0xbe1939db	-0.14963476
193	0x3e19533d	0.14973159
194	0x3e2a4330	0.16627192
195	0xbe1f9a64	-0.15586239
196	0x3defee74	0.11715403
197	0xbe39a537	-0.1812943
198	0xbefeaa0c	-0.4973911
199	0x3d758291	0.05993897
200	0xbe450a70	-0.19242263
201	0x3d9befab	0.076140724
202	0xbe824aad	-0.25447598
203	0x3bdc800a	0.0067291306
204	0xbe7594f7	-0.23982607
205	0xbc8cb07a	-0.017173994
206	0x3d9bfb68	0.07616311
207	0xbc8113ab	-0.015756449
208	0xbd35d558	-0.044392914
209	0x3de367a0	0.11103749
210	0x3d2db654	0.04241021
211	0x3bd3105e	0.00644116
212	0x3bb6e65e	0.005581661
213	0xbd7d0edd	-0.061781753
214	0x3e680bcf	0.22660755
215	0xbdcaf09b	-0.09909173
216	0xbe896d8f	-0.268414
217	0x3d5aa0a6	0.053375863
218	0xbe7033d0	-0.23457265
219	0xbc4effa2	-0.01263419
220	0xbe69322c	-0.22773045
221	0x3d4aae73	0.049482774
222	0xbc9901ef	-0.01867768
223	0xbdddc1d2	-0.10827984
224	0x3e0ce289	0.13758291
225	0xbe102138	-0.14075172
226	0x3dcbdb5d	0.099539496
227	0x3b6fc030	0.0036583059
228	0xbe5ed6b0	-0.21761584
229	0x3c2f457b	0.010697718
230	0x3e017c25	0.12645014
231	0x3c58d1be	0.0132336
232	0xbe5ae6ae	-0.2137706
233	0x3b1f4858	0.0024304595
234	0xbde2fbec	-0.110832065
235	0x3e83dbe1	0.25753692
236	0xbb4a8181	-0.0030899944
237	0xbae6f611	-0.0017620941
238	0x3d01c133	0.03167839
239	0x3dec01ce	0.11523782
240	0xbe90b28d	-0.28261223
241	0x3a73f746	0.0009306561
242	0x3c149570	0.009068832
243	0x3e0638df	0.13107632
244	0x3e38cab6	0.18046078
245	0x3d87556b	0.06608089
246	0xbd584d76	-0.052808248
247	0x3dfc5deb	0.12322601
248	0xbd97559c	-0.073893756
249	0xbd45fa4d	-0.04833441
250	0xbd5c36c5	-0.05376317
251	0x3e2efbd9	0.1708826
252	0x391a7f29	0.00014733955
253	0xbd546b1f	-0.05185997
254	0xbe58a13c	-0.21155256
255	0xbccfe6fc	-0.025378697

encoder.2.bias f4 [64]
0	0x3d241d1c	0.040066823
1	0x3d8eca56	0.06972186
2	0x07c59051	2.9726087e-34
3	0x80e132ce	-2.0681212e-38
4	0x3dc4d5f6	0.09611122
5	0x003be2bc	5.499631e-39
6	0x3db24acc	0.087056726
7	0xbd20c400	-0.03924942
8	0x3d343b34	0.044001773
9	0xbc57f408	-0.01318074
10	0x3d855cfc	0.06511876
11	0xbb9bbc8f	-0.0047527025
12	0xbc9e2add	-0.019307548
13	0x8b501bbc	-4.0080208e-32
14	0x3d761493	0.060078215
15	0x015dc01c	4.072912e-38
16	0xbca07220	-0.019585669
17	0x3d8aebd7	0.06783264
18	0x3d59c105	0.053162593
19	0x8003b41e	-3.4012e-40
20	0x80ebf22b	-2.1668215e-38
21	0x01424e44	3.5688325e-38
22	0x0026f5a1	3.577864e-39
23	0x3ca7ab64	0.020467468
24	0x0acec15f	1.9909817e-32
25	0x3d6e6041	0.058197264
26	0xbc6522f7	-0.013985387
27	0xbc48db6a	-0.012259344
28	0xb9355023	-0.00017291358
29	0x806e53a7	-1.0131913e-38
30	0x3d340657	0.04395136
31	0xa6221e71	-5.6246296e-16
32	0x3d333df8	0.04376027
33	0x9f1c4276	-3.308926e-20
34	0x3bce227c	0.006290732
35	0xaf2a0fc4	-1.5467011e-10
36	0xbd253c97	-0.040340986
37	0x3cf0370a	0.02932312
38	0x3e05f853	0.1308301
39	0x3c0b2ba5	0.008494292
40	0x3d5f975b	0.054587703
41	0xbc5bf7dc	-0.0134257935
42	0x3d9f7857	0.07786625
43	0x3d1fea38	0.039041728
44	0x3e144720	0.14480257
45	0xbc6fbb70	-0.014632091
46	0x3daa18f4	0.08305541
47	0x8142c0ec	-3.5770587e-38
48	0x3b9a3457	0.0047059464
49	0x0104648e	2.4316715e-38
50	0x3d7b1e8e	0.061308436
51	0x3ce4eaa6	0.02794392
52	0x3d83b286	0.06430535
53	0x3d803a75	0.0626115
54	0xbd3b28d5	-0.045693237
55	0xbccca850	-0.024982601
56	0x3d41f7a3	0.047355305
57	0x3e19838d	0.14991589
58	0x3db2d2ce	0.08731614
59	0x3daf8da9	0.085719414
60	0x3d986365	0.07440833
61	0xa2408373	-2.609044e-18
62	0x3e048dcf	0.1294472
63	0x3cc49e64	0.024001308

encoder.4.weight f4 [7, 64]
0	0xbe052ad6	-0.13004622
1	0xbe4fb040	-0.20282078
2	0xb63062cf	-2.6283558e-06
3	0xa978c1f3	-5.5235286e-14
4	0x3e11686e	0.14199993
5	0xb635a19c	-2.706517e-06
6	0x3e33ba1b	0.17551462
7	0xbc7fb410	-0.015606895
8	0x3e3993ed	0.18122835
9	0x3e326b01	0.17423631
10	0xbe1aeccb	-0.15129392
11	0x3c95d431	0.018289657
12	0xbda9f4c2	-0.08298637
13	0x2d5815f4	1.2283053e-11
14	0xbd86544f	-0.06559049
15	0x1a9c1cca	6.45666e-23
16	0x3dad5780	0.08463955
17	0x3e1085c7	0.14113532
18	0xbcf86b9b	-0.030324748
19	0xac7697b1	-3.5042908e-12
20	0x12690def	7.353901e-28
21	0x1295f798	9.464259e-28
22	0xb5ddfc23	-1.6539165e-06
23	0xbe8c7c15	-0.27438417
24	0xaa111fa8	-1.288957e-13
25	0x3dbfc6dc	0.09364101
26	0xb980a171	-0.00024534346
27	0x3e622966	0.22086105
28	0xb93a8228	-0.00017786829
29	0xa7972474	-4.195044e-15
30	0x3d79096e	0.06080001
31	0x399304bd	0.00028041555
32	0xbe02ae3b	-0.12761776
33	0xbbb9ff5f	-0.0056761946
34	0xbdf6acef	-0.12044703
35	0xba3b151e	-0.00071366306
36	0xbdd21800	-0.10258484
37	0xbe0794be	-0.13240334
38	0x3e27fefe	0.16405866
39	0xbeb80770	-0.35943174
40	0x3cba3fda	0.022735525
41	0x3dda42e6	0.10657291
42	0x3e05a067	0.1304947
43	0x3e0669f5	0.13126357
44	0xbe1cc6ab	-0.15310161
45	0x3e05ba80	0.13059425
46	0x3dde4ad5	0.10854117
47	0x801d099b	-2.666675e-39
48	0xbe31a0be	-0.17346475
49	0x27150734	2.0681809e-15
50	0xbd50d366	-0.050982855
51	0x3e6b5234	0.22980577
52	0x3c593629	0.013257542
53	0xbe068936	-0.1313828
54	0x3c5a161c	0.013310935
55	0x3d125190	0.035722315
56	0xbe07329e	-0.13202903
57	0xbddd376b	-0.10801586
58	0xbdeec5ca	-0.11658819
59	0xbe86b763	-0.26311788
60	0xbd90fc4d	-0.070793726
61	0xbc23835c	-0.009980049
62	0x3e209efd	0.15685649
63	0xbd6b4e57	-0.057447758
64	0x3cff12a5	0.03113682
65	0xbe189c7a	-0.14903441
66	0x396ad3e8	0.0002239492
67	0x9eea5059	-2.4808945e-20
68	0xbe369e54	-0.17833835
69	0xae9aba77	-7.036232e-11
70	0x3daf7f6b	0.08569225
71	0x3e962e59	0.29332235
72	0xbe00b04b	-0.1256725
73	0xbd822eb8	-0.06356567
74	0x3df77dee	0.12084566
75	0x3d0810e8	0.033219248
76	0x3e3b7394	0.18305808
77	0x2898c7df	1.696207e-14
78	0xbdd425f0	-0.103587985
79	0x9372598e	-3.0588848e-27
80	0x3da3fc78	0.08007139
81	0xbd767d17	-0.06017789
82	0x3dd7327d	0.10507677
83	0xaf223460	-1.4752422e-10
84	0x86850e26	-5.004983e-35
85	0x80490f2c	-6.709434e-39
86	0xb971da72	-0.00023064928
87	0xbe44115e	-0.1914725
88	0xb26641a8	-1.34026905e-08
89	0xbe03eea0	-0.12883997
90	0x3dcc9d13	0.09990897
91	0xbe9e230d	-0.30886117
92	0x38a36618	7.791462e-05
93	0x04be4602	4.4733077e-36
94	0x3e2939de	0.16525981
95	0x34c98874	3.753845e-07
96	0x3d469869	0.048485193
97	0xbc23e3f7	-0.0100030815
98	0x3d83775b	0.064192496
99	0x3b10b5cd	0.0022081018
100	0x3e0a26a5	0.13491304
101	0xbddeaee9	-0.10873205
102	0x3c87e254	0.016587414
103	0x3d54a9fe	0.05191993
104	0x3dba1547	0.090860896
105	0xbe15a965	-0.146154
106	0x3e20f2db	0.15717642
107	0x3ecac934	0.3960663
108	0xbc532d3d	-0.012889204
109	0x3b950ac4	0.0045484025
110	0x3d9e076b	0.077162586
111	0x1984213d	1.3661905e-23
112	0xbdb9c8fe	-0.09071539
113	0xa6acb4bc	-1.1983886e-15
114	0xbe3e0953	-0.18558244
115	0xbd991355	-0.074743904
116	0x3e0af8c4	0.13571459
117	0x3dfea2c0	0.12433386
118	0xbdc2cab8	-0.09511322
119	0x3e868633	0.2627426
120	0xbe939dfb	-0.28831467
121	0x3ca3f2c0	0.020013213
122	0xbe037b59	-0.12840022
123	0x3eccb759	0.39983633
124	0xbe16a941	-0.14713003
125	0xb7b75aba	-2.1857548e-05
126	0x3cec0430	0.02881059
127	0x3d834e18	0.064113796
128	0x3caa53cc	0.02079191
129	0x3e5b9782	0.21444514
130	0xbabc9d5e	-0.0014390161
131	0x9f83d195	-5.582738e-20
132	0xbea8247b	-0.32840332
133	0x341f74da	1.4850539e-07
134	0x3c898fe6	0.016792249
135	0xbc9829b1	-0.018574568
136	0x3de4dba4	0.111747056
137	0x3d637722	0.055533536
138	0x3e7ca556	0.24672446
139	0xbd39e087	-0.04538014
140	0xbe593e50	-0.21215177
141	0x2d181261	8.644281e-12
142	0xbe4a5019	-0.19757117
143	0xaa50f797	-1.8560011e-13
144	0x3e318559	0.17336024
145	0xbda5c78f	-0.080947034
146	0xbdf69351	-0.12039817
147	0x30152704	5.426133e-10
148	0x88ec2c2c	-1.4214118e-33
149	0x80ed570a	-2.1796236e-38
150	0x39546da6	0.00020258743
151	0xbd4f4d4b	-0.05061082
152	0x3013eea0	5.3817395e-10
153	0xbc4af1ea	-0.012386778
154	0xbe3bea13	-0.18351011
155	0x3e0e42d3	0.13892679
156	0x36ac9c4d	5.1441953e-06
157	0x802feaf6	-4.400556e-39
158	0xbe12cb43	-0.1433535
159	0xb921543b	-0.00015385535
160	0xbcc954c5	-0.024576554
161	0xbc15f782	-0.009153249
162	0xbe459a72	-0.19297197
163	0x3b1a3723	0.00235314
164	0xbdd3fb1e	-0.10350631
165	0x3e265d74	0.16246587
166	0x3e25f485	0.16206558
167	0x3ea710e4	0.32630074
168	0xbda362ef	-0.079778545
169	0x3d8a1783	0.06742766
170	0x3de866f3	0.11347761
171	0xbdf56066	-0.11981277
172	0xbd85a0b7	-0.065247945
173	0x3df342eb	0.11877998
174	0x3dd195f4	0.102336794
175	0xb536fd37	-6.816876e-07
176	0x3d980c4e	0.07424222
177	0xae488640	-4.5593973e-11
178	0x3ceb8ec1	0.028754594
179	0xbd43f10a	-0.047837295
180	0xbbd86aff	-0.006604552
181	0x3d87a1f8	0.0662269
182	0xbe199c46	-0.1500102
183	0x3e97f5d0	0.29679728
184	0xbcfa774b	-0.030574461
185	0x3dd33e8f	0.103146665
186	0xbdee7596	-0.116435215
187	0x3db1b9cd	0.08678017
188	0x3dbb95d5	0.091594376
189	0x3c0f8bd2	0.008761363
190	0xbd796b84	-0.06089355
191	0x3e29f407	0.16596995
192	0x3e83cd55	0.25742593
193	0x3e8b8560	0.27250195
194	0x3a0ab243	0.00052908453
195	0x91b545fc	-2.8599896e-28
196	0x3d642966	0.055703543
197	0x33a53008	7.692148e-08
198	0x3dc202d8	0.09473199
199	0xbcfa8284	-0.030579813
200	0x3c8cca63	0.01718635
201	0xbe391f41	-0.18078329
202	0x3da84197	0.08215635
203	0x3e39284b	0.18081777
204	0x3d97959e	0.07401584
205	0xa87b48d4	-1.3949091e-14
206	0x3d7c5312	0.06160266
207	0x19a08966	1.6599107e-23
208	0xbe1453d6	-0.14485106
209	0x3c417282	0.011807086
210	0x3dca88ad	0.0988935
211	0x234ea89f	1.1202989e-17
212	0x0eb1b537	4.3808372e-30
213	0x10fef6ec	1.0056578e-28
214	0x37345ff1	1.0751174e-05
215	0xbe28d6b6	-0.16488156
216	0xb28078c2	-1.4956075e-08
217	0x3ca40893	0.02002362
218	0xbe4e77bf	-0.20162867
219	0xbe27bf95	-0.16381676
220	0xb8bbec42	-8.960861e-05
221	0x1d015f40	1.712225e-21
222	0x3e43b489	0.19111837
223	0xb46a4cc3	-2.1820874e-07
224	0x3dd78c4d	0.10524807
225	0xbbd58621	-0.0065162336
226	0xbe56a32a	-0.2096068
227	0xba52dd9b	-0.0008043886
228	0xbe84fdfc	-0.25975025
229	0xbe6c4adb	-0.2307543
230	0x3e0b7e5d	0.13622423
231	0xbe4ee368	-0.20203936
232	0xbd785bec	-0.06063454
233	0x3d7066eb	0.0586919
234	0xbdce6755	-0.10078303
235	0xbed15aa5	-0.4088947
236	0x3d4d5e7f	0.050138947
237	0x3e591f96	0.21203455
238	0x3d8ba2f7	0.068181925
239	0x327e7067	1.4810303e-08
240	0x3dc4c139	0.09607167
241	0xa8d41574	-2.3546032e-14
242	0x3dc7f063	0.09762647
243	0x3d6c7eb0	0.057738006
244	0x3e1b6e25	0.15178736
245	0x3e587783	0.2113934
246	0xbe1bf5fc	-0.15230554
247	0x3c39c70d	0.011338961
248	0xbd449981	-0.047997955
249	0x3d1e82f6	0.038699113
250	0x3e35bd13	0.17747907
251	0x3d517d8a	0.051145114
252	0x3e0caf2d	0.137387
253	0x38a18196	7.7012155e-05
254	0x3e409359	0.18806209
255	0xbd7c8f72	-0.061660238

encoder.4.bias f4 [7]
0	0xbd9eda96	-0.07756536
1	0x3d95cf1f	0.07314896
2	0xbc9a202c	-0.018814169
3	0x3cf9b14f	0.030480055
4	0xbdbf60ba	-0.09344621
5	0x3d210161	0.039307956
6	0xbc89c367	-0.016816808

decoder.0.weight f4 [64, 7]
0	0x3cc3305a	0.023826767
1	0x3e6f50c5	0.23370655
2	0x3cad5adc	0.02116149
3	0x3db2f07a	0.087372735
4	0xbd32bae3	-0.04363526
5	0x3e328f1e	0.17437407
6	0xbe6dd093	-0.23224096
7	0xbe31d2dc	-0.17365593
8	0x3d500929	0.050789986
9	0x3ef2d430	0.4742751
10	0x3e836ecb	0.25670466
11	0x3e97a598	0.29618526
12	0x3e39c6cb	0.1814224
13	0x3dbef65e	0.093243346
14	0xbdd2ae08	-0.102871
15	0xbebafef4	-0.3652264
16	0xbea26336	-0.31716317
17	0x3d651b72	0.055934377
18	0xbe99345f	-0.29922768
19	0x3e1b6279	0.15174283
20	0xbe7c6688	-0.24648488
21	0xbe2870ae	-0.16449234
22	0xbe03f520	-0.12886477
23	0x3f23c88f	0.63977903
24	0xbed21c1d	-0.41037074
25	0x3da4fe7c	0.080563515
26	0x3e2900f5	0.16504271
27	0xbe81884c	-0.252993
28	0x3ebd6f33	0.369989
29	0xbd193fc6	-0.037414335
30	0xbdb2e165	-0.08734397
31	0x3e79e671	0.24404313
32	0xbee23b21	-0.44185737
33	0x3e4ea326	0.20179424
34	0xbe3a6113	-0.18201093
35	0x3e037e7d	0.1284122
36	0xbe1608d6	-0.14651808
37	0x3d5c8fbd	0.053848017
38	0x3e51ea3b	0.20499508
39	0xbe187c2f	-0.14891122
40	0xbe09e609	-0.13466658
41	0xbe989ee9	-0.2980874
42	0xbe70835b	-0.23487608
43	0xbea8fea4	-0.33006775
44	0x3d407721	0.04698861
45	0x3d6d1cfa	0.057888962
46	0xbedc38e4	-0.43012154
47	0x3e012186	0.12610444
48	0xbe90b236	-0.28260964
49	0x3da1cac0	0.078999996
50	0xbe0573a0	-0.13032389
51	0xbe76fd63	-0.24120097
52	0x3d24cb66	0.04023304
53	0xbe98c6d3	-0.2983919
54	0x3eea6239	0.45778063
55	0x3f2a192c	0.6644466
56	0x3ca764fa	0.020433892
57	0x3d085934	0.033288196
58	0x3f311067	0.69165653
59	0xbda98264	-0.08276823
60	0x3ca53714	0.020167865
61	0xbe9924a1	-0.29910758
62	0x3dd08844	0.101822406
63	0xbe3e3fb6	-0.18578991
64	0x3e1d7eef	0.15380453
65	0x3e4c783e	0.19967744
66	0xbd83be1b	-0.06432744
67	0x3cc8d84b	0.024517199
68	0x3f6a2359	0.91460186
69	0xbdb0a514	-0.08625236
70	0x3e9f6960	0.31135082
71	0xbdd54eab	-0.10415395
72	0xbccd45a1	-0.025057616
73	0x3e95c376	0.29250687
74	0xbeef4164	-0.46729577
75	0x3dc8550d	0.09781847
76	0x3e4ab55a	0.19795743
77	0xbf07f250	-0.53104115
78	0xbecb6936	-0.39728707
79	0x3df4a02a	0.11944611
80	0xbdbc6a3d	-0.09199951
81	0xbefe83ea	-0.49710017
82	0x3e070433	0.13185196
83	0x3e674163	0.22583537
84	0xbe1bb248	-0.15204728
85	0x3e88f702	0.26750952
86	0x3ec8d7d6	0.3922717
87	0xbd96a74f	-0.0735613
88	0xbd98f658	-0.07468861
89	0xbe62a287	-0.22132312
90	0xbeac16e2	-0.33611208
91	0x3e855785	0.26043335
92	0x3eb95d68	0.36204076
93	0x3e16b543	0.14717583
94	0xbc1780c2	-0.009247007
95	0xbeb2c245	-0.3491384
96	0x3e5b056b	0.21388786
97	0xbe48e019	-0.19616736
98	0xbd2784a6	-0.040897988
99	0xbc840d4d	-0.016119624
100	0x3dadff4f	0.08495962
101	0x3e808a83	0.25105676
102	0xbece496e	-0.40290397
103	0x3e48f913	0.19626264
104	0xbeb1dcf7	-0.34738895
105	0x3e219577	0.15779673
106	0xbe56a297	-0.2096046
107	0x3ecb5385	0.39712158
108	0x3ea67d5f	0.32517526
109	0xbc61e1a8	-0.013786711
110	0x3f0523d6	0.52007806
111	0x3e764df5	0.24053176
112	0x3d5afa55	0.05346139
113	0x3ed05de3	0.4069663
114	0xbeb3e775	-0.35137525
115	0x3d8e1b4f	0.069388025
116	0xbddb79c5	-0.10716585
117	0x3cc3b85e	0.023891624
118	0xbe1d41e9	-0.15357174
119	0x3e6907ff	0.22756957
120	0x3ed3c73f	0.4136295
121	0xbc6cc82e	-0.014452023
122	0xbeb23b8f	-0.34811065
123	0x3f055794	0.5208676
124	0x3e0978a3	0.13424926
125	0x3dcdd480	0.10050297
126	0x3da82587	0.08210283
127	0x3ea0f6f1	0.314384
128	0xbda94831	-0.082657225
129	0xbe7c8533	-0.24660186
130	0x3e8c49bf	0.27400014
131	0x3e9ea12d	0.30982342
132	0xbf1cf382	-0.61309063
133	0x3dc48ed0	0.09597552
134	0x3e5334ba	0.20625582
135	0xbe9f7ce0	-0.3114996
136	0xbe9c408f	-0.30518004
137	0xbe67d90e	-0.22641394
138	0xbeb9295c	-0.36164367
139	0xbeb95d7c	-0.36204135
140	0xbb6df42c	-0.0036308868
141	0xbe8e4034	-0.27783358
142	0xbedba0d8	-0.42896152
143	0x3e91d847	0.2848532
144	0x3e8f8e22	0.28038126
145	0xbe34b0c9	-0.17645563
146	0x3ddb1673	0.10697641
147	0xbec426be	-0.38310808
148	0x3e94314f	0.2894387
149	0xbe2c9f74	-0.16857702
150	0x3e309b29	0.17246689
151	0xb9a35bbc	-0.0003115813
152	0xbe64f921	-0.2236066
153	0x3e37f609	0.17964949
154	0xbe4ea367	-0.2017952
155	0x3e3fef98	0.18743742
156	0xbedc6df6	-0.43052644
157	0x3dbc430d	0.091924764
158	0xbdf5c3b3	-0.12000217
159	0x3e36f0c1	0.17865278
160	0x3e318218	0.17334783
161	0xbed227ca	-0.41045982
162	0xbeec46d9	-0.46147802
163	0x3db92fbc	0.09042308
164	0x3ebac288	0.3647654
165	0xbea2b37f	-0.3177757
166	0x3debdfd3	0.115173005
167	0xbd9e51da	-0.07730456
168	0x3e6aad75	0.22917731
169	0xbe7cf545	-0.24702938
170	0xbb476dab	-0.0030430357
171	0xbe43b3b1	-0.19111516
172	0x3eb3aa3f	0.35090825
173	0x3e7bcd0d	0.2458994
174	0xbf0c4b79	-0.5480266
175	0x3c49e3bc	0.0123223625
176	0x3ea096e5	0.31365123
177	0x3dc7d1df	0.097568266
178	0xbe8182f8	-0.25295234
179	0x3d94f0b7	0.07272475
180	0xbe9698c2	-0.2941342
181	0xbc558a42	-0.0130334515
182	0xbe875683	-0.2643319
183	0xbdd4c664	-0.103894025
184	0x3df8f6db	0.12156459
185	0x3e8688e3	0.2627631
186	0x3e253482	0.16133311
187	0xbe7a3e55	-0.2443784
188	0xbd8cac10	-0.06868756
189	0xbd890a47	-0.066914134
190	0xbee737f9	-0.4515989
191	0x3e72d683	0.23714642
192	0xbe99a827	-0.30011103
193	0xbe783c77	-0.24241816
194	0xbe9e77ce	-0.3095078
195	0x3d2f8fc3	0.04286171
196	0xbddeb158	-0.108736694
197	0xbf17363d	-0.59067136
198	0x3e1e1f45	0.15441616
199	0xbe0603b4	-0.1308735
200	0xbe531ad2	-0.206157
201	0x3d8215e3	0.06351831
202	0xbe99761c	-0.29972923
203	0xbe49c1b4	-0.19702798
204	0xbcdf98a3	-0.027294463
205	0xbf034a18	-0.51284933
206	0x3e60dff4	0.21960431
207	0x3dfc80e2	0.1232927
208	0xbbd2e7af	-0.0064363102
209	0xbdecfd11	-0.11571706
210	0x3dc7672d	0.09736476
211	0x3e384f0e	0.17998907
212	0xbe3a5423	-0.18196158
213	0xbda1885a	-0.07887335
214	0x3e3f128a	0.18659416
215	0xbd8ee367	-0.06976967
216	0xbeb8b50d	-0.3607563
217	0x3edfc556	0.43705243
218	0xbf2e7123	-0.6814138
219	0x3e34c077	0.17651545
220	0x3db5cd60	0.08877063
221	0x3e3b5bbc	0.18296713
222	0x3e5c6890	0.21524262
223	0xbd043309	-0.032275233
224	0xbea63a8f	-0.32466552
225	0x3e95fd09	0.29294613
226	0xbea6a55d	-0.32548037
227	0xbe5a2d25	-0.21306284
228	0x3e7c56c4	0.24642473
229	0xbebd4032	-0.3696304
230	0xbe695e4d	-0.22789879
231	0xbe83d8c3	-0.25751314
232	0x3ee150d2	0.44006974
233	0xbc05f70a	-0.0081765745
234	0xbd3370df	-0.043808814
235	0xbef9bab4	-0.48775256
236	0xbe48c1b7	-0.19605146
237	0xbde9eef2	-0.11422528
238	0xbf0dfa94	-0.55460477
239	0x3ee144e7	0.4399788
240	0xbea5d431	-0.32388452
241	0xbe718ee3	-0.23589663
242	0x3d95edc2	0.07320739
243	0x3d5b6a26	0.053568028
244	0x3e1fa391	0.1558974
245	0x3eb2d699	0.3492935
246	0xbe8f8346	-0.2802984
247	0xbf106905	-0.5641025
248	0x3da4d3f3	0.080482386
249	0x3e43a551	0.19106032
250	0xbeb16302	-0.3464585
251	0x3e697103	0.22797017
252	0xbe9daf0e	-0.3079762
253	0xbe6dfbed	-0.23240633
254	0xbdb39743	-0.08769085
255	0x3e464e9f	0.19365929

decoder.0.bias f4 [64]
0	0x3f8fef03	1.1244816
1	0x3e3545c8	0.177024
2	0xbf6c618a	-0.9233633
3	0xbef8006e	-0.48437828
4	0x3f0f207a	0.5590893
5	0x3f4b3402	0.7937623
6	0x3f28ca7e	0.6593398
7	0xbea0a3f5	-0.3137509
8	0xbe33417e	-0.17505452
9	0xbe362372	-0.17786959
10	0xbf39cd1d	-0.72578603
11	0xbe354fc4	-0.1770621
12	0xbf6832ba	-0.907024
13	0xbec7b2dc	-0.39003646
14	0x3dda1a5e	0.106495604
15	0xbec1dc53	-0.37863407
16	0xbf38a4db	-0.7212655
17	0xbf11b00d	-0.5690926
18	0x3e8d4efe	0.2759933
19	0x3e3acbc6	0.18241796
20	0x3e81a536	0.25321358
21	0x3f330237	0.69925255
22	0xbf0f03b7	-0.55865043
23	0xbf0acb1c	-0.5421617
24	0xbbcfa133	-0.006336355
25	0x3f0d08de	0.55091655
26	0x3fb3eda3	1.4056896
27	0x3d87110f	0.065950505
28	0xbf385df4	-0.7201836
29	0xbe2e1c0c	-0.17002887
30	0x3e0ec478	0.13942134
31	0xbec3325a	-0.38124353
32	0x3eb83dab	0.3598455
33	0x3f50074b	0.8126113
34	0xbece64f7	-0.40311405
35	0xbde9a35b	-0.11408111
36	0xbedd239e	-0.43191236
37	0xbf435512	-0.7630168
38	0x3f1e0128	0.61720514
39	0x3f695d8c	0.91158366
40	0xbf2b2344	-0.66850686
41	0xbefbe62e	-0.4919905
42	0xbe5ec306	-0.21754083
43	0xbf10a3ab	-0.5649974
44	0xbf1fde92	-0.6244899
45	0xbd2f1d37	-0.04275247
46	0xbf01a191	-0.50637156
47	0xbdec4342	-0.11536266
48	0x3f2ebe8f	0.6825952
49	0xbe8fc8c3	-0.28082857
50	0xbed0efff	-0.40808102
51	0xbecfdbc0	-0.40597343
52	0xbeaa081c	-0.33209312
53	0x3f460926	0.7735771
54	0xbea7e3e3	-0.3279105
55	0xbdc5759b	-0.09641572
56	0xbf25f80b	-0.6483161
57	0x3f5f5d60	0.87251854
58	0xbee750f1	-0.4517894
59	0x3ec5a39c	0.38601387
60	0x3f221fb3	0.6332962
61	0xbdfc9d08	-0.12334639
62	0xbea33a25	-0.31880298
63	0x3df76397	0.12079542

decoder.2.weight f4 [128, 64]
0	0xbd7120c2	-0.05886913
1	0x3d921550	0.07132971
2	0x3de1b00d	0.11019907
3	0xbdbb9c21	-0.091606386
4	0xbe141f21	-0.14465
5	0x3d9bbff9	0.07604975
6	0xbd13ad78	-0.036054105
7	0x3db6269f	0.08894085
8	0x3d984c30	0.074364066
9	0xbcc81982	-0.024426226
10	0x3c71b935	0.014753629
11	0xbe7cc568	-0.2468468
12	0x3e2a59b5	0.16635783
13	0x3d33e176	0.04391619
14	0xbc4d8bee	-0.012545569
15	0xbd7e9906	-0.062157653
16	0x3c708e11	0.014682309
17	0x3d8d9b82	0.069144264
18	0xbe16a4da	-0.14711323
19	0xbd8936d5	-0.066999115
20	0x3e151e4a	0.14562336
21	0x3cc01137	0.023445709
22	0xbd8d5796	-0.06901471
23	0xbdacb55b	-0.08433028
24	0xbbc9c1c6	-0.006157133
25	0xbcdcf908	-0.026974216
26	0x3e0e651f	0.13905762
27	0xbda37e1c	-0.07983038
28	0x3ebe2239	0.37135485
29	0x3e6eb19d	0.23309942
30	0xbd06d210	-0.032915175
31	0xbddbe98a	-0.107379034
32	0xbd82ff83	-0.06396391
33	0xbc2eef8b	-0.010677229
34	0x3d88bf55	0.06677119
35	0xbacabcc6	-0.0015467636
36	0x3dac37f0	0.08409107
37	0xbd8569c2	-0.06514312
38	0x3dccfc4c	0.10009059
39	0xbbff62b9	-0.007793751
40	0xbd3801a7	-0.04492345
41	0x3dd68902	0.10475351
42	0x3cc7c9b4	0.024388172
43	0x3d48cf9b	0.049026113
44	0x3e1b2b93	0.15153341
45	0xbb838b88	-0.004014436
46	0xbd21113a	-0.03932307
47	0xbb590b0a	-0.0033118152
48	0xbc35acd5	-0.01108857
49	0xbd2be4d6	-0.04196628
50	0xbc0893f8	-0.00833606
51	0xbc356dc3	-0.0110735325
52	0x3d8098d0	0.06279147
53	0xbd73b552	-0.059499092
54	0xbdf4eb16	-0.119589016
55	0xbdf65c72	-0.12029351
56	0x3b8fabf0	0.00438451
57	0xbd39b317	-0.04533681
58	0xbc53060a	-0.012879858
59	0xbd0a1d32	-0.03371925
60	0xbde5c55e	-0.112192854
61	0x3ddb6f93	0.107146405
62	0x3e27efdc	0.16400093
63	0x3d9a64fb	0.07538792
64	0xbd1db9ca	-0.03850726
65	0x3d799649	0.06093434
66	0x3c421b19	0.011847281
67	0x3d985260	0.07437587
68	0x3d62d858	0.055382103
69	0x3d096a76	0.033548795
70	0x3cd244d6	0.02566759
71	0x3db7024f	0.08935987
72	0x3c4ead2e	0.012614531
73	0x3cc4a033	0.02400217
74	0x3e5974b8	0.21235931
75	0x3c27f877	0.01025211
76	0x3e50f8ea	0.20407453
77	0x3d6f8c0c	0.05848317
78	0x3b9b2ee2	0.0047358135
79	0x3d6ca345	0.057772893
80	0xbd056776	-0.03256937
81	0xbd0dd093	-0.03462274
82	0xbdece3bb	-0.11566874
83	0xbdba93d5	-0.09110228
84	0x3ca0ff8f	0.01965311
85	0x3cd7f6de	0.026362833
86	0x3b1e1187	0.0024119334
87	0x3d38a3fd	0.045078266
88	0xbdfc1819	-0.12309284
89	0xbe00fc3c	-0.1259622
90	0xbcac40fb	-0.021027079
91	0xbd92dbac	-0.07170805
92	0x3d8e789e	0.069566
93	0xbd47a68b	-0.048742812
94	0x3c948a00	0.01813221
95	0xbe57c531	-0.21071316
96	0x3d2249bf	0.03962111
97	0xbc9bcd76	-0.01901887
98	0xbac92b0d	-0.0015347913
99	0xbd43183e	-0.04763054
100	0xbe540386	-0.20704469
101	0x3d03b469	0.032154474
102	0xbdde3591	-0.10850061
103	0x3c130514	0.008973379
104	0xbcd77826	-0.026302408
105	0x3d0b05b5	0.03394099
106	0xb9cd5b64	-0.00039168738
107	0x3c8ea3ec	0.017412148
108	0x3d63cfe8	0.055618197
109	0x3db90b2e	0.090353355
110	0x3dceff35	0.10107271
111	0x3e2a2c86	0.16618547
112	0xbd6cd0c8	-0.057816297
113	0xbe50d091	-0.20392062
114	0x3c8b7b49	0.01702656
115	0x3d325455	0.043537457
116	0xbd8b45cd	-0.06800423
117	0xbda5274e	-0.080641374
118	0xbe143c9a	-0.14476243
119	0xbcb6508e	-0.022255208
120	0x3dc257fd	0.09489439
121	0x3d8f0e01	0.06985093
122	0x3e43ea39	0.19132318
123	0x3d9fa21a	0.0779459
124	0x3aab3aec	0.0013063825
125	0xbd3bfe34	-0.045896724
126	0x3de06177	0.1095609
127	0x3e649d07	0.22325526
128	0x3d21fda3	0.039548527
129	0xbd60f394	-0.054919794
130	0x3dde4764	0.108534604
131	0x3b306fd7	0.002692213
132	0xbcdd81d6	-0.02703945
133	0xbd932744	-0.07185224
134	0xbd227446	-0.03966167
135	0xbd2fbf83	-0.04290725
136	0x3c8ad2e1	0.016946258
137	0xbc436423	-0.01192573
138	0xbda78680	-0.08179951
139	0x3e126740	0.14297199
140	0x3d889bb5	0.06670324
141	0xbe606f3a	-0.2191743
142	0xbcd864af	-0.026415197
143	0xbcab5be5	-0.020917842
144	0xbd6589eb	-0.056039732
145	0xbe451948	-0.19247925
146	0xbe3c476c	-0.1838662
147	0x3d7fce7d	0.062452782
148	0xbda5767c	-0.0807924
149	0x3e6781b8	0.22608078
150	0xbdee2ff0	-0.11630237
151	0xbd87001f	-0.0659182
152	0x3d4f8c20	0.050670743
153	0xbc773b65	-0.015089844
154	0xbd869bc1	-0.065726765
155	0xbe81f5b6	-0.25382775
156	0x3d3b5d27	0.045743134
157	0xbcb9f0a2	-0.02269775
158	0xbdd46ce7	-0.10372334
159	0x3d3f1f59	0.046660755
160	0x3d764f62	0.0601343
161	0x3e53f134	0.2069748
162	0xbc2366e5	-0.009973262
163	0xbe4f7c46	-0.2026225
164	0xbd4a8134	-0.049439624
165	0x3daeeb8c	0.08541021
166	0x3d34b3d6	0.044116817
167	0xbdfe20c4	-0.12408593
168	0x3d00d38f	0.031451758
169	0x3d83458f	0.064097516
170	0x3cba25c9	0.022723095
171	0xbc9de588	-0.019274488
172	0x3d31c207	0.04339793
173	0xbdaf6a15	-0.085651554
174	0x3e5cf9db	0.21579687
175	0xbd6ec08a	-0.05828909
176	0xbdc564a2	-0.09638335
177	0x3e4f2869	0.20230259
178	0x3c6af7a5	0.01434127
179	0x3c3f0d35	0.011660864
180	0xbe97905f	-0.29602334
181	0xbc5e66a1	-0.013574273
182	0xbda9ece4	-0.082971364
183	0x3c835204	0.016030319
184	0x3e1d2378	0.15345562
185	0x3c998814	0.018741645
186	0xbd197c28	-0.03747192
187	0x3dff6b9b	0.12471696
188	0x3e0a6834	0.13516313
189	0x3e0c9395	0.13728173
190	0x3e107a68	0.14109194
191	0xbde9f680	-0.11423969
192	0xbdc4cdbb	-0.096095525
193	0xbdfdca60	-0.123921156
194	0x3c7dd5a0	0.015492827
195	0x3d08d0e8	0.033402354
196	0x3d8eab30	0.06966245
197	0xbd24e011	-0.04025275
198	0xbe1b5c8b	-0.15172021
199	0xbe8af3aa	-0.27139026
200	0x3c6f879c	0.014619734
201	0xbe490109	-0.19629301
202	0x3d99a2bc	0.07501742
203	0xbd83a7ca	-0.064284876
204	0x3da46ba1	0.08028341
205	0x3e32ec26	0.17472896
206	0x3ca079ce	0.019589331
207	0x3ea1c345	0.3159429
208	0xbcd69889	-0.026195781
209	0x3dadd2f6	0.08487503
210	0x3c966f6d	0.018363679
211	0x3d8b8cb4	0.06813946
212	0x3e84f41f	0.259675
213	0xbcca0452	-0.024660263
214	0xbdb28155	-0.087160744
215	0x3dc45abe	0.0958762
216	0xbe70f0b7	-0.23529325
217	0x3dce616d	0.10077176
218	0x3d55cc13	0.052196573
219	0xbd4de817	-0.050270166
220	0x3ded6b67	0.11592751
221	0x3e094526	0.13405284
222	0xbe2d6d08	-0.16936123
223	0xbcafd626	-0.021464419
224	0x3e2f4154	0.17114764
225	0x3c2480b4	0.010040451
226	0xbd8b87bc	-0.06812999
227	0x3bd5c4fe	0.0065237274
228	0xbd8bc2b4	-0.06824246
229	0xbd802d6b	-0.06258663
230	0xbca30565	-0.019900033
231	0xbd836736	-0.0641617
232	0xbd6ead8c	-0.058270976
233	0xbe2c81ea	-0.16846433
234	0x3e028732	0.12746885
235	0x3cbd7074	0.02312491
236	0xbd921230	-0.07132375
237	0x3dffec5a	0.12496252
238	0xbe087db5	-0.13329203
239	0xbd8c2abd	-0.06844089
240	0x3d965f3b	0.073423825
241	0xbdcab5be	-0.09897946
242	0xbbc39d41	-0.005969674
243	0x3d4a0d15	0.049328882
244	0x3de401f3	0.11133184
245	0x38b95918	8.8380824e-05
246	0xbe960d91	-0.29307225
247	0xbdaa2e56	-0.08309619
248	0xbca024c8	-0.019548789
249	0x3e016edc	0.12639946
250	0xbd7eaba2	-0.0621754
251	0x3db6e7fd	0.08930967
252	0xbe28632a	-0.16444078
253	0x3d806af3	0.06270399
254	0xbd9c3423	-0.07627132
255	0xbd85229c	-0.06500742

decoder.2.bias f4 [128]
0	0x3e5dbc7d	0.21653934
1	0xbe84bf3a	-0.25927144
2	0x3d32676a	0.043555655
3	0xba5eefe2	-0.0008504373
4	0x3e5ea5ce	0.21742937
5	0xbf165121	-0.5871754
6	0x3ee35150	0.44397974
7	0xbd3cc345	-0.04608466
8	0x3e3cbda8	0.18431723
9	0xbe1892c3	-0.14899735
10	0x3e7f5c6c	0.249376
11	0xbf117121	-0.56813246
12	0x3f1c6198	0.61086416
13	0xbf51483d	-0.8175085
14	0x3f37e18e	0.71828544
15	0x3eb411fa	0.35169965
16	0xbdb517d0	-0.088424325
17	0x3eb85fac	0.36010492
18	0xbb1cc81f	-0.0023922992
19	0x3e46c0c4	0.19409472
20	0xbd8a3987	-0.06749254
21	0xbeade512	-0.3396383
22	0xbebf6e87	-0.37389013
23	0x3e1b35ce	0.15157244
24	0xbef49e89	-0.47777203
25	0x3f360baf	0.7111158
26	0xbe51c116	-0.20483813
27	0x3e6d06b4	0.23147088
28	0x3aefe909	0.0018303703
29	0x3e42899d	0.18997808
30	0xbe88254f	-0.26590964
31	0xbe493258	-0.19648111
32	0xbe3313c0	-0.17488003
33	0x3df10079	0.11767668
34	0xbe15f305	-0.14643486
35	0x3edbe461	0.42947677
36	0xbc850754	-0.016238846
37	0x81410c66	-3.5457397e-38
38	0xbe16f241	-0.1474085
39	0xbe85db8f	-0.26144072
40	0x3e640178	0.22266185
41	0xbe8b6b93	-0.2723051
42	0xbd95ca18	-0.07313937
43	0x3ddb97cf	0.107223146
44	0x3f55c07b	0.83496827
45	0xbe3d5916	-0.18491015
46	0x3e483617	0.19551884
47	0x3cb2c164	0.021820731
48	0xbf4464ac	-0.76716113
49	0x85870fc0	-1.2701125e-35
50	0x3d64f677	0.05589911
51	0xbf2e0acc	-0.67985225
52	0x3e59f48d	0.21284695
53	0x3e2e0fd5	0.16998227
54	0xbe0081f4	-0.12549573
55	0x813f2b00	-3.511201e-38
56	0x3e09c7d6	0.13455138
57	0x3d464ee4	0.04841508
58	0xbf16f6f6	-0.5897058
59	0xbc8edbc3	-0.017438775
60	0xbea98ec5	-0.33116737
61	0xbf229beb	-0.6351916
62	0x3df0ec42	0.117638126
63	0xb83ef341	-4.5526078e-05
64	0x3d8efaf8	0.06981462
65	0x3c0e9cca	0.008704374
66	0x8187a127	-4.982241e-38
67	0x3eb91f1a	0.3615654
68	0x3e5e4837	0.21707235
69	0x936305fc	-2.8654379e-27
70	0xbf13c0e5	-0.5771621
71	0x3ec769a5	0.38947788
72	0xbe81eb4a	-0.25374824
73	0xbe029d7f	-0.12755392
74	0xbdb4a8ad	-0.08821235
75	0xbdd6ffe0	-0.10498023
76	0x3d3220e1	0.043488387
77	0xbcbb40b3	-0.022858
78	0xbd184429	-0.037174378
79	0xb96121c0	-0.00021470245
80	0x3d17038e	0.036868624
81	0x3e3abd77	0.18236338
82	0x3dc94d13	0.09829154
83	0x3e84fc4c	0.25973737
84	0x3e9108ae	0.28326935
85	0x3ea16f14	0.31530058
86	0x3ccbdfe3	0.024887031
87	0x3df15158	0.11783093
88	0xbeb7e425	-0.35916248
89	0xbe4f7cd5	-0.20262463
90	0x3e1037f5	0.14083846
91	0xbe36408e	-0.17798063
92	0x3c05819a	0.008148575
93	0x3ec94083	0.3930703
94	0xbe9c19d4	-0.30488455
95	0xbead8ec7	-0.33897993
96	0xbecfc76c	-0.40581834
97	0xbe6b6453	-0.2298749
98	0x3e1cc5d7	0.15309845
99	0xbe9537df	-0.2914419
100	0xbe342273	-0.17591266
101	0x3d8a5ad7	0.067556076
102	0x81a42bb9	-6.0306824e-38
103	0x3e619b35	0.22031863
104	0xbe1e0c67	-0.15434419
105	0x3f009abc	0.50236106
106	0xbe3943d1	-0.18092276
107	0xbefc3127	-0.4925625
108	0xbefa74bb	-0.48917183
109	0x3d4a4c11	0.04938895
110	0xbda7291e	-0.08162139
111	0x3e442085	0.1915303
112	0x3d14faaa	0.036371864
113	0xbeed8bff	-0.4639587
114	0xbe1b5458	-0.15168893
115	0xbf34f1f5	-0.706817
116	0xbd859526	-0.065225884
117	0x3ee7feed	0.4531168
118	0x3c838dee	0.016058888
119	0x3d913a7c	0.07091233
120	0x3c08f180	0.008358359
121	0xbec0640a	-0.37576324
122	0xbdf7d109	-0.12100417
123	0x3e559daf	0.20860933
124	0xbea097ed	-0.3136591
125	0xbdea46d2	-0.11439289
126	0x3ea4af49	0.32164982
127	0xbde9cffd	-0.11416624
