day3/solutions/simple_autoencoder/simple_autoencoder_10.pt (torch_old, 880209 bytes, 12 tensors)

encoder.0.weight f4 [128, 784]
000000 9c ed e2 bc 69 6d ef bc df 12 0c bd 53 24 ec bc
       -0.027701192 -0.029226976 -0.034197684 -0.028825914
000010 de 45 0a bd 58 38 e2 bc cd 09 0c bd 63 62 01 bd
       -0.033758037 -0.027614757 -0.034189034 -0.03158797
000020 34 6a 08 bd d0 6f 0e bd c4 78 ff bc 05 8d e4 bc
       -0.03330441 -0.0347746 -0.031185515 -0.027899275
000030 b3 7a 01 bd e1 ac 00 bd 91 88 c0 bc b0 06 dd bc
       -0.031611156 -0.03141487 -0.02350262 -0.026980728
000040 78 54 0b bd 69 5f e8 bc fb 0b 03 bd 62 4c 0c bd
       -0.034016103 -0.028365808 -0.031993847 -0.03425253
000050 d9 91 01 bd 84 fa 06 bd 19 a3 f9 bc d5 8a 0e bd
       -0.03163323 -0.032953754 -0.030473279 -0.03480037
000060 ca 3d 00 bd 81 a9 ef bc 4e ed 08 bd fc f6 05 bd
       -0.031308927 -0.02925563 -0.033429436 -0.032706246
000070 74 91 12 bd 9d f0 e6 bc c1 e4 03 bd d0 0f 03 bd
       -0.035783246 -0.028190905 -0.03220058 -0.0319975
000080 b5 18 f8 bc e2 2b 09 bd 4f 28 eb bc b0 dd d2 bc
       -0.030285219 -0.033489116 -0.028705744 -0.025740474
000090 2c 11 07 bd 5f 72 01 bd 44 c2 1d bd 28 04 02 bd
       -0.03297536 -0.031603213 -0.038515344 -0.031742245
0000a0 dd 4c e3 bc 07 da d9 bc 13 a7 19 bd 21 c1 e2 bc
       -0.027746612 -0.026593221 -0.03751285 -0.027679982
0000b0 a4 80 30 bc 5d d3 e6 bc 6f be 0c bd 48 44 f7 bc
       -0.010772858 -0.028176958 -0.0343613 -0.030183926
0000c0 37 5a 01 bd c8 7d 0b bd cb 23 ea bc b3 56 d7 bc
       -0.031580176 -0.0340555 -0.02858152 -0.026286459
0000d0 aa 96 e7 bc 18 b7 09 bd cd ee 06 bd 80 a5 0d bd
       -0.028270084 -0.033621877 -0.032942582 -0.03458166
0000e0 9d 4f 07 bd 64 ad e6 bc f1 7e f1 bc fc 2f ef bc
       -0.03303491 -0.028158851 -0.029479476 -0.029197685
0000f0 b6 a3 06 bd f4 3a 09 bd dc ed cb bc 38 4a c1 bc
       -0.03287097 -0.033503488 -0.024893694 -0.02359496
000100 94 50 eb bc 63 2d 96 bc 1c 73 e1 bc 72 57 fc bc
       -0.028724946 -0.018332189 -0.027520709 -0.030803416
000110 9b 03 af bc e2 b8 af bc 8b f1 5b bc 76 f4 fb bc
       -0.021364024 -0.021450464 -0.013424288 -0.030756216
000120 8b 68 ce bc 07 cc 8b bc 2c 3a 05 bd 77 1e 02 bd
       -0.025196334 -0.017065061 -0.03252618 -0.031767335
000130 cd cc a6 bc 62 72 26 bc 88 88 94 bc 72 80 6f bc
       -0.020361328 -0.010159107 -0.01813151 -0.014618026
000140 0b aa ba bc 8d e6 f0 bc 64 e3 12 bd 86 0e fc bc
       -0.02278616 -0.02940681 -0.035861388 -0.030768644
000150 70 0a e0 bc 5b 83 fc bc 5c 4b 0a bd 65 ed 10 bd
       -0.027348727 -0.030824354 -0.033763275 -0.035382647
000160 23 5d f5 bc 93 68 a3 bc ea 52 8b bc 6a be a5 bc
       -0.029951638 -0.019947326 -0.01700731 -0.020232398
000170 65 a8 6e bc f0 bb a7 bc 3f 4c cf bb 38 ee a3 3b
       -0.014566516 -0.020475358 -0.006326228 0.005002763
000180 93 37 13 bb ed aa 8c bc 09 f0 b0 3c 9d db 86 3c
       -0.0022463545 -0.017171348 0.021598833 0.016462142
000190 64 d8 71 3c 9e bc 9b 3c ce b0 48 3c 14 fc 8f 3c
       0.014761064 0.019010838 0.012249185 0.017576255
0001a0 76 9e 35 3d e4 55 1a 3d bd 4d b6 3c ef bf 56 3b
       0.044340573 0.037679568 0.022253865 0.003276821
0001b0 b5 32 a2 3a 2c 4a b0 bc ae 70 f3 bc 60 e0 0c bd
       0.0012374731 -0.021519743 -0.029716816 -0.03439367
0001c0 ab 6f ff bc 64 8e 02 bd 07 2a d4 bc 20 66 03 bd
       -0.031181177 -0.031874076 -0.025898946 -0.032079816
0001d0 fe b3 da bc 9b f9 f7 bc 84 92 41 bc a9 35 4a bc
       -0.026697155 -0.030270388 -0.011814717 -0.012341895
0001e0 54 3c fd bc 42 7a 0f bd d2 90 c0 bc f5 58 f8 bc
       -0.030912556 -0.035028704 -0.023506556 -0.030315856
0001f0 01 81 02 bd 0d 04 13 bd 55 14 03 bb c1 58 fa 3c
       -0.03186131 -0.035892535 -0.0020001133 0.0305599
000200 28 14 87 3d 87 7f a3 3d b0 29 d2 3d 00 f8 8a 3d
       0.065956414 0.07983308 0.102618575 0.067855835
000210 0c 9f 94 3d e3 e2 b2 3d e8 1e 83 3d c4 26 c0 3c
       0.07256898 0.087346815 0.06402379 0.023455985
000220 4f d2 a2 3b 4c a4 4c bc ee 43 10 bc 07 8e f9 bc
       0.0049689184 -0.012490343 -0.008805258 -0.030463232
000230 aa 13 10 bd 54 b0 fe bc 57 f7 0a bd c1 2f d8 bc
       -0.035175003 -0.03108994 -0.033927288 -0.026389958
000240 f2 72 50 bc 9e 6a c1 bb 14 d2 0b 3c 07 e3 a0 ba
       -0.012722718 -0.0059026023 0.008533973 -0.0012274691
000250 ae ff bd bc 08 b9 a3 bc 4a 1e 1e bd 50 91 68 bb
       -0.023193207 -0.01998569 -0.038603105 -0.0035487004
000260 f6 42 32 3c c3 ca ed bc 6d 5c 76 ba 7c 9c 10 3d
       0.010880223 -0.029027348 -0.0009397928 0.035305485
000270 e0 d4 b6 3c 7c 5f 19 3d cd 77 17 3d cb 8f 60 3d
       0.022318304 0.037444577 0.036979485 0.05482463
000280 28 67 a6 3d ce c3 94 3d ed cf 93 3d c7 65 16 3d
       0.08125144 0.07263909 0.07217393 0.036718156
000290 a7 b1 37 3c 4b 5f 35 bc 72 fc 96 bc 74 2d f8 bc
       0.011211789 -0.011070083 -0.018430922 -0.030295111
0002a0 d4 28 e0 bc f9 ce de bc 3d 51 08 bd 93 70 db bc
       -0.027363218 -0.027198302 -0.0332806 -0.026787078
0002b0 c1 13 82 3a 93 c7 08 3d cb fa 02 3d 02 7b ad 3c
       0.00099241 0.033393454 0.031977456 0.021176819
0002c0 a8 bb 87 bc 3d f1 6a bc 32 c9 0e 3c a2 fc ba 3c
       -0.016568974 -0.014339742 0.008714961 0.022825543
0002d0 a9 5b fb 3c 95 6e 99 3b 30 35 23 bc df 3c b5 3c
       0.030683355 0.004682372 -0.009961411 0.022123752
0002e0 b0 ec fb bc 26 08 0a bd a6 89 69 bb ff 0f 8d 3c
       -0.03075251 -0.033699177 -0.0035635023 0.017219542
0002f0 ae 04 7d 3d 79 6c 82 3d ba 7e b3 3d 42 dd 5f 3d
       0.06177204 0.06368346 0.087644055 0.054654367
000300 50 34 ba bb 7b 12 c9 bc 47 c8 d7 bc e2 d3 da bc
       -0.0056825057 -0.024544945 -0.026340617 -0.026712362
000310 21 aa e5 bc 23 db e9 bc 19 2a b6 bc 6e 75 83 bc
       -0.028035225 -0.028546875 -0.02223687 -0.016047206
000320 2b 20 a4 3b 75 35 f3 3c b8 58 36 3d 25 16 10 3d
       0.0050087175 0.029688576 0.044518203 0.03517737
000330 e0 9e 03 3d 99 15 f2 3c 9a c3 f5 3c 5e 6a 0f 3d
       0.032133937 0.029551314 0.030000497 0.03501355
000340 01 c9 77 3d 30 1b fc 3c 1d 30 eb 3c 44 9c cc bb
       0.060494427 0.030774683 0.028709466 -0.0062442143
000350 0c 55 2f 3b 06 13 60 bc 92 cc 66 bc 2e 96 1e 3b
       0.0026753573 -0.013676411 -0.014086859 0.00241984
000360 eb 65 88 3d d4 42 69 3d 5c d8 14 3d 33 2c 2f bc
       0.06660064 0.056948498 0.03633915 -0.01069169
000370 2d 45 1d bc 24 0e b6 bc 5d f7 06 bd 19 18 e9 bc
       -0.009599012 -0.02222354 -0.032950748 -0.028453873
000380 69 23 f6 bc 0d 74 1e bd 6e 71 b3 bc 46 1e 84 bc
       -0.030046182 -0.038684893 -0.021904673 -0.016127717
000390 68 12 88 3c b4 77 4f 3c 77 05 c9 3c da 6b 40 3d
       0.01661034 0.012662817 0.024538739 0.046977855
0003a0 e1 a1 7b 3c 08 87 f9 3c ef 9b 78 bb 77 d0 9c 3c
       0.015358419 0.030459896 -0.003793474 0.019142373
0003b0 34 57 bf 3c 20 80 eb 3c 69 a6 a3 3a 98 90 b4 3c
       0.023357011 0.028747618 0.0012485507 0.022041604
0003c0 7d 8c 4e 3c 85 0b d2 bc 34 a5 97 bc 34 73 f8 bc
       0.012606737 -0.025640259 -0.018511392 -0.03032837
0003d0 70 72 a4 3b ff 37 83 3c 33 ba 3c bc c6 4b a0 bd
       0.005018525 0.016017912 -0.011519003 -0.07826953
0003e0 c8 1c be bd a7 d3 55 bd e8 72 be bb 9a 98 d2 bc
       -0.09282833 -0.0522038 -0.0058120377 -0.025707532
0003f0 8d 20 e3 bc 63 42 24 bd 93 39 71 bc 3f c6 1f bc
       -0.027725482 -0.040102374 -0.014723199 -0.009751855

encoder.0.bias f4 [128]
000000 ac b8 6b 3d 67 b0 99 3c e1 c9 2f bc c9 5c 58 ba
       0.057549164 0.018760873 -0.010729284 -0.0008253572
000010 70 e0 77 b9 2a c0 5e 3d 9d d4 21 3d 5a 13 c1 3c
       -0.00023639365 0.05438248 0.039509404 0.023568798
000020 1b 74 19 3d f0 f8 96 bb 40 7a 06 bc 83 24 a8 3c
       0.037464242 -0.0046073124 -0.008207858 0.020525223
000030 15 b3 0a 3d 2d 59 be 3c 7e 5e 2a bd 95 5e 35 3d
       0.033862192 0.023235882 -0.04159402 0.044279654
000040 17 a0 e5 3c 15 a7 4b 3c e1 49 fa 3c ac e0 9a bc
       0.028030438 0.012429972 0.030552806 -0.01890596
000050 0d bd f9 bc c6 81 29 bd 44 b8 2c bc 17 49 6f 3c
       -0.030485654 -0.041383527 -0.010541979 0.014604828
000060 41 dc 15 3d 7e 97 3b 3d 86 88 45 bc 9a c5 4e bb
       0.036587004 0.04579877 -0.0120564755 -0.0031550885
000070 3e 71 ce 3c da 89 d5 3c b4 da 7a 3c b5 5b ad 3c
       0.025200482 0.02606671 0.015310932 0.021161893
000080 3b ff 93 3c 14 64 66 3c 09 06 93 3b a2 34 1b 3c
       0.01806604 0.014061946 0.0044868034 0.009472998
000090 c2 01 2e 3d a6 b2 29 3d c2 60 42 bc 73 0d 2a bb
       0.042482145 0.041430138 -0.011863889 -0.0025947958
0000a0 8d b8 a7 3c 04 40 83 bc d3 13 b8 3b 0f 34 0c bc
       0.020473743 -0.016021736 0.0056175976 -0.008557334
0000b0 8e b7 51 3c cc d5 08 3c 68 63 f8 3c 63 40 6a 3c
       0.0128001105 0.008351754 0.030320838 0.014297578
0000c0 28 91 99 3d f9 ef 35 bb e2 7e 15 bc 24 47 02 3d
       0.074983895 -0.0027761443 -0.0091244895 0.031806126
0000d0 7e 76 8d 3c 1c 07 30 bc 70 5a 31 bd c2 5a d0 3c
       0.017268416 -0.0107438825 -0.04329914 0.025433902
0000e0 f0 fb a5 3d ed 13 48 bb 20 13 38 3d bb 38 c6 bb
       0.08104694 -0.0030529455 0.044940114 -0.0060492433
0000f0 97 04 17 3d 62 f7 39 bb 5b 8d f2 3c 72 3b 08 3d
       0.03686961 -0.0028376211 0.02960842 0.033259816
000100 c5 f2 6d 3c a3 dd 97 3b a2 9a b4 bc bf ad a1 bc
       0.014523213 0.0046345755 -0.02204639 -0.019736169
000110 58 27 eb bc 50 50 f3 3c 22 11 c9 3c 54 59 94 3c
       -0.028705284 0.029701382 0.024544302 0.018109001
000120 3d 00 5a 3d 8d cd 9f 3c bc d7 96 bc c2 b6 81 bb
       0.053222883 0.019507194 -0.018413417 -0.003958554
000130 c4 9d bc bb 83 cc 3c 3c a8 7c 82 3d 4c 6d f3 38
       -0.005756112 0.011523369 0.063714325 0.00011607501
000140 c3 16 8c 3b ca 4b 90 3c 6e 98 cb 3c eb 3f a8 bb
       0.0042751743 0.017614264 0.024852958 -0.0051345727
000150 0a 93 8c bc a5 c7 2d bc 01 5a c0 3c 1b bd a8 3a
       -0.017159957 -0.010606681 0.023480417 0.0012873741
000160 a4 6c d5 3c b2 0d 43 3b ca b2 fb 3b 6e e7 df 3b
       0.02605278 0.0029762802 0.0076812254 0.0068330085
000170 6f 39 2f 3d 91 6c 7d 3c 9f e6 bc bb f0 9a 4a bc
       0.042779382 0.015467779 -0.005764797 -0.012366042
000180 21 d3 44 3c 3f af 83 bc 29 58 0d 3c 5d 6e 46 3c
       0.012013228 -0.016074775 0.008626976 0.012111274
000190 43 0e 92 bb db 88 c9 3b 4d cc 12 3d 74 36 93 3c
       -0.0044572665 0.0061503476 0.035839368 0.017970301
0001a0 5f 1e c7 bc 8c aa 49 bc 2f fe c5 bb 99 24 07 bd
       -0.024306474 -0.012308728 -0.006042264 -0.032993887
0001b0 85 64 32 3c a7 f1 a0 bc 85 88 b2 ba 86 e5 02 3d
       0.010888224 -0.019646479 -0.0013621008 0.03195717
0001c0 00 1d 4f 3d a8 cc 12 3c bd 72 01 3c 66 de 12 3d
       0.050564766 0.008959927 0.007900891 0.035856627
0001d0 be 2b 06 3d 2d 08 96 3c 16 56 87 3c 30 d1 be ba
       0.03275656 0.018314445 0.016520541 -0.0014558192
0001e0 90 4b 68 3c d1 fa 71 3d 02 f2 1a bb f5 1b fa 3c
       0.014178172 0.059077088 -0.0023642783 0.03053091
0001f0 63 be b0 bb a6 e1 13 bc 86 2c 33 bc 85 d6 a2 3c
       -0.0053937896 -0.009025967 -0.010935908 0.019877682

encoder.2.weight f4 [64, 128]
000000 10 91 31 bd c3 b5 05 3c 2a 73 a1 ba e3 56 4b 39
       -0.043351233 0.008161011 -0.0012317647 0.00019391956
000010 33 21 18 3a bd 6b 8b 3d 8d b7 b0 3d 74 b8 94 3b
       0.0005803287 0.06807659 0.086287595 0.00453859
000020 99 9b 1c 3d 71 74 39 bc 14 ed 8f 3d 57 6c 19 bd
       0.038234327 -0.011319266 0.07027641 -0.037456837
000030 6e 21 0b 3d b0 6e cc 3c cd 93 a0 3e 92 eb b5 3d
       0.033967428 0.024955124 0.31362763 0.08882822
000040 a5 ed aa 3d b8 20 a3 3d 98 e7 b1 bd ff 50 5e 3c
       0.08346108 0.07965225 -0.08686751 0.013569116
000050 7e 70 39 3c 86 41 eb 3d 3f f0 a1 bd 9e 9b 4c bd
       0.011318324 0.11487107 -0.079071514 -0.049953096
000060 2d 4d 2f 3e 74 13 1f 3d 76 3d 63 ba 84 7b e3 3d
       0.17119284 0.03883691 -0.0008668521 0.11107543
000070 37 96 5f bd b0 63 bf bc aa a6 d9 3d 89 5a af 3d
       -0.054586615 -0.023362964 0.10627492 0.0856219
000080 65 80 87 bd 15 c1 60 3d 42 83 e3 bb 4a b1 b2 3d
       -0.06616286 0.054871637 -0.0069431374 0.087252215
000090 f2 64 98 3d 8e c0 18 bd 3b d4 8e 3d 88 71 41 3c
       0.07441129 -0.03729301 0.069740735 0.011806853
0000a0 35 5d d9 3d bf a0 3f 3e 63 e4 01 bd d4 03 0d 3c
       0.10613481 0.18713664 -0.031711947 0.00860687
0000b0 00 1f 6c 3a d2 6f b2 3c c9 d5 8c 3d f8 96 35 3d
       0.0009007305 0.021781836 0.06876714 0.04433343
0000c0 e1 f4 9e bb 2e 79 2e bd e0 54 ce 3c 05 61 89 3d
       -0.004850969 -0.042596035 0.025186956 0.06707958
0000d0 5c ea 89 3c 5d 5a 1d 3d 10 b7 32 3d 79 9f 94 bd
       0.016835384 0.038416255 0.043631613 -0.072569795
0000e0 ac 09 f6 3c d9 c6 d7 bc ff a2 cf 3d d7 2e 77 3c
       0.030033909 -0.026339935 0.10138511 0.015086851
0000f0 dd 4e 71 bd cf 09 66 3b f0 0b ab 3d 94 e8 e1 3d
       -0.0589131 0.0035101061 0.08351886 0.11030689
000100 9d 54 1b 3d 1d 4d d3 3d db 27 5a bc 1e c0 3a be
       0.03792249 0.103174426 -0.013315166 -0.1823735
000110 76 22 af 3d ee 90 2e bd cc 25 0f bc a3 a0 19 3d
       0.08551495 -0.042618684 -0.008737039 0.03750671
000120 01 e5 6a bd ed 02 91 3c 34 09 c2 bc 9e d6 03 3e
       -0.0573473 0.01770159 -0.023686029 0.12874839
000130 4c 1f ce 3d d8 bf db bc bf 21 c4 3c 27 95 db 3d
       0.10064563 -0.026824877 0.023941873 0.10721808
000140 04 99 63 3d fe 68 50 3d 2e 64 33 3d db cb d7 3d
       0.05556585 0.05088138 0.04379671 0.10536929
000150 2c 4c 2e 3d c0 89 73 3d de f4 e9 bc 75 dc ba 3d
       0.042553112 0.05945754 -0.028559145 0.0912408
000160 12 25 a1 3d e6 74 be bd 60 1b 84 3d 2f 04 05 bd
       0.07868399 -0.0929964 0.06450534 -0.032474693
000170 81 8a 1a bd d9 32 96 bd 40 1b 6c bc ba e7 c0 3c
       -0.037729744 -0.07333917 -0.014410794 0.023547996
000180 77 48 49 3c 21 be 41 38 bc af 52 3d 0b cc ac 3d
       0.012285343 4.6191857e-05 0.051437125 0.084373556
000190 88 29 15 3e 68 c9 60 bd 13 db 05 bc 20 b2 bb bc
       0.14566624 -0.054879576 -0.008169907 -0.022912085
0001a0 e1 af 2b bd fd 1d e0 bc 1a 5c 90 bc 01 12 4a bd
       -0.041915778 -0.02735805 -0.017622042 -0.049333576
0001b0 5e 1a 43 bd 43 80 68 3d 89 ba f3 3d 51 ae 45 3e
       -0.047632568 0.056762945 0.11900813 0.19304778
0001c0 07 0d 57 3d 52 03 2e 3e 12 00 87 bd 00 98 6f 3d
       0.05250266 0.16993454 -0.0659181 0.058494568
0001d0 21 0f f3 3d 64 de b1 bc 05 4a 4c 3d b4 30 02 be
       0.1186812 -0.02171249 0.049875278 -0.12713891
0001e0 80 84 73 bd 2d 0a e7 3d 0e 22 b6 bb 3c c3 74 3d
       -0.059452534 0.11281238 -0.005558259 0.059756503
0001f0 c2 fb 47 3d 11 b0 a0 bc d8 20 1f 3e 7d ac 88 bc
       0.04882408 -0.019615205 0.15539873 -0.016683811
000200 c7 18 5a bb dd 6d 3a bd 5d a1 b3 bc 95 cc 8b 3a
       -0.0033278929 -0.04551493 -0.02192753 0.0010665829
000210 53 2a 84 ba 62 54 06 3e e0 6c 0d 3d a3 fa f8 3d
       -0.0010083414 0.13118127 0.03452766 0.1215718
000220 c7 b1 04 be 7d cf 73 bd 5c 8d e7 3c ac 2c 70 3d
       -0.12958442 -0.059524048 0.028265648 0.058636352
000230 f7 70 1e 3e 85 1e ee 3d 4c d3 5f 3e 08 8b 2f bd
       0.1547278 0.11626915 0.21857947 -0.0428572
000240 eb 64 9f 3c f1 02 84 bc f6 13 da 3d f9 78 ed bc
       0.019457301 -0.016114684 0.106483385 -0.028988348
000250 cb 58 12 3e cc ad d2 3d 39 4c e4 3d 76 dd 3a 3e
       0.14291684 0.102870554 0.11147351 0.18248543
000260 ca dd c7 bd d1 be b1 bd 87 46 99 3c 97 c8 f6 bc
       -0.097591 -0.086789735 0.018710388 -0.030124946
000270 44 8e 2c be 66 de 3b 3c d3 37 6f 3c 89 db cc 3c
       -0.16851145 0.011466598 0.014600712 0.025007026
000280 10 64 0e bd 03 96 4c 3c 51 9f 4e 3d 30 6c 33 bd
       -0.034763396 0.012486937 0.050444905 -0.043804348
000290 70 66 f1 b9 53 fa 98 bd 63 95 2d bd 7d 56 1c 3e
       -0.00046043424 -0.074696206 -0.042378794 0.15267368
0002a0 4b f5 56 3c 79 f6 b7 3e b6 f7 96 3d 89 3d 06 3d
       0.013120006 0.3593023 0.07371466 0.03277353
0002b0 fe b3 8f 3c 41 b0 1f bb a5 f3 04 3d bc 90 7a bd
       0.017541882 -0.002436653 0.03245892 -0.061173186
0002c0 2f 7a fa 3d 44 93 09 bd bb c3 a2 3d f0 11 2e 3e
       0.12230336 -0.03358771 0.07947489 0.1699903
0002d0 73 d7 98 bc c0 9f 4d 3d 0b 78 6e 3d 02 89 2f 3e
       -0.018657422 0.050201178 0.05821995 0.17142108
0002e0 a5 14 2f 3b 17 2f d5 3c 96 57 1f bd db 05 91 3c
       0.0026715186 0.02602343 -0.038901888 0.017702987
0002f0 3e 9b 37 bd 3f 62 a8 bb af 84 68 bd dd 58 00 bc
       -0.044825785 -0.005138665 -0.056767162 -0.007833687
000300 b6 03 cb 3d 91 d9 9b bd 86 87 b5 3d ba 4c be bc
       0.09912817 -0.07609857 0.0886374 -0.023229945
000310 c3 9d 42 3e 82 13 b4 3d 6f 77 94 3d ed 63 a5 bd
       0.19005494 0.08792783 0.07249343 -0.080757
000320 08 f1 b4 3d 0e 27 10 bd b6 3c 4f 3c 05 70 1d 3e
       0.088350356 -0.035193495 0.012648752 0.15374763
000330 00 17 b6 3d 61 bf 5d bd b9 de 04 3e ee 02 61 bd
       0.08891106 -0.05413759 0.12975587 -0.054934435
000340 e9 11 12 3c 84 bf 57 3d 48 28 8c 3d f7 fb 87 3d
       0.008915403 0.052672878 0.068436205 0.06639855
000350 d1 c7 4d 3d 95 cf 6e 3d 9b c5 2e bb 34 27 07 bd
       0.050239388 0.058303434 -0.0026668075 -0.03299637
000360 c1 fb 44 bd 94 60 d2 bd 65 2d ad bd 04 17 bc bd
       -0.048091654 -0.10272327 -0.08455924 -0.091840774
000370 26 4c d6 3c 9e 0c a0 bd a4 5d c4 3b 2f 82 d8 3d
       0.026159357 -0.078149065 0.005992608 0.105717055
000380 62 a6 94 3d 1f 92 08 3e ec e1 b7 3d 24 d6 76 3e
       0.072582975 0.13336991 0.08978638 0.24105126
000390 4e 01 9c bd da ad 62 3c c4 eb cd 3d 3a 3a 80 bc
       -0.07617436 0.013835395 0.10054734 -0.015652765
0003a0 64 f5 21 bd d5 25 13 3d 4d 8d 89 bb ff 2f a9 3b
       -0.039540663 0.03592475 -0.0041977526 0.0051631923
0003b0 51 89 8c bb 91 9d 28 bd a3 cf 08 3e eb 83 87 bd
       -0.0042888303 -0.041165892 0.13360457 -0.06616958
0003c0 81 34 8d bc b8 29 e8 bd cd c7 40 be 24 cc 01 3e
       -0.01723695 -0.11336082 -0.18826218 0.1267553
0003d0 6c 3c d1 bd 5f 8a ac 3d 3d d7 09 be ac 14 07 3e
       -0.10216603 0.0842483 -0.13461013 0.1319148
0003e0 73 46 c1 3d 1a 04 ab bd 35 c5 95 ba b8 0a 94 3d
       0.09437265 -0.08350392 -0.001142657 0.07228607
0003f0 0a f8 34 bc 29 a5 27 bb 1c f2 77 3d bf fb 04 be
       -0.011045465 -0.002558062 0.060533628 -0.12986659

encoder.2.bias f4 [64]
000000 36 0c a9 3c ae da 97 3d f6 16 7d 3d 12 1f 52 3d
       0.020635705 0.07414757 0.061789475 0.051299162
000010 e9 7d 4e 00 11 ed 6e bd 72 e7 b3 bc 1d 26 63 3d
       7.208337e-39 -0.058331553 -0.021960948 0.05545627
000020 ef f3 ae 3d 72 aa 3e 3c 5d 7b d1 3d 34 90 b9 3d
       0.085426204 0.011637317 0.10228608 0.09060708
000030 51 05 de 80 92 b1 65 81 d4 d8 c3 3c 01 0c 21 3d
       -2.0389387e-38 -4.2188058e-38 0.023907103 0.03931809
000040 7d 93 c5 1c 9e 84 b4 81 7b c0 b4 3d 26 c4 4b 3d
       1.3074491e-21 -6.6311854e-38 0.08825775 0.04974761
000050 07 ef a4 3d 36 76 a3 06 ef cd 12 ba 9b 08 b3 bc
       0.08053403 6.148748e-35 -0.00056001445 -0.02185469
000060 ba 19 4d 00 69 46 aa 3d 09 e3 19 3c 1b 9d e1 3c
       7.080562e-39 0.08314211 0.009392508 0.027540734
000070 95 3e 29 3d 24 a0 27 3d b0 1b 9c ba dd 0d 18 3d
       0.04131945 0.040924206 -0.0011910107 0.037122596
000080 35 a3 34 3d 5e b8 eb 3c c9 8c b1 3d 00 47 9e 3d
       0.04410096 0.028774437 0.08669431 0.07728386
000090 30 2e 8f bb 20 25 5f bd 11 e4 0f bd 76 63 43 3d
       -0.0043695197 -0.054478765 -0.03512961 0.047702275
0000a0 f9 59 10 bd fe e7 84 3d 41 6e 8a 3c 1f ef ad 3d
       -0.035242055 0.064895615 0.016898276 0.08492874
0000b0 0c f2 b9 3d 13 77 5b 3b 8c 15 90 bb 75 e7 b2 3d
       0.0907937 0.0033487722 -0.0043971 0.08735553
0000c0 cf a2 06 3c f5 e7 df bc e5 77 75 3c 5d a2 d0 3d
       0.0082175275 -0.027332285 0.014982198 0.10187218
0000d0 3c 7a 6e 3d e7 c9 1b 3c 66 76 47 01 a9 4a 21 3d
       0.05822204 0.0095085865 3.6635474e-38 0.039377842
0000e0 e3 be f0 80 23 3d 65 bc ca d3 04 3d ac 7d a1 9c
       -2.2108996e-38 -0.013991627 0.03242854 -1.0686572e-21
0000f0 20 a2 85 3d 34 69 ab bc cb e2 c2 80 8b ac f5 bc
       0.065250635 -0.020924188 -1.7897444e-38 -0.029989501

encoder.4.weight f4 [10, 64]
000000 d8 2e 8a bd 24 33 a1 3e 1b bb 79 bd 3d e5 7f bd
       -0.06747216 0.3148433 -0.060969453 -0.062474478
000010 44 fb 24 bc 77 f4 8b 3d 1e 23 10 be 6b 22 02 be
       -0.010069672 0.06833737 -0.14075896 -0.12708442
000020 1d bc 9e bb 01 91 33 bd 77 a2 ff bd 6f 6f ac bd
       -0.004844202 -0.04383946 -0.124821596 -0.08419692
000030 ab d3 4d 01 d6 55 e8 13 f3 63 9a bd 89 2f 08 3e
       3.7804418e-38 5.8649674e-27 -0.07538595 0.13299383
000040 7a 83 2e 22 3b 02 2e 34 70 4b 32 be 3b 80 8e 3d
       2.3651e-18 1.6205824e-07 -0.1741159 0.06958052
000050 dc d6 9a 3d 9a c8 3d b7 e4 8a 27 3c 0f 4d cf be
       0.075605124 -1.1311984e-05 0.010225985 -0.4048848
000060 9b bb 29 bb 1b 62 36 3d 59 01 e3 bb bd 2a 99 3d
       -0.0025899175 0.044527154 -0.006927651 0.07478855
000070 b2 44 d0 bd d7 20 9b bd 49 f9 9f bd 95 58 0b be
       -0.101693526 -0.07574623 -0.07811219 -0.1360801
000080 e0 6c 32 3a 37 ee 22 be 33 97 03 be 4e 81 cf bd
       0.0006806385 -0.15911184 -0.12850647 -0.10132085
000090 63 30 f5 bd 7a 6c a6 3d 1d c5 57 3d 31 cc 97 3c
       -0.1197212 0.08126159 0.052678216 0.018529983
0000a0 67 01 18 3e 65 25 5b bc 3a 50 95 3d ba 36 0d be
       0.14844285 -0.013375615 0.072906926 -0.13790408
0000b0 df e5 97 bd 9d c0 a7 3c b5 f4 31 bd ff c3 77 3c
       -0.07416891 0.020477587 -0.04344626 0.015122413
0000c0 ed 6c 84 bd f9 fb 1c 3e 5c 3b 23 be 2b be a9 bd
       -0.064660884 0.15330495 -0.15940613 -0.08288225
0000d0 da 62 39 3d 52 39 96 be 6f db 5a a1 69 23 cf 3d
       0.045260288 -0.29340607 -7.415169e-19 0.10114176
0000e0 31 d2 c9 80 49 84 6d 3e 1d cc 7e 3d 37 ef 0f 3c
       -1.8534337e-38 0.23194994 0.062206376 0.008785061
0000f0 28 b1 ed 3d f6 1b c3 3d a0 03 48 34 d6 8f 56 3d
       0.116060555 0.095268175 1.862777e-07 0.052383266
000100 c4 ff ea bc 48 e4 4e 3e 7f 85 81 bd 12 a8 4b bc
       -0.028686412 0.2020427 -0.063242905 -0.012430208
000110 97 f2 9d bb 8a f1 cc bd 8c eb 53 3c c2 80 a0 3d
       -0.0048201787 -0.100070074 0.012934577 0.078370586
000120 87 20 93 bd be c9 b6 3e c2 70 06 3e 4b 92 e3 3d
       -0.071839385 0.35700792 0.13128951 0.111118875
000130 36 4b 65 02 c4 0f 61 00 18 2d 6c 3d fa dd ee 3d
       1.6845847e-37 8.913699e-39 0.057660192 0.116634324
000140 e9 22 b4 1f 09 69 bb b5 60 71 a2 bd 0f 85 3c be
       7.629072e-20 -1.3963155e-06 -0.07931781 -0.18410133
000150 70 fe 66 3d 5d f3 9e 20 d9 8a d4 bc dc dc 6d be
       0.056394994 2.6927285e-19 -0.025945114 -0.23228782
000160 bd 94 f4 b9 ef 9f 73 be 86 e9 ad bd d7 34 09 3e
       -0.00046650125 -0.23791479 -0.08491807 0.13399063
000170 bd e3 98 3d f9 f0 d5 3d 27 c1 5b 3d 3b 3f 37 3e
       0.07465313 0.104463525 0.053651 0.17895214
000180 d7 40 b4 3c 8b 56 df 3d 70 4f 25 be f0 0a 16 bc
       0.022003574 0.10905179 -0.16143584 -0.009157881
000190 d1 81 76 bb 79 e2 93 bd 8e f6 b9 bd 8a 6a 3f 3d
       -0.0037613998 -0.072209306 -0.0908023 0.046732463
0001a0 c2 98 20 be be d0 73 be b5 8e ca 3d 06 5e 03 3e
       -0.15683272 -0.23810098 0.098905005 0.12828836
0001b0 62 c2 16 3e bc 00 bb 3d 6f f1 08 3e a3 66 27 bc
       0.14722589 0.091309994 0.1337335 -0.010217342
0001c0 f6 3b 58 3d 3d 07 e1 3d 5d 73 36 bc c4 fd 25 bd
       0.05279156 0.10987709 -0.011135903 -0.040525213
0001d0 15 d0 b5 3d 8d e0 d4 bd 6c 72 09 2e dd 55 8c 3b
       0.08877579 -0.10394392 3.125182e-11 0.0042826966
0001e0 b2 c4 9d ad 1c 85 36 3d 06 cf 66 bc 45 5a 07 bb
       -1.7936184e-11 0.044560537 -0.014087444 -0.002065317
0001f0 b5 f5 9b be 7f 93 4b 3b 42 fa 32 ba 93 6c 09 be
       -0.30460897 0.0031063256 -0.00068274525 -0.13420324
000200 b4 90 01 be eb d9 0f bd 06 4b 1a 3e 6c 20 14 3e
       -0.12652856 -0.035119932 0.15067682 0.14465493
000210 46 b0 8a bb 74 a5 b8 3d b9 7a 25 be ec 91 ad bd
       -0.004232439 0.09015933 -0.16160096 -0.08475098
000220 bc a1 17 3e 4c 99 9e 3e e8 9d 8a 3d a4 2f d8 3c
       0.1480779 0.3097633 0.067683995 0.026389904
000230 a1 ec 2d 22 e8 35 a7 86 6e ac 0e 3d 08 8a 91 bd
       2.3571142e-18 -6.2897626e-35 0.03483241 -0.071064055
000240 68 f7 a2 a2 14 26 84 b7 fc 47 8a 3d d1 6c c3 3d
       -4.417214e-18 -1.5753358e-05 0.06752011 0.095422395
000250 58 4a 2c 3e d6 ba 11 37 36 92 97 bb cf 09 d3 bd
       0.16825235 8.686175e-06 -0.004625584 -0.10304605
000260 3f ec 8b bb f2 65 35 3e 15 52 7f 3d 16 f6 a8 bd
       -0.004270106 0.1771467 0.06233414 -0.08250062
000270 39 02 84 3d ff a8 0d 3e fa c5 e6 3d 22 ae 27 3e
       0.064457364 0.13833998 0.1126823 0.1637502
000280 c5 6b 56 bd 36 3f fb 3d 17 bf 6e 3d 7d 43 c1 3d
       -0.05234887 0.12267916 0.058287706 0.094367005
000290 cc 4e d0 bd 8a c5 12 3e 41 05 41 bd 77 9d 8c 3c
       -0.10171279 0.14333168 -0.04712415 0.017164929
0002a0 02 4d 2f be 96 54 1a be 3d 33 85 bd d4 ab a9 bc
       -0.1711922 -0.1507133 -0.065039136 -0.020711817
0002b0 d3 cd 61 3d 13 74 2f be 78 76 05 bd 24 ec af 3d
       0.05512793 -0.17134123 -0.032583684 0.08589962
0002c0 1f ee 6b bd 60 48 80 be 68 43 c2 bd 6f 89 3a 3e
       -0.057600137 -0.25055218 -0.09485513 0.1821649
0002d0 a7 15 05 bd 63 e9 6d be e5 50 16 2d c8 f3 01 3e
       -0.032491352 -0.23233561 8.544475e-12 0.12690651
0002e0 24 70 00 80 da b6 ce bb 4c e2 bd bd d6 44 d8 3b
       -4.0228e-41 -0.0063084187 -0.09271678 0.0066000028
0002f0 21 a9 63 bd 35 a5 28 be f2 dd e1 b7 66 f9 25 bd
       -0.055581216 -0.16469271 -2.6925441e-05 -0.040521048
000300 8b fe 1f be fc c4 25 bc 12 52 21 3e 5b cb 05 3e
       -0.15624444 -0.0101177655 0.15753964 0.13065855
000310 aa 8d 5b 3b 12 62 c2 3c a0 d4 1f 3d 3e 83 d1 3d
       0.0033501186 0.023728404 0.039021134 0.102301106
000320 1a 1a 31 be 86 f3 ab 3e 02 47 70 3d 65 47 65 bd
       -0.17295113 0.3358423 0.05866147 -0.05597629
000330 02 bb 48 9f e3 5e 21 01 54 15 1e bd e6 21 1d 3e
       -4.2506337e-20 2.9639108e-38 -0.03859456 0.15344962
000340 00 a8 05 1f fc 0b df 35 bc 6d eb bc b6 d3 81 bd
       2.8302812e-20 1.6618283e-06 -0.028738849 -0.06339209
000350 6a 44 88 bc 35 73 7b b6 5e be 45 bc 24 f9 69 bc
       -0.016634185 -3.7468974e-06 -0.012069313 -0.014280591
000360 9a b7 19 bb 0e c4 c0 bd ab fb 14 3e 7c 95 43 3c
       -0.0023455382 -0.094123945 0.14549129 0.011937495
000370 41 65 8d be f1 4c 89 3d 80 b0 89 3d 69 e3 0d be
       -0.27616313 0.067041285 0.06723118 -0.13856281
000380 30 9e 62 3d ff c1 92 3d a7 36 18 3e f4 e0 ad 3c
       0.05532664 0.07165908 0.14864598 0.02122543
000390 80 bc 13 3e ab 9b a8 be ca 77 fd 3c 3f af 72 3d
       0.14427376 -0.32931265 0.030940909 0.05924916
0003a0 ae 4a 1b bd 6f 7e 7d 3e 99 37 0c 3e ef 37 f0 3c
       -0.037913017 0.24755262 0.13693084 0.029323546
0003b0 06 47 2c 3e f5 01 ba 3d 8f 4b fc bd fa 84 c7 3c
       0.16823968 0.090824045 -0.12319099 0.0243554
0003c0 87 f0 fe 3d bf 71 35 be 6b 12 d9 bd 9e d6 2e be
       0.12448221 -0.17719172 -0.10599216 -0.17074057
0003d0 64 7d 6c be 7b b2 95 be 9a 28 c2 36 68 99 1d 3e
       -0.23094708 -0.29237732 5.786377e-06 0.15390551
0003e0 d9 9b 1b 00 4d ce 0a 3e 60 b0 2a 3e 04 60 39 ba
       2.535466e-39 0.1355526 0.16668844 -0.00070714974
0003f0 8a f9 bc 3e c0 c3 a3 be 79 ce fe b7 ac 0c 57 bc
       0.36909133 -0.31985283 -3.0375306e-05 -0.01312558

encoder.4.bias f4 [10]
000000 03 ef 50 bd 8b f1 21 3d af d1 c7 bc cc c7 5c 3d
       -0.05100919 0.039536994 -0.024391977 0.05390148
000010 d0 31 e6 3c 06 a3 ba 3c 17 4d cc bd 96 70 33 bd
       0.028099924 0.022782814 -0.09975641 -0.043808542
000020 7c 45 16 3d ca 6a 1d bd
       0.03668736 -0.03843192

decoder.0.weight f4 [64, 10]
000000 56 34 15 3e 99 f2 c2 be 34 06 1a 3d 8e 95 3f 3e
       0.14570746 -0.38075712 0.037603572 0.18709394
000010 28 d2 cc bd d6 7c 12 be b8 d3 b0 3d a7 5a 40 3e
       -0.100010216 -0.14305434 0.08634132 0.18784581
000020 52 d6 87 be 59 45 b4 3d c7 0d fc 3d c8 eb 21 be
       -0.265307 0.088022895 0.12307315 -0.158126
000030 0b ac 8e be 51 ac 3d be b8 66 0a bf 88 4f 35 bc
       -0.27865633 -0.18522765 -0.54062986 -0.011066325
000040 55 05 24 be dc 42 5c 3e 54 14 d9 bd 72 28 64 be
       -0.16017659 0.2150988 -0.105995804 -0.22281054
000050 10 fe 4e be 8d 83 b6 3e 19 9e 17 3e be 63 59 3e
       -0.20214105 0.3564724 0.14806403 0.21229455
000060 8d ec f3 bd 80 6f 77 be de 7d 00 3e 7e 11 b4 3d
       -0.11910353 -0.24163628 0.12548015 0.08792399
000070 0b 7a b6 3c 41 c2 74 be 29 44 6d 3d 98 9d c2 3e
       0.022274991 -0.23902227 0.05792633 0.3801086
000080 12 fe e0 3d 66 86 b4 3d a5 3a 21 be a2 56 a3 bc
       0.1098596 0.08814697 -0.15745027 -0.01993877
000090 1d 4d 16 3d 45 f2 a4 39 a1 28 17 3e ea 01 b1 be
       0.036694635 0.00031461022 0.14761592 -0.34571773
0000a0 da 84 a7 be be d4 01 3c e7 e3 8b 3e 1a 17 e2 3d
       -0.32718545 0.007924257 0.27322313 0.110395625
0000b0 8c cb 65 be 7e 01 ab 3e 32 69 d4 bd 16 dc fb 3d
       -0.22440928 0.33399576 -0.10371627 0.122978374
0000c0 64 af 06 bd 51 21 4e be 29 a5 2c 3e ba 9e 83 3b
       -0.03288211 -0.20129897 0.16859879 0.0040167244
0000d0 82 99 99 3e 94 ce ae bd 6c a9 fe bd f5 0a 93 be
       0.2999993 -0.085354954 -0.124346584 -0.28719297
0000e0 56 99 bd bd bd 15 20 be b2 b7 65 be 94 03 cd 3e
       -0.09257762 -0.15633292 -0.22433355 0.40041792
0000f0 37 98 82 3d 5f 29 61 3e 68 cb e6 3d 6b f3 9a 3e
       0.06376689 0.21988438 0.112692654 0.30263838
000100 f2 67 66 3e 21 68 f5 3d 3a 7c cb bd bf aa e1 3d
       0.2250059 0.11982752 -0.09935804 0.11018895
000110 fa a0 9d be 33 06 96 be 7d 04 81 bd 41 63 2d 3e
       -0.30786878 -0.29301605 -0.06299684 0.16932394
000120 51 6e d4 3e 5e 95 a3 bd 5f 7a ac 3e f2 c6 6e be
       0.41490415 -0.07987474 0.33687112 -0.23318079
000130 eb 93 52 3e 30 98 fc bd 8c da 22 bb 61 eb 22 3e
       0.20564239 -0.12333715 -0.0024849502 0.15910102
000140 29 ba 63 3e 2c 65 b6 be 95 eb 1c bf c3 83 32 bd
       0.22238983 -0.35624063 -0.6129697 -0.04358269
000150 82 8b c3 be a9 2d 5f 3e 1e 41 4e be b9 59 87 3e
       -0.38192374 0.21794762 -0.20142028 0.2643564
000160 12 00 84 3e 67 57 af 3d eb cc ae be 53 76 1e be
       0.25781304 0.085615925 -0.34140715 -0.15474825
000170 59 2e 68 be 19 95 48 bd 3e 59 21 be 91 d7 49 be
       -0.2267393 -0.048970316 -0.157567 -0.19711138
000180 ba 4d ae 3c 84 a3 66 bd db c2 80 be 8a 14 da 3b
       0.021277297 -0.056308284 -0.25148663 0.0066552805
000190 5d ca 82 be a2 75 5e 3d ae 3e 5f 3e 42 2b 54 3e
       -0.25545016 0.054311402 0.21801254 0.20719627
0001a0 ce 16 aa be 36 dc 2b 3e c2 8f 39 be c9 a1 9a be
       -0.33220524 0.16783223 -0.18121246 -0.30201557
0001b0 61 d6 cb bd 11 3a 3e 3e 86 f0 a6 be b1 d1 b3 bd
       -0.09952999 0.18576838 -0.3260538 -0.0878023
0001c0 70 ba 1f be 12 dc 10 3e 4b 37 34 be 23 38 1f be
       -0.15598464 0.1414645 -0.17599218 -0.15548758
0001d0 24 f1 9c 3d a2 66 8a bd 83 68 a2 3d bf 74 48 3e
       0.076631814 -0.06757857 0.0793009 0.19575785
0001e0 d7 05 41 bd a7 80 e2 bc fa 92 7e be 2e 68 a3 bd
       -0.04712471 -0.027649237 -0.24860755 -0.07978855
0001f0 fa ab 71 be a9 3f 65 bb ae 70 64 be 1c 3d b7 bd
       -0.2360076 -0.0034980571 -0.22308609 -0.089472026
000200 94 c3 e5 3e 8b cf 9c 3c ac 60 e0 bd 16 c1 1c 3e
       0.44875777 0.019141933 -0.10955939 0.15308031
000210 94 0e 9a 3e 20 16 84 be 70 9a aa 3e d0 ee 3e 3e
       0.30089247 -0.2579813 0.3332095 0.18645787
000220 79 17 a4 bd dc c5 ee be 52 8c 0f be 7c 7d 4b be
       -0.080122896 -0.4663533 -0.14018372 -0.19872087
000230 e9 c3 b4 3d 3b 38 1a be 34 ea 03 3e 0a 2d 2f 3e
       0.088264294 -0.15060513 0.1288231 0.17107025
000240 af dc 96 be 72 21 98 be 3b 63 73 3e cc d3 4c bd
       -0.29465243 -0.29713017 0.23768322 -0.050006673
000250 40 35 4d 3e 78 7f 38 3d 5a 6e 33 3c 2e 63 f9 3c
       0.20039845 0.04504344 0.010951603 0.0304428
000260 95 fe b3 3e 77 88 0e be 79 ae 88 be fe 86 2c be
       0.35155168 -0.13919245 -0.26695612 -0.1684837
000270 b0 e8 bf be 8f ea 89 3e 53 53 0e 3c 8a 94 ca 3e
       -0.37482214 0.26936767 0.008686858 0.3956645
000280 cc 6d 16 3d de e3 a3 bd a0 56 36 3d d9 01 52 3e
       0.036725804 -0.080024466 0.044516206 0.20508517
000290 ac ab 06 bd b7 a4 6f be f8 b8 5f 3d 59 32 9a be
       -0.032878563 -0.23402677 0.05461976 -0.30116537
0002a0 c2 c9 13 3e 79 45 cd 3c 64 02 93 be 85 13 89 be
       0.14432433 0.025057541 -0.2871276 -0.26772705
0002b0 7f d8 0e 3e 57 e3 c8 bd 01 dc 21 be 18 77 2c be
       0.13949774 -0.09808987 -0.15806581 -0.16842306
0002c0 88 4d 91 be 38 8b 30 bc 76 56 4b 3d 45 f3 1a be
       -0.28379464 -0.01077538 0.049643002 -0.15131862
0002d0 42 17 87 bd fd 8f 89 3e 51 15 00 be c3 18 01 bd
       -0.06596233 0.26867667 -0.12508132 -0.031517755
0002e0 28 d5 eb bd 40 67 b8 bd 75 a0 90 be 86 21 79 be
       -0.11515266 -0.090040684 -0.2824742 -0.24329194
0002f0 fc 7d 52 3e b7 c5 e5 bd 54 b6 02 3e 33 49 b0 bd
       0.20555872 -0.11219352 0.12764865 -0.08607712
000300 38 5d 9f bc 8d 38 a7 bd cc aa 37 be bc 70 3f be
       -0.01945363 -0.08165083 -0.17936248 -0.18695349
000310 e6 77 fa bd e7 1a 55 be 91 c3 a0 be c2 58 56 be
       -0.122299 -0.20811044 -0.31399205 -0.20932296
000320 78 92 e0 3c af eb 51 3e e7 32 b5 3e ad 4d a0 3c
       0.027413592 0.20500062 0.35390398 0.019568289
000330 45 f7 b1 bd ea 83 3f be 3c d2 a6 bc fe 8c 5f 3e
       -0.08689741 -0.18702665 -0.02036392 0.21831128
000340 69 bb e4 ba 51 d0 12 be 54 d0 49 3e fb d0 42 be
       -0.0017450872 -0.14337279 0.19708377 -0.19025032
000350 23 cd 24 3e 43 07 ab 3e a0 42 4a be b0 ca 53 3e
       0.16093878 0.33403978 -0.19751978 0.20682788
000360 f3 5b 90 be d0 d9 3d 3d 5f 85 68 bd cd 2c 6a 3e
       -0.28195152 0.0463503 -0.056767818 0.22868653
000370 3e 5d a2 bd ba fc 6d 3e 75 96 e7 bd 49 87 1d 3e
       -0.07927941 0.23240939 -0.11307994 0.15383638
000380 d0 3a ed bd d6 44 0e bd d4 22 88 bd 54 af 35 be
       -0.11583483 -0.034733616 -0.06647268 -0.17742664
000390 9b 32 d0 bd 94 db 88 bd da 1f be 3e fa a9 23 3e
       -0.10165902 -0.06682506 0.37133676 0.1598281
0003a0 75 e1 09 bf 52 fd 24 bf 07 be 8d bd 8f b2 90 3d
       -0.53859645 -0.64449036 -0.069210105 0.07065307
0003b0 61 3d 8e 3e 4b 7f e1 bc eb 0a e6 3e b3 2a 6e 3e
       0.27781203 -0.027526518 0.44930205 0.23258476
0003c0 86 7e 72 3e f7 19 18 be 40 7f 6b 3e 92 4e 85 be
       0.23681077 -0.14853655 0.22997761 -0.26036507
0003d0 af 27 28 be cb 6c c0 be 94 86 32 be da f2 5d 3e
       -0.16421388 -0.37583002 -0.1743415 0.21674672
0003e0 70 83 10 bd 22 b2 45 be e2 4e 8f 3e 83 73 ad 3e
       -0.0352816 -0.19306234 0.2798987 0.3387719
0003f0 00 23 52 bd 47 5e 9a bd a2 15 fd 3d 6b 99 dc be
       -0.05130291 -0.07537513 0.12357642 -0.430858

decoder.0.bias f4 [64]
000000 6f 4f 59 3e 84 82 1e bd 0f 66 06 3f 7a fb c0 3e
       0.21221708 -0.03869869 0.5249948 0.3769186
000010 9e dc 0f bf 9b 77 b3 3e 4f 9b a9 bd fd 16 c9 be
       -0.5619601 0.3505219 -0.08281576 -0.3927535
000020 bb f4 40 bd 8b 1c 89 bd e3 e1 5e 3e c3 59 78 3f
       -0.047108393 -0.06694897 0.21765856 0.97011966
000030 a7 9c b7 be 2d 56 12 3f 30 e2 e7 bd 92 66 47 3e
       -0.35861704 0.57162744 -0.11322439 0.19472721
000040 d7 da 3d bf 5b 36 81 3d ad 04 5c be c5 19 1c 3f
       -0.7416205 0.063091956 -0.21486159 0.6097682
000050 83 3e 4d 3f a1 3d 46 3d 1f 23 fc be 42 f9 d8 be
       0.8017351 0.048398618 -0.49245545 -0.4237767
000060 fb 1a 94 3e 39 2f 49 bc 8a 36 38 bd bf e6 17 bd
       0.28926834 -0.012279325 -0.044973888 -0.03708529
000070 71 1a 34 3f b6 45 36 3f c4 a0 ac 3e 51 8f 4b bc
       0.70352846 0.7120012 0.33716404 -0.012424306
000080 14 62 44 be 28 57 66 bf d5 a6 10 bf d4 82 e5 3d
       -0.19178039 -0.8997674 -0.56504565 0.11206594
000090 23 05 c0 3e a1 d2 ed 3e 40 01 2d bf 28 2b e2 be
       0.3750392 0.4644976 -0.6758003 -0.4417355
0000a0 5f 08 a8 3d 81 b0 04 3f ba d3 b6 3e c9 ac b6 3e
       0.08204722 0.51831824 0.3570841 0.356787
0000b0 6a 4e 7b 3e 9f 2e a2 be 32 38 f0 bd d3 6d 89 be
       0.24541631 -0.31676194 -0.117294684 -0.26841602
0000c0 cd 13 44 be 5f 20 0f 3f 48 69 73 be 63 34 f7 bd
       -0.19148178 0.5590877 -0.2377063 -0.12070539
0000d0 fc 3e 49 3d 4c 00 8c bd dd 57 a9 be ac e9 52 3e
       0.049132332 -0.06835994 -0.33074847 0.20596951
0000e0 5e 3b 04 bf 9c ab 72 3e 06 60 e0 3d e1 70 b9 be
       -0.5165309 0.23698276 0.10955815 -0.36218932
0000f0 4c 9e 28 be 0e 61 24 be 6b cf 7b be 5b 95 96 3d
       -0.16466635 -0.16052648 -0.24590842 0.07352706

decoder.2.weight f4 [128, 64]
000000 4e fb 0f be f4 f5 76 be 09 d2 89 3c 18 86 e4 3a
       -0.14060709 -0.24117261 0.016823785 0.0017434983
000010 86 43 93 be 93 62 75 be d4 ac 34 3e 1b 4e 98 bd
       -0.28762454 -0.23963384 0.17644054 -0.074367724
000020 01 03 b7 3d 4d 71 8c 3c 67 62 66 bd 2c 25 21 3c
       0.0893612 0.01714387 -0.056246188 0.009835523
000030 fb 5d 21 3e fe 9b 2b bc 89 4e c7 bd 3f 32 93 bc
       0.15758507 -0.010474203 -0.09731776 -0.017968295
000040 a5 41 76 3d e0 63 20 3d f0 8d 9c 3d 49 80 00 3e
       0.060121197 0.03915775 0.0764426 0.12548937
000050 81 e1 ee 3d 10 15 38 be 25 a2 dc 3d 4a c1 2e 3d
       0.11664105 -0.17976785 0.10773114 0.042664804
000060 c3 c6 e2 bd ff 9d 39 3d f7 0a 9e bd 2d 2a 36 3e
       -0.11073067 0.045316692 -0.07716935 0.17789526
000070 48 0d 3a bd fd ea 06 be 34 43 83 3d 01 f9 02 3e
       -0.045422822 -0.13175578 0.06409302 0.127903
000080 62 db 59 bc 68 45 d6 bd 46 f5 c7 bc 70 1d 97 3d
       -0.013296934 -0.10462457 -0.024408948 0.07378662
000090 b2 5a 16 be e9 c3 0b bf 77 43 1a 3d e3 51 bf 3d
       -0.14683035 -0.5459581 0.037661996 0.093417905
0000a0 b7 6c 36 bd 6f 16 0f 3e 1e 38 b9 bd da 1b ca bd
       -0.044537272 0.13973401 -0.09043907 -0.098685935
0000b0 60 47 e5 3d 59 22 64 bd 43 9a d6 3d 14 67 4f 3c
       0.11195254 -0.05569682 0.10478642 0.012658853
0000c0 8b 6a cb bd 45 8e ce bd 88 c3 27 bd e9 22 b1 bd
       -0.09932431 -0.100857295 -0.040957958 -0.08649237
0000d0 ff a5 fc 3d e7 c6 47 3d ad 2d 2e 3d 28 72 04 bd
       0.12336349 0.048773672 0.04252403 -0.03233543
0000e0 b6 20 ca 3d 2a d6 f5 bd e1 68 04 3e 84 a1 df 3d
       0.0986952 -0.12003739 0.12930633 0.109194785
0000f0 8f 79 86 bd 0b ec d7 bd 39 8e 53 3d 13 db d8 bc
       -0.06566154 -0.105430685 0.051649306 -0.02647165
000100 3d fd 8c bd f8 89 31 be d9 45 bf bd 05 f0 48 bd
       -0.06884239 -0.17337787 -0.09339494 -0.049057025
000110 48 7f 53 3e 3b 7b 8a 3d 7f aa 07 3d e1 84 d1 bd
       0.20654023 0.067617856 0.033121582 -0.10230423
000120 4f b0 06 3e 5d 43 a1 bc fd f3 52 3c 2b 88 9d bd
       0.13153194 -0.019685442 0.012875554 -0.076919876
000130 17 3d 90 3c 7a 80 48 bd 7c 71 f7 3c af 20 ce bd
       0.017607255 -0.04895065 0.03020548 -0.10064828
000140 a2 d5 bb 3d 59 1e 1a 3a f5 b7 44 bd 69 0a a3 3d
       0.091716066 0.0005879156 -0.048026998 0.0796097
000150 61 cd 20 3e 32 53 8e 39 30 6f b0 3d a0 9e 7c 3e
       0.15703346 0.00027146336 0.08614957 0.24669886
000160 42 ed b0 bd 2d 3b 97 3d a2 a6 c2 3c b8 2a 49 be
       -0.08639003 0.07384334 0.023761097 -0.19645202
000170 46 35 fc be 6f 46 fd 3c c4 fa 06 3c 7c 19 30 3e
       -0.49259394 0.030917374 0.008238498 0.17197222
000180 62 37 ab bd 0b 02 d5 bd 4b 4a a3 3d d8 6f 32 3d
       -0.08360173 -0.1040078 0.07973155 0.043563694
000190 7e 54 e0 bc c4 6b d9 3d 2d f0 19 3d e8 68 9d 3d
       -0.027384039 0.10616258 0.037582565 0.07686025
0001a0 c1 0d 93 3e a7 cd f5 3d ac f0 c1 3b d3 69 df bd
       0.2872143 0.12002116 0.005918583 -0.10908856
0001b0 61 f2 ba bc fa 7c fe bd 71 97 1c 3d 3e ea 97 bd
       -0.022820653 -0.12426181 0.038230363 -0.07417725
0001c0 0d d5 89 3c ec 79 b3 bc 24 a9 e2 3c 90 d1 5d 3e
       0.016825223 -0.021908723 0.027668543 0.21661973
0001d0 24 92 c1 bd c0 6f 8b 3d f1 02 f9 3c be 90 8d 3d
       -0.09451702 0.06808424 0.03039691 0.06912373
0001e0 c8 c9 55 3c 65 dd 88 bb 45 6e ea 3d 59 fe 31 be
       0.013048597 -0.004176783 0.114468135 -0.17382182
0001f0 6d d9 2f be ba 98 8a 3c d7 9d d6 bd 56 00 20 be
       -0.17172785 0.016918529 -0.10479324 -0.15625128
000200 a7 c6 51 bd ad 25 dc 3b 62 5f 0c be 18 cb 33 3e
       -0.05121484 0.0067183585 -0.1370826 0.17557943
000210 cb 46 f8 bb bf 2b f9 bd bc 56 23 be 7a 2a 96 be
       -0.0075767986 -0.12166547 -0.15951055 -0.29329282
000220 b0 46 79 be 53 a4 d9 3d c6 5b a8 bd e9 29 56 3c
       -0.24343371 0.106270455 -0.082206294 0.013071516
000230 92 8a f7 3b 63 60 5e be 0a 71 59 3d f9 d9 b2 3d
       0.0075543607 -0.21716456 0.053086318 0.08732981
000240 39 72 66 3d 87 ee 03 bc a6 6e 13 3e 6f c9 a9 3d
       0.056261275 -0.008052475 0.14397678 0.082903735
000250 47 e4 14 be 1e c8 30 3d c5 57 8e 3d bc db 0a bd
       -0.14540206 0.043159597 0.069503345 -0.03390096
000260 6e 2d 8a bc 96 ad ff bc ad c9 14 3d 75 e7 6b be
       -0.016867366 -0.031210702 0.036325146 -0.23037513
000270 50 3d 29 3e a4 19 5f 3d 55 09 c1 3d 6c b8 37 bd
       0.16527295 0.054467812 0.09425608 -0.044853613
000280 bc e9 33 3c 89 87 a3 3c 9f bd 47 bc 54 6d ef bc
       0.01098102 0.01996209 -0.012191205 -0.029226936
000290 c2 6a b2 bd 3e de c7 3d 23 30 a8 3b 2c ef e3 bd
       -0.08711769 0.09759186 0.0051326915 -0.11129603
0002a0 6c 06 77 3d 62 be 77 3d c3 bb 48 3e ce 25 b1 bc
       0.06030886 0.060484298 0.19602875 -0.021624472
0002b0 03 0d 31 be b9 2a f6 bb 8f 08 ed bc f4 cd f5 3c
       -0.1729012 -0.007512417 -0.028934745 0.030005433
0002c0 06 33 c4 bd 46 05 cf 3d 6e f3 28 3e ad 7e 55 3e
       -0.095800444 0.10108428 0.16499111 0.20849104
0002d0 df 67 d7 3d 9f ff 1c be d9 ce 23 3d b1 24 a5 3c
       0.10517859 -0.15331887 0.039992187 0.020159097
0002e0 b6 74 35 3d b5 e8 58 bd 66 ab ea bc 00 9c b3 3d
       0.044300757 -0.0529563 -0.028646182 0.08769989
0002f0 6b 0d 82 3c cb 08 4f bd 81 fd d3 bb 9b 9a 12 be
       0.015875539 -0.050545495 -0.006469429 -0.1431679
000300 32 12 f9 3d 01 70 3a 3d 84 c5 87 3d 99 01 07 bd
       0.121616736 0.04551697 0.0662947 -0.032960508
000310 00 4f 8c bb 2a 05 aa 3d ca 08 f0 bd 64 62 60 bd
       -0.0042818785 0.08301766 -0.117204264 -0.054781333
000320 c9 13 70 be 0b 8a 79 3e 52 60 20 be 83 52 83 be
       -0.23445047 0.24369065 -0.15661743 -0.2564889
000330 fb 80 92 bd 81 85 29 3e 86 64 d6 bc 02 0a cf bc
       -0.07153507 0.16554834 -0.02617098 -0.025273327
000340 b7 7f 8a bd 23 98 27 3e 6e e1 9f bd f0 b8 57 3e
       -0.06762641 0.1636663 -0.07806669 0.21066642
000350 07 c1 55 3d 47 ba 92 3c 98 68 af 3d a8 75 41 bc
       0.05218604 0.01791109 0.085648715 -0.011807837
000360 4f a5 77 3e ac 7c 1f bd 29 5a c7 3d 5f 76 fe 3d
       0.24184154 -0.038937256 0.097339936 0.12424921
000370 5b f7 1d be fd 03 e6 bd a5 1f ed 3d 02 69 05 3e
       -0.1542639 -0.112312295 0.11578301 0.13028339
000380 77 5a bf 3d 6c bd 11 bd 9b 86 a0 3d f4 a5 5e 3d
       0.09343427 -0.035581037 0.07838174 0.054357484
000390 e3 36 72 be ea 40 16 be 37 1c bc 3d bc 85 87 bd
       -0.2365375 -0.146732 0.09185069 -0.06617305
0003a0 6f b2 98 bd 95 2e e4 3c 60 4b fa 3a fc 1b 84 3d
       -0.074559085 0.027854243 0.001909595 0.0645065
0003b0 46 8c a5 3c 32 2f 22 be 65 88 6c bd 55 a7 04 3e
       0.02020849 -0.15838316 -0.057747263 0.12954457
0003c0 c0 e5 44 bd 86 05 4b bd 62 e9 b7 bd 4f d5 e2 3d
       -0.04807067 -0.049565814 -0.08980061 0.11075842
0003d0 8c ca c3 bc 19 07 6e bc c1 4b 9d bd d3 59 ac bd
       -0.023900293 -0.014528059 -0.076804645 -0.0841557
0003e0 64 50 9c 3d ee 95 40 3e 05 49 85 3c ad b0 3a bd
       0.07632521 0.18807194 0.01627017 -0.045578647
0003f0 8a 0a 8e bd 0f eb bb 3d aa db 70 3d 9d 60 f4 bd
       -0.06935604 0.09175693 0.058803238 -0.1193249

decoder.2.bias f4 [128]
000000 3f fa cd 3c 6e b8 89 3e bd be 9e bc 3c 20 aa be
       0.02514374 0.2689852 -0.01937806 -0.33227718
000010 7e 05 88 bd 42 aa 9a 3e c9 45 12 be 10 c2 3a bd
       -0.066416726 0.3020802 -0.14284433 -0.04559523
000020 02 17 10 3e 3c b8 84 81 7e 16 15 b7 64 14 b1 81
       0.14071277 -4.8753505e-38 -8.886329e-06 -6.504879e-38
000030 80 02 10 be a9 ea bf 3d 10 cf b9 be 8c c2 4b 3e
       -0.14063454 0.0937093 -0.3629079 0.19898432
000040 09 06 91 3e 07 cb 53 3d de 18 18 bf b4 b6 84 3e
       0.28324917 0.051707294 -0.59412944 0.2592064
000050 6e f7 92 3d 68 29 4d be 10 70 aa bd fc 49 46 ba
       0.071761 -0.20035326 -0.083221555 -0.0007564125
000060 a7 79 cf bd 7d 2d 53 be a2 4f 4a 3e 1e de 2a 3e
       -0.10130625 -0.20622821 0.1975694 0.16686293
000070 ea f4 2a 3e 8d 71 59 bf f3 45 44 3e b1 1f bd be
       0.1669499 -0.8493889 0.19167309 -0.3693824
000080 b4 36 d7 be 77 bb e1 3c 2b 31 83 bd 72 7e 98 be
       -0.42033923 0.02755521 -0.064058624 -0.2978397
000090 bc 32 01 be 30 32 e8 3c 0a 8d 5b 3f 8e 52 88 be
       -0.1261701 0.028344244 0.85762084 -0.26625484
0000a0 e9 bc 2d 81 c8 2b a9 81 a9 a1 3e 3e 94 f9 40 be
       -3.1910618e-38 -6.214362e-38 0.18616356 -0.18845206
0000b0 96 1b bb 3e e2 4c 0c 3d 68 c8 50 3e bf 67 a6 3d
       0.36544484 0.03425301 0.20388949 0.08125257
0000c0 9f 9a 45 81 13 c6 43 bd 03 38 0e be 70 c6 80 81
       -3.629412e-38 -0.04779632 -0.13888554 -4.730452e-38
0000d0 9b 27 e7 bc 06 aa 2b 3e 9f 51 b1 be 2d c7 da be
       -0.028217128 0.16764078 -0.34632584 -0.42730084
0000e0 6d 8e 22 3e ba 0f 02 bf 0f b8 67 be c6 d0 12 bf
       0.15874644 -0.50805247 -0.22628807 -0.57349813
0000f0 3b 67 00 be bd 36 95 3d 3e 6b 3b be f4 3d a8 be
       -0.1253938 0.07285831 -0.18302628 -0.32859766
000100 03 4e a4 be 46 93 b2 3e 7b 93 9a be 46 50 0e 3e
       -0.32090768 0.34877986 -0.30190644 0.1389781
000110 7c 50 8a 3e 09 cf 95 81 05 fb b9 bd 84 b1 10 bf
       0.2701453 -5.5031037e-38 -0.09081081 -0.5652087
000120 14 e6 f4 be 29 61 0b be be 26 24 be 4e 4f 41 3d
       -0.47831786 -0.13611282 -0.16030404 0.04719477
000130 5d d0 48 bc ae f8 47 3e 23 a6 21 3e d2 8f 18 3f
       -0.012256709 0.19528458 0.15786032 0.5959445
000140 ba 4f f8 3e 9d 20 b3 3e 0b 7d 65 be 2f 94 41 be
       0.48498327 0.3498582 -0.22410981 -0.18904184
000150 8a bb ef 3e fb 47 c3 be 9f 80 bd 3e 95 c2 40 3e
       0.46822768 -0.38140854 0.37012193 0.18824227
000160 77 a5 0f 3f 57 7d 1c 3e d7 cc 81 81 b0 94 8e be
       0.56111854 0.15282188 -4.7681047e-38 -0.27847815
000170 2e 1c 49 81 dd 40 78 bd 93 7b 1c 3f 24 85 90 80
       -3.6938087e-38 -0.060608733 0.6112606 -1.3272073e-38
000180 b6 29 f7 bd d1 63 07 81 20 03 35 3d 92 42 43 3e
       -0.120685026 -2.48672e-38 0.044192433 0.19068363
000190 49 12 54 3d c3 01 13 be fd 14 ed bd 84 f8 0c be
       0.05177525 -0.14356141 -0.11576269 -0.13766676
0001a0 10 bf e4 3d e0 7e b0 be ad 1b 43 be 3c 9b f6 bc
       0.11169255 -0.34471798 -0.19053526 -0.030103318
0001b0 ba 53 e2 3b 1a 96 0b 81 ff be 2e be 45 3c 3a bc
       0.0069069536 -2.563796e-38 -0.17065047 -0.011366908
0001c0 d7 35 c2 3e e8 d1 1a 3d 71 e0 94 3e 43 5a 0d 3e
       0.37931702 0.03779784 0.29077485 0.13803963
0001d0 24 2d 70 00 f0 80 e1 3d 48 6b 6e be ed a2 52 be
       1.0301769e-38 0.11010921 -0.23283112 -0.20569964
0001e0 98 ea 69 81 77 08 c2 3b 87 34 10 3f da a6 5e 3e
       -4.2963654e-38 0.0059214192 0.5633015 0.21743336
0001f0 24 53 b6 be 5c e9 0a bf ec 31 17 be 59 36 ef be
       -0.35610306 -0.5426233 -0.14765137 -0.4672115
