day3/solutions/simple_autoencoder/simple_autoencoder_11.pt (torch_old, 880725 bytes, 12 tensors)

encoder.0.weight f4 [128, 784]
0.017281428 0.017394217 0.017184667 0.01724681 0.017098874 0.017194945 0.017275132 0.017199557
0.017405117 0.017372135 0.017201671 0.017396307 0.017313099 0.01741633 0.017260622 0.017072514
0.017379623 0.017246744 0.017198596 0.017062817 0.017108638 0.017298225 0.017328782 0.017056998
0.017327277 0.017318204 0.017261896 0.017224964 0.017036818 0.017215706 0.0172967 0.01718571
0.017062237 0.017154587 0.017011551 0.017291127 0.019293543 0.019072548 0.019082732 0.017886534
0.0150037315 0.015949383 0.017935831 0.02039618 0.021783771 0.019369006 0.019007476 0.017880352
0.017577 0.017185932 0.017406583 0.017333586 0.017200377 0.017254025 0.01715127 0.017033637
0.017226748 0.01707152 0.017381854 0.01718117 0.01735369 0.017253717 0.016869465 0.017233837
0.003278975 -0.009082971 -0.0049132914 -0.003139565 -0.0074283606 -0.029083923 -0.053509228 -0.01640631
-0.009470086 -0.012316551 0.0021215607 0.023812665 0.031067189 0.040076435 0.034889504 0.025540123
0.023599532 0.021482285 0.017411757 0.017232599 0.017103495 0.017174343 0.017314749 0.017552633
0.017991396 0.022704419 0.015631199 0.019637428 -0.013025804 0.0006533709 0.025963558 0.020871097
0.029055778 -0.047378592 -0.016699411 -0.021648994 -0.028660228 0.0051852083 0.022927972 0.00039729255
0.011555946 0.024360633 0.026309691 0.022031007 0.010467217 0.023660416 0.01717329 0.017405124
0.017352248 0.016775507 0.016923847 0.01996775 0.02368968 0.02552081 0.03516919 0.041749276
0.05229529 0.06472865 0.05354745 0.07470775 0.114505224 0.10662261 0.04239262 0.028374098
0.049851596 -0.026994247 -0.05970821 -0.0139304595 0.012397865 0.007934359 0.01670777 0.049325213
0.04134205 0.008557461 0.0053245253 0.015743744 0.017176632 0.017298007 0.019175183 0.033477418
0.03859704 0.04280921 0.08799624 0.07430905 0.053286508 0.008594337 0.0524836 0.073249586
0.06624051 0.086800225 0.08957385 0.035275992 0.0027385538 -0.030600885 -0.039572824 -0.0027909381
0.015900701 -0.021956418 0.02893946 0.0888309 0.098914295 0.042713724 0.0017992713 0.014361498
0.017250046 0.01697565 0.010694907 0.038555536 0.050824087 0.02890084 0.030646108 0.023962272
0.045395058 0.07603027 0.052830517 0.07656215 0.07497852 0.068976656 0.025107568 0.010059442
-0.007228716 -0.009037104 0.026914623 0.04629452 0.013278371 0.042802755 0.103884175 0.10419361
0.12823331 0.05463594 0.03207554 0.016251888 0.017227655 0.016480552 -0.0018593741 -0.0012654269
0.002499416 0.00038141792 0.019769587 -0.011540326 0.0008719515 0.0075030006 -0.0048005264 0.026136372
0.089617796 0.060812846 0.028613407 0.03209833 0.0192857 -0.026651712 0.024694853 0.0759008
0.047340814 0.1001956 0.051007412 0.060745113 0.07035863 0.095060475 0.028046677 0.019091904
0.017229997 0.016978184 0.01089683 -0.014681579 -0.00821797 -0.009911193 0.0075135776 0.05566677
-0.020662185 0.042824 0.072241455 -0.019147487 0.078589134 0.013105687 0.02657417 0.039619062
-0.0242651 0.043203134 0.120684415 0.11904973 0.06819452 0.08360026 0.04318935 0.021610208
0.08193682 0.012548627 0.0068753664 0.013098319 0.017043412 0.016889451 0.024644472 0.004359974
00000000: c891 8d3c 517e 8e3c dcc6 8c3c 2f49 8d3c
00000010: f012 8c3c 6adc 8c3c 9484 8d3c 16e6 8c3c
00000020: 2d95 8e3c 0250 8e3c 85ea 8c3c b382 8e3c
00000030: 33d4 8d3c b1ac 8e3c 2666 8d3c a8db 8b3c
00000040: b65f 8e3c 0b49 8d3c 12e4 8c3c 52c7 8b3c
00000050: 6a27 8c3c 02b5 8d3c 17f5 8d3c 1ebb 8b3c
00000060: eff1 8d3c e8de 8d3c d268 8d3c 5e1b 8d3c
00000070: cc90 8b3c f407 8d3c cfb1 8d3c 0cc9 8c3c
00000080: 1bc6 8b3c c787 8c3c cf5b 8b3c 1fa6 8d3c
00000090: 7e0d 9e3c 083e 9c3c 6453 9c3c c886 923c
000000a0: 36d2 753c 48a8 823c 2aee 923c e415 a73c
000000b0: e173 b23c c0ab 9e3c 91b5 9b3c d179 923c
000000c0: a4fd 8f3c 83c9 8c3c 4098 8e3c 2aff 8d3c
000000d0: cee7 8c3c 5058 8d3c d280 8c3c 208a 8b3c
000000e0: 1c1f 8d3c 93d9 8b3c 6464 8e3c 86bf 8c3c
000000f0: 5329 8e3c ab57 8d3c d531 8a3c fa2d 8d3c
00000100: 12e4 563b bed0 14bc adff a0bb 29c1 4dbb
00000110: 9b69 f3bb 6841 eebc 7e2c 5bbd 8766 86bc
00000120: 6b28 1bbc 5ccb 49bc e209 0b3b c712 c33c
00000130: 9e80 fe3c 3027 243d 4ce8 0e3d 8539 d13c
00000140: ce53 c13c 9efb af3c 1aa3 8e3c 612b 8d3c
00000150: a11c 8c3c 35b1 8c3c a9d7 8d3c 8aca 8f3c
00000160: b162 933c 9efe b93c 000d 803c acde a03c
00000170: 2f6a 55bc fb46 2b3a 87b1 d43c ddf9 aa3c
00000180: 6206 ee3c 0e10 42bd 34cd 88bc 3b59 b1bc
00000190: dbc8 eabc aee8 a93b 71d3 bb3c b44b d039
000001a0: 2755 3d3c f38f c73c 6c87 d73c 5f7a b43c
000001b0: b17e 2b3c 7dd3 c13c 00af 8c3c 3195 8e3c
000001c0: 4d26 8e3c ca6c 893c e1a3 8a3c 6893 a33c
000001d0: dc10 c23c 0511 d13c 920d 103d 4a01 2b3d
000001e0: 9633 563d 7490 843d 9254 5b3d 6000 993d
000001f0: b781 ea3d f45c da3d e2a3 2d3d cc70 e83c
00000200: 3031 4c3d 0a23 ddbc 9990 74bd 953c 64bc
00000210: 6a20 4b3c 1dff 013c bcde 883c 3c09 4a3d
00000220: 4856 293d 9834 0c3c 5b79 ae3b 06f9 803c
00000230: 02b6 8c3c 8db4 8d3c 4615 9d3c 9e1f 093d
00000240: ee17 1e3d b658 2f3d 5f37 b43d 582f 983d
00000250: f442 5a3d 43cf 0c3c 0bf9 563d e103 963d
00000260: 1ba9 873d 51c4 b13d 7f72 b73d 8f7d 103d
00000270: 4f79 333b b5ae fabc 1d17 22bd 2ce8 36bb
00000280: 3042 823c f2dd b3bc 7212 ed3c faec b53d
00000290: 9493 ca3d 96f4 2e3d 87d5 eb3a 7d4c 6b3c
000002a0: f84f 8d3c 8510 8b3c b139 2f3c 69ec 1d3d
000002b0: eb2c 503d 74c1 ec3c 8c0d fb3c 874c c43c
000002c0: 2bf0 393d c2b5 9b3d d064 583d 9ecc 9c3d
000002d0: 578e 993d a243 8d3d 63ae cd3c 5cd0 243c
000002e0: ddde ecbb 5d10 14bc 0e7c dc3c 539f 3d3d
000002f0: 868d 593c f151 2f3d 3ac1 d43d 7663 d53d
00000300: 984f 033e efc9 5f3d a461 033d ae22 853c
00000310: 0321 8d3c 3902 873c 3eb6 f3ba aedc a5ba
00000320: 3ecd 233b 0cf9 c739 d4f3 a13c a313 3dbc
00000330: ad93 643a bbdb f53b bc4d 9dbb f21b d63c
00000340: 8989 b73d e416 793d aa66 ea3c 8a79 033d
00000350: 0bfd 9d3c b154 dabc dc4c ca3c e171 9b3d
00000360: 71e8 413d 5a33 cd3d 26ed 503d decf 783d
00000370: 2f18 903d 11af c23d 25c2 e53c a066 9c3c
00000380: ec25 8d3c d515 8b3c 9e88 323c 018b 70bc
00000390: aaa4 06bc 8e62 22bc 7534 f63b d702 643d
000003a0: be43 a9bc 3868 2f3d 54f3 933d 31db 9cbc
000003b0: 57f3 a03d 3cb9 563c 13b2 d93c 9947 223d
000003c0: 9ac7 c6bc c5f5 303d 6429 f73d 58d0 f33d
000003d0: 92a9 8b3d 9d36 ab3d 51e7 303d e407 b13c
000003e0: 7ece a73d c298 4d3c c14a e13b 559a 563c
000003f0: a09e 8b3c bf5b 8a3c 34e3 c93c 1dde 8e3b

encoder.0.bias f4 [128]
-0.029820962 -0.049758088 0.009471368 -0.01199253 0.015326134 -0.017739987 0.03351379 0.021890743
-0.017804163 -0.012617025 0.022156699 0.017896764 -0.0053361524 -0.04185178 0.023230404 0.009299923
-0.01539365 0.047643736 0.014668655 -0.007542807 -0.0021026335 0.0056837355 -0.008575202 -0.004611806
-0.0070224153 0.018093934 0.0066667483 0.048248857 0.005145458 0.043800388 0.00012880896 0.014922893
-0.023047231 0.035133246 0.06427292 0.002696374 -0.038154468 0.013657493 0.043517057 -0.043390382
0.0102943005 0.025422074 0.012890535 0.025132656 0.052053686 -0.009336437 -0.008568961 0.030057589
0.029509846 0.0051833997 0.02344413 0.0047270562 0.049944833 -0.006731678 0.01716117 0.016921822
0.013026555 0.033669874 0.014464808 -0.009502439 -0.0027904154 0.025151275 0.0054972107 0.0019410588
0.020923384 -0.03555542 0.010895582 -0.020131327 0.06339421 0.02857518 3.9434002e-05 0.026524493
-0.0118733095 -0.042902626 0.00553837 -0.0047054477 -0.018705826 0.04486199 -0.0051465626 -0.0073345373
-0.0061958325 -0.012672235 0.03550768 -0.008030641 -0.010346887 0.0116527695 0.006623745 0.025262767
-0.0012684588 -0.0007554611 0.044417217 -0.0008194919 0.01765866 0.004187018 0.06385029 -0.0041462025
0.042776044 -0.017745428 0.020942012 0.035563372 0.019471923 0.036507 0.028544527 0.03709254
0.038596883 0.02692893 -0.00708949 0.016298126 0.008110134 0.03482238 0.012113381 -0.0062215617
0.044008147 0.011619174 -0.020291291 -0.007767787 0.066725284 -0.0048915637 0.043277342 0.0046999245
0.010549832 0.021891301 0.020240566 0.02114375 0.029113123 0.0048037027 0.0070140786 -0.0063879616
00000000: 174b f4bc 23cf 4bbd cc2d 1b3c 517c 44bc
00000010: 771a 7b3c 7353 91bc c245 093d 3754 b33c
00000020: 09da 91bc a3b7 4ebc f781 b53c 3c9c 923c
00000030: e4da aebb c66c 2bbd b04d be3c b45e 183c
00000040: a635 7cbc 1426 433d cc54 703c a729 f7bb
00000050: 56cc 09bb a13e ba3b 017f 0cbc a21e 97bb
00000060: 4a1c e6bb bb39 943c bd74 da3b 98a0 453d
00000070: 3b9b a83b 0968 333d e410 0739 267f 743c
00000080: 8ccd bcbc e1e7 0f3d 85a1 833d a6b5 303b
00000090: dc47 1cbd adc3 5f3c f13e 323d 1dba 31bd
000000a0: 6da9 283c f441 d03c d332 533c 00e3 cd3c
000000b0: 3f36 553d dbf7 18bc d464 0cbc 553b f63c
000000c0: a2be f13c 82d9 a93b e70d c03c 6ce5 9a3b
000000d0: f492 4c3d 6895 dcbb 9595 8c3c a29f 8a3c
000000e0: 556d 553c 6ce9 093d cdfd 6c3c 1eb0 1bbc
000000f0: 67df 36bb 0c0a ce3c f221 b43b 206b fe3a
00000100: 8467 ab3c 8fa2 11bd 6283 323c 74ea a4bc
00000110: d3d4 813d 7f16 ea3c f065 2538 e549 d93c
00000120: 4588 42bc aaba 2fbd 377b b53b 2830 9abb
00000130: f63c 99bc 35c1 373d 7fa4 a8bb 8f56 f0bb
00000140: 6906 cbbb 359f 4fbc 8070 113d f392 03bc
00000150: fd85 29bc 42eb 3e3c 000c d93b ddf3 ce3c
00000160: 6a42 a6ba 230a 46ba d4ee 353d 2cd3 56ba
00000170: e5a8 903c 4133 893b f1c3 823d dedc 87bb
00000180: ef35 2f3d dc5e 91bc 958e ab3c e6aa 113d
00000190: 9583 9f3c 5d88 153d 36d6 e93c 59ee 173d
000001a0: c417 1e3d 0f9a dc3c f44e e8bb a683 853c
000001b0: 5ee0 043c e9a1 0e3d 3477 463c 3ede cbbb
000001c0: e341 343d 595e 3e3c ec39 a6bc ec88 febb
000001d0: 44a7 883d 6949 a0bb 9543 313d d301 9a3b
000001e0: 34d9 2c3c 6355 b33c 8bcf a53c a835 ad3c
000001f0: a57e ee3c 6168 9d3b 5bd6 e53b 1b52 d1bb

encoder.2.weight f4 [64, 128]
-0.11482332 0.08274887 -0.006919165 0.007896544 0.04878685 0.006488401 -0.01855923 -0.039636552
-0.083472535 0.016700506 0.027811693 -0.026422942 0.0071502277 -0.10880245 0.0077249957 0.18234667
0.025727116 -0.02633792 0.0004512588 0.04660147 -0.09955225 -0.03439553 0.001987534 0.004737742
0.0015437027 0.12703812 -0.116644815 0.0036788278 0.17351463 0.049966894 -0.051692314 0.08714034
-0.13863572 0.082402885 0.06914418 0.0056040226 -0.017328225 0.019922907 0.13063553 0.007186257
0.1470607 0.026307032 0.05144242 0.07233566 0.008963957 -0.005033121 -0.049604632 -0.03341234
0.16946767 0.1347215 0.03522383 -0.10488939 0.0032609322 -0.0045259083 0.061667055 -0.008751099
-0.0008492851 0.17815673 -0.046043817 0.08798459 -0.024044475 0.07706281 0.07592591 -0.07865731
-0.09153671 -0.07505086 0.030429333 0.030286847 0.03821412 0.0422966 0.3709575 0.008216622
0.0108790295 -0.006728179 0.046876475 0.047345612 -0.035660766 -0.042275883 0.009641633 0.039691262
-0.004137198 -0.073633425 -0.056860246 0.12539874 -0.004069177 0.012722309 0.020338388 0.09925504
0.047194216 0.07900268 -0.02850964 0.00011794947 -0.07851872 -0.0047181784 0.1210733 -0.0076312167
0.05748718 -0.06678955 0.06977698 -0.0899594 -0.04736693 0.048536416 -0.020524787 0.089062884
0.12577114 -0.016232532 -0.0861639 -0.0152952075 0.14601733 0.11084281 0.10298317 0.03867941
-0.05876503 0.07677928 -0.06914796 -0.02918233 0.052963383 0.050548397 0.06960433 0.04690271
-0.017702548 0.103399456 -0.043258775 -0.02549329 -0.023393719 0.13307688 0.15519017 0.028581481
-2.689272e-38 2.5540823e-38 -2.2291339e-38 -1.1845599e-38 2.0809166e-38 -1.657764e-39 7.477208e-38 -9.942399e-39
-3.981045e-39 -1.5794737e-38 -1.8795744e-38 -4.362695e-38 -4.589458e-39 3.9033054e-38 -2.2794466e-32 -8.020487e-39
5.120847e-38 7.930197e-39 -4.268003e-39 -3.1195715e-38 -2.4903708e-38 -2.8659713e-28 -5.372529e-38 -2.53337e-38
3.535149e-38 -1.4647935e-28 -2.979529e-38 2.716079e-35 4.4560282e-38 6.439881e-39 -1.1629642e-38 1.861262e-39
-6.276995e-38 -7.2826e-40 -4.882796e-29 1.314611e-39 -2.8076867e-38 1.8444892e-31 6.552033e-39 4.35513e-39
-4.83574e-38 -3.7160824e-38 -5.627791e-39 4.802848e-39 -5.230521e-31 3.858538e-39 -1.7740497e-31 8.448367e-37
2.1855797e-38 -9.822965e-39 7.213502e-39 -1.156766e-38 -3.2161958e-38 -1.8976989e-38 1.6239795e-38 -3.1733e-39
-3.079628e-39 -1.1399712e-38 -6.213427e-32 -1.5632587e-38 -8.895064e-39 -7.47349e-35 1.1291754e-38 -2.669949e-38
3.71089e-40 -4.189315e-39 -5.5076517e-38 -3.674537e-38 -3.630178e-23 -1.4005665e-23 -2.586224e-39 -6.0240745e-38
-1.6364928e-38 -3.327912e-38 3.4887052e-38 -2.9959856e-38 -3.2286864e-38 -1.53858e-39 -2.0782017e-38 -6.412372e-38
1.4199235e-38 -1.1004125e-38 7.09278e-39 2.803868e-39 -3.014563e-38 2.1286433e-38 -3.306825e-38 6.234557e-36
-2.1715516e-38 -1.59009e-38 5.489417e-34 -2.0966116e-38 1.92194e-39 -5.436744e-39 3.950404e-37 -2.366219e-39
-1.9430536e-34 1.0091934e-38 -9.4182894e-32 5.013476e-39 -3.516537e-38 2.7444834e-38 -2.1722848e-29 5.570496e-39
-6.828087e-39 2.700826e-39 1.311704e-38 3.364424e-38 -5.764117e-38 -3.742337e-39 -7.111527e-39 -5.3958685e-38
1.8052896e-35 -1.6992854e-38 -1.6160137e-38 -1.7246967e-33 -1.860788e-26 4.750039e-39 -3.5443555e-30 4.896249e-39
-2.1936969e-38 -6.39885e-40 -7.384921e-39 -1.752118e-39 -1.8777915e-38 -1.8537252e-38 6.661362e-39 -2.713524e-38
00000000: 7d28 ebbd 3d78 a93d 2aba e2bb 8260 013c
00000010: b8d4 473d a79c d43b 8709 98bc f059 22bd
00000020: a6f3 aabd 80cf 883c 59d5 e33c ed74 d8bc
00000030: 754c ea3b d2d3 debd f621 fd3b 16b9 3a3e
00000040: acc1 d23c 9fc2 d7bc ee96 ec39 2fe1 3e3d
00000050: 0de2 cbbd 54e2 0cbd 4a41 023b 0f3f 9b3b
00000060: 1156 ca3a 4816 023e 7ae3 eebd 7d18 713b
00000070: d2ad 313e 16aa 4c3d 52bb 53bd a276 b23d
00000080: 86f6 0dbe d8c2 a83d 779b 8d3d f3a1 b73b
00000090: ecf3 8dbc 5d35 a33c 52c5 053e b17a eb3b
000000a0: 1597 163e d881 d73c 49b5 523d b824 943d
000000b0: 90dd 123c e1ec a4bb 3a2e 4bbd 61db 08bd
000000c0: ef88 2d3e 6ff4 093e dd46 103d 40d0 d6bd
000000d0: 5db5 553b 124e 94bb 9896 7c3d c560 0fbc
000000e0: 8fa2 5eba b86e 363e 7198 3cbd 4431 b43d
000000f0: ebf8 c4bc 1bd3 9d3d 0b7f 9b3d 1517 a1bd
00000100: 9977 bbbd 44b4 99bd f046 f93c 1f1c f83c
00000110: 6986 1c3d 333f 2d3d 24ee bd3e 039f 063c
00000120: f53d 323c 0e78 dcbb 8c01 403d 79ed 413d
00000130: 0611 12bd 7a29 2dbd f1f7 1d3c 4e93 223d
00000140: 5591 87bb 1fcd 96bd 4ae6 68bd 8768 003e
00000150: bb56 85bb 3b71 503c b19c a63c 3a46 cb3d
00000160: b94e 413d 28cc a13d 0c8d e9bc a45b f738
00000170: 6cce a0bd f39a 9abb 47f5 f73d 490f fabb
00000180: ad77 6b3d f6c8 88bd 3ce7 8e3d a23c b8bd
00000190: d303 42bd 1fce 463d 9923 a8bc 9a66 b63d
000001a0: 26ca 003e 16fa 84bc b376 b0bd c098 7abc
000001b0: 9185 153e 8e01 e33d d7e8 d23d 4d6e 1e3d
000001c0: 9ab3 70bd 753e 9d3d 729d 8dbd c80f efbc
000001d0: 22f0 583d d60b 4f3d b78c 8e3d 0e1d 403d
000001e0: ef04 91bc 18c3 d33d 1d30 31bd 4ed7 d0bc
000001f0: 2fa4 bfbc 4e45 083e 2cea 1e3e b623 ea3c
00000200: fb6a 1281 b60e 0b01 2fbb f280 b6fc 8080
00000210: 7d97 e200 2c0d 1280 898c cb01 5d43 6c80
00000220: 8959 2b80 4dfd ab80 e3aa cc80 1887 6d81
00000230: 8bf9 3180 2384 5401 16b6 ec8a db55 5780
00000240: 1867 8b01 2a5a 5600 7579 2e80 7bd8 2981
00000250: b496 0781 0ba7 b591 1041 9281 06ee 0981
00000260: c978 4001 44af 3991 9338 2281 5a69 1006
00000270: f89b 7201 c51f 4600 b6a2 7e80 7144 1400
00000280: 45e0 aa81 18ee 0780 5196 7790 9a50 0e00
00000290: 71dd 1881 ab6d 6f0c 6758 4700 556c 2f00
000002a0: 30a4 8381 a152 4a81 fe47 3d80 634c 3400
000002b0: 78bd 298d 0904 2a00 ea48 668c d4bd 8f03
000002c0: 12fd ed00 6ef6 6a80 4f8c 4e00 eef5 7d80
000002d0: 3a1b 2f81 20a4 ce80 f1d5 b000 df8d 2280
000002e0: c088 2180 c221 7c80 4e4f a18b 4b39 aa80
000002f0: d2db 6080 f0ad c686 d1f4 7a00 a85d 1181
00000300: 720a 0400 1b9e 2d80 bbee 9581 920f 4881
00000310: 6d8b 2f9a 5974 8799 5729 1c80 acfd a381
00000320: c332 b280 5330 3581 74f1 3d01 f21d 2381
00000330: 52c9 2f81 efc0 1080 cf4b e280 b68f ae81
00000340: b19d 9a00 06d3 7780 c93b 4d00 0b88 1e00
00000350: e020 2481 eac9 e700 6a0a 3481 2898 0405
00000360: 0676 ec80 3d25 ad80 cc6a 3608 004d e480
00000370: 96ed 1400 6e33 3b80 df6c 0603 0ec4 1980
00000380: 5823 8187 35e4 6d00 4583 f48b 8897 3600
00000390: 5f75 3f81 846c 1501 bd4b dc8f 47a8 3c00
000003a0: ee59 4a80 ce68 1d00 f9d4 8e00 3a2d 3701
000003b0: 08ea 9c81 1dc0 2880 0b70 4d80 b7e3 9281
000003c0: a8f8 bf05 2a09 b980 e3f7 af80 3e48 0f89
000003d0: 9548 b894 2db9 3300 b1c6 8f8e c050 3500
000003e0: 58df ee80 bdf7 0680 286a 5080 3114 1380
000003f0: 3079 cc80 51da c980 2b89 4800 01bd 1381

encoder.2.bias f4 [64]
0.047515307 1.9243693e-38 0.036189362 0.013606053 0.035938054 0.0021599883 0.0064906613 -3.23029e-40
-8.620491e-25 -3.0824048e-38 0.024202554 0.057541404 2.920617e-39 0.09360124 0.010772951 -1.1624701e-24
-0.03490248 0.0207816 -1.7122988e-30 -6.8141014e-37 0.015085406 0.09239047 0.034127597 0.07837013
0.09505897 1.642279e-10 0.060143977 0.022433275 0.02542187 0.07851506 -8.29452e-07 0.017330285
-0.026817078 0.019879706 -0.0040568956 -3.034147e-38 0.0018968583 0.0002969338 -0.055095673 0.029539984
0.03602548 0.05499657 -0.0016245161 0.0072522596 0.052868333 -2.680151e-31 -3.8933267e-38 0.09100241
0.010195154 0.009989377 0.013908877 -3.538832e-38 0.009033442 0.01791744 0.0030490216 0.056485705
0.01108964 0.0617021 0.028929707 -0.012079626 0.033373978 -4.500648e-16 6.3747807e-37 0.08929396
00000000: 699f 423d 968b d100 4c3b 143d eceb 5e3c
00000010: c833 133d 978e 0d3b 9daf d43b 7984 0380
00000020: 4865 8597 74d2 2781 6f44 c63c 89b0 6b3d
00000030: 7ecd 1f00 02b2 bf3d 0881 303c 2fe2 b397
00000040: e7f5 0ebd 2d3e aa3c 0eeb 0a8e 32df 6783
00000050: c728 773c 3737 bd3d 61c9 0b3d 8580 a03d
00000060: 47ae c23d 0b92 342f 8859 763d fdc5 b73c
00000070: 8741 d03c 81cc a03d 82a7 5eb5 3ef8 8d3c
00000080: 7daf dbbc c4da a23c b5ef 84bb d631 2581
00000090: 01a0 f83a c8ad 9b39 00ac 61bd d6fd f13c
000000a0: 748f 133d 1544 613d b7ed d4ba 5da4 ed3b
000000b0: 778c 583d a6f3 ad8c 0ef9 5381 795f ba3d
000000c0: 9309 273c 7caa 233c 0fe2 633c 1fac 4081
000000d0: 0001 143c 98c7 923c 18d2 473b 8e5d 673d
000000e0: 52b1 353c 57bb 7c3d fefd ec3c a0e9 45bc
000000f0: 27b3 083d ecb8 01a6 2cec 5803 c0df b63d

encoder.4.weight f4 [11, 64]
-0.07079144 5.5253245e-33 0.017039381 0.18307811 -0.062030245 -0.009256765 0.04746531 -0.00023477465
-0.002013943 0.0043418068 -0.15235485 -0.12634446 5.034099e-08 -0.16056654 -0.07672963 -0.00031985
-0.114798054 -0.1594019 -3.6036643e-30 -7.7004034e-07 0.1302998 -0.11063878 -0.056082584 0.111385144
-0.046222147 -0.00038928376 0.044177305 0.015864566 -0.11900311 0.058278456 0.022922488 -0.16839598
-0.0641027 -0.0969712 0.13705201 -1.983429e-30 -0.15783487 -0.105573446 -0.08891108 0.053253755
-0.042893644 0.0904464 0.041773107 -0.005578483 0.26296666 6.321327e-30 -9.666646e-09 0.059569288
-0.030671315 -0.0247649 0.033494532 0.00070685794 0.0724645 0.16024247 -0.16331963 -0.10781604
-0.10047155 -0.078779876 0.18948382 -0.09501784 -0.050845794 -6.327672e-16 3.639776e-05 -0.19283074
-0.102608725 7.328306e-24 -0.04426721 0.015162209 -0.09883949 0.027614474 0.1460292 3.170367e-06
0.0026135687 -0.008487422 -0.13832025 -0.0849385 -0.00051393633 -0.13506182 0.078787036 0.0022458667
0.09845068 0.12361229 -2.887263e-29 -0.00013383129 0.062288597 -0.18047374 0.12564446 -0.18701802
-0.13268341 0.0041805236 0.07694849 0.019517599 0.098965846 -0.13390878 -0.010830181 -0.0010860082
0.07914065 -0.026279332 0.030004244 1.4357623e-24 0.027961541 0.16136998 0.1542392 -0.1891927
-0.0079090465 -0.12306293 0.055253055 -0.15516134 0.019026684 3.6277667e-30 -3.639608e-13 -0.07789401
0.22542018 0.11125814 -0.06230432 -0.0011892429 -0.07303042 0.048315614 0.073959514 0.06704108
0.009704405 0.2280522 0.11875436 -0.119439736 -0.041245975 1.4050597e-16 0.0011761059 -0.12624855
-0.102607824 1.8195907e-10 0.08595602 0.12130937 0.19986296 0.12231989 -0.16541643 4.835805e-06
-0.004896345 -0.006608064 -0.1868033 0.11309698 0.00016354202 0.16802844 -0.13763689 -0.0012582331
-0.031107979 0.088333495 -2.2983392e-30 -5.122004e-08 0.09541291 0.089773096 -0.11585742 -0.006425182
-0.01410861 -0.020963648 0.15918596 -0.15485734 -0.09193249 0.073459275 -0.0048853564 -0.028452422
-0.035272177 -0.11178553 0.12432734 -2.833977e-38 -0.052697506 0.21838713 -0.013063648 0.026952213
-0.12625736 -0.14967203 0.10507311 -0.11739571 -0.08130297 4.2553343e-30 -4.875222e-13 -0.09520145
-0.0033996247 0.18222915 -0.3000456 -0.0002869683 -0.02897974 -0.027269578 0.16106996 -0.09458575
-0.0034818668 -0.12839803 -0.12557648 0.09054827 -0.01224064 3.870242e-16 -6.4942025e-05 -0.15702379
0.15135378 -1.8240569e-11 0.092720725 -0.03183834 0.059408627 0.07054745 0.06377704 -1.9848823e-12
-0.0026321404 0.0013400543 0.13091193 0.02418807 6.698511e-06 5.5646e-05 -0.24025609 -0.00068915746
0.098472096 0.17832562 -2.4208398e-29 -0.00014155047 -0.0070455326 -0.113815315 0.12927763 -0.028514218
0.080984145 -0.021107493 0.14488578 0.0021197686 -0.16405858 0.16310498 0.020726288 -0.004165122
-0.046027802 0.04453553 0.09842852 -1.0782468e-38 -0.0014841397 -0.3187818 -0.05380526 -0.09536928
-0.029733116 0.17346402 0.19751959 0.089472055 -0.13072532 6.9323054e-31 -9.43363e-12 -0.024702337
-0.4049053 -0.14849496 -0.105989486 0.010631813 -0.030167112 0.11480824 0.18285534 0.07062399
-0.342708 0.021873256 0.1618656 -0.12087065 -0.05962648 -1.2751284e-16 -0.00025211147 0.07737022
00000000: 1afb 90bd 5483 e509 2c96 8b3c d478 3b3e
00000010: 6d13 7ebd b0a9 17bc fc6a 423d d72d 76b9
00000020: 5bfc 03bb b745 8e3b e902 1cbe 7160 01be
00000030: 8136 5833 8e6b 24be 6d24 9dbd 8ab1 a7b9
00000040: 3e1b ebbd 403a 23be 972e 928e c5b4 4eb5
00000050: 506d 053e 9696 e2bd dab6 65bd e51d e43d
00000060: 6f53 3dbd c818 ccb9 43f3 343d 68f6 813c
00000070: e7b7 f3bd 64b5 6e3d f1c7 bb3c ff6f 2cbe
00000080: 4748 83bd d698 c6bd 5d57 0c3e 35ea 208e
00000090: 779f 21be e436 d8bd 0317 b6bd 9c20 5a3d
000000a0: 3fb1 2fbd f63b b93d 471a 2b3d b5cb b6bb
000000b0: 91a3 863e 3536 000f 5c12 26b2 edfe 733d
000000c0: 6942 fbbc c2df cabc 9031 093d 6f4c 393a
000000d0: 4568 943d 9a16 243e 433d 27be a8ce dcbd
000000e0: 07c4 cdbd 5857 a1bd 0c08 423e b798 c2bd
000000f0: ae43 50bd fa61 36a6 cca9 1838 6c75 45be
00000100: 8624 d2bd 03c0 0d19 8951 35bd ea6a 783c
00000110: 5c6c cabd c037 e23c ae88 153e 7ec2 5436
00000120: 6848 2b3b d40e 0bbc d3a3 0dbe 3cf4 adbd
00000130: afb9 06ba a54d 0abe 195b a13d 642f 133b
00000140: 83a0 c93d 7128 fd3d d166 1290 1055 0cb9
00000150: 5422 7f3d 1cce 38be f1a8 003e a781 3fbe
00000160: 29de 07be c6fc 883b 2c97 9d3d 5fe3 9f3c
00000170: 9bae ca3d 621f 09be 1271 31bc 6358 8eba
00000180: 7e14 a23d c147 d7bc 76cb f53c 682c de17
00000190: 9a0f e53c 2c3e 253e e1f0 1d3e bbbb 41be
000001a0: f294 01bc 6b08 fcbd 0751 623d 9de2 1ebe
000001b0: d9dd 9b3c e228 930e 47e4 ccaa e586 9fbd
000001c0: 8cd4 663e 4fdb e33d d132 7fbd 5fe0 9bba
000001d0: f990 95bd 98e6 453d 1678 973d d54c 893d
000001e0: 3aff 1e3c 8486 693e 7c35 f33d d29c f4bd
000001f0: 8af1 28bd 0bfe 2125 9127 9a3a 4d47 01be
00000200: 0d24 d2bd ed10 482f b609 b03d 0c71 f83d
00000210: e0a8 4c3e da82 fa3d ed62 29be 4043 a236
00000220: 8571 a0bb 7588 d8bb 5d49 3fbe 649f e73d
00000230: 7a7c 2b39 a60f 2c3e aff0 0cbe 4ceb a4ba
00000240: 29d6 febc 31e8 b43d a376 3a8e 08fd 5bb3
00000250: d867 c33d f5da b73d a846 edbd 558a d2bb
00000260: cd27 67bc f5bb abbc a501 233e ec92 1ebe
00000270: 1a47 bcbd d171 963d 5715 a0bb 0e15 e9bc
00000280: 8f79 10bd d0ef e4bd 559f fe3d e04b 1a81
00000290: 57d9 57bd e0a0 5f3e e908 56bc e3ca dc3c
000002a0: 9c49 01be a043 19be 9230 d73d 296d f0bd
000002b0: 2c82 a6bd eb9d ac0e ad39 09ab faf8 c2bd
000002c0: 3dcc 5ebb 479a 3a3e 949f 99be 3c74 96b9
000002d0: eb66 edbc 7364 dfbc 86ef 243e 2cb6 c1bd
000002e0: 0830 64bb c67a 03be 1f97 00be 5f71 b93d
000002f0: f78c 48bc b11a df25 7c31 88b8 d8ca 20be
00000300: 7cfc 1a3e 1c72 a0ad 5de4 bd3d eb68 02bd
00000310: 7656 733d 2e7b 903d 899d 823d 76ac 0bac
00000320: fd7f 2cbb c3a4 af3a c70d 063e 0f26 c63c
00000330: c5c3 e036 7065 6938 b105 76be 93a8 34ba
00000340: bdab c93d fe9a 363e 9880 f58f 2a6d 14b9
00000350: 36de e6bb 0118 e9bd 5b61 043e a696 e9bc
00000360: 04db a53d 9fe9 acbc f05c 143e d1eb 0a3b
00000370: f9fe 27be fe04 273e 2dca a93c 937b 88bb
00000380: a687 3cbd e36a 363d e494 c93d 2269 7580
00000390: 7787 c2ba 5e37 a3be e862 5cbd f850 c3bd
000003a0: dd92 f3bc 8da0 313e 9342 4a3e 203d b73d
000003b0: dcdc 05be 57f7 600d 4bf5 25ad 8e5c cabc
000003c0: bf4f cfbe 100f 18be 0411 d9bd 0e31 2e3c
000003d0: 0521 f7bc 9520 eb3d 6e3e 3b3e 4fa3 903d
000003e0: 6c77 afbe 8b2f b33c 19c0 253e 088b f7bd
000003f0: e53a 74bd 2603 13a5 d42d 84b9 4774 9e3d

encoder.4.bias f4 [11]
-0.038236234 -0.043261748 -0.033446223 0.048647925 0.14035332 0.07607916 -0.070656225 -0.02570564
-0.064706735 -0.03794452 0.06958026
00000000: 999d 1cbd 3b33 31bd e8fe 08bd 0c43 473d
00000010: c8b8 0f3e 64cf 9b3d 36b4 90bd a294 d2bc
00000020: f784 84bd b76b 1bbd 1880 8e3d

decoder.0.weight f4 [64, 11]
0.083996065 -0.23191302 0.10263055 -0.12585406 -0.1357919 -0.33065343 -0.40076166 0.0023467871
0.28037077 -0.10456192 0.0007552793 0.28747877 -0.228557 0.2260997 0.22796577 0.39527518
-0.36828536 -0.012179285 -0.28901833 -0.06090749 0.09902663 -0.33240923 -0.21737391 -0.3381757
-0.08326235 -0.36573964 -0.23534806 0.17965253 -0.15747298 0.07488594 0.23371467 -0.29598713
0.13476285 -0.2647853 -0.020876136 -0.015963744 0.05599527 -0.36811516 -0.0006255695 -0.06038876
0.08760213 0.1693466 0.22992653 -0.30001503 0.018083982 -0.41596934 0.0060490943 0.15697034
-0.13310246 0.2217848 -0.11670814 0.24272414 0.39157954 -0.022315498 -0.14042257 0.14054386
0.36790875 0.49551177 -0.24276102 0.050571665 0.3590309 0.017977634 0.2168458 0.06586869
-0.40673405 -0.0015158089 0.029556867 0.078794 -0.2784292 -0.25448516 0.16799025 -0.26251754
-0.078210026 0.41493765 0.10276699 -0.28957656 -0.3087743 -0.32167917 0.2480195 0.059900917
0.064968005 -0.29371786 -0.36737812 0.051886506 -0.46082416 0.045002334 -0.2739483 -0.1585064
-0.18942128 -0.10983686 -0.17008473 0.051660936 -0.17537618 0.05885188 -0.14491878 0.05896823
-0.11357085 -0.26981258 0.13626333 0.6120928 0.3293252 0.785537 -0.23051935 -0.2796034
0.33078954 -0.15644658 -0.075985774 0.23432674 0.053456724 0.22525881 -0.2388223 0.33103114
-0.19332124 0.03834727 -0.21379559 0.27755812 -0.07957256 0.33444425 0.16516747 0.04864771
0.25700828 -0.08282072 0.034730468 0.13473397 0.13003263 0.15533882 -0.17551911 -0.041447025
-0.16559964 0.20117342 -0.2384335 0.20294094 -0.26909032 0.21337911 -0.22276539 -0.16803066
0.15314375 -0.34593132 -0.046206933 -0.40337566 0.09341986 -0.15517862 0.029201819 0.0521347
-0.22369581 -0.19887806 0.32618257 -0.08336828 -0.13598925 0.011790834 -0.22372545 0.07691805
-0.063125595 0.055020537 -0.23639165 0.009583787 0.04753544 -0.02818154 -0.1062515 0.2063484
-0.37803555 0.11806838 0.06604176 0.11520398 -0.20456062 -0.12532382 0.088967726 -0.06159028
0.05765137 -0.21543902 0.08835894 -0.017470032 -0.33589685 0.2997108 0.07603892 -0.23406264
0.087195836 -0.2198246 -0.30963868 -0.119601406 0.2680072 0.12281064 -0.07721121 -0.2144181
0.25744602 -0.22799519 0.15904039 -0.100101784 0.0309211 -0.10919903 -0.17426898 0.25512552
-0.1721277 -0.15145129 0.2791055 0.35317156 -0.33663222 -0.18952306 0.31447372 0.029711168
-0.30303514 0.06319731 -0.5279715 -0.19873162 0.18723167 -0.01766019 0.4163036 0.02874611
-0.01133657 0.52851474 -0.24793097 0.068501055 -0.17683828 0.060521964 -0.064039044 0.09252702
-0.34538308 -0.0151886325 -0.39041144 0.025840702 -0.23980972 -0.18525043 -0.22325704 0.055569686
0.06837985 -0.05975195 -0.121657275 -0.063542575 0.20781894 -0.06620215 -0.0004441733 -0.2882787
0.11858282 0.11080551 -0.19882308 -0.031744644 -0.18702352 -0.08059454 0.16160268 0.008234617
-0.3494345 0.24101317 0.11529684 -0.020349763 -0.23406072 0.009006915 -0.4147983 -0.123336285
-0.2391677 -0.14135161 -0.20332284 0.02273522 0.102021165 -0.047947794 0.026828324 -0.33265084
00000000: 2106 ac3d 9b7a 6dbe f72f d23d e3df 00be
00000010: 080d 0bbe 684b a9be a230 cdbe 8ecc 193b
00000020: c28c 8f3e 8f24 d6bd f0fd 453a 6b30 933e
00000030: d90a 6abe ae86 673e dc6f 693e 8261 ca3e
00000040: e68f bcbe a08b 47bc 36fa 93be 227a 79bd
00000050: 79ce ca3d 8b31 aabe 4497 5ebe 5e25 adbe
00000060: 7385 aabd 3a42 bbbe 15ff 70be d5f6 373e
00000070: 9940 21be cd5d 993d e652 6f3e a08b 97be
00000080: 46ff 093e f091 87be 6e04 abbc 66c6 82bc
00000090: 4c5b 653d 9779 bcbe 42fd 23ba 345a 77bd
000000a0: bf68 b33d 3269 2d3e dc71 6b3e 929b 99be
000000b0: dc24 943c eff9 d4be 7b37 c63b d5bc 203e
000000c0: 034c 08be 8e1b 633e ad04 efbd ad8c 783e
000000d0: 1d7d c83e fece b6bc efca 0fbe bbea 0f3e
000000e0: 895e bc3e b8b3 fd3e 5896 78be 3c24 4f3d
000000f0: e6d2 b73e d545 933c d30c 5e3e 2ae6 863d
00000100: 723f d0be 1bae c6ba 3e21 f23c c05e a13d
00000110: 468e 8ebe e14b 82be a305 2c3e b368 86be
00000120: 942c a0bd b572 d43e 8077 d23d 6143 94be
00000130: aa17 9ebe 22b3 a4be d3f8 7d3e aa5a 753d
00000140: f20d 853d 3062 96be fc18 bcbe f286 543d
00000150: 25f1 ebbe 5e54 383d f442 8cbe 804f 22be
00000160: a7f7 41be 26f2 e0bd b12a 2ebe 6b9a 533d
00000170: d095 33be ab0e 713d 9765 14be ac88 713d
00000180: d597 e8bd e024 8abe 9d88 0b3e 1db2 1c3f
00000190: 509d a83e f418 493f 440d 6cbe 2d28 8fbe
000001a0: 3f5d a93e 8833 20be 6e9e 9bbd 59f3 6f3e
000001b0: 70f5 5a3d 3faa 663e d58d 74be ea7c a93e
000001c0: 01f6 45be 0712 1d3d 3bed 5abe 191c 8e3e
000001d0: f0f6 a2bd 473c ab3e a921 293e d242 473d
000001e0: 9796 833e e99d a9bd 8941 0e3d b4f7 093e
000001f0: 4627 053e 2411 1f3e 48bb 33be 5bc4 29bd
00000200: f492 29be 6800 4e3e e927 74be c0cf 4f3e
00000210: 35c6 89be 0e80 5a3e 9c1c 64be 3b10 2cbe
00000220: b7d1 1c3e e91d b1be 7b43 3dbd 4187 cebe
00000230: e952 bf3d 25e7 1ebe a738 ef3c 328b 553d
00000240: 8410 65be b1a6 4bbe 6701 a73e fdbc aabd
00000250: c440 0bbe 582e 413c 4918 65be 3687 9d3d
00000260: fe47 81bd 375d 613d a710 72be 5105 1d3c
00000270: 86b4 423d f9dc e6bc 639a d9bd ff4c 533e
00000280: e08d c1be d6cd f13d e740 873d 10f0 eb3d
00000290: 5778 51be e354 00be b634 b63d 1746 7cbd
000002a0: d823 6c3d 0c9c 5cbe 88f5 b43d 501d 8fbc
000002b0: acfa abbe b273 993e 4bba 9b3d 1eae 6fbe
000002c0: bb93 b23d b319 61be f688 9ebe 95f1 f4bd
000002d0: 3d38 893e 2584 fb3d e920 9ebd 6b90 5bbe
000002e0: f7cf 833e 9277 69be 7cdb 223e 2a02 cdbd
000002f0: 3f4e fd3c bea3 dfbd 9173 32be d09f 823e
00000300: 3e42 30be 0c16 1bbe ebe6 8e3e e7d2 b43e
00000310: 0f5b acbe 5512 42be b302 a13e d664 f33c
00000320: 6c27 9bbe 976d 813d 2429 07bf 4d80 4bbe
00000330: a9b9 3f3e 1aac 90bc bf25 d53e f67c eb3c
00000340: 05bd 39bc be4c 073f 9ee1 7dbe 484a 8c3d
00000350: 1815 35be e1e5 773d e726 83bd ce7e bd3d
00000360: 0dd6 b0be bed9 78bc 02e4 c7be e1af d33c
00000370: ae90 75be 4ab2 3dbe 7e9d 64be 0a9d 633d
00000380: bc0a 8c3d 76be 74bd 7327 f9bd 9c22 82bd
00000390: 7dce 543e fe94 87bd eedf e8b9 4499 93be
000003a0: 8ddb f23d 00ee e23d 4798 4bbe ac06 02bd
000003b0: 1883 3fbe c00e a5bd 2c7b 253e 7dea 063c
000003c0: 14e9 b2be 28cc 763e c020 ec3d 8cb4 a6bc
000003d0: 9dad 6fbe bd91 133c 7160 d4be bc97 fcbd
000003e0: 61e8 74be 7abe 10be dd33 50be 363f ba3c
000003f0: 79f0 d03d e864 44bd 13c7 db3c 3651 aabe

decoder.0.bias f4 [64]
0.49607614 -0.16387898 0.26951838 -0.20400168 -0.48051602 -0.37052196 -0.0016053596 0.25459972
-0.39147982 -0.17035976 -0.3278306 -0.008711311 -0.056698337 -0.16570003 0.31039712 0.30030033
-0.21863133 0.18339153 -0.19025435 0.37923047 -0.6243071 0.02636966 0.063526206 0.067272626
0.78922415 0.145067 0.25977546 0.08542938 0.25881177 0.5273963 0.18095577 0.5577485
-0.26800728 0.7053907 -0.26530734 0.044211477 0.519943 0.023116326 -0.09287542 0.3929897
0.21912438 -0.20065142 -0.23360032 0.07974098 -0.28677654 0.3312331 0.2020557 0.36485815
0.12747338 0.18738832 0.11285814 0.56372523 -0.81432605 0.53707105 -0.3956358 -0.16785242
-0.11314831 -0.2521915 -0.18504977 -0.5407053 0.2954874 0.6026031 -0.021537455 0.537913
00000000: b1fd fd3e e4cf 27be 50fe 893e d1e5 50be
00000010: 3206 f6be 0eb5 bdbe ee6a d2ba e55a 823e
00000020: 0b70 c8be ca72 2ebe 6ad9 a7be e3b9 0ebc
00000030: 843c 68bd 45ad 29be 5fec 9e3e f7c0 993e
00000040: e4e0 5fbe fdca 3b3e 09d2 42be 7f2a c23e
00000050: 97d2 1fbf 2f05 d83c 071a 823d 3bc6 893d
00000060: 980a 4a3f 728c 143e 4a01 853e 99f5 ae3d
00000070: fa82 843e 7203 073f 784c 393e 9bc8 0e3f
00000080: 4038 89be 7c94 343f 5dd6 87be 1817 353d
00000090: fc1a 053f 735e bd3c 7835 bebd f235 c93e
000000a0: 2462 603e 9177 4dbe ec34 6fbe 3d4f a33d
000000b0: 60d4 92be 6397 a93e b0e7 4e3e b0ce ba3e
000000c0: 6288 023e b9e2 3f3e 2b22 e73d 4c50 103f
000000d0: ac77 50bf 7d7d 093f c790 cabe 81e1 2bbe
000000e0: 4dba e7bd 3f1f 81be b07d 3dbe aa6b 0abf
000000f0: 204a 973e 3244 1a3f 516f b0bc abb4 093f

decoder.2.weight f4 [128, 64]
0.1584054 0.45719302 -0.06989477 -0.032480814 -0.06708571 -0.12869851 -0.122683704 0.026512552
-0.028711664 -0.010738766 0.06255124 0.0015273476 -0.071910545 -0.17842324 -0.0023445261 0.0007596988
0.073487915 0.15472272 -0.021252137 -0.016550634 0.028228018 0.07476091 0.15271059 -0.0708158
-0.039391015 -0.05647026 -0.15697077 0.1870447 0.11399532 0.04380825 -0.09357737 -0.027103683
-0.10583047 0.028618388 -0.044881944 0.040463466 -0.017218353 0.034032367 -0.063713424 -0.12576981
-0.065520145 0.019280134 -0.08045789 0.070528306 0.040226743 0.11731146 0.053965632 0.054346923
-0.058190126 -0.054882705 -0.04293135 0.0338365 0.013538444 0.13318068 -0.08488599 -0.018437227
0.019602537 0.061953723 -0.038644485 -0.041307278 -0.05448262 0.011702486 -0.061891712 0.16881517
0.09885045 0.03755734 -0.12812354 0.098395616 -0.062768295 0.018072255 -0.13591789 -0.13028233
0.11624248 -0.065927684 0.0029154962 -0.05312251 0.21092074 0.051938448 0.03909796 0.056111142
0.107582405 -0.12895143 -0.0487059 -0.045625065 0.1988687 -0.11577344 0.04282143 0.12780514
0.1036632 0.11171026 0.025668165 0.19739084 -0.048102558 -0.053763714 0.023305533 -0.06529258
-0.043239053 -0.043909855 -0.091437 -0.11157325 -0.102533326 -0.040114425 -0.0102378875 -0.17349848
0.09680897 0.049977 -0.09672015 0.028362596 -0.011395945 -0.01872625 0.027733298 0.044173885
0.24046716 0.015008434 0.052480657 0.20112433 0.10372624 0.0015529008 -0.101007156 -0.011236701
-0.007156209 -0.021899771 -0.075935766 -0.08099442 0.06109158 -0.1078665 -0.017227056 -0.01066284
0.038207065 -0.24936324 -0.08491954 0.07680279 -0.0631042 0.08633841 0.103636846 -0.013396562
-0.11628444 -0.04643551 -0.34782216 -0.059533745 0.07817187 0.080105044 0.05356565 0.039655168
-0.022182213 0.018446364 -0.27982855 -0.016799422 0.066147245 -0.19609945 -0.053030506 0.022454329
-0.0026293858 -0.045994103 -0.08277505 0.24794525 -0.11804276 0.15277143 0.07421314 0.09944943
0.06527987 0.022557274 -0.05578992 0.068669535 0.06645051 0.046703897 -0.09988136 0.07510009
-0.09199075 0.02349714 0.084028125 0.098404095 -0.06007432 -0.06930135 0.27638358 0.2820922
0.03844139 0.015256556 0.06539205 -0.058048896 0.015749756 0.084772445 0.1568535 -0.14889696
-0.052225027 0.054257542 -0.03947155 0.0669867 -0.26922032 -0.131628 0.027073346 0.00017164244
0.085991 0.092345074 -0.045321275 0.04026917 -0.057830073 -0.12826043 -0.12405464 0.08941502
0.13530517 0.008822287 0.14491229 0.026804285 -0.04422191 0.11762826 -0.0104432525 -0.105506346
0.010511289 -0.08201178 0.045545746 0.05184859 0.03258778 0.035850935 -0.05868238 0.022614678
-0.22743124 -0.08958887 -0.15331003 0.06294082 -0.12212771 0.026252232 -0.11948464 -0.090985596
0.03251766 -0.005935439 -0.104891606 0.039347865 0.068572775 0.0036396522 -0.016051823 -0.3810999
0.08268448 -0.18413764 0.029077612 0.11314641 0.12672432 0.09599454 0.1891055 0.020011047
0.004668169 -0.19703367 0.2117087 -0.018302007 -0.015776724 -0.037241362 0.027745163 0.03324446
-0.06674942 0.06861664 -0.1122059 0.063142456 0.09689303 -0.08633336 -0.13012944 0.015360071
00000000: 0635 223e 3415 ea3e fd24 8fbd 9a0a 05bd
00000010: 3c64 89bd 8bc9 03be 9841 fbbd da30 d93c
00000020: b934 ebbc a6f1 2fbc dd1a 803d 4831 c83a
00000030: d645 93bd 95b4 36be 9fa6 19bb 8626 473a
00000040: d580 963d a26f 1e3e f618 aebc 3295 87bc
00000050: 723e e73c 3f1c 993d 2a60 1c3e e007 91bd
00000060: 7958 21bd 5c4d 67bd f2bc 20be a588 3f3e
00000070: 6176 e93d 4870 333d 7ea5 bfbd 8b08 debc
00000080: a5bd d8bd 1c71 ea3c 21d6 37bd 05bd 253d
00000090: 810d 8dbc 8665 0b3d 2f7c 82bd cdc9 00be
000000a0: 6d2f 86bd 5ff1 9d3c 1bc7 a4bd 2571 903d
000000b0: ccc4 243d fe40 f03d 110b 5d3d e19a 5e3d
000000c0: c558 6ebd b0cc 60bd c9d8 2fbd 2498 0a3d
000000d0: 5ad0 5d3c 8460 083e b5d8 adbd ab09 97bc
000000e0: 8095 a03c 30c3 7d3d ae49 1ebd d231 29bd
000000f0: 2b29 5fbd c9bb 3f3c 2a82 7dbd e2dd 2c3e
00000100: 1b72 ca3d bad5 193d d132 03be a483 c93d
00000110: aa8c 80bd 440c 943c 0f2e 0bbe bb68 05be
00000120: 8a10 ee3d 1805 87bd e911 3f3b fd96 59bd
00000130: 9bfb 573e 69bd 543d 2f25 203d ccd4 653d
00000140: 2a54 dc3d d80b 04be d67f 47bd 59e1 3abd
00000150: 3da4 4b3e a01a edbd 8665 2f3d 5adf 023e
00000160: 5f4d d43d 59c8 e43d 0b46 d23c d320 4a3e
00000170: 3007 45bd 5737 5cbd 3feb be3c 1eb8 85bd
00000180: 6f1b 31bd d2da 33bd 5243 bbbd 8480 e4bd
00000190: fefc d1bd 064f 24bd d0bc 27bc 96a9 31be
000001a0: c843 c63d afb4 4c3d 3715 c6bd ad58 e83c
000001b0: 0fb6 3abc cb67 99bc f130 e33c adef 343d
000001c0: 063d 763e efe5 753c f5f5 563d 89f3 4d3e
000001d0: 6c6e d43d b48a cb3a d7dc cebd 241a 38bc
000001e0: a27e eabb 2667 b3bc 3684 9bbd 67e0 a5bd
000001f0: 2a3b 7a3d 1de9 dcbd c11f 8dbc 31b3 2ebc
00000200: 037f 1c3d 1459 7fbe 4cea adbd c84a 9d3d
00000210: c63c 81bd 31d2 b03d 8e3f d43d 417d 5bbc
00000220: 8926 eebd 2933 3ebd bf15 b2be a8d9 73bd
00000230: 9318 a03d 1d0e a43d a867 5b3d 756d 223d
00000240: 79b7 b5bc d41c 973c b045 8fbe f19e 89bc
00000250: 3578 873d 4bce 48be 8436 59bd 24f2 b73c
00000260: c651 2cbb 5064 3cbd f785 a9bd 5ce5 7d3e
00000270: 67c0 f1bd 1d70 1c3e 0ffd 973d 25ac cb3d
00000280: 74b1 853d 08ca b83c f983 64bd 9da2 8c3d
00000290: 3417 883d 964c 3f3d 998e ccbd 13ce 993d
000002a0: a565 bcbd 137d c03c f016 ac3d 1688 c93d
000002b0: 7d10 76bd deed 8dbd 2682 8d3e 646e 903e
000002c0: b874 1d3d a2f6 793c 44ec 853d aec4 6dbd
000002d0: a205 813c 2d9d ad3d 349e 203e 7278 18be
000002e0: e9e9 55bd 283d 5e3d ecac 21bd 5330 893d
000002f0: 3fd7 89be 7ec9 06be ecc8 dd3c ebfa 3339
00000300: 0d1c b03d 6a1f bd3d cda2 39bd 49f1 243d
00000310: 3adf 6cbd b456 03be 5c10 febd 391f b73d
00000320: 708d 0a3e 5b8b 103c e363 143e a994 db3c
00000330: 0922 35bd 16e7 f03d 2d1a 2bbc b613 d8bd
00000340: 8b37 2c3c cbf5 a7bd 2d8e 3a3d 305f 543d
00000350: c47a 053d 6ed8 123d ef5c 70bd 6b42 b93c
00000360: bce3 68be 5f7a b7bd 4efd 1cbe 1ee7 803d
00000370: 181e fabd ec0e d73c 5db4 f4bd a856 babd
00000380: 3d31 053d 127e c2bb 69d1 d6bd 3a2b 213d
00000390: e26f 8c3d 3b87 6e3b 1d7f 83bc 871f c3be
000003a0: 7b56 a93d 948e 3cbe 2c34 ee3c 4eb9 e73d
000003b0: 05c4 013e c998 c43d dfa4 413e 35ee a33c
000003c0: 71f7 983b 32c3 49be 2aca 583e 17ee 95bc
000003d0: 303e 81bc 668a 18bd d349 e33c 582b 083d
000003e0: ebb3 88bd e286 8c3d 35cc e5bd d550 813d
000003f0: da6f c63d 8bcf b0bd a740 05be cfa8 7b3c

decoder.2.bias f4 [128]
0.26928353 -0.12810272 -0.003968845 -0.3118776 0.02620312 -0.28316626 -0.041278873 -0.73465973
0.420653 -0.22417797 0.045109864 0.043207414 -0.04144122 0.17789885 -2.5247279e-38 0.1647596
0.15767099 -0.09117257 -0.024745436 -0.35159197 -0.058214642 0.9325532 0.013642852 -0.0002243501
-0.34764442 0.038328353 -0.12981129 0.09712562 -0.18425728 -0.18193944 0.18457437 0.03583425
-0.5107266 0.11087681 0.33192822 -0.007892369 -0.21821618 0.1519471 0.09309018 -3.1856494e-38
-0.30253175 0.009190007 -0.742621 -0.110181764 -0.08628832 -0.17839734 -3.3187924e-38 0.45132443
-0.26794574 -3.7450994e-15 0.16827422 -0.16398804 -0.23605278 -0.14000086 -0.22556578 -0.20546626
0.23305754 -0.18807311 0.36517093 -2.2520538e-38 -0.17443824 -0.043985985 0.009661265 -0.057593923
-0.0022314177 -4.7551875e-38 0.15855159 0.112994425 -0.11680034 0.03945558 -2.1448838e-38 -0.29030246
-0.2495989 -0.28486055 0.15658362 0.32146183 -0.14568856 0.091010414 -0.02899348 -0.17364347
0.10858893 0.2048774 0.18366538 -0.43832096 -8.863073e-08 -0.37849537 -0.71379167 0.2701134
-0.17426658 0.108891174 0.2870053 -0.2661687 0.20054471 -0.18460663 0.14029236 0.84843236
-0.10226676 0.07659587 0.052362252 0.37865123 0.29075474 -0.03415801 0.49170947 -0.0048014815
-0.28363302 -4.0711722e-38 -0.5439475 0.08335737 -0.47216937 0.113336876 0.6428248 -1.9524009e-08
0.16027252 -0.12649523 -0.3636251 -0.013599678 -0.8217428 0.13383417 -0.007023278 0.22938412
-4.2348226e-38 0.107022434 -0.070254415 0.15733431 0.14029029 -0.052696217 -0.09763412 -0.05927368
00000000: 88df 893e 5c2d 03be 160d 82bb 6cae 9fbe
00000010: eda7 d63c 2bfb 90be 0914 29bd a912 3cbf
00000020: d45f d73e e98e 65be 1fc5 383d 42fa 303d
00000030: 45be 29bd 1e2b 363e 9275 0981 beb6 283e
00000040: 8174 213e afb8 babd f1b6 cabc dd03 b4be
00000050: 7a72 6ebd cebb 6e3f 4586 5f3c 853f 6bb9
00000060: 73fe b1be 31fe 1c3d 40ed 04be cce9 c63d
00000070: f1ad 3cbe 554e 3abe 1001 3d3e efc6 123d
00000080: fabe 02bf 6213 e33d 7ff2 a93e ff4e 01bc
00000090: 1074 5fbe 0598 1b3e 10a6 be3d 7971 2d81
000000a0: 71e5 9abe af91 163c 691c 3ebf faa6 e1bd
000000b0: eeb7 b0bd cbad 36be 37b1 3481 ff13 e73e
000000c0: 2f30 89be 72ee 86a7 1450 2c3e 7bec 27be
000000d0: d2b7 71be 635c 0fbe b7fa 66be bf65 52be
000000e0: a3a6 6e3e 3d96 40be aff7 ba3e 193a f580
000000f0: f09f 32be a62a 34bd 484a 1e3c 9be7 6bbd
00000100: fa3c 12bb d272 8181 595b 223e 9f69 e73d
00000110: 0435 efbd 2d9c 213d a28e e980 86a2 94be
00000120: db96 7fbe 3ed9 91be 7557 203e a596 a43e
00000130: 622f 15be ab63 ba3d bc83 edbc 98cf 31be
00000140: df63 de3d 62cb 513e c712 3c3e 9b6b e0be
00000150: 4255 beb3 25ca c1be 0dbb 36bf 4e4c 8a3e
00000160: f072 32be 5602 df3d 5cf2 923e 4447 88be
00000170: 985b 4d3e 8509 3dbe cda8 0f3e dd32 593f
00000180: 3c71 d1bd 4cde 9c3d cd79 563d 93de c13e
00000190: cedd 943e 45e9 0bbd 58c1 fb3e bf55 9dbb
000001a0: 5938 91be dca7 5d81 2540 0bbf 45b7 aa3d
000001b0: 2fc0 f1be 2a1d e83d 2b90 243f c0b5 a7b2
000001c0: 7b1e 243e f787 01be 122d babe 2fd1 5ebc
000001d0: bc5d 52bf d30b 093e 8723 e6bb ace3 6a3e
000001e0: d090 6681 942e db3d 8ce1 8fbd 3f1c 213e
000001f0: 42a8 0f3e fdd7 57bd 66f4 c7bd f5c8 72bd

decoder.4.weight f4 [784, 128]
-0.0069069015 0.0008671788 -0.0004278791 0.00056956726 -0.00076088496 0.00023066718 -0.0003449244 0.010732192
-0.004047466 -0.0012565511 -0.004340134 0.0005131736 0.00068715285 -0.011007864 -3.4559865e-38 -0.008693502
-0.0014866886 0.0014150372 0.0010133395 0.0003735121 -0.002662665 -0.06432809 0.0010086254 -2.2440667e-38
0.006279897 0.00058864296 -0.0026786288 -0.0009192019 0.0008345973 -0.003942493 0.0018022346 -0.005032677
0.004856777 -0.002604613 -0.007948743 -0.00011627178 -0.0005061842 0.00060557807 -0.0014239631 -7.72522e-40
8.282295e-06 0.0027040623 0.00773397 0.0020852808 -3.4128538e-05 0.00015503979 -1.3193217e-38 -0.0032557906
0.0019611665 -1.8690541e-38 0.00018291973 0.0018828207 0.0003939492 0.0043457705 -0.00014682465 -0.00085692195
-0.0044955844 -0.00010067298 -0.008589861 1.0897356e-38 -0.0008660584 -0.0020476286 -0.0015068452 0.00043879653
-0.0022303502 -1.8223224e-38 0.00097063644 -0.0022281483 0.0008565106 -0.0019296784 9.840093e-39 0.0009917205
0.0025893531 -7.487826e-05 -0.013471244 -0.0068606897 -0.0012588298 0.00029014124 0.00037911438 -0.0018267023
-0.0022776963 -0.005229544 -0.0076626586 0.0012225629 2.1462936e-38 0.0050201328 0.02217871 -0.006069729
0.0017320412 -0.0043800315 -0.006301904 0.004205217 -0.0032580316 -0.0003848098 -0.0014247098 -0.041431017
-0.0025384354 0.00034744106 0.0011998983 -0.005709445 -0.016681064 -0.0030674902 -0.019407196 -4.7944144e-05
-0.00046500989 -3.6471982e-38 0.0106011955 -0.0013824976 0.0032863352 -0.00546637 -0.029414281 2.7467305e-13
-0.007034069 0.002371205 0.0042677675 0.0019896023 0.024293998 0.0014340155 -1.534636e-05 -0.0035349657
-4.1137056e-38 -0.001132496 -0.0028108319 -0.0004369443 -0.006508162 0.0002875758 -0.00053388916 -0.005221994
-0.006961919 0.00087862177 -0.00042224856 0.0005598762 -0.000757881 0.00022180396 -0.000344606 0.010784695
-0.004042841 -0.001262584 -0.0043781963 0.0005234792 0.00066193327 -0.011092219 -1.0157727e-38 -0.0086671
-0.0015172425 0.0014223077 0.0010173715 0.0003715224 -0.0027052874 -0.064816535 0.0010103029 -1.9643874e-38
0.006248131 0.0006280165 -0.0026784996 -0.0009204203 0.0008491476 -0.0039636386 0.0018235428 -0.00504955
0.004895081 -0.0026324734 -0.007996324 -0.00010393056 -0.00051114924 0.00061892235 -0.0014184141 -1.1659676e-38
-3.819925e-06 0.0026923893 0.007769635 0.0021056556 -3.9955004e-05 0.00015618902 6.566374e-38 -0.0032538217
0.0019758777 -4.89134e-38 0.00017758552 0.0018655934 0.00039373414 0.004375613 -0.00014677629 -0.00086308643
-0.0045318543 -9.658153e-05 -0.008667039 1.6656488e-38 -0.00088616257 -0.0020631102 -0.0015109899 0.00043221124
-0.0022420564 1.13404e-39 0.00097374397 -0.0022427996 0.00084868434 -0.0019278436 -2.891018e-38 0.0010015083
0.0026103123 -7.5050375e-05 -0.013576087 -0.0068862448 -0.0012682558 0.0002976905 0.00037549247 -0.0018616966
-0.0022823764 -0.0052494565 -0.007700909 0.001227956 2.1647479e-38 0.0050604884 0.022277366 -0.006107805
0.0017613068 -0.004411335 -0.0063575455 0.004227962 -0.0032564388 -0.00039445166 -0.0014828069 -0.041648045
-0.0025610626 0.0003467774 0.0012141903 -0.0057472377 -0.016865462 -0.003074634 -0.01948239 -1.8033948e-05
-0.00046497953 2.590763e-39 0.01075263 -0.0013983836 0.003319424 -0.005519264 -0.029592259 4.732654e-13
-0.007052806 0.0023813916 0.0042742696 0.002004731 0.024478719 0.001451455 -6.7011883e-06 -0.0035740584
-2.687606e-38 -0.0011231888 -0.0028366426 -0.0004350217 -0.0065414733 0.00029087035 -0.0005409992 -0.0052520204
00000000: 4a53 e2bb 6253 633a f654 e0b9 034f 153a
00000010: 2076 47ba 40df 7139 f8d6 b4b9 13d6 2f3c
00000020: 9ba0 84bb dcb2 a4ba af37 8ebb 7f86 063a
00000030: 0c22 343a 545a 34bc 6c29 3c81 316f 0ebc
00000040: fedc c2ba c578 b93a 08d2 843a f2d3 c339
00000050: 1b80 2ebb 72be 83bd da33 843a 735b f480
00000060: 98c7 cd3b 294f 1a3a ef8b 2fbb 98f6 70ba
00000070: e0c8 5a3a 0730 81bb f538 ec3a 28e9 a4bb
00000080: 9925 9f3b 28b2 2abb 723b 02bc f0d6 f3b8
00000090: 72b1 04ba a8bf 1e3a 46a4 baba 7a69 0880
000000a0: 30f4 0a37 a336 313b 3e6d fd3b 35a9 083b
000000b0: 3d25 0fb8 2d92 2239 52a9 8f80 1a5f 55bb
000000c0: ea86 003b a085 cb80 24ce 3f39 fbc8 f63a
000000d0: f78a ce39 f766 8e3b f1f4 19b9 0fa3 60ba
000000e0: b24f 93bb 6520 d3b8 7dbc 0cbc 65a9 7600
000000f0: 3208 63ba 8231 06bb 5681 c5ba 460e e639
00000100: 112b 12bb ef6e c680 4f72 7e3a 2006 12bb
00000110: 7487 603a 43ed fcba 2d26 6b00 9efc 813a
00000120: 23b2 293b f607 9db8 7eb6 5cbc a3cf e0bb
00000130: 52ff a4ba 191e 9839 dfc3 c639 f56d efba
00000140: 6745 15bb 985c abbb 0a17 fbbb 673e a03a
00000150: efb5 e900 ed7f a43b 20b0 b53c 94e4 c6bb
00000160: a905 e33a 5e86 8fbb 3480 cebb ebcb 893b
00000170: b384 55bb 4cc0 c9b9 54bd baba 92b3 29bd
00000180: e15b 26bb c028 b639 e845 9d3a 4c16 bbbb
00000190: baa6 88bc f207 49bb d7fb 9ebc a217 49b8
000001a0: 92cc f3b9 8692 4681 a3b0 2d3c ec34 b5ba
000001b0: 8e5f 573b 3c1f b3bb 38f6 f0bc 8fa0 9a2a
000001c0: 0c7e e6bb 3866 1b3b a1d8 8b3b fd63 023b
000001d0: 3504 c73c 93f5 bb3a 0fbc 80b7 e2aa 67bb
000001e0: b0f8 5f81 4370 94ba ef35 38bb ac15 e5b9
000001f0: 6b42 d5bb c5c5 9639 b2f4 0bba 431d abbb
00000200: cf20 e4bb 4f53 663a 3e61 ddb9 a8c4 123a
00000210: 88ac 46ba 0c94 6839 3cac b4b9 4ab2 303c
00000220: cf79 84bb 4a7d a5ba f976 8fbb 183a 093a
00000230: 9785 2d3a 23bc 35bc 9c9b 6e80 7400 0ebc
00000240: 36de c6ba ba6c ba3a 5359 853a e4c8 c239
00000250: 314b 31bb 88be 84bd 246c 843a 21e7 d580
00000260: 1fbd cc3b 79a1 243a c489 2fbb 5c48 71ba
00000270: 5599 5e3a 69e1 81bb f103 ef3a b276 a5bb
00000280: ea66 a03b 9385 2cbb 0403 03bc 4bf5 d9b8
00000290: a5fe 05ba 2d3f 223a 14ea b9ba 6ff6 7e80
000002a0: e82c 80b6 cc72 303b 6c98 fe3b 0aff 093b
000002b0: 5c95 27b8 acc6 2339 f3c0 b201 123e 55bb
000002c0: ba7d 013b aa27 8581 4036 3a39 ed86 f43a
000002d0: 1a6e ce39 4d61 8f3b f6e7 19b9 c040 62ba
000002e0: f37f 94bb d08b cab8 3200 0ebc 835f b500
000002f0: 5d4d 68ba 3f35 07bb 680c c6ba 699a e239
00000300: 77ef 12bb 3e59 0c00 da42 7f3a effb 12bb
00000310: 3e7a 5e3a b2af fcba e966 1d81 0b45 833a
00000320: c611 2b3b 5d64 9db8 3c6e 5ebc 02a6 e1bb
00000330: 9a3b a6ba 5813 9c39 bfdd c439 2c04 f4ba
00000340: ec93 15bb a203 acbb e857 fcbb 5ef3 a03a
00000350: 5db8 eb00 74d2 a53b 067f b63c fb23 c8bb
00000360: a6db e63a f68c 90bb f552 d0bb b78a 8a3b
00000370: fa69 55bb 68ce ceb9 be5a c2ba 2497 2abd
00000380: 80d7 27bb adcf b539 7725 9f3a 5353 bcbb
00000390: 7029 8abc cc7f 49bb 8899 9fbc 9c47 97b7
000003a0: 7fc8 f3b9 fe35 1c00 cd2b 303c f849 b7ba
000003b0: b28a 593b f1da b4bb 776b f2bc 5e36 052b
000003c0: 3a1b e7bb 1f11 1c3b 2c0f 8c3b ce61 033b
000003d0: 9887 c83c c03e be3a c5da e0b6 c03a 6abb
000003e0: c353 1281 f637 93ba f7e6 39bb a013 e4b9
000003f0: db59 d6bb f57f 9839 d7d1 0dba 2419 acbb
