day3/solutions/simple_autoencoder/simple_autoencoder_4.pt (torch_old, 877113 bytes, 12 tensors)

encoder.0.weight f4 [128, 784]
00000000: bf71 9e3c a455 a13c 42eb 963c 44b1 983c
00000010: 6117 973c 0ef9 873c 9595 8c3c 133a 9b3c
00000020: 28af 943c 0c15 9e3c c2b4 a53c 4817 943c
00000030: 2cc0 9b3c 9ca9 6b3c db31 7e3c 1494 8b3c
00000040: b852 a83c fcc3 993c 28d8 893c eb3c 9f3c
00000050: 8f9a 8a3c 5db4 883c 6712 9c3c 1347 963c
00000060: a05a 8b3c d6bb 8f3c 00a8 903c edee 8c3c
00000070: 968a 883c 63eb 833c 216b a33c 968e 903c
00000080: b2ba a23c cceb 813c bfe1 a73c e6a0 7f3c
00000090: 4553 833c 897c 933c f40a 6e3c a615 b33c
000000a0: 00ac f93c 77f8 023c 8637 2fbb 4f8d fcbb
000000b0: 4fee 96bb 32d0 903c 7be6 873c 2eee 4e3c
000000c0: 7867 25ba 5351 9c3c d94f be3c 7d90 873c
000000d0: 1955 913c b08e 8a3c 6d56 8b3c 93a2 9a3c
000000e0: b443 a23c 6c89 8c3c c39a 933c 5d0e 8a3c
000000f0: 247e c83c 0c3e 7f3c 5121 343c e3c1 ba3a
00000100: 7145 11bc 0811 b1bc c26f aebc 89bd 08bc
00000110: e016 8d3b ea1c 45bc 7918 18bd 0a62 e2ba
00000120: 16a8 f33c c2bc a73c beb6 04bc 57f5 afbc
00000130: 71ab 9fbb 6929 663c 8852 453c 9e7c cdb8
00000140: 2622 bc3b 0250 823c b522 883c f160 8f3c
00000150: 9e3f 8b3c b96f 903c 7a90 803c 8d2b 983c
00000160: 3f24 9b3c 7f5c 913c 8ff5 c03a 6cd7 bebc
00000170: a2b6 66bd 24a9 1bbd 35d6 69bc 17a6 f0ba
00000180: de22 823c 7b05 9c3d ef96 f83c 34f7 cb3c
00000190: f169 453c 9d33 f13c b644 6bbb 7ee1 75bd
000001a0: e0bc c4bc 13ca b53c a9a0 10bc 2f6f 253b
000001b0: f115 8c3c 962c 5d3c 66be a93c 8da7 963c
000001c0: 0a7f 8b3c ae6e 7f3c 4eea a43c 30fb 953c
000001d0: 5316 edbb 6a79 1abc 866a 4cbc 84b9 c3bc
000001e0: f567 1cbb 3b4f 193d 602c a23d aeb3 023e
000001f0: fe21 c43d 05ee 8d3d a6be e63d 15b3 13bc
00000200: 2e90 43bc 27df 65bc 5cfe 3ebd 0f53 a9bd
00000210: 8223 0abd ee58 4fbd acd9 083d 59f4 f1bc
00000220: 49d8 dcbc aa43 923c 0058 aa3c 4809 a53c
00000230: 069d 8f3c 8339 983c a5d5 8b3c 9b0d 7f3c
00000240: e0ae 83bc 4138 2bbd f154 1bbd 37fd eebc
00000250: 7c42 7f3c 70ae 343d c984 603c 0ae2 4a3d
00000260: 6a63 833d c47c 353d 3e7d d43c 2cef 5f3d
00000270: 4bd4 abba 6590 c23c ad32 61bc f56e aebd
00000280: 8943 6dbd 0bfa 04bd 721e 903d 54fd 553b
00000290: 7eb3 673c 2f0e 9bbb 3a86 ce3c 960b b13c
000002a0: c221 963c 56d5 943c e13d 893c e161 d03c
000002b0: df68 85b8 0184 dfbb cf98 b43c 1983 6b3c
000002c0: 5021 863c 96b3 183c 8a26 21bb 7928 473b
000002d0: 2a3c 473d e3b5 733c f6e1 073d 1cbf c93c
000002e0: 76c8 823d 0d30 843d 0bd6 453d 0e74 1abd
000002f0: 878d f03c 4597 753d c389 f23c 5c3b 0f3c
00000300: f76f d63c 6f8c 0b3d 8fd4 063d 6fe7 a73c
00000310: 8290 983c 9ef5 ea3c 949c 6b3c 8ef5 1c3d
00000320: 0d80 c43c 4458 283d a5df 0c3d 19ae 09bd
00000330: 4949 983c 5ba6 2abd 265a 70bd b00d 3abd
00000340: d411 443b 0516 cf3d 7121 733c be1d 603d
00000350: 57e8 1c3d 93e5 8e3d df09 a53d a76e fc3c
00000360: 2aac ae3c 106f 933d 315c ab3c ad66 243d
00000370: 6f58 293d c1da dc3c f5f2 743c 3ad4 8d3c
00000380: eb2c 9d3c 7ab7 773c d72a 5b3c 3441 e43c
00000390: e2af b03b 7114 f23c dc50 1f3d 4c3f 043d
000003a0: da33 b6bc cdb5 f8bd a72a 4cbd 8e51 c8bc
000003b0: 4f89 eabc d977 cbbb d108 143c c91a 9a3d
000003c0: 1c3d 283d 8b85 ddbc c0ea 623d 6b9e 433d
000003d0: 2a2f fe3c 8a82 9a3d dd4f 953c 1b17 f83c
000003e0: 4f8c e6bc 5f10 c8bc 74c2 fc3c e2c1 a93c
000003f0: 8270 853c 59be b03c a5f5 8a3b 08f3 703c
0.019341348 0.019694157 0.018422727 0.018639214 0.018443765 0.01659825 0.01716117 0.01894859
0.018149927 0.019297145 0.020227794 0.018077508 0.019012533 0.0143837 0.015514816 0.017038383
0.020547256 0.01877021 0.016826704 0.019438228 0.016919402 0.016687566 0.019051744 0.018344438
0.017010987 0.017545622 0.017658234 0.017203772 0.016667645 0.016103452 0.019948544 0.017646115
0.019864414 0.015859507 0.020493386 0.015602326 0.016030917 0.018003719 0.014528979 0.021860909
0.030477524 0.007993809 -0.0026735975 -0.007707275 -0.0046060453 0.0176774 0.016589394 0.012630029
-0.00063096685 0.019081747 0.023231434 0.01654839 0.017740773 0.016913742 0.017008984 0.01887635
0.019807674 0.017155372 0.018018132 0.016852552 0.024474211 0.015578758 0.010994271 0.0014248457
-0.008866654 -0.021614566 -0.021293525 -0.00834597 0.0043057054 -0.012030819 -0.037132714 -0.001727165
0.029743236 0.020475749 -0.00810021 -0.021479292 -0.0048727323 0.014047959 0.012043603 -9.7983735e-05
0.0057413755 0.015907291 0.016618112 0.01750228 0.016998108 0.017631399 0.015693892 0.018575454
0.018938182 0.0177443 0.001472162 -0.02329608 -0.056326516 -0.038003102 -0.014272262 -0.0018360046
0.015885767 0.07618233 0.030345408 0.02489815 0.012049184 0.029443556 -0.003589911 -0.0600295
-0.024015844 0.022191083 -0.008827367 0.0025243273 0.017100306 0.0134994 0.020720672 0.018390441
0.01702835 0.015590353 0.020131256 0.018308252 -0.0072353273 -0.009428361 -0.012476569 -0.023892172
-0.0023865674 0.037429076 0.0791862 0.12763855 0.09576796 0.06930164 0.11266832 -0.009014864
-0.011936231 -0.014030254 -0.046629295 -0.08267795 -0.03372527 -0.05062192 0.033410713 -0.02953546
-0.026958602 0.01785453 0.020793915 0.020146027 0.01753093 0.018582111 0.017069647 0.015567209
-0.016074598 -0.041801695 -0.037922803 -0.029173477 0.015579816 0.04411167 0.013703533 0.049531974
0.06415446 0.04430844 0.025938626 0.05467145 -0.0013109533 0.023750493 -0.013744992 -0.08517257
-0.057925735 -0.032465022 0.07037057 0.0032652216 0.014141915 -0.0047319154 0.025210489 0.02161197
0.018326644 0.018168133 0.016753139 0.025437297 -6.361468e-05 -0.006821156 0.022045521 0.014374518
0.016373307 0.00932016 -0.0024589621 0.0030389114 0.04864136 0.014874908 0.033174478 0.02462726
0.06385891 0.064544775 0.04829983 -0.037708335 0.02936436 0.059958715 0.029606706 0.00874218
0.026176436 0.034069475 0.032917555 0.020496098 0.018623594 0.028681573 0.014380593 0.038320117
0.02398684 0.0410998 0.03439297 -0.033613298 0.018589633 -0.041662555 -0.058679722 -0.04542321
0.0029917853 0.10111622 0.014839516 0.054715864 0.038307514 0.069773816 0.080585234 0.030814482
0.021322329 0.07198918 0.020917984 0.04013698 0.041344102 0.026959779 0.014950504 0.017313112
0.019186458 0.015119428 0.013376913 0.027863123 0.0053920606 0.029550763 0.038895473 0.032286927
-0.022241522 -0.12144051 -0.049845364 -0.02445295 -0.028629927 -0.0062093553 0.009035305 0.0752464
0.041073903 -0.027041217 0.055399656 0.0477585 0.031028349 0.075444296 0.018226558 0.030284455
-0.028143076 -0.024421869 0.030854441 0.020722333 0.016289 0.02157514 0.004240709 0.014706381

encoder.0.bias f4 [128]
00000000: 1ba3 e3bc 296d 1b3d cf85 ba3b d796 40bc
00000010: 08eb e3bc 42e2 99bb db16 06bd dc19 663d
00000020: 88cd 93bc 62ee 0e3d 106d a43b 1b4c c9ba
00000030: faa3 40bc 2670 86bd d6de 8dba 09b1 db3b
00000040: cc36 afbb 44ee 883c 2543 afbd 5647 11bd
00000050: 3914 d5bc 05b4 273d 4e7b 72bd efd7 103d
00000060: 02a2 f83c 98b6 be3c b7d0 0abd 8723 df3c
00000070: 7dbe 9fbb 5cd0 c43c 0609 18bc 290e e8bb
00000080: 60d8 13bd fdb2 a4bc 4fc8 75bc ab15 3fbd
00000090: ef2f 6ebd a408 4d39 1610 af3b 7262 ce3c
000000a0: 0a05 d7bc 107e 3a3d 9796 b9bc 1b63 d0bb
000000b0: ef0c 1ebc ef15 dbbb d966 883d e319 23bd
000000c0: 855c 883b 98ab a73c 6b78 e33c 12c3 91bc
000000d0: 5cf3 70ba 72cf 01bd f080 3dbb 3990 86bb
000000e0: 6316 b1bb 7c66 1cbd 794f 0abb 7cda 5ab9
000000f0: e892 8f3d bcd0 083d a194 073a 13ca 20bd
00000100: 56bd ab3d 3671 553d 8b77 b83b a4b6 05bc
00000110: 9c28 183d 6131 f53c 85e0 1c3d 56e9 50bc
00000120: affa 03bd 9526 a4bc b46e 23bd a196 6b3d
00000130: abaf ca3c 2396 22bc dbf4 d7bc d616 e8bc
00000140: dea5 a3bc afc5 5a3d bbbd 87bc ca73 fa3c
00000150: 8ae0 7dbc 860c 833d ce56 043d 76dc ed3c
00000160: 38c4 c53c 154e 14bc 1536 0e3c 365a 8fba
00000170: 083a b4bc 9a1c 50bd 8e2c 413d 3e25 c6bc
00000180: 76a9 d5bb 2442 ddbc eb9b c6bc 2533 2fbb
00000190: 3c99 573d 802d d93b 295e 0bbc e350 fc3d
000001a0: a293 853c 08df d8bc 37db e7bc 56c0 93ba
000001b0: 8006 c1bc dcd8 203c 8947 593d a655 d73c
000001c0: 1b78 e8bc 4abf 40bc 5832 2fbd 8778 95bb
000001d0: 5330 5dbc 5d6f e8b8 ffb9 22bd 8899 d63c
000001e0: 707a 0cbb 3ddb e7bc e59b d83c 1629 f13d
000001f0: d362 0e3c 0b59 27bb bb2a 8f3d 878f d8bb
-0.027787736 0.0379459 0.0056922208 -0.011754713 -0.027822033 -0.0046961615 -0.03273664 0.056177005
-0.01804234 0.03489531 0.005017884 -0.0015357764 -0.011757845 -0.06564359 -0.0010823857 0.006704454
-0.0053471085 0.016715176 -0.08557729 -0.035468422 -0.02601062 0.040943164 -0.059199624 0.03536218
0.030350689 0.023280427 -0.033890452 0.02723862 -0.004875003 0.024025135 -0.009279495 -0.007081766
-0.036095023 -0.02010488 -0.015001371 -0.046651524 -0.05815118 0.00019553542 0.0053424938 0.025193427
-0.02624752 0.04553038 -0.022654815 -0.0063594705 -0.009646638 -0.0066859643 0.06660242 -0.03981961
0.00416142 0.020467564 0.02776738 -0.017793212 -0.0009191537 -0.031691976 -0.0028915964 -0.004106548
-0.00540428 -0.038183674 -0.0021104498 -0.00020871492 0.07010442 0.03340219 0.0005171989 -0.039255213
0.08385722 0.05210992 0.005629485 -0.008161221 0.037148103 0.029930772 0.038300056 -0.012750944
-0.032221492 -0.020037929 -0.039900497 0.057516698 0.024741968 -0.009923491 -0.026361873 -0.028331202
-0.019976553 0.053411182 -0.016569963 0.03057279 -0.015495429 0.06398873 0.032309346 0.029035788
0.024141416 -0.009051819 0.008679886 -0.0010936919 -0.022000328 -0.050808527 0.04716163 -0.02418768
-0.0065204455 -0.027009077 -0.02424427 -0.0026733365 0.05263637 0.0066277385 -0.008506336 0.123201154
0.016305748 -0.026473537 -0.028302772 -0.001127253 -0.02356267 0.009817328 0.053046737 0.026285958
-0.028377583 -0.011764357 -0.04277262 -0.004561487 -0.013500291 -0.00011083365 -0.03972816 0.026196256
-0.0021435283 -0.028302783 0.026441524 0.11775415 0.008690554 -0.0025535251 0.06990572 -0.0066089067

encoder.2.weight f4 [64, 128]
00000000: 5c44 88bd b78a 36be 8f30 f73d 9d0c 45bd
00000010: 0423 883c c399 e2bb e005 36be 7004 26bc
00000020: a1d1 d03d 02ea 39bc 408b 183e aa8c 72bd
00000030: 028e ebbc 330e 70be 4407 8cbc 7534 023d
00000040: 67b6 1f3b fd17 5fbd 72e7 e1be 25bc f83d
00000050: 271d 843b 99d1 5f3e 7878 81bc d048 81bd
00000060: 4b0e b13d 44fa 533c 5589 1cbe ef6c 8b3d
00000070: adec 123d 8f6f 7a3d c9a9 a43c cd05 973d
00000080: 03d3 cbbc ea52 373c 41d2 5fbc c172 7e3e
00000090: 5b97 d03a d5d7 b73d 6853 7c3d 3b01 76bd
000000a0: d692 83bc 4ec7 ac3d 3a18 a9bd aa98 05bd
000000b0: febd dc3c e4a0 f63c b5b2 40bc 479d bbbd
000000c0: 1e77 a6bc b5cf b33b 010c 383d ae93 6d3d
000000d0: d157 3b3b 972a 3e3e 5811 ccba b7fa 3ebb
000000e0: c581 8a3c 0f69 863e 1cf2 c2bc 0148 c7ba
000000f0: f864 a73c 1d18 70bc 7731 b43c 4d03 1ebe
00000100: 4d0b 633c d07e 0cbc f347 64bd 1071 a4bc
00000110: 0922 293d 11f6 13bc 13d2 7e3d 1d77 ddbb
00000120: 0274 c1ba eedb b43d 3176 6f3e 96f9 ad3d
00000130: 3e65 81be 6f9a 0e3e af59 a5bc 2084 00be
00000140: 8a1e 29be bcdd b5b7 f024 56be a369 10bd
00000150: 0d79 ed3d 49f2 a03d fa8a 41be 7773 953d
00000160: 006c 8b3c 0d1e 46bc 8996 3bbd b3ce 943a
00000170: b6f1 373a 8611 89bd 3ec2 b33a d86b 64bd
00000180: e89f 353c 4de8 533e 2587 4a3d 3817 daba
00000190: 5113 25bd 6768 a7bd 6fcf 3abc f4ca 213d
000001a0: 87dd c9bd b90d 7b3d 9df6 21be 1976 2e39
000001b0: b063 1d3e 6890 c4bd ecd6 c83d 9723 7e3d
000001c0: fb05 c63c 1556 75bc cf5e 323d 6f30 b1bc
000001d0: 877c ca3d 1d39 a8bc c071 3c3d f08f 95bc
000001e0: 0fcd 57ba afa0 a2be 4c5a fb3d a31c 47bd
000001f0: 7919 883c 6e42 d8b7 8215 df3c 4b03 ed3d
00000200: 5efe 583d 78cb 223e a759 153d 38c6 4dbb
00000210: 9c33 c13b 157b baba e23e a43b cffd 9a3d
00000220: b85a 7e3d fe30 023d 6cc2 203c c6c9 eebd
00000230: 1ab0 61bd f9b1 d63d 37db 19ba 08db 243c
00000240: d8d4 8eba 523d 91bd f8f7 bcbe 0971 323d
00000250: c44f 2d3d b002 6ebc 298a 6abd 859a 243d
00000260: 3bfc 723d ee53 533d fa11 b13d 376d a5bd
00000270: 14a0 f8bd 49bf 103e a31b bb3d 039b 16be
00000280: 17e8 8e3d 2b28 70bb 5c7f cfbc df3f 413d
00000290: 42b3 e73d c701 003d 8ef9 a6bd b6a8 f33d
000002a0: f192 7bbc 0cee e33c f4ae 093d b3ac 05be
000002b0: 9582 b93c 9fd0 b83d 96ae 153d ca0d 1f3d
000002c0: 2d8b 023e 2c02 033d 0ac0 773d f1ee 0b3d
000002d0: e375 00bb 321a 023e de10 82bb 3946 8cbb
000002e0: 8689 91bb 4c58 84bc a4c6 32bd 61b6 263b
000002f0: 02d7 883c 559a f23d ac13 95bd 76df ba3d
00000300: 94c8 003d 4be9 83bd 3d73 49bd b6dc 453d
00000310: 542b 0c3d f3ae a93d 434b bf3d 4cc3 dcbc
00000320: 1fd9 e2bd b111 a03d e076 033d 16fc 6fbd
00000330: 198e 9f3d 24aa 6ebe 19b8 f8bc 09d4 d2bd
00000340: 5987 64bd b070 0c3d 794c ba3c 8be4 b03b
00000350: 7666 ea3d cc73 62bd b1af 83bc 820a ad3d
00000360: 711c 053e 80de 42bc 9d63 853d d1bf 4239
00000370: 77a8 25bd e006 b83d d065 61bd 1837 663d
00000380: e9c1 f9bc 1eab 83be dcd9 54bd e792 cfbb
00000390: 73f2 aa3d 1a62 323d f630 fc3a 1bd9 773d
000003a0: 22f9 01be 26b4 4abe 1369 de3b f2c1 ce3b
000003b0: 2762 1c3d 0666 483d b9a1 843d 6627 e3bd
000003c0: 0da6 0fbe d347 22bd bb09 bb3c 28b6 0f3c
000003d0: bd8f 7c3c f38b 4e3c 3d3c 2cbd 3038 a33d
000003e0: 5d03 ff3b ff6b 2a3d 4f27 d2bc 7942 a53c
000003f0: 34ac ab3d 5435 76bb c353 073c 3a28 743b
-0.066536635 -0.17826353 0.12069809 -0.048107732 0.01661826 -0.0069153025 -0.17775679 -0.010132894
0.101962335 -0.011347296 0.1489687 -0.05921618 -0.028754238 -0.23442917 -0.017093308 0.03178831
0.0024370195 -0.054466236 -0.4412189 0.12145261 0.0040317955 0.21857299 -0.015804514 -0.06312716
0.08645304 0.012938086 -0.15286763 0.06807887 0.035870243 0.061141547 0.020100491 0.07374153
-0.024880892 0.011189202 -0.013660968 0.24848463 0.0015914248 0.089767136 0.06160298 -0.060059767
-0.016061228 0.08436452 -0.08256574 -0.032616295 0.026946064 0.030106016 -0.011761357 -0.09160858
-0.020320471 0.005487407 0.044933323 0.058002166 0.0028586278 0.18570934 -0.0015569134 -0.0029141137
0.016907582 0.26252028 -0.023797087 -0.0015203954 0.020433888 -0.014654187 0.021996243 -0.15430947
0.013857675 -0.008575156 -0.05573268 -0.020073444 0.041292224 -0.009030835 0.06221206 -0.006758584
-0.0014759304 0.08831011 0.2338493 0.0849487 -0.25272554 0.13926099 -0.020184366 -0.12550402
-0.16515556 -2.1680135e-05 -0.20912528 -0.035256993 0.11595354 0.07858712 -0.18900672 0.07297414
0.017019272 -0.012092126 -0.04579786 0.0011353105 0.0007016914 -0.066927955 0.0013714505 -0.05576691
0.011085488 0.20694084 0.04944529 -0.0016639 -0.040301625 -0.0817421 -0.011401995 0.03950019
-0.09856706 0.061292384 -0.15816732 0.00016637928 0.15370059 -0.09597856 0.09806618 0.06204566
0.024172774 -0.014974137 0.043547448 -0.02162954 0.09887033 -0.020535046 0.046006918 -0.018257111
-0.0008232155 -0.31763217 0.12273082 -0.048611294 0.016613709 -2.578014e-05 0.027231935 0.11572894
0.05297696 0.1589793 0.036462452 -0.0031398665 0.005896045 -0.0014227355 0.005012379 0.075679414
0.062098235 0.031785004 0.009811979 -0.11659579 -0.055099584 0.10483164 -0.00058691524 0.010061987
-0.0010897173 -0.07091774 -0.36907935 0.04356483 0.0423124 -0.014527008 -0.057260666 0.040186424
0.059322577 0.051593713 0.08646007 -0.08077472 -0.121399075 0.1413547 0.09136131 -0.1470757
0.069778614 -0.0036645036 -0.025329284 0.047180053 0.113134876 0.031251695 -0.081530675 0.118974134
-0.015354858 0.02782347 0.033614114 -0.13054161 0.022645274 0.09024166 0.03654345 0.03883151
0.12748404 0.031984493 0.060485877 0.03416342 -0.0019601516 0.12705305 -0.003969296 -0.004280832
-0.004441443 -0.016155384 -0.04364647 0.0025438296 0.016704086 0.11845843 -0.07279143 0.09124653
0.031441286 -0.064409815 -0.049182165 0.04830619 0.03422101 0.08285322 0.09340527 -0.026948594
-0.11076569 0.07815874 0.03209579 -0.058590017 0.07790775 -0.23307091 -0.030361222 -0.10294349
-0.05579314 0.034287155 0.022741543 0.005398338 0.11445324 -0.055286214 -0.016074987 0.0844927
0.12999131 -0.011893868 0.0651314 0.00018572739 -0.040443864 0.08985686 -0.055028737 0.056204885
-0.030487971 -0.2571649 -0.05196558 -0.006334651 0.08347025 0.04355059 0.0019240666 0.060509782
-0.12692693 -0.19795284 0.006787428 0.006309741 0.038179543 0.048925422 0.06476159 -0.11091499
-0.14028187 -0.03961928 0.022831788 0.008771457 0.015415129 0.012606609 -0.042049635 0.07969701
0.0077823834 0.0416069 -0.02565351 0.020173298 0.083824545 -0.0037568407 0.008259716 0.0037255422

encoder.2.bias f4 [64]
00000000: 0abb e5bb 4f07 073e eed6 1981 6b4f 363d
00000010: c09a 8437 c9fc 8c80 0a5d c53d a0cf b380
00000020: 7119 ea1d 6ec0 a73c 1cd2 1f2d c119 d03d
00000030: 6861 293b fb7f d4bc 019a ef3d 25d3 3f3e
00000040: ae92 b43d 7d22 8e3d 66b9 a53d e1a3 a63d
00000050: 89eb d5ba e7ac cb3c b363 943d 0e95 173e
00000060: b1ba 343c 43a7 8501 8d5a ce80 a326 413d
00000070: 44f1 8f3d 988c aa3d a3ea fc3c 7b77 cb3d
00000080: bdf8 023e 1e32 14be 5d76 0b3e ea0e 933d
00000090: 9f5d 0a3d 6ad8 963c 166c 0e01 9672 393d
000000a0: 5d61 6e3d e23a 651d e29e 853d 3b3f 7d3d
000000b0: 91c5 a501 0aec 433d 840b 6a3d ae9a e83d
000000c0: 56cd a23d b721 b0bc b795 0d3d f524 9d3d
000000d0: 1b01 96b8 d44a f0bb 588b 2c3d b451 bf8c
000000e0: fa0a c73d 13f5 efbd d817 a13d f28f cf3d
000000f0: b627 0abe 81d4 ed3c 667b 9c3c 6538 0e3e
-0.007010822 0.13186382 -2.8255866e-38 0.044509333 1.5807687e-05 -1.2947652e-38 0.096368864 -1.6513036e-38
6.196559e-21 0.0204775 9.084757e-12 0.10161162 0.0025845412 -0.025939932 0.11699296 0.18732889
0.088170394 0.06940172 0.080920026 0.08136726 -0.0016320805 0.02486272 0.072455786 0.14802954
0.011030839 4.909649e-38 -1.8950596e-38 0.047155987 0.0702844 0.083275974 0.030873602 0.099348985
0.12790199 -0.14472243 0.13619371 0.07180579 0.03378069 0.018413741 2.615883e-38 0.045275293
0.05819832 3.033834e-21 0.06524445 0.06182788 6.089492e-38 0.047832526 0.05713989 0.11357628
0.07949321 -0.021500451 0.034566607 0.076730646 -7.152763e-05 -0.007333139 0.042125076 -2.9477383e-31
0.097188905 -0.11716666 0.07865876 0.10134877 -0.13491711 0.029031994 0.01910181 0.138887

encoder.4.weight f4 [4, 64]
00000000: 058a 043e 2717 303e 5cda 9eaf e9c4 76bd
00000010: 77e1 863c 4ddb 05bb ecb0 37bd 2bdf 2d80
00000020: 50cb 403c e396 8b3d 85cb 4f3c 455b bc3c
00000030: d5af 7ebd 34e7 67bc 5723 0dbc a404 88bd
00000040: 15ac 833e 92d5 aa3d 0e01 2c3f 2029 aabd
00000050: f337 983d 5126 493e a81e c8bd 9afd 73bc
00000060: 31e1 343e 9e3e 4981 288a 3c0f 4ea2 703d
00000070: f5fd ae3d 0061 303e 7299 1f3d 8687 863e
00000080: 93cc 103e 1568 18bf d84e b73d bd62 17bf
00000090: 9d1a e53d a481 113e b479 4b99 13b3 b8bd
000000a0: 9f1a fd3e 34e1 88b8 625d 2fbe 4332 01bf
000000b0: 2c72 c180 db0c 09be 359a 3f3d ebdc 913d
000000c0: 8976 b03e e8df 4f3f 322c 51be c8e4 d3bd
000000d0: 56ea f4b8 7f94 6e3d 3259 1abe 8e54 8a9a
000000e0: 1919 8ebd 78b3 d0bd 2eed 4b3e 2042 343c
000000f0: ed36 083f 4a38 57be db41 f0bd 757b 82be
00000100: 74ed 8dbe ca87 b73d 0058 82aa e4e8 eb3d
00000110: e91f 6dbc 47fa 9837 9c28 00bd ff44 db80
00000120: 697b 34b3 7284 433c 7528 623c b81e 38bd
00000130: 8dc8 6abd cb82 26bc 1908 ef3d bb7b d73e
00000140: e6ec 803d 2f10 7e3d f27b ec3e e194 a93d
00000150: 6561 07bd 727d 49be f70b 3c3e 5e52 973e
00000160: cd6e 5ebe 7796 23a6 0c99 6e01 af93 013e
00000170: 0ffe f5bd 9713 f63d 6685 cd3d e8e2 f5bd
00000180: 563d dd3c d010 463e ddce e33d 00b8 d9bc
00000190: 8e8c bf3d ae90 ca3b e72b d899 008c 50bd
000001a0: 75eb 9ebd 0f1f 23aa eccc 58be 6d8e d9be
000001b0: e3bf f780 9281 343e 3418 703c 25d9 853e
000001c0: 24c1 97be 4ee1 99bd 3840 99be 8625 1b3e
000001d0: 6f96 cd3b f333 fd3d 8ece c2be 781f dfae
000001e0: f310 283e 04e3 89be 9680 123e 1c8e fd3d
000001f0: c208 8fbe 98e6 933d 9fb2 5bbe a059 973d
00000200: f7c5 113d f282 b1bd c68c f728 8622 003e
00000210: 35d9 073c 75e3 13bb ba8e db3b bd5d b619
00000220: 8d3a d0b9 b039 f4bd 44c4 3f3c 5d7d 4ebe
00000230: 3636 d5bd 0dbb b43a 04cf 80bd 19df 9ebd
00000240: bfc6 b8bc f512 d4bc 424a af3d 8f25 1b3e
00000250: bfcb 233e 16f6 f5be aaa3 07be 39f5 963c
00000260: 4bde 6fbd 4aea 78af c88c a41e ca9f 6cbd
00000270: c543 3fbe 0e45 47bd 3465 083e 33b5 41be
00000280: 14d6 18be 4bcf c93d c9d7 06bd 914c 84be
00000290: a09f f8bd 3428 a0be f2fc e69c 575b 62be
000002a0: 4008 ad3e 5273 2539 cf64 b63e 2c29 043b
000002b0: 9090 0e00 2bd1 153d 15b0 3c3e 7d2b 71be
000002c0: 244b 3b3d 64df 4c3e 1f11 b7be 59ee 2ebd
000002d0: 1847 a2bc 21f1 d6bb 58e8 34be 94fb 1e1e
000002e0: 3a60 053e e490 a73d e64f ad3d 67ab b5bd
000002f0: 084c 8dbd 5b35 e23d 172a e73d 2cb8 d9bd
00000300: ba17 b03d 41ff c8bd f35e c621 fab2 29bd
00000310: 5d5f 80bc 5b93 95bb 8add 49bf 1828 7581
00000320: 2d49 29b6 7065 36bd c006 17ba 37b4 033e
00000330: 05ec c5bd 8239 98bc 2f1c bbbd 53f7 dcbd
00000340: e946 1cbe 9e3f c33d fb45 143f 416f 38be
00000350: 8495 db3d f61b a7bc 3d80 ffbc 1096 efbb
00000360: 0489 74be fac3 a1b0 20af 0101 ec16 253d
00000370: 5374 953d f66d 4c3e cfa0 09be 67bf 01be
00000380: a452 aebe a390 853d 92d8 72be d664 a4bb
00000390: 3b4d e43d 88bf 3e3e a021 0c1a b37e 5a3d
000003a0: d1a0 303e 2ce2 7f24 a07a 723e c61a 15be
000003b0: 09af 5e00 0e88 04be 57c0 3fbe 2a5e 783e
000003c0: 7925 7fbd 72b5 fd3c a567 353d c91f 483e
000003d0: 5686 7bbc ad42 b43d 1ce6 80be 8105 4ea8
000003e0: b765 a0bd 7164 e33d 82ae 8fbc e5a9 d1bd
000003f0: 7c4e 0abe 97c3 063e a35e dabd 6a6f 71be
0.12943275 0.17196332 -2.8895186e-10 -0.060246382 0.016464932 -0.0020424903 -0.04484646 -4.212655e-39
0.0117672235 0.06815889 0.0126828 0.02299274 -0.062179405 -0.014154244 -0.008614383 -0.0664151
0.25717226 0.083415166 0.6718911 -0.08308625 0.074325465 0.19643523 -0.09771472 -0.014892006
0.17664029 -3.6962795e-38 9.2957236e-30 0.058748536 0.08544532 0.17224503 0.038964696 0.2627527
0.14140539 -0.59533817 0.08950585 -0.5913504 0.11186717 0.1420961 -1.0519432e-23 -0.09018531
0.49434373 -6.526933e-05 -0.17125466 -0.5046732 -1.7765208e-38 -0.1338381 0.046777923 0.07122215
0.34465435 0.8120103 -0.20427015 -0.10346371 -0.00011678475 0.058247086 -0.15073088 -5.721207e-23
-0.06938381 -0.10190481 0.19914696 0.011002094 0.5320881 -0.21017566 -0.11731311 -0.25484815
-0.27720225 0.089614466 -2.31537e-13 0.1151903 -0.01447294 1.8236356e-05 -0.031288728 -2.0136725e-38
-4.2021757e-08 0.011933433 0.013803591 -0.04495117 -0.057320166 -0.010163019 0.116714664 0.42086586
0.06295185 0.062027153 0.46188313 0.082803495 -0.033051867 -0.1967676 0.18363939 0.2955503
-0.21721955 -5.6755903e-16 4.3823502e-38 0.12653993 -0.120113485 0.12015455 0.10035209 -0.120061696
0.027006786 0.19342351 0.111234404 -0.026576996 0.093529806 0.006181798 -2.2351609e-23 -0.050914764
-0.077597536 -1.4488084e-13 -0.21171921 -0.42491475 -2.2752204e-38 0.17627552 0.014654208 0.2614223
-0.29639542 -0.075136766 -0.29931808 0.15151033 0.0062740366 0.12363424 -0.38048214 -1.0146456e-10
0.16412716 -0.26931012 0.14306864 0.12380621 -0.2793637 0.07221717 -0.21454857 0.073901415
0.035589185 -0.08667554 2.748356e-14 0.1251317 0.008291532 -0.0022565995 0.006700364 1.885622e-23
-0.00039716475 -0.119250655 0.011704508 -0.2016501 -0.104107305 0.0013788656 -0.06289485 -0.07757396
-0.022555707 -0.025887946 0.085590854 0.15151046 0.15995692 -0.4803931 -0.13246027 0.018427478
-0.058561604 -2.2638705e-10 1.7422401e-20 -0.057769574 -0.18678196 -0.04864984 0.13319856 -0.18916778
-0.14925414 0.09853991 -0.032920633 -0.25839666 -0.12139821 -0.31280673 -1.5285508e-21 -0.22105156
0.33795357 0.00015778586 0.35623786 0.0020166142 1.337556e-39 0.03657643 0.18426545 -0.23551746
0.045725957 0.20007092 -0.3575525 -0.042707775 -0.01980929 -0.0065595065 -0.17666757 8.4164755e-21
0.13024989 0.081819326 0.08462505 -0.08870583 -0.068992674 0.11045333 0.11287325 -0.10630831
0.085982755 -0.09814311 1.3442135e-18 -0.04143045 -0.015670473 -0.0045646853 -0.78853667 -4.502816e-38
-2.5225556e-06 -0.044530332 -0.00057611987 0.12861715 -0.09664158 -0.01858211 -0.09136235 -0.10789361
-0.15261425 0.095336184 0.5791928 -0.1801119 0.10721877 -0.020399075 -0.031189078 -0.00731159
-0.23880392 -1.1769992e-09 2.3819204e-38 0.040305063 0.07297578 0.19963822 -0.1344025 -0.1267067
-0.34047425 0.06521728 -0.23715428 -0.0050169034 0.11147543 0.18627751 2.8978483e-23 0.053343486
0.17248847 5.5485886e-17 0.2367959 -0.14560995 8.695327e-39 -0.12942526 -0.18725716 0.2425467
-0.062291596 0.030970309 0.044288296 0.19543375 -0.015351852 0.0880178 -0.2517556 -1.1436491e-14
-0.078319006 0.11103142 -0.017539266 -0.10237483 -0.13506502 0.13160549 -0.10662582 -0.23577657

encoder.4.bias f4 [4]
00000000: 57d1 54bb fdce b23d 5d76 bdbc 0319 b1bd
-0.003247341 0.08730886 -0.02312773 -0.08647349

decoder.0.weight f4 [64, 4]
00000000: 1545 833e 4741 80be a43b 353d 731d 0fbf
00000010: aac9 1c3e ee56 8e3e d8ca 9d3c 2b9b dc3c
00000020: 9de2 383d fb86 11be fb82 cabc 4a48 e9be
00000030: 88d7 fdbe 2734 553e 66e5 303f a4a4 3abd
00000040: fd0b 11bc 1a1d b23e 07d8 d23e 10b5 5d3e
00000050: 2592 483e 657a 94bf 6bef c53c fbb3 a9bc
00000060: 8551 86be c21f adbe 230c eb3e 0dad 5bbe
00000070: 0db5 3a3e 39aa 75be 2542 f839 dfc7 793f
00000080: 3bc1 05bf 1256 a9be aa81 febd 2cb2 0dbe
00000090: a787 37be 6529 513d fcae 4b3e d3ce 88be
000000a0: 5b98 42be 7642 43be ff96 d73b c2a0 e1be
000000b0: 9a44 e8b9 f046 a53e 54c9 84be ee62 26be
000000c0: 1368 b4be fc37 563e ce90 08bd 1ac8 11bc
000000d0: 376e 063f 7b60 ee3d 7ece 153e aed6 efbd
000000e0: 8271 fabc 9ed6 d5bd da46 2a3e ff00 0dbe
000000f0: 48da d13d 4361 df3d acf9 febe e75f 0fbe
00000100: 089c 593d 1c67 00bf 0e67 6abe fdb7 37be
00000110: 755d d7be 109a 9abd d9cd 03bf dcce 4abe
00000120: d09f 8fbe 63c1 e33e 2fe5 a4be 1213 40be
00000130: e650 2e3e 4f50 3abe dd79 c6be e2ff 28be
00000140: 918c 12be e0b8 b53d 5b24 19bf 8988 2b3f
00000150: 6a57 133f 8dfd d7be 5872 5abe b0c5 cf3e
00000160: ed1b 7cbe 37a1 92be 3e28 61be 551a dabe
00000170: 9c7a 2bbf 73ff f63d e58d b2be e820 90bd
00000180: d6a8 913e 702a d13b 2e5d 34bb b128 16be
00000190: 3a94 063f a7c5 dabe 2de3 5e3e f41f 143e
000001a0: 5a59 94be 26ea 623e 7104 c93e ed1e cfbe
000001b0: 1578 0a3e 3bd6 45bc a109 893e 7bbf d4bd
000001c0: a9f4 3a3e a864 553e 988d 48be 88d4 05be
000001d0: 715e 823c cbf6 91be 13c9 563f a20e b13d
000001e0: 61eb bb3e c232 443d c498 f73e 4910 3bbd
000001f0: 2ec7 3f3e 671f 25bf 2071 ba3e 08d0 4dbe
00000200: eeea 1ebe a013 de3d 24c6 afbd fdce 93be
00000210: 2fea ae3e 5bca 7c3e aa1b fc3d cc85 42bd
00000220: c674 37bf 1a7e d7bb 944c c5be 93d7 d13e
00000230: 52aa d6bd 4207 be3e c909 c4be ee34 2f3e
00000240: d69d e4be 5051 00bf 0aed 983e 116a 0ebf
00000250: e080 803d 1f8c 0a3e 2fdd 023e 2fd8 13be
00000260: 2939 2e3c 9f0d c73e 8f2e 313c 806a 2c3e
00000270: 7dc3 123f be17 4c3d f3e0 22be 8f17 a4be
00000280: 7b44 66bf 0670 8a3e ff36 3bbe 9d26 eb3d
00000290: 2ee7 603e db15 b53e 86e4 acbe 09b1 6b3e
000002a0: 9f0a 473c 24d1 56bf df74 3e3e 0d98 523f
000002b0: 38f8 193e 74c9 953e d4af 843e 5e71 7cbe
000002c0: a55d ea3e 43de 4c3e a509 593e 59a4 133f
000002d0: 046a 97be 412b 043d d344 1bbe ec66 07be
000002e0: d82e 6a3e 58fa dd3d a60c c3be 76d2 9ebe
000002f0: 0745 bf3e c391 24bd 2402 993e a409 a6be
00000300: 3fee 1a3e 5865 cfbc bbaf fabe 2b57 15bd
00000310: dedc 893e 5452 c6bd 7d1c 6dbe 9769 b0be
00000320: cdc0 983e a723 713e a0dc 47bc 289f e3bd
00000330: 1450 dabe 42a9 93bd 8279 033f b1d0 673f
00000340: 71a3 dabe c0d3 e43e 6963 53be ca01 6bbe
00000350: 45cb 6bbe 3664 4e3e ade8 293d 49ae cf3e
00000360: f081 dbbe fe49 a2be cc41 d1be 8429 dbbd
00000370: 9a5c 963d d3fd 193d 3c88 803e 95c5 cebe
00000380: b510 f6bc e547 fc3e 56ea af3e f99a da3c
00000390: 3f17 94bc 0b4e a23e 2848 82bd 5b74 3abd
000003a0: 5de5 49bf e42b ea3e a276 c93e d6ea 193f
000003b0: 4cf5 07bf 7f56 b0bd a354 7cbd 0a88 d3be
000003c0: af29 19bf c731 a0be 7a6c 10bf f8be 263e
000003d0: b32c a33e d103 a83e 1680 003d 4e91 90be
000003e0: 9b0c c43d 4403 f53e 4696 653e 2f3e d1bc
000003f0: 5a23 503e 8c3d 9c3e b9be 9f3e c373 4c3d
0.25638643 -0.25049803 0.04424633 -0.5590431 0.15311304 0.27800697 0.019261762 0.026929459
0.04513799 -0.14211647 -0.02472066 -0.45562965 -0.495785 0.20820676 0.69100034 -0.04556717
-0.008852956 0.34787828 0.4118044 0.21651101 0.19587 -1.1599852 0.024162015 -0.020715704
-0.2623407 -0.33813292 0.45907697 -0.21452732 0.18233128 -0.23990716 0.00047351528 0.97570604
-0.5224797 -0.3307348 -0.12427075 -0.13837498 -0.17922841 0.051064868 0.1989097 -0.26720294
-0.19003431 -0.19068322 0.0065792794 -0.4406796 -0.000443016 0.32280684 -0.2593485 -0.16248676
-0.35235652 0.20919794 -0.03334122 -0.008897806 0.52511925 0.11639496 0.14629552 -0.11710869
-0.030571703 -0.104413256 0.1662859 -0.13769911 0.10246712 0.10907223 -0.4979986 -0.14001428
0.05312732 -0.5015733 -0.22890875 -0.1794128 -0.4206349 -0.07548916 -0.51485974 -0.19805473
-0.28051615 0.4448348 -0.32206103 -0.18757275 0.17023048 -0.18194698 -0.3876485 -0.16503862
-0.14311434 0.08873153 -0.598211 0.6700521 0.5755526 -0.4218563 -0.21332681 0.4058051
-0.24620028 -0.28638622 -0.21988007 -0.42598215 -0.6698396 0.12060442 -0.34873882 -0.07037526
0.28449124 0.006383233 -0.002752136 -0.1466396 0.52569926 -0.42728922 0.21766348 0.14465314
-0.2897442 0.22159633 0.392612 -0.40453282 0.1352237 -0.012075002 0.2676516 -0.103880845
0.18257393 0.20839179 -0.19585264 -0.13069355 0.015914174 -0.285086 0.83900565 0.08645369
0.36703017 0.04789997 0.48358738 -0.045669828 0.18728325 -0.6450104 0.36414433 -0.20098889
-0.15519306 0.10843587 -0.08582714 -0.28868857 0.34163043 0.24686567 0.12309964 -0.04749088
-0.7166256 -0.006576312 -0.38534987 0.40984783 -0.10481705 0.37114912 -0.38288715 0.17110035
-0.4465167 -0.50124073 0.29868346 -0.55630594 0.06274581 0.13530014 0.12779687 -0.14437936
0.010633745 0.3887758 0.010814323 0.16837502 0.5732954 0.04982733 -0.15906124 -0.32049224
-0.8994824 0.27038592 -0.18282698 0.11481974 0.21963188 0.35368237 -0.337681 0.23016752
0.012148528 -0.83912873 0.1859927 0.8226326 0.15036094 0.2925526 0.25915396 -0.24652621
0.4577457 0.20006661 0.21195085 0.5767265 -0.2957307 0.032267813 -0.15162973 -0.13222855
0.22869432 0.10838765 -0.38095587 -0.31019944 0.3735735 -0.04017807 0.29884446 -0.3242923
0.15129946 -0.02531688 -0.48962197 -0.036460083 0.2692632 -0.096836716 -0.23155399 -0.3445556
0.29834595 0.23548757 -0.012198597 -0.11114341 -0.4263922 -0.07210018 0.5135728 0.9055281
-0.4270282 0.44692802 -0.2064339 -0.22949901 -0.2302676 0.20155415 0.041481663 0.40562657
-0.42872572 -0.31697077 -0.40870512 -0.10701278 0.07341881 0.03759558 0.2510394 -0.40385118
-0.030037263 0.492736 0.34358472 0.026685225 -0.01807749 0.31700167 -0.06361419 -0.04552112
-0.78865606 0.4573661 0.39348322 0.60123956 -0.5310867 -0.08610248 -0.061604153 -0.41314727
-0.5982923 -0.31287977 -0.5641552 0.16283786 0.3187004 0.32815412 0.031372152 -0.2823586
0.09572717 0.47854054 0.22420606 -0.025542347 0.20325986 0.30515707 0.31200197 0.049915086

decoder.0.bias f4 [64]
00000000: ee42 86bf 34b6 3ebf 706b 763f ad49 e1be
00000010: 1113 2a3f 28ad 0cbf 506b 763e 3397 49bf
00000020: a717 623f 8deb 8abf e0da 823e e56e 553d
00000030: 5dbf 93bf b4b1 15bf 2610 d03f 03b8 08bc
00000040: b76b 523f 4602 99bf 13bb 71be 4c8a fbbe
00000050: 0888 96be 1e5f 193f 1109 8dbf 5713 b8be
00000060: 7123 aa3f b9af 013f e2c9 4c3e 7ad0 9e3f
00000070: a4ea 5b3f 26e1 4dbe 18b2 d3be 2f2b bfbe
00000080: d06f a23f f4ac dcbd a496 873f 574b 52bf
00000090: 8f79 12bf 7544 943f 8ee3 0f3f 652c 20bf
000000a0: b29a 073f 341e 8e3f 9a92 33bf 2fc2 e03e
000000b0: a238 07bf 460a 0f3f 11a9 98be 861f c0bd
000000c0: 04fc 48be d37e af3d a6e1 87be 2516 b5bd
000000d0: c539 27bf 91c5 d23f 94bc 5a3f fad6 39bf
000000e0: 9380 81bf cfc5 cebe ebba 2dbe 9690 393f
000000f0: 059e 7fbf bc1a 33bf 4592 28bf a33c 813e
-1.0489175 -0.7449677 0.96257687 -0.44001523 0.66435343 -0.54951715 0.24064374 -0.78746337
0.8831734 -1.0853134 0.25557613 0.05210771 -1.1542774 -0.5847428 1.6254928 -0.008344653
0.8219561 -1.1953819 -0.2360652 -0.4912895 -0.2940066 0.5991076 -1.1018392 -0.35952255
1.3292066 0.50658756 0.19998887 1.2407372 0.8590491 -0.20105419 -0.41346812 -0.37337634
1.2690372 -0.10775176 1.0592847 -0.8214621 -0.57216734 1.1583391 0.56206596 -0.6256774
0.5297042 1.1102967 -0.7014557 0.4389815 -0.5282079 0.5587505 -0.29816487 -0.093810126
-0.19627386 0.08569112 -0.26539344 -0.08842114 -0.65322524 1.6466542 0.85444 -0.72593653
-1.0117363 -0.4038529 -0.16965835 0.72486246 -0.99850494 -0.6996267 -0.6584819 0.25241575

decoder.2.weight f4 [128, 64]
00000000: c7f9 c93d dd18 24bd fc03 6bbd a49a d2bd
00000010: dc47 12be 185f c33c 512d 5fbc 4fc7 5fbd
00000020: 9847 d33d ef73 933d 48cd 003e 4a10 f73d
00000030: 7b22 e6bd 49b3 813d 6229 40bd 00b9 ee3d
00000040: c045 fabd 9c3b bebe 999c 0739 a87e b03c
00000050: 7292 623d 205a 48bd 4c56 83bd faa9 63be
00000060: a4ad f33b f4c6 a2bb 3e6f 89be 60fd d53a
00000070: 81a7 913d 6947 723e fb9d 97bd 3d0f b4bc
00000080: c0d0 7ebd 6f58 493d 62d0 f3bd 88d8 69bd
00000090: f7ad 1cbe 3a7b 0cbd 5470 f63c 2dd8 093e
000000a0: 75ae 23bf 4b32 b73c fdcb 62bd 0ae2 0fbd
000000b0: aebd cbbd 3cc8 63be dc10 503e bc41 1b3d
000000c0: 4982 8e3d 74e9 b5bc b2e2 eb3c ce55 4c3e
000000d0: cc8f e8bb ffac d63d 2c76 20bd 7019 503d
000000e0: ba98 08be 6c8a 4f3d ea1e 00bd 2e1f bbbd
000000f0: 8842 e0bd 0787 623d e7a5 d73d 835c cf3c
00000100: a3bf cebb fb0d 7d3e a590 19bd a50e 02bd
00000110: beb9 eebd 11d7 9dbc 87a2 28bd 4535 c1bb
00000120: 8fbc 90be 8ac6 9a3c c367 4fbd 61b0 673b
00000130: 6348 1a3e 8aae 793d b3cd 11be a0a8 ac3d
00000140: fe92 02be c80f 05bd 22c8 083e bcb0 203d
00000150: fb61 803d 61a7 e33d d025 793d 24d5 0d3c
00000160: 2ce5 96be 267a f738 c395 243e 9232 05be
00000170: 8ecb cdbd 95a5 2e3d 2e5e 353c 5948 68bc
00000180: 2ed7 08be 2867 1ebd 7a82 85bd d5ca 463e
00000190: 31bc 63bd 0f4e 643c cc7a 203d d32a 2c3e
000001a0: 3d78 00be d9a7 9a3c 1f18 393d 0d71 28bd
000001b0: 0c85 eb3c ec1f 2cbe f1fa 553d 8788 423d
000001c0: ddf7 aa3d 991a a73d 38c7 f93d 23ac 2a3d
000001d0: 6cfd bb3c d6e0 03be 37cb 6dbe 5028 b7bd
000001e0: b00f a33c 5851 0f3e dddb 213c 3e02 aebd
000001f0: 5021 e53b e867 913c b49a af3d a0ab 423c
00000200: 093d b5bd eb73 31be 0e9b 1c3d 450c e83d
00000210: 8f8b 753d cc92 ad3c 35b9 0bbb f8d8 af3d
00000220: b0bd 08be 6555 31be 6619 23be c1df 4fbd
00000230: 3b09 4b3e e6d4 3fbd db9e 48be 12a0 973d
00000240: eb75 c5bd 1f2c 32bc 196d bebd 3976 78bc
00000250: f6c8 8abd 833c 343e 24f7 6f3d 2dee b1bd
00000260: 39c1 613d 176f 20be a54a c0bd 31e0 13ba
00000270: 999d 133e 387d 2fbe d457 06bd d466 c13d
00000280: edd4 4a3d f6b6 303e 0b58 58bd ce38 f8bc
00000290: 5c8a 0c3e dad8 0f3e 7197 b23c 9421 0abe
000002a0: 6242 3a3e 4022 d33c 98ec 22be 9b6e 933d
000002b0: d6aa 42be 757c 1cbc 8429 773d b95e 35bd
000002c0: 6d57 9b3c 3ba0 b33d 0c84 293e 5b55 183e
000002d0: 3065 bcbd 8856 953b 5fb3 d5bc 296a a13d
000002e0: a294 cebd 1148 253d c904 84bd db3e 363d
000002f0: 277f f93d 045e b7bc 6d61 2dbe 7419 4a3e
00000300: f48f 00be e242 9cbe fd15 773e 49ce bc3b
00000310: c5c8 663c 9f51 f3be 9721 83be 39f8 8d3d
00000320: 7c69 bfbc 57fc 48bc 2050 333d 9bbe 023e
00000330: ae02 703e 26d3 babd ede6 ef3e 61e0 913d
00000340: 304d e2bc b2c6 e9be 7086 cfbd 6dfe 68be
00000350: 5be8 b0bd 487c 30be 786d ecbe 1f93 993c
00000360: cd01 983e 512e 07bd 4ee1 2d3e 9934 973e
00000370: 6278 933d b185 2dbe 2cc2 c03d 5bd2 acbc
00000380: 11e0 053e 809a c63b 71a4 9d3e 5770 d2be
00000390: 62f1 8fbe 1101 8b3d aa81 363d ec24 2dbe
000003a0: e69f 983e 42a9 ae3d 19e7 30be e547 013e
000003b0: 2612 25be ed65 ba3d 48c4 d63a ff55 973c
000003c0: 3604 77be 6e85 b5bd 163e ec3c 8684 97bd
000003d0: b3d4 1bbe e94d 1e3d 41af 953e 173d 343d
000003e0: 0cd6 f1bd 8634 38be 10e8 40bf b808 b7bc
000003f0: fa2a f1be 689c f5bd 8de9 0abe c691 98bb
0.09862094 -0.040062774 -0.057376847 -0.102834016 -0.14285225 0.023849055 -0.013621644 -0.054633435
0.1031639 0.07199847 0.12578309 0.12063654 -0.112370454 0.06333024 -0.046914466 0.1165638
-0.12220335 -0.37154853 0.0001293294 0.02154477 0.055315442 -0.048914075 -0.06412944 -0.2223281
0.007436471 -0.0049675647 -0.26842684 0.0016326122 0.07112027 0.23660053 -0.07403179 -0.021979922
-0.0622108 0.049156602 -0.1190498 -0.057091266 -0.15300737 -0.034297206 0.03008286 0.13461371
-0.63938075 0.022362849 -0.05537032 -0.035127677 -0.09948288 -0.22244352 0.20318931 0.037904486
0.06958444 -0.022206046 0.02879462 0.19954607 -0.00709722 0.10482215 -0.039175197 0.05080551
-0.1333951 0.05066912 -0.031279482 -0.091368064 -0.1095019 0.055304553 0.1052969 0.025312668
-0.006309466 0.24712364 -0.03749146 -0.031752247 -0.11656521 -0.01926759 -0.041170623 -0.005896243
-0.2826886 0.018893499 -0.050636064 0.0035352933 0.15066676 0.06095747 -0.14238624 0.084306
-0.12751386 -0.032485753 0.13357595 0.039231047 0.06268688 0.11115909 0.060827076 0.008656774
-0.2947172 0.0001180063 0.16072755 -0.13007572 -0.100485906 0.04263838 0.0110698175 -0.014177405
-0.13363335 -0.038672596 -0.06519027 0.19413312 -0.055599395 0.013934626 0.03917961 0.16813211
-0.12545867 0.018878864 0.04518902 -0.04112344 0.028749965 -0.16809052 0.05224127 0.047493484
0.083480574 0.0815937 0.12196201 0.04166807 0.02294799 -0.12878737 -0.23222052 -0.08943236
0.019904941 0.13995874 0.00987908 -0.084965214 0.0069924966 0.017749742 0.08574429 0.011881739
-0.08849532 -0.17329375 0.03823381 0.11330465 0.059947547 0.021188162 -0.0021320109 0.085863054
-0.1335361 -0.17317732 -0.15927657 -0.050750498 0.1982774 -0.046833895 -0.19591849 0.07403578
-0.09641632 -0.010874777 -0.092981525 -0.015164905 -0.067766115 0.17601208 0.0585853 -0.086880066
0.055115912 -0.15667377 -0.09389237 -0.0005641012 0.14415587 -0.17137611 -0.032798603 0.09443441
0.049519468 0.17257294 -0.05281834 -0.030300524 0.13724655 0.14047566 0.021800729 -0.13489372
0.18189386 0.025773168 -0.15910566 0.07198831 -0.19010481 -0.009551157 0.060342327 -0.044279788
0.018962586 0.08770796 0.16554278 0.1487631 -0.091989875 0.0045574345 -0.026086507 0.078815766
-0.10086943 0.04035193 -0.06446225 0.044493537 0.121824555 -0.022383697 -0.16931696 0.19736272
-0.12554914 -0.30519778 0.24129482 0.005761896 0.014085953 -0.4752321 -0.25611565 0.0693211
-0.023365729 -0.012267194 0.043777585 0.12768023 0.23438522 -0.091223046 0.4685587 0.07122875
-0.027624696 -0.45659405 -0.10133064 -0.22753306 -0.08638068 -0.1723491 -0.46177268 0.01874691
0.29688874 -0.033003155 0.16980478 0.29532316 0.072006956 -0.1694553 0.09412035 -0.021096399
0.13073756 0.0060608983 0.3078952 -0.41101333 -0.28113848 0.06787313 0.04455725 -0.16908616
0.29809493 0.08528377 -0.17275657 0.12625082 -0.16120204 0.09101472 0.0016385401 0.018473623
-0.241227 -0.0886334 0.028838199 -0.07398324 -0.15217857 0.03864852 0.2923527 0.044003572
-0.11808404 -0.17988786 -0.753541 -0.022343025 -0.471031 -0.11992723 -0.13565655 -0.0046560494

decoder.2.bias f4 [128]
00000000: a9d5 333e 2e2c dbbe 880f bb3d 98f4 e03e
00000010: 067f 8b98 4cae f93c 4790 813e 6c7a 1ebe
00000020: 7adc 11be 1ef9 c6be cecc 25bc a96e fb3d
00000030: 32e2 123d 2aa5 153f 07c4 48bd 6c4f 6b3c
00000040: 451b 59bf d051 b83d a176 18be 1338 17be
00000050: f55a acbc d45c df3d a0f1 4cbd 620a 66bd
00000060: bc50 413d 9b02 9ebd 5812 e63e c94d 7ebd
00000070: bebe 03be 4f12 933e 12dc d1bd 800a 573e
00000080: c167 ad3e 8cec 873d a452 c83d 1c7d 9c81
00000090: 4d0f a63e ef76 9bbc 790b b0be 07f3 7b3d
000000a0: 35c0 08be 614d c5bc afd6 133d d06b 4bbf
000000b0: dda5 a73e 48b3 21be 0b33 27be fa88 8b3e
000000c0: 5088 dfbe 6aaf f83d 931f 370c 8a5d a73d
000000d0: c507 8d3e 8643 0cbf 3da1 20be 87c5 d3bc
000000e0: f50b 12bf bccc 13be 54b2 cb3d 320b b53e
000000f0: db27 a3be b861 593e c47a 8f81 b00d 163f
00000100: 8d98 383d 1799 4a3e 3145 573e 17cd 88be
00000110: a96a 043e 67ba cfbd 6db3 1d3e a2f2 89be
00000120: e62c f8bc 4990 dfbd 0eeb 7dbe 49b7 5abd
00000130: 4568 633e 8621 883e c8cc 0cbf 3bdc d9bd
00000140: 8469 b13e d39e d23e db6e 283e 8004 1c3d
00000150: 6079 ec3d 1a7c febd 8d2d 86be 7742 053e
00000160: fd71 803d a845 a23e 2d33 c7bd 2c92 f53e
00000170: caee 463e 8bb9 bc3e bca2 093e 1484 99bc
00000180: 0f41 b53e 1496 983e 6835 f3be bf9f d1bc
00000190: 94e9 613e b59b 86bd cbdf e3be d81a 0dbf
000001a0: 1ab5 ad3d 2ab4 41be 0655 edbe b18a 143e
000001b0: 73ea 9bbb aa32 c23d 991f b73e ebb9 a73e
000001c0: eee4 28be 7b40 143c e78e 48be 81a9 193e
000001d0: 9901 5a3c abe4 26bf 190d 0cbe 1ad7 4a3e
000001e0: b7e7 12be 3c81 c53e d836 a7bd a446 c03e
000001f0: 2b57 b03e b35a b43e a8a9 023f 6c11 0b3e
0.17561974 -0.42807144 0.09133822 0.4393661 -3.605892e-24 0.030478619 0.25305387 -0.15476388
-0.14244261 -0.38861936 -0.01011963 0.12276966 0.035860248 0.58455145 -0.04901507 0.014362197
-0.84807235 0.089999795 -0.14889003 -0.14767484 -0.021039465 0.109063774 -0.05003512 -0.056162246
0.047196135 -0.07715341 0.4493587 -0.0620859 -0.12865731 0.28724906 -0.10247053 0.21000099
0.3386822 0.066369146 0.097813874 -5.748487e-38 0.3243355 -0.01897761 -0.34383753 0.061511066
-0.13354571 -0.024084749 0.03609341 -0.79461384 0.3274373 -0.15791047 -0.16328065 0.27252942
-0.43658686 0.121428326 1.4107309e-31 0.08172138 0.2754499 -0.5479053 -0.15686508 -0.025851024
-0.57049495 -0.14433569 0.09946123 0.35360104 -0.31866345 0.21228683 -5.2706064e-38 0.58614635
0.04506736 0.19784962 0.21022488 -0.2671897 0.12931313 -0.10142975 0.15400477 -0.26942927
-0.030294847 -0.10916192 -0.24796697 -0.05339745 0.22207744 0.26588076 -0.5499997 -0.10637709
0.34650815 0.41136798 0.16448538 0.03809023 0.11546588 -0.12426014 -0.26206627 0.13013636
0.062717415 0.31693769 -0.09726558 0.47963083 0.19427028 0.36860308 0.13440984 -0.018739738
0.35401198 0.29802 -0.47501683 -0.025588868 0.22061759 -0.065726675 -0.44506678 -0.55119085
0.08481808 -0.18916383 -0.4635393 0.14506032 -0.004758173 0.0948232 0.35766295 0.32759032
-0.1649358 0.0090485765 -0.19585763 0.15006067 0.013306045 -0.6519267 -0.13676871 0.19808617
-0.14346205 0.3857516 -0.081647575 0.37553895 0.34441504 0.35225448 0.51040125 0.13580865

decoder.4.weight f4 [784, 128]
00000000: af16 a0bb 9675 b33b 9c1d 8bbb 8b8a f33b
00000010: 0c4a 8916 1bec 1fbc 3588 9fbb 95f0 de3a
00000020: cac4 90bb 8d1b 29ba 4279 613a a3ad ac3b
00000030: 440c 553a ad72 bdbb 319b a3ba 6450 5939
00000040: 6999 9c3b bcb6 d33a 4766 a6b9 bd08 5ebb
00000050: 0984 873a 8901 f4bb 99c1 c83a c38e 9abb
00000060: b1c8 06bb da29 31ba 2143 13bc ceec 8dbb
00000070: bdfb 50ba e8fa fcbb eac0 e63a 28e9 2abb
00000080: 6ac3 833b 7af4 bb3b 801e acbb 5948 2481
00000090: b1b2 1b3a 9808 9fba 4a73 aab9 a6ef 193a
000000a0: 47d0 a4bb 35e6 6b39 8e29 3d3c 65de 163c
000000b0: c6d4 06bc 2d7c 9dbb e352 24bb acdf 13bc
000000c0: 2ba1 49ba 4e9d 1f3b c410 970a d239 263b
000000d0: 33d2 aab9 f435 c0b9 3b43 8e3a 5dbf edbb
000000e0: e8b6 5639 cc28 2cba e44d 36ba 940b 643b
000000f0: 087f 0939 ab4a 93ba fdc4 2d80 74e8 92bc
00000100: fa92 28bb 3bc6 16bb 1382 f4bb 21d1 28bb
00000110: 86d5 24bb 4799 2ebc 7f4c 45bb 4cd9 0c3b
00000120: b44b aeba 2e1f 573b 8f73 faba 5905 0bb9
00000130: 5ede b7b9 2610 8ebb b94b 0b3c 8efc 00bb
00000140: da91 9cbb b0f8 2fba 56c2 ee3a 506d c8bb
00000150: 2cc8 bfba 0105 993b 4a11 803b 91d9 97bb
00000160: 442c fabb eb77 8dbb dd49 3eba 2a23 593a
00000170: 2a42 fc39 1a9f 03bd 2dcc 2ebb 85a9 3a36
00000180: 323b a4bc 32ad 81bb fe1e 363c fe1b 91bb
00000190: d78b d4ba 9f13 0bbc c459 973b e553 1f3b
000001a0: 9497 27bc 21c5 febb ac99 193b a3f8 453b
000001b0: eb2f efb2 faa9 51ba dddd 8dbc ebeb 8cba
000001c0: c7e3 a0bb ba71 943b 651a 613b 4a0f e7bb
000001d0: eb84 413a 768f 9d3b c981 17bc 1528 04bb
000001e0: c2e7 a63b e288 32b9 de68 b539 40dd 94bb
000001f0: 3fc9 3cbc bea2 9ebc cc1a 80bd b809 0dbc
00000200: fc16 a0bb 6765 b33b 8ab5 8bbb 8c4d f33b
00000210: 0068 2f16 9c20 1fbc a1b9 9fbb c8a3 dd3a
00000220: 42bf 90bb b3d1 2bba 594d 5e3a c362 ac3b
00000230: e841 523a d99d bdbb 7793 a3ba 7459 5439
00000240: 276e 9c3b f3ae d23a dea2 a9b9 d205 5ebb
00000250: 586a 873a facc f3bb 144a c73a 5079 9abb
00000260: a015 07bb 18f7 32ba 1c48 13bc 63d3 8dbb
00000270: ce55 53ba 20bd fcbb 0b7f e63a 2834 2bbb
00000280: a869 833b 7ca6 bb3b 9227 acbb 00c1 3780
00000290: 5170 193a 923c a0ba 0267 abb9 b85d 1b3a
000002a0: 43d5 a4bb 2248 6639 5d0a 3d3c fcbe 163c
000002b0: 96dd 06bc ab37 9dbb f046 24bb 2cc8 13bc
000002c0: fc0c 4aba f643 1e3b 98a0 9c0a 68d7 253b
000002d0: 3358 adb9 cb86 c1b9 16ca 8d3a 09c4 edbb
000002e0: f00d 4f39 5c14 2cba 1ddd 36ba bcc4 633b
000002f0: deba 0939 dd7a 94ba 7b66 2f00 56de 92bc
00000300: fd97 28bb 9ce3 16bb 2386 f4bb a78b 28bb
00000310: 72e0 24bb 5abb 2ebc 170b 46bb 44de 0b3b
00000320: d602 aeba 4ace 563b 8f2d fbba d26a 10b9
00000330: 2a08 b7b9 5a5b 8ebb a919 0b3c f9f3 00bb
00000340: c592 9cbb d8e6 31ba aeee ed3a 4ea7 c8bb
00000350: 71cb bfba 7d18 993b 0489 7f3b e4b7 97bb
00000360: 474a fabb aea6 8dbb 1ccc 40ba 4571 573a
00000370: c600 fa39 c886 03bd 5b5a 2fbb 7ca8 3636
00000380: 6530 a4bc 1f88 81bb feeb 353c 5a38 91bb
00000390: 477b d5ba bfc4 0abc d0c5 963b 70fd 1e3b
000003a0: 0f98 27bc fd86 febb b210 193b 3b7d 453b
000003b0: 752a dab2 ec03 55ba 70d6 8dbc 6b01 8eba
000003c0: d0ff a0bb 252b 9a3b d9a3 603b 9933 e7bb
000003d0: fab2 423a 7f54 9d3b 3194 17bc e168 04bb
000003e0: 39c7 a63b fb1e 3db9 222b b339 d916 95bb
000003f0: 62c1 3cbc 1499 9ebc bfc6 7fbd f0df 0cbc
-0.0048855166 0.005476664 -0.004245473 0.007432287 2.2180274e-25 -0.009760882 -0.004868532 0.0017008955
-0.0044179903 -0.0006450944 0.00086011377 0.0052697225 0.0008127133 -0.0057814927 -0.0012482164 0.0002072468
0.00477903 0.0016152482 -0.0003173819 -0.003387972 0.0010339032 -0.007446472 0.0015316486 -0.0047167256
-0.0020566399 -0.00067582505 -0.008988173 -0.004331208 -0.0007972082 -0.00772034 0.00176051 -0.0026078913
0.004021098 0.005735931 -0.0052526593 -3.017395e-38 0.0005939408 -0.0012133298 -0.00032510824 0.0005872197
-0.0050297114 0.00022497105 0.011545552 0.009208296 -0.00822944 -0.0048060627 -0.0025073818 -0.0090254955
-0.00076915574 0.0024355236 1.4547078e-32 0.0025364053 -0.00032581537 -0.00036661292 0.0010853776 -0.0072554783
0.00020476768 -0.00065673585 -0.00069543556 0.003479694 0.00013112661 -0.0011237463 -4.203263e-39 -0.017933108
-0.002572237 -0.0023006338 -0.007461795 -0.0025759416 -0.0025151684 -0.010656661 -0.003010541 0.0021491824
-0.0013297708 0.003282498 -0.0019107925 -0.00013258065 -0.00035070156 -0.004335421 0.00850194 -0.0019681784
-0.004778129 -0.00067127775 0.0018215876 -0.0061165467 -0.00146318 0.004669786 0.003908311 -0.0046340902
-0.0076346714 -0.004317274 -0.00072589313 0.0008283133 0.00048114482 -0.032134153 -0.0026671991 2.7814833e-06
-0.020047758 -0.003957414 0.011115788 -0.0044283858 -0.0016215992 -0.008488565 0.004618855 0.002431148
-0.01022901 -0.0077749644 0.0023437543 0.0030208013 -2.7845052e-08 -0.0007998046 -0.017317707 -0.0010751461
-0.0049099657 0.004530159 0.0034348008 -0.007051383 0.0007382172 0.0048083616 -0.009247252 -0.0020165492
0.0050935457 -0.00017026396 0.00034601142 -0.0045429766 -0.01152259 -0.01936471 -0.06255111 -0.008608274
-0.0048855525 0.0054747346 -0.0042635845 0.007425016 1.4169204e-25 -0.0097123645 -0.0048744236 0.0016909773
-0.004417331 -0.000655438 0.00084801536 0.0052607968 0.0008020685 -0.005786639 -0.0012479861 0.0002025122
0.0047738734 0.0016073867 -0.00032355537 -0.003387798 0.0010331376 -0.0074402066 0.0015204572 -0.0047141686
-0.0020612255 -0.0006826981 -0.00898936 -0.004328178 -0.0008061797 -0.007712975 0.0017585469 -0.0026123617
0.004010398 0.0057266336 -0.0052537406 -5.120188e-39 0.0005853223 -0.0012225083 -0.00032692408 0.0005926746
-0.0050303056 0.00021961381 0.011538115 0.009200808 -0.008231541 -0.004797896 -0.0025066696 -0.009019893
-0.00077076233 0.0024149395 1.5082662e-32 0.0025305394 -0.00033062845 -0.00036912257 0.0010817673 -0.007256035
0.0001974625 -0.0006564313 -0.00069756975 0.0034754714 0.00013134952 -0.001132812 4.353031e-39 -0.017928284
-0.0025725358 -0.002302385 -0.0074622794 -0.0025718005 -0.0025158194 -0.010664785 -0.0030219012 0.0021342197
-0.0013275992 0.0032776766 -0.0019163358 -0.00013772704 -0.00034910563 -0.004344386 0.008490005 -0.001967667
-0.0047782385 -0.00067864126 0.0018152797 -0.00612346 -0.0014632774 0.0046721087 0.003899158 -0.004630076
-0.007638249 -0.0043228483 -0.00073546334 0.00082184776 0.00047684292 -0.03211096 -0.0026756737 2.7218184e-06
-0.020042608 -0.0039529945 0.011103628 -0.0044317665 -0.001628735 -0.0084697595 0.004601218 0.0024259947
-0.010229125 -0.0077675567 0.0023355898 0.0030134458 -2.5397847e-08 -0.00081258896 -0.017314166 -0.0010834163
-0.0049133077 0.0047048503 0.0034277348 -0.0070557115 0.0007427182 0.0048013325 -0.00925164 -0.0020204114
0.005089667 -0.00018035986 0.00034173677 -0.004549843 -0.011520715 -0.019360103 -0.0624454 -0.008598313
