day3/solutions/simple_autoencoder/simple_autoencoder_14.pt (torch_old, 882273 bytes, 12 tensors)

encoder.0.weight f4 [128, 784]
0	0xbcce5aac	-0.02518972
1	0xbcdcbff0	-0.026946992
2	0xbce35110	-0.027748615
3	0xbce2b1ce	-0.027672675
4	0xbced65e0	-0.028979242
5	0xbcd59b50	-0.026075035
6	0xbcf7d97f	-0.030255077
7	0xbcc909d2	-0.024540816
8	0xbccddf2d	-0.025130833
9	0xbcf8d286	-0.030373823
10	0xbce2c119	-0.027679967
11	0xbccea018	-0.025222823
12	0xbcf0c2fb	-0.029389849
13	0xbcf08001	-0.029357912
14	0xbcefd0a7	-0.029274298
15	0xbcd8f58b	-0.026484272
16	0xbce232d7	-0.027612133
17	0xbcd76f74	-0.026298262
18	0xbcf59012	-0.029975925
19	0xbcec8a7f	-0.028874634
20	0xbcf29b60	-0.029615104
21	0xbccb0bcc	-0.024785899
22	0xbcf2055e	-0.029543575
23	0xbcd32f67	-0.02577944
24	0xbcef6d74	-0.029226996
25	0xbccdf7cb	-0.025142571
26	0xbcddf54e	-0.02709451
27	0xbce0d640	-0.027445912
28	0xbccf3883	-0.025295502
29	0xbcd516f0	-0.026011914
30	0xbcf9a95b	-0.030476263
31	0xbccc739e	-0.024957474
32	0xbcc815c2	-0.024424437
33	0xbce56519	-0.028002309
34	0xbcb586e5	-0.02215905
35	0xbc9e2bf2	-0.019308064
36	0xbc7e6259	-0.015526378
37	0xbca3dbb0	-0.020002216
38	0xbd05a342	-0.032626398
39	0xbd108e52	-0.035291977
40	0xbcf563fe	-0.029954907
41	0xbcbaa832	-0.02278528
42	0xbcd21c8f	-0.025648383
43	0xbc89de30	-0.01682958
44	0xbbf33a91	-0.007422753
45	0xbc09fbec	-0.008421879
46	0xbc5b609b	-0.013389732
47	0xbcae137f	-0.02124953
48	0xbcd68e24	-0.026190825
49	0xbce8a981	-0.028401138
50	0xbcd8899d	-0.026432807
51	0xbcdef39f	-0.027215777
52	0xbcd4f481	-0.025995495
53	0xbccd839b	-0.025087168
54	0xbcf5d525	-0.030008862
55	0xbcd61ebf	-0.026137708
56	0xbce16b31	-0.027516933
57	0xbcf95c5a	-0.030439544
58	0xbcd9fff7	-0.026611311
59	0xbceda748	-0.02901043
60	0xbcc4fd07	-0.024046434
61	0xbcdd06cd	-0.026980782
62	0xbcb96c9c	-0.022634797
63	0xbbdfbe20	-0.0068280846
64	0xbab7874a	-0.0014002111
65	0xbc9dc899	-0.019260691
66	0xbcbc78df	-0.023006855
67	0xbd5a8a76	-0.053354703
68	0xbd4528f9	-0.048134778
69	0xbd358d3b	-0.04432414
70	0xbccdc707	-0.025119318
71	0x3b1d7d88	0.0024031121
72	0x3ca5573f	0.020183204
73	0x3c8f0d03	0.01746226
74	0xbc0755b5	-0.00826018
75	0xbcd6d3d6	-0.026224058
76	0xbd13577e	-0.03597211
77	0xbd1713c3	-0.03688408
78	0xbccb198c	-0.024792455
79	0xbcff1fd1	-0.031143101
80	0xbcf21f57	-0.02955596
81	0xbcedfa62	-0.029050056
82	0xbcf16615	-0.029467622
83	0xbce2e631	-0.027697654
84	0xbcccc340	-0.024995446
85	0xbcd4cf6c	-0.025977813
86	0xbcdf85e1	-0.027285518
87	0xbced24f0	-0.028948277
88	0xbceebc1b	-0.02914243
89	0xbcb9befa	-0.022674073
90	0xbc76e0ca	-0.015068242
91	0xbb1d814a	-0.002403336
92	0xbbd24a22	-0.0064175287
93	0xbd4b5dd1	-0.049650017
94	0xbd88aed4	-0.06673971
95	0xbda66ad9	-0.08125848
96	0xbda25dec	-0.079280704
97	0xbd5d067f	-0.053961273
98	0xbd4edf15	-0.050505716
99	0xbd05a8a7	-0.032631543
100	0xbccd1781	-0.025035622
101	0xbb985f5e	-0.0046500405
102	0xbb99a951	-0.0046893735
103	0xbb7b0d23	-0.003830739
104	0x3d11eff5	0.03562923
105	0x3c773f31	0.01509075
106	0x3c86ed6d	0.016470635
107	0x3b21410d	0.0024605424
108	0x3b8abdb9	0.0042340425
109	0xbcb1ba62	-0.02169532
110	0xbcebda31	-0.028790565
111	0xbce252cf	-0.027627377
112	0xbce95ff1	-0.028488131
113	0xbce8ee91	-0.02843407
114	0xbced6571	-0.028979035
115	0xbd02ab33	-0.03190155
116	0xbcba2dc0	-0.022726893
117	0xbc9a8fcd	-0.018867398
118	0xbc524795	-0.012834449
119	0xbb9f4f47	-0.0048617455
120	0xbce2244e	-0.027605202
121	0xbd1e4403	-0.03863908
122	0xbd127e8b	-0.035765212
123	0xbd0258db	-0.03182302
124	0xbca41f87	-0.020034565
125	0xbd2780f4	-0.040894464
126	0xbd0a8bf3	-0.033824872
127	0xbd118ba1	-0.03553355
128	0xbc6c32cc	-0.014416408
129	0xbbb80296	-0.0056155426
130	0xbcaffe21	-0.021483483
131	0x3c30a855	0.010782321
132	0x3d76ca38	0.060251445
133	0x3d82820d	0.063724615
134	0x3d52b945	0.051446218
135	0x3c844392	0.016145501
136	0x3c844c59	0.016149687
137	0xbb87abaf	-0.0041403393
138	0xbcc14b70	-0.023595542
139	0xbcd9dc00	-0.026594162
140	0xbcef6337	-0.029222114
141	0xbcf80cec	-0.0302796
142	0xbcc28eda	-0.023749758
143	0xbcef2655	-0.029193083
144	0xbc41c4aa	-0.0118266735
145	0xbc551631	-0.013005779
146	0x3c68bf8b	0.014205824
147	0x3c02b1c4	0.007976953
148	0xbce51f3c	-0.027968995
149	0x3b8cba32	0.004294657
150	0x3c9a6baf	0.018850176
151	0x3c3aeb90	0.011408702
152	0x3c151a28	0.009100474
153	0xbab1f5be	-0.0013577265
154	0xbbf31440	-0.0074181855
155	0xb8484b70	-4.7753972e-05
156	0xbb205d9f	-0.0024469865
157	0x3d0bdba6	0.03414502
158	0x3d7af4ec	0.061268732
159	0x3d8ae533	0.067819975
160	0x3d633072	0.055466123
161	0x3da591c3	0.080844425
162	0x3d8b9042	0.06814624
163	0x3d0d48e3	0.03449334
164	0x3cd9982c	0.026561819
165	0x3bdf2620	0.006809965
166	0xbae25b87	-0.0017269709
167	0xbcccb7f2	-0.024990056
168	0xbcd4f79e	-0.02599698
169	0xbcf9cb2a	-0.030492384
170	0xbcd385a2	-0.025820557
171	0xbca4f66c	-0.020137034
172	0x36a7dc18	5.00261e-06
173	0x3c0a1143	0.008426967
174	0x3d02f38e	0.031970553
175	0x3cad9bf7	0.021192534
176	0x3c93d6ca	0.018046755
177	0x3cf7c74a	0.030246396
178	0x3ce39a8f	0.02778366
179	0x3d11e53e	0.035619013
180	0x3d2629dc	0.040567264
181	0x3ca318b1	0.019909235
182	0x3c1e88ba	0.009676153
183	0x3d1901fc	0.037355408
184	0x3d8ad442	0.06778766
185	0x3da22a58	0.07918233
186	0x3d4e3eb3	0.050352763
187	0x3dc38a0c	0.09547815
188	0x3d525dd0	0.051358998
189	0x3d5ed584	0.054402843
190	0x3d2abc0c	0.04168324
191	0x3becaaa1	0.007222489
192	0x3bcb71ca	0.006208633
193	0x3c630046	0.013855046
194	0x3ba45ee6	0.0050161956
195	0xbcda03ae	-0.026613083
196	0xbcf0fe76	-0.029418211
197	0xbcea7dc4	-0.028624423
198	0xbc9ae29f	-0.01890689
199	0xbc251c59	-0.010077559
200	0x3ca43127	0.020042969
201	0x3cec59a9	0.028851347
202	0x3d3ab907	0.045586612
203	0x3d142b0b	0.03617386
204	0x3d75925e	0.05995404
205	0x3d80bcd9	0.0628602
206	0x3d917e39	0.07104153
207	0x3d737156	0.059434257
208	0x3d8e5efb	0.0695171
209	0x3d830a86	0.063984916
210	0x3d44ffca	0.048095502
211	0x3d70bd07	0.05877402
212	0x3da1765c	0.078839034
213	0x3d51b2d5	0.05119594
214	0x3d95b5f5	0.07310096
215	0x3d7e6b23	0.062113892
216	0x3d87f816	0.066391155
217	0x3d1b9459	0.037983272
218	0x3d15a4b1	0.036534015
219	0x3bebe45a	0.0071988525
220	0xbc8143f3	-0.015779471
221	0xbc8ab329	-0.016931133
222	0x3bad3118	0.0052853934
223	0xbce56385	-0.028001556
224	0xbccf2491	-0.02528599
225	0xbcc3ed44	-0.023916848
226	0xbcc8cbe5	-0.024511287
227	0xbbe4a5cc	-0.0069777723
228	0x3d07ad6c	0.033124372
229	0x3d5a5c5e	0.053310744
230	0x3d707540	0.05870557
231	0x3d740939	0.059579108
232	0x3d7966c4	0.06088902
233	0x3d5f6f29	0.05454937
234	0x3d874e93	0.06606784
235	0x3d19056d	0.03735869
236	0x3d59ddc7	0.05319002
237	0x3d740978	0.059579343
238	0x3cb309e1	0.021855297
239	0xbb8de27d	-0.004329978
240	0x3c49b503	0.012311223
241	0x3d17281f	0.036903497
242	0xbab1e98c	-0.0013573631
243	0x3d2ff093	0.04295404
244	0x3d8ddb63	0.0692661
245	0x3d2a4ea0	0.04157889
246	0x3d08e705	0.033423442
247	0xbcc4bf0e	-0.024016883
248	0xbca802d3	-0.02050916
249	0xbcb8721d	-0.022515351
250	0xbb6c7461	-0.003608011
251	0xbc9f2399	-0.019426154
252	0xbcd778ed	-0.02630278
253	0xbca82de3	-0.020529693
254	0xbc3e94f0	-0.011632189
255	0xbb487701	-0.003058851

encoder.0.bias f4 [128]
0	0x3d579d1c	0.052640066
1	0x3cd4114e	0.025887158
2	0x3b8bf2d2	0.00427089
3	0x3cb256df	0.021769939
4	0xbc3070f3	-0.010769117
5	0xbbc7189f	-0.006075933
6	0x3d1bf8f7	0.03807923
7	0x3d0c0324	0.034182683
8	0xbb016c4c	-0.0019748388
9	0x3cbf57f6	0.023357373
10	0x3d965001	0.07339478
11	0x3c53d729	0.012929716
12	0x3d36b593	0.044606756
13	0x3ccf192d	0.02528056
14	0x3d14e083	0.036346924
15	0xba17f171	-0.00057961704
16	0xbbbbf7e0	-0.005736336
17	0x3bdd61f3	0.006756061
18	0x3be7af7b	0.0070704794
19	0xbad6579a	-0.0016353012
20	0xbc8ba6d8	-0.01704733
21	0xbbe8513a	-0.007089761
22	0x3d5089a4	0.050912514
23	0x3c9096b9	0.017649995
24	0xbd097860	-0.033562064
25	0xbb4d32bd	-0.003131076
26	0xb89fa606	-7.612635e-05
27	0x3c973cb2	0.018461559
28	0x3c89dcaa	0.016828854
29	0x3bfce9ef	0.0077183167
30	0xba95c93b	-0.0011427769
31	0x3d772b2b	0.060343903
32	0xbc003d70	-0.007827148
33	0xbbf51170	-0.0074788854
34	0x3bb12e2a	0.0054071145
35	0xbd1820c8	-0.037140638
36	0x3b2b8075	0.0026169096
37	0x3b0dd7ef	0.00216436
38	0xbc91e5b9	-0.017809736
39	0x3d1a9a45	0.03774478
40	0x3b9253e6	0.004465568
41	0x3ce5b301	0.028039457
42	0x3c30644e	0.010766102
43	0xbd613e75	-0.054991204
44	0xbcb5547a	-0.022135008
45	0x3c279edf	0.010230749
46	0x3ca73efb	0.020415774
47	0x3d4afc23	0.049556863
48	0x3cbf95eb	0.023386916
49	0x3ca806ad	0.020510996
50	0x3d2845ed	0.04108231
51	0xbbbfc882	-0.00585276
52	0x3c7b9160	0.015354484
53	0x3c3780aa	0.0112001095
54	0x3cfa0f54	0.030524887
55	0xbc007b0f	-0.007841839
56	0x3c0be484	0.008538369
57	0xbc9a06f6	-0.018802147
58	0x3cad33e6	0.021142911
59	0xbc79ea0f	-0.015253558
60	0x3ca4aa00	0.020100594
61	0xbb6ec34c	-0.0036432324
62	0x3c972cbc	0.018453948
63	0xbc109bfd	-0.008826253
64	0x3c68208d	0.014167917
65	0x3c814849	0.015781539
66	0x3c7796b1	0.015111611
67	0xbcab0331	-0.020875545
68	0x3d756d55	0.05991872
69	0xbc39be07	-0.01133681
70	0x3d0fa9a4	0.03507389
71	0x3d83488a	0.0641032
72	0xbcc06808	-0.023487106
73	0xbb116283	-0.0022183962
74	0xbaa00661	-0.0012208932
75	0xbcd48852	-0.025943909
76	0x3c483827	0.012220419
77	0x3b6ba198	0.0035954472
78	0x3b9b5d52	0.0047413493
79	0x3c6e7fff	0.014556884
80	0xb811479d	-3.463739e-05
81	0x3bf847c5	0.007576915
82	0x3d187ee6	0.037230395
83	0x3cabffab	0.020995935
84	0xbc016d77	-0.007899634
85	0x3c820fef	0.015876738
86	0x3cd99436	0.02655993
87	0xbaa7a338	-0.0012789732
88	0x3cc09031	0.023506256
89	0xbc309b8f	-0.010779276
90	0xbb6ca9d1	-0.003611196
91	0x3d2678a5	0.0406424
92	0x3d17b3b1	0.0370366
93	0x36f73530	7.3673655e-06
94	0xbc7873b3	-0.015164304
95	0x3c688de3	0.014193985
96	0x3bd2c458	0.0064320974
97	0x3cd461cc	0.02592554
98	0xbbeb56b8	-0.0071819685
99	0x3d70fd85	0.058835525
100	0x3c4297ef	0.011877044
101	0xbc2673e9	-0.010159471
102	0xbc3601e7	-0.011108852
103	0x3c3f353d	0.011670408
104	0x3ca643c7	0.02029599
105	0x3cb72cc4	0.022360213
106	0x3cdcac1f	0.026937542
107	0xba954ceb	-0.0011390721
108	0x3cf783a6	0.030214142
109	0x3cb0d87f	0.021587608
110	0x3c0b3c84	0.008498315
111	0x3cd138ae	0.025539722
112	0x3d0d0890	0.034431994
113	0xbc442034	-0.011970568
114	0x3d3c3c32	0.045955844
115	0x3d18c24b	0.037294667
116	0x3d0059f6	0.031335793
117	0x3d36626e	0.044527464
118	0x3cfdb2af	0.030968992
119	0x3bde4099	0.006782603
120	0xbc39b780	-0.011335254
121	0x3d2f3c7e	0.0427823
122	0x3cd74db1	0.026282163
123	0x3bab50a1	0.0052281176
124	0x3d3b0d61	0.045667056
125	0x3d37e830	0.044899166
126	0x3d231fc9	0.039825235
127	0xbbab79d1	-0.0052330275

encoder.2.weight f4 [64, 128]
0	0x3de728cd	0.11287079
1	0x3e338bb9	0.17533769
2	0xbe0c6248	-0.13709366
3	0xbc1c942b	-0.00955681
4	0x3c84ff3f	0.016234992
5	0x3d9c1bf1	0.07622517
6	0x3dccf428	0.100075066
7	0x3d4067fd	0.04697417
8	0x3b994205	0.0046770596
9	0xbda62eac	-0.08114371
10	0xbdc2e12d	-0.09515605
11	0x3d5169c9	0.051126275
12	0x3e1badf0	0.1520307
13	0x3e3c06c1	0.18361951
14	0x3df92efe	0.12167166
15	0x3e616000	0.22009277
16	0x3de2adf0	0.11068332
17	0xbe10f89a	-0.14157334
18	0x3e9a5817	0.30145332
19	0x3e1e681d	0.15469404
20	0xbe021959	-0.12704982
21	0x3c8151f8	0.015786156
22	0x3cfb0577	0.030642254
23	0x3c68fd7b	0.014220591
24	0x3c2b893c	0.010469731
25	0x3c95a760	0.018268287
26	0x3da29e6a	0.07940371
27	0x3d902e86	0.07040124
28	0x3e181bbb	0.14854328
29	0xbb87a223	-0.0041392012
30	0x3cdabd8f	0.026701717
31	0x3cb51e52	0.022109184
32	0xbe804a92	-0.25056893
33	0x3db49b50	0.08818686
34	0x3d9c39e6	0.07628231
35	0x3d824186	0.06360154
36	0x3e7fd28e	0.24982664
37	0xbd8d0c3d	-0.068871
38	0xbb2c224e	-0.0026265564
39	0xbe395b2c	-0.18101186
40	0xbb981fcb	-0.004642462
41	0xb89f3b10	-7.592712e-05
42	0x3da19fc7	0.07891803
43	0xbace5e49	-0.0015744652
44	0xbdff8489	-0.12476451
45	0x3e003355	0.12519582
46	0xba861afe	-0.0010231433
47	0x3dac2a82	0.08406545
48	0x3dc09eaa	0.09405263
49	0x3e1e7143	0.15472893
50	0xbca3ffa8	-0.020019367
51	0xbe696e29	-0.22795929
52	0x3e21ce05	0.15801246
53	0x3e031984	0.12802702
54	0x3debbf65	0.11511115
55	0xbd5f80d6	-0.054566227
56	0xbdbaf000	-0.091278076
57	0x3c83404c	0.01602187
58	0xbd6b38ba	-0.057427146
59	0x3d49279d	0.049110044
60	0x3d85c59b	0.06531831
61	0x3bf397f0	0.007433884
62	0x3d34299d	0.043984998
63	0x3ba2c93f	0.004967838
64	0xbb8197cd	-0.0039548636
65	0x3e0faaaf	0.14029954
66	0x3cd6b463	0.026209062
67	0xbcf009c1	-0.029301526
68	0x3df48994	0.119403034
69	0xbe6cb66f	-0.23116468
70	0x3e67aa27	0.22623502
71	0x3de6dd3c	0.11272666
72	0xbd77a581	-0.06046057
73	0x3cd694cc	0.026193999
74	0x3d053fa8	0.03253141
75	0xbd3ca3af	-0.04605454
76	0x3d3389a5	0.04383244
77	0x3d5dd6c8	0.05415991
78	0x3da2cfad	0.07949767
79	0x3d36c71f	0.04462349
80	0xb81cea2f	-3.74114e-05
81	0xbd2468f7	-0.040139165
82	0x3ca7aa7a	0.020467032
83	0x3df0becf	0.11755144
84	0x3bd740ed	0.006569019
85	0x3e2ab842	0.16671851
86	0xbd77fd73	-0.060544442
87	0xbdaf27d3	-0.08552518
88	0x3d6ec374	0.058291867
89	0x3d2caa14	0.042154387
90	0xbe7a5d42	-0.24449638
91	0x3dc1ecb0	0.09468973
92	0x3d38aa06	0.045084022
93	0xbd9b3cab	-0.07579931
94	0xbd875359	-0.06607694
95	0xbe0f82ee	-0.1401479
96	0xbd041f50	-0.032256424
97	0x3c9e3f79	0.019317375
98	0xbe2c44ec	-0.16823167
99	0xbd99f4ab	-0.0751737
100	0x3dbaaba5	0.0911477
101	0x3e231e24	0.15929466
102	0xbcc79404	-0.024362572
103	0x3db1c56f	0.086802356
104	0x3ad46019	0.0016202956
105	0x3d7d7ca4	0.061886445
106	0x3bc9c323	0.0061572953
107	0x38e50dfc	0.00010922176
108	0x3d1ee117	0.03878888
109	0x3c370d87	0.011172659
110	0x3c44ab82	0.012003781
111	0xbde28e59	-0.11062307
112	0x3d041183	0.032243263
113	0x3dfcfc55	0.12352816
114	0x3dcaa031	0.09893835
115	0xbd6ec6ad	-0.05829494
116	0x3e73f841	0.2382517
117	0x3dea814e	0.11450444
118	0xbdcea892	-0.10090746
119	0x3dcdca77	0.10048383
120	0xbe335395	-0.17512353
121	0x3df60fe3	0.12014749
122	0x3b371d62	0.0027941098
123	0x3ddd9de7	0.10821133
124	0x3d92225f	0.07135462
125	0x3e23809d	0.15967031
126	0xbe01e2e5	-0.1268421
127	0x3c9c9b1f	0.019116936
128	0x3cc9de72	0.024642203
129	0xbbbd7064	-0.0057812203
130	0xbc2d9961	-0.01059565
131	0xb9f7b97f	-0.00047249717
132	0x3cc577cc	0.024104975
133	0x3d834b11	0.06410802
134	0x3d6d4acd	0.057932664
135	0x3bdd6e9c	0.0067575704
136	0xbc7b6d48	-0.015345879
137	0x3d169474	0.03676267
138	0x3d451085	0.048111457
139	0x3db85b8c	0.09001836
140	0xbd6d23db	-0.057895523
141	0x3d21ffb8	0.039550513
142	0xbd696d10	-0.056988776
143	0x3cfde8d8	0.030994818
144	0xbd0cd0d9	-0.03437886
145	0xbcd7633c	-0.026292436
146	0x3dd3ec5a	0.10347815
147	0x3d6ff525	0.058583397
148	0xbd4dffea	-0.050292887
149	0xbaf6ffe9	-0.0018844578
150	0x3e1d5ff9	0.15368642
151	0xbce6b12e	-0.028160658
152	0xbd797b95	-0.060908873
153	0x3de72903	0.11287119
154	0x3e1d15cd	0.15340348
155	0x3c8f0fab	0.017463526
156	0xbc9529f6	-0.018208485
157	0x3e091612	0.13387325
158	0x3ce89aae	0.02839407
159	0x3d27c24c	0.04095678
160	0x3db6b0af	0.089204185
161	0xb860d798	-5.360655e-05
162	0x3dbcbbe0	0.09215522
163	0x3c968cfe	0.018377777
164	0xbda895a1	-0.082316644
165	0xbd236186	-0.039887927
166	0xbc3595ae	-0.01108305
167	0xbd0667bd	-0.032813776
168	0x3df280d5	0.11840979
169	0x3d3c9b8f	0.04604679
170	0x3da3b0c2	0.07992698
171	0x3dd13e4c	0.1021696
172	0x3d3e6ef7	0.046492543
173	0xbb7ca3fc	-0.003854989
174	0xbdabbaca	-0.083852366
175	0xbd09c90b	-0.033638995
176	0xbcee3794	-0.029079236
177	0xbcd68194	-0.026184835
178	0x3c03384a	0.008009026
179	0xbb77d470	-0.0037815832
180	0x3d682a77	0.056681123
181	0xbe04241c	-0.129044
182	0x3dd252bd	0.10269687
183	0xbd2f2288	-0.04275754
184	0xbd850a30	-0.06496084
185	0xbe2ea379	-0.17054547
186	0x3d765b4a	0.060145654
187	0x3dcd2a84	0.10017875
188	0x3d9d1cfd	0.07671545
189	0xbc90fcd0	-0.017698675
190	0x3de901a6	0.113772675
191	0x37e5c318	2.7389775e-05
192	0x3db315bd	0.087443806
193	0x3bb0dfef	0.0053977887
194	0xb99e95ee	-0.00030247815
195	0x3c8588c8	0.016300574
196	0xbd043fa5	-0.03228726
197	0x3e270065	0.16308744
198	0xbd71f4d9	-0.059071396
199	0x3d85981f	0.065231554
200	0x3d759576	0.05995699
201	0x3e073a62	0.13205865
202	0x3cf939d8	0.03042309
203	0x3d5596bd	0.05214571
204	0xbd918f39	-0.07107396
205	0x3cf005fa	0.029299725
206	0x3dd0d51b	0.10196897
207	0x3c5e5063	0.01356897
208	0xb7bb75b7	-2.2346952e-05
209	0x3d34fb9e	0.044185273
210	0x3bd578e5	0.006514656
211	0xbd78b533	-0.06071968
212	0xbc25f540	-0.010129273
213	0x3da2ebb2	0.079551116
214	0x3ca973c6	0.020685088
215	0x3de95857	0.113938026
216	0xbd30646b	-0.043064516
217	0xbdeef369	-0.116675206
218	0xbc36fa58	-0.011168085
219	0xbd02ce26	-0.03193488
220	0x3c8c795e	0.017147716
221	0x3d95a34b	0.07306536
222	0xbd633763	-0.055472743
223	0xbd436cf8	-0.047711343
224	0xbd60562d	-0.054769684
225	0x3d4991fd	0.04921149
226	0x3e2ae769	0.16689838
227	0x3d625ddc	0.055265293
228	0x3cc18fa0	0.023628056
229	0x3d10fbb5	0.035396297
230	0xbaadec49	-0.0013269271
231	0x3df3fa94	0.11913028
232	0xbcb5f741	-0.022212626
233	0xbc9bffd0	-0.01904288
234	0xbe09a1d2	-0.13440636
235	0x3d7decd5	0.06199344
236	0x3d8b7bb2	0.068107024
237	0x3dacfba0	0.08446431
238	0x3dffcd1f	0.124902956
239	0x3d55eb25	0.052226204
240	0x3c71fc5c	0.01476964
241	0xbd6b8fd0	-0.057510197
242	0x3dd36437	0.10321849
243	0x3daa508d	0.08316145
244	0xbd5cba7d	-0.053888787
245	0x3d522674	0.051306203
246	0xbd7c191d	-0.061547387
247	0x3d053908	0.032525092
248	0xbd729df8	-0.059232682
249	0x3b148e31	0.002266776
250	0xbd17bdc1	-0.037046198
251	0x3ae14176	0.0017185647
252	0x3d2d747c	0.042347416
253	0x3c806960	0.015675247
254	0x3cef0cfd	0.029180998
255	0x3dee651c	0.11640379

encoder.2.bias f4 [64]
0	0x3d0d463b	0.034490805
1	0xbb15c5c4	-0.0022853473
2	0x3c0c2492	0.008553641
3	0xbd68e5ba	-0.05685971
4	0x3cce19a7	0.025158716
5	0xbd40bc98	-0.047054857
6	0x3cac3b0a	0.021024246
7	0x3cd782fc	0.026307575
8	0x3d468dbc	0.048475012
9	0x3cd31f53	0.025771772
10	0x3d5b7cbf	0.053585764
11	0x3d09c0ca	0.033631124
12	0x3dc1334d	0.09433613
13	0x3c533e79	0.012893313
14	0x3d015450	0.031574547
15	0xbc44a44b	-0.012002061
16	0x3d5bd5cc	0.05367069
17	0x3c87ddbc	0.016585223
18	0x3d890880	0.06691074
19	0x0171feba	4.4447466e-38
20	0x3da47a21	0.08031107
21	0xb5824a86	-9.707444e-07
22	0xbc71f552	-0.014767962
23	0xbc945634	-0.018107511
24	0x3d90a8d2	0.0706345
25	0x3cebf7ab	0.02880462
26	0x3d5c035b	0.053714138
27	0x3da164ad	0.078805305
28	0x016dd5b2	4.3683344e-38
29	0x3c05f1c1	0.008175314
30	0x01743014	4.4850216e-38
31	0xacfbb936	-7.1544116e-12
32	0x3d9800b1	0.07422007
33	0x3cbba41a	0.022905398
34	0x1c869f87	8.908613e-22
35	0x3d37ed20	0.044903874
36	0x3d935ae1	0.07195068
37	0x3ce5f49b	0.028070739
38	0xba62bc71	-0.0008649296
39	0x3cd475d7	0.025935097
40	0x3c180f8e	0.009281052
41	0x3d6f28a5	0.05838837
42	0x3c81cd49	0.015844958
43	0x0ee63a3e	5.6755463e-30
44	0x3a41e1dc	0.00073960214
45	0x3d1ad9c7	0.037805345
46	0x3d86fa51	0.06590713
47	0xbcfba50a	-0.030718345
48	0xb390e889	-6.7478204e-08
49	0x3d1a08c5	0.03760602
50	0x3c500e93	0.012698787
51	0x3cb143d9	0.021638798
52	0xbcfce5c8	-0.030871287
53	0xba999d59	-0.0011719867
54	0x3ccc20c1	0.024917962
55	0x3c11b5b0	0.008893415
56	0x3d8995f7	0.06718057
57	0xa89fc145	-1.7736363e-14
58	0x3d22af54	0.039717987
59	0x3d4f7636	0.050649844
60	0xbcb0d0ff	-0.021584032
61	0x3da2fd9b	0.07958528
62	0x3d3a2de5	0.045453925
63	0x3d846c53	0.06465974

encoder.4.weight f4 [14, 64]
0	0xbd4a1b84	-0.049342647
1	0x3d559f11	0.05215365
2	0xbe260c0a	-0.1621553
3	0xbcf06eb9	-0.029349672
4	0x3de5a665	0.11213378
5	0xbc9f05d9	-0.019411968
6	0x3c2cc1ce	0.0105442535
7	0x3caeb3bc	0.021325938
8	0x3c3204cc	0.0108654015
9	0xbdde8c5e	-0.10866617
10	0x3ba5ba73	0.005057627
11	0x3dfca9b4	0.12337056
12	0x3dbb849c	0.091561526
13	0x3e2a665d	0.16640611
14	0x3d8bb5e0	0.06821799
15	0x3d468d7d	0.048474777
16	0xbd20b26d	-0.03923266
17	0xbc895f8f	-0.016769199
18	0x3ce867c2	0.028369788
19	0x9c1243fb	-4.839521e-22
20	0xbe0c8c36	-0.13725361
21	0x3bfd6635	0.0077331313
22	0xbe7a2ece	-0.24431917
23	0x3dc6f4c6	0.097146556
24	0x3d7c2fc0	0.061568975
25	0x3d08c9e0	0.033395648
26	0x3d7825f6	0.060583077
27	0x3e2d28fc	0.16910166
28	0x39fff96c	0.00048823224
29	0x3b927d4e	0.004470504
30	0x34e0701f	4.180483e-07
31	0x3c3d8485	0.01156724
32	0x3e2ab335	0.16669925
33	0xbd687d31	-0.056760017
34	0x9e6132b4	-1.1921886e-20
35	0xbda8eb81	-0.08248044
36	0x3e014178	0.1262263
37	0x3e46e8cc	0.19424742
38	0x3b1802fd	0.002319514
39	0xbcea5e68	-0.02860947
40	0xbd00066c	-0.031256124
41	0x3d0587ee	0.032600336
42	0xbe0bd746	-0.13656339
43	0x3a6dccdc	0.0009071359
44	0x3c56d3c8	0.013112016
45	0x3da577b5	0.08079473
46	0xbd6ca8c9	-0.057778154
47	0xbe641d52	-0.2227681
48	0xbc63ed53	-0.013911563
49	0x3c99da8a	0.018780965
50	0xbd1230c5	-0.03569104
51	0xbe048268	-0.12940371
52	0xbd827d7f	-0.06371593
53	0xbdb88d9f	-0.09011387
54	0xbde12f11	-0.10995305
55	0x3e238773	0.15969639
56	0xbdb497f2	-0.08818044
57	0xb8d0cb7c	-9.956115e-05
58	0xbc0544a9	-0.008134046
59	0x3d929d97	0.07158964
60	0xbc5ff992	-0.013670342
61	0x3d2db174	0.04240556
62	0xbd95b74d	-0.073103525
63	0x3e27330b	0.16328065
64	0x3aff7b32	0.0019491671
65	0x3d3855b9	0.045003626
66	0x3e2ca027	0.16857968
67	0xbdc7a88d	-0.097489454
68	0xbddf2857	-0.10896366
69	0x3c809c35	0.015699485
70	0x3d7bc6a3	0.06146873
71	0xbdf0d9ad	-0.11760268
72	0xbe73ed0b	-0.23820893
73	0xbd488d54	-0.048962906
74	0x3db5d03c	0.08877608
75	0x3d8a21af	0.06744706
76	0x3dbfd81b	0.09367391
77	0xbdd6d8bb	-0.10490557
78	0x3d95151b	0.07279416
79	0x3dc91e09	0.09820182
80	0xbd05d78d	-0.03267627
81	0xbc88e53d	-0.016710872
82	0x3dbe1de9	0.09283049
83	0xac3a6c11	-2.6492179e-12
84	0x3d441855	0.047874767
85	0x3c45c804	0.012071613
86	0xbd4d354d	-0.05009966
87	0x3d17f717	0.037100878
88	0x3d03beb2	0.032164283
89	0x3dfc5072	0.12320031
90	0x3d5c7701	0.05382443
91	0x3e01c5e6	0.12673149
92	0x38eff505	0.000114420465
93	0xbdb9b98c	-0.090685934
94	0xb28b8736	-1.6243217e-08
95	0x3ccd0342	0.025025968
96	0x3da3dfc5	0.08001665
97	0x3e32b6c9	0.1745254
98	0x9e2d019c	-9.1588766e-21
99	0xbdf447c8	-0.11927754
100	0x3db5336a	0.08847697
101	0xbdd9dee8	-0.10638219
102	0x3cb2d0e0	0.021828115
103	0x3d6be6f4	0.0575933
104	0xbd988a59	-0.07448263
105	0xbdccf9c7	-0.10008579
106	0x3d9a3551	0.075297005
107	0x3aad5817	0.0013225105
108	0xbdc23f79	-0.09484763
109	0xbb4e30a5	-0.00314621
110	0x3e2f76d7	0.17135178
111	0x3d6f4962	0.058419593
112	0xbb977cd6	-0.004623036
113	0x3b9c88d0	0.0047770515
114	0xbd4f07c8	-0.05054453
115	0x3d46bad7	0.048518028
116	0xbdbcaa1f	-0.092121355
117	0xbdba7236	-0.09103815
118	0xbe075df0	-0.13219428
119	0xbd8df51f	-0.06931519
120	0xbde3bbf4	-0.111198336
121	0xb92c0777	-0.00016405979
122	0x3e22fd0a	0.15916839
123	0x3e10a3ec	0.14125031
124	0xbe369aff	-0.17832564
125	0xbe1c3d2b	-0.15257709
126	0xbc643c11	-0.013930337
127	0xbdb43199	-0.087985225
128	0xbd8e66e6	-0.0695322
129	0xbe0bf091	-0.13665988
130	0x3e0ad5b8	0.1355809
131	0x3e485e08	0.1956712
132	0x3d284fb2	0.04109163
133	0xbd95e92a	-0.07319863
134	0xbd4db971	-0.05022568
135	0xbc47c285	-0.012192373
136	0x3ccf9011	0.02533725
137	0xbe15f7f8	-0.14645374
138	0x3dfd6ff0	0.12374866
139	0x3e04b1a1	0.12958385
140	0xbdb6e858	-0.08931035
141	0xbe2c22f1	-0.16810204
142	0x3d91924d	0.07107983
143	0xbd83ae28	-0.06429702
144	0x3ddde6a0	0.10835004
145	0xbe0e0875	-0.13870414
146	0x3d6b67af	0.057471927
147	0xb065e2ad	-8.363184e-10
148	0x3c84a7a3	0.016193217
149	0x3cb05687	0.021525634
150	0x3d15863e	0.036504976
151	0x3e19ac19	0.15007056
152	0xbcaae4a4	-0.020860977
153	0xbe285fa1	-0.1644273
154	0xbdbc34d1	-0.091897614
155	0x3ca0d7f6	0.019634228
156	0xb8dbd9ce	-0.00010483303
157	0xbe406ff4	-0.18792707
158	0x3a778bf1	0.0009443155
159	0x3c82f11c	0.01598411
160	0x3dc88877	0.097916536
161	0xbe223fd9	-0.15844668
162	0x1f6168d8	4.7732328e-20
163	0xbdc3d40a	-0.095619276
164	0xbde8be36	-0.11364405
165	0x3d71e986	0.059060596
166	0xbc879368	-0.016549781
167	0xbcd499fc	-0.025952332
168	0xbd4401d0	-0.04785329
169	0xbdb77efa	-0.08959766
170	0x3df0622a	0.11737473
171	0x38a59cdd	7.897031e-05
172	0x3d9ea870	0.07746971
173	0xbd462e7d	-0.04838418
174	0xbdd484db	-0.10376903
175	0x3e19805b	0.1499037
176	0x3c5d40f2	0.013504254
177	0xbdf86d6d	-0.12130246
178	0x3e27d6da	0.16390553
179	0xbdb06600	-0.08613205
180	0x3d2711f8	0.04078862
181	0x3e17a6d0	0.14809728
182	0xbdb40b41	-0.08791209
183	0xbdd1c51c	-0.10242674
184	0xbcc245a5	-0.02371485
185	0xb60663fa	-2.002575e-06
186	0x3cf50507	0.029909624
187	0xbe27d954	-0.16391498
188	0x3dcf5ff2	0.10125722
189	0x3d9fd2b3	0.078038596
190	0xbe0fc0ac	-0.14038342
191	0x3d47170f	0.048605975
192	0x3e1e8586	0.15480623
193	0x3c529db6	0.012854984
194	0x3daca79c	0.084304065
195	0xbd47bee3	-0.048766028
196	0x3e0fc601	0.14040376
197	0xbdd46ada	-0.10371943
198	0xbe036d7c	-0.12834734
199	0x3df3433e	0.1187806
200	0xbdacc03d	-0.08435104
201	0x3c668852	0.014070587
202	0x3dc9de54	0.09856859
203	0xbda26908	-0.07930189
204	0x3d889374	0.066687495
205	0x3d83ba5e	0.06432031
206	0xbda65e08	-0.08123404
207	0xbdb62a70	-0.08894813
208	0xbd779cab	-0.060452145
209	0xbda9fc01	-0.08300019
210	0x3dcfc34c	0.10144672
211	0x2481d0a4	5.629828e-17
212	0xbd34879b	-0.044074636
213	0xbc615d08	-0.013755091
214	0x3d92fabc	0.0717673
215	0xbdcae4e1	-0.099069364
216	0x3e016b8f	0.12638687
217	0xbd3af6a4	-0.04564537
218	0xbd06664d	-0.032812405
219	0xbe151841	-0.14560033
220	0x37dca359	2.6302108e-05
221	0xbdd3a463	-0.10334089
222	0x2a3f3bd8	1.698497e-13
223	0xbc9c24b6	-0.019060474
224	0xbbc4dcfb	-0.0060077882
225	0xbe04451d	-0.1291699
226	0x1e5d2acf	1.1708495e-20
227	0xbdf83b33	-0.12120666
228	0x3d80bed7	0.062864
229	0x3d339c64	0.043850318
230	0xbc0311ff	-0.007999896
231	0xbcbd2ecf	-0.02309361
232	0x3e0e1bf7	0.13877855
233	0xbdb08ccd	-0.086206056
234	0xbe1ca04a	-0.1529552
235	0x3b4eb242	0.0031539355
236	0x3d8f11a8	0.069857895
237	0x3df978fa	0.121812776
238	0x3e28137d	0.16413684
239	0xbd80d1d8	-0.062900245
240	0x3c687fb3	0.014190602
241	0xbcf8449c	-0.030306153
242	0x3d0e6932	0.03476829
243	0xbe574e04	-0.21025854
244	0xbe063ae7	-0.13108407
245	0xbe140c2b	-0.14457767
246	0xbc5f5edc	-0.013633456
247	0x3eacf857	0.33783218
248	0xbe5176ac	-0.20455426
249	0xb898afc0	-7.280661e-05
250	0xbd169dcf	-0.03677159
251	0xbd1308ed	-0.035897184
252	0xbd4cccff	-0.050000187
253	0x3d97e783	0.07417204
254	0x3dc25c7f	0.094902985
255	0xbe270185	-0.16309173

encoder.4.bias f4 [14]
0	0xbc4a94fb	-0.012364621
1	0x3d949acf	0.0725609
2	0xbd7c7c8d	-0.06164222
3	0xbd8cb8ff	-0.06871223
4	0x3d9a51c6	0.07535128
5	0x3d1130a2	0.03544677
6	0xbcae1aa8	-0.021252945
7	0x3ca9a058	0.02070634
8	0xbdbee24d	-0.09320507
9	0xbdd032d6	-0.10165946
10	0x3da5a88c	0.080887884
11	0x3dc1e689	0.09467799
12	0xbda52642	-0.08063938
13	0xbd58c7e7	-0.052925017

decoder.0.weight f4 [64, 14]
0	0xbe3498d3	-0.17636423
1	0x3deb5f94	0.114928395
2	0x3dda266c	0.1065186
3	0xbd791b19	-0.060816858
4	0x3e747df1	0.23876168
5	0xbe638805	-0.22219856
6	0xbd717a96	-0.058954798
7	0xbe84bcdd	-0.2592534
8	0xbee61a6b	-0.4494203
9	0xbe1f7333	-0.15571289
10	0xbe6843f1	-0.22682168
11	0x3d384de0	0.044996142
12	0xbe95d216	-0.29261845
13	0xbea48162	-0.3212996
14	0x3e8f13c8	0.2794478
15	0xbcacf29f	-0.021111785
16	0xbe3a6aad	-0.18204756
17	0xbdb4258a	-0.087962225
18	0xbc99453c	-0.018709771
19	0x3e6e5af8	0.2327689
20	0xbe5c5cae	-0.2151973
21	0xbe159181	-0.14606287
22	0x3e10c0d4	0.14136058
23	0xbde2fa38	-0.11082882
24	0x3e7d6ec7	0.2474929
25	0xbe237250	-0.15961576
26	0xbe0cbb95	-0.13743432
27	0xbe42ce95	-0.19024117
28	0xbe03ec65	-0.12883146
29	0xbc5d1ca4	-0.013495598
30	0x3d927b07	0.07152372
31	0x3cb24c40	0.021764874
32	0x3d8eb118	0.06967372
33	0x3e3dcc52	0.18534973
34	0xbe8a27a2	-0.26983362
35	0xbd44c7e1	-0.048042182
36	0xbdab4189	-0.08362109
37	0x3d6609ce	0.056161694
38	0xbe5cd13a	-0.21564189
39	0x3eb97bc2	0.36227232
40	0x3c9d9153	0.019234335
41	0xbe54b42f	-0.2077186
42	0xbe116a31	-0.14200665
43	0x3e2d9c99	0.16954269
44	0x3e42ebfa	0.1903533
45	0x3d8e4fd0	0.06948817
46	0x3dacb590	0.08433068
47	0xbd02465e	-0.03180539
48	0xbe1e70ab	-0.15472667
49	0xbdc8fdf4	-0.09814063
50	0xbe381e50	-0.17980313
51	0xbbe3fcb2	-0.006957614
52	0x3dbaa035	0.09112588
53	0x3ca820e7	0.020523502
54	0x3e80f377	0.2518575
55	0x3d4154ff	0.0472002
56	0xbd9129c4	-0.07088044
57	0x3e75326b	0.23945014
58	0x3e11f752	0.14254501
59	0x3daf018a	0.085452154
60	0xbe20e5ad	-0.15712614
61	0xbe62e587	-0.2215787
62	0x3de8eee5	0.113736905
63	0x3eafbda8	0.34324384
64	0xbeafd9db	-0.34345898
65	0xbe4207e8	-0.18948328
66	0xbe5bd6c9	-0.21468653
67	0x3d63b0cf	0.05558854
68	0x3e817048	0.25280976
69	0xbb18f83e	-0.0023341323
70	0x3e72111e	0.23639342
71	0x3e2b7f0d	0.16747685
72	0x3ef44632	0.47709805
73	0x3c92eb0a	0.017934341
74	0xbede946e	-0.43472618
75	0x3ee168ea	0.44025356
76	0xbd89f3b2	-0.06735934
77	0xbdddfb73	-0.10838976
78	0xbe14e70d	-0.14541264
79	0x3e62b675	0.22139914
80	0x3c97e2f8	0.018540844
81	0x3cd24caf	0.025671331
82	0x3e42ee4f	0.1903622
83	0xbdc796a7	-0.097455315
84	0x3dd7da35	0.105396666
85	0x3e502119	0.20325126
86	0x3d39b0d5	0.045334656
87	0xbe060464	-0.13087612
88	0xbe014d9f	-0.12627266
89	0x3ea7d847	0.32782194
90	0xbe582b8f	-0.21110366
91	0xbdf0a539	-0.11750264
92	0x3e1784de	0.14796779
93	0xbe010fb5	-0.12603648
94	0x3dfb1bf5	0.12261192
95	0xbca71af4	-0.020398594
96	0x3e183e62	0.14867547
97	0xbe6588db	-0.22415487
98	0xbe216a05	-0.157631
99	0xbdd6b6a5	-0.104840554
100	0xbdf57bf3	-0.11986532
101	0xbba5f118	-0.005064141
102	0x3e960190	0.29298067
103	0xbcbb056d	-0.022829736
104	0xbd495cf7	-0.049160924
105	0xbe7dc917	-0.24783741
106	0xbd921ec8	-0.07134777
107	0xbdf280d0	-0.11840975
108	0x3e465e28	0.19371855
109	0x3e04eb9e	0.12980506
110	0xbd9a8e65	-0.07546691
111	0xbde3b2ae	-0.11118065
112	0xbe12de9c	-0.14342731
113	0x3e294b2f	0.16532587
114	0xbe614eed	-0.22002764
115	0x3e6c9547	0.2310382
116	0xbe1f866a	-0.15578619
117	0xbeb951e8	-0.36195302
118	0xbe87af4a	-0.26500922
119	0xbdbc3bcf	-0.09191095
120	0x3e3e2201	0.18567659
121	0x3e11bece	0.14232942
122	0x3e195ee5	0.14977606
123	0xbe10ed9f	-0.14153145
124	0x3d8710fe	0.06595038
125	0xbe6d7b06	-0.23191461
126	0x3e6a9f93	0.22912435
127	0xbd1975b2	-0.03746576
128	0xbe719e53	-0.23595552
129	0xbe31657a	-0.17323866
130	0xbd88b3ef	-0.066749446
131	0x3e764fb9	0.2405385
132	0xbe39dea3	-0.18151335
133	0x3e143637	0.14473806
134	0xbe9b4641	-0.30327037
135	0x3e8406ca	0.2578643
136	0xbe41c944	-0.18924433
137	0xbd3b8238	-0.045778483
138	0x3d9d5606	0.07682423
139	0x3c35c1aa	0.011093536
140	0x3e2268f8	0.15860355
141	0xbe81efa3	-0.2537814
142	0xbe210086	-0.15722856
143	0xbd06ffdd	-0.032958854
144	0x3c8183f7	0.015809996
145	0x3bdf6505	0.0068174624
146	0xbd8727f0	-0.06599414
147	0xbe66485e	-0.22488543
148	0x3dcc8a2f	0.09987294
149	0x3ead0c5a	0.33798486
150	0x3e11e427	0.1424719
151	0x3c8f28e1	0.017475547
152	0xbcb393d7	-0.021921081
153	0x3c8aba92	0.016934667
154	0x3ea5e1d2	0.3239885
155	0x3e5bb528	0.21455824
156	0x3c106fea	0.008815745
157	0xbe3307cd	-0.17483445
158	0x3e3635b5	0.17793925
159	0xbe781e42	-0.24230292
160	0x3e0a43ad	0.13502379
161	0x3e0bbc3f	0.13646029
162	0x3d8a6a92	0.06758608
163	0x3eac0ba9	0.33602646
164	0xbdf8d6d2	-0.12150349
165	0x3e1cc714	0.15310317
166	0x3e65f2a7	0.22455846
167	0xbcd18c0c	-0.025579475
168	0xbd862411	-0.06549848
169	0x3e9de313	0.30837306
170	0xbdafc547	-0.085825495
171	0xbe80d54b	-0.2516273
172	0x3e63e831	0.22256543
173	0xbc637387	-0.013882524
174	0xbbd6951d	-0.0065485374
175	0xbe0fb7cd	-0.14034958
176	0xbe4a2baa	-0.19743219
177	0x3e9482d2	0.29006058
178	0x3abbef9e	0.0014338379
179	0xbdc2cbea	-0.0951155
180	0xbe35adaa	-0.17742029
181	0xbd8aba19	-0.067737766
182	0x3d21e3ff	0.039524075
183	0xbf0edfaa	-0.55810034
184	0xbd02e87d	-0.03196
185	0xbdf22175	-0.11822788
186	0x3e8558c3	0.26044282
187	0x3e9b7771	0.30364564
188	0x3da7b419	0.08188648
189	0xbdc3fa55	-0.095692314
190	0x3ed96ca7	0.42465708
191	0xbea5ba01	-0.32368472
192	0x3dc8e7a8	0.0980981
193	0xbe34501f	-0.17608689
194	0xbe29d6da	-0.16585866
195	0x3d36f463	0.04466666
196	0xbe209ede	-0.15685603
197	0x3e1bed54	0.15227252
198	0xbe3f9c2c	-0.18711919
199	0xbe8a5d80	-0.2702446
200	0xbd1cff7f	-0.038329598
201	0xbe2a7032	-0.16644362
202	0x3cd6e13e	0.02623045
203	0x3ea10546	0.31449336
204	0xbe399a1a	-0.18125191
205	0x3e316520	0.17323732
206	0x3d19b4b9	0.037525866
207	0xbde8d58c	-0.11368856
208	0x3e37f4cc	0.17964476
209	0xbe7dfdab	-0.24803798
210	0x3d96db28	0.073660195
211	0x3e1eb4c9	0.15498652
212	0x3da55536	0.08072893
213	0x3d73ffcb	0.059570115
214	0x3e8e2b4b	0.27767405
215	0x3cc34b6f	0.02383968
216	0xbd31d746	-0.04341819
217	0x3db45c9a	0.08806725
218	0x3c857347	0.01629032
219	0xbdcb4043	-0.09924366
220	0x3e5933e5	0.21211202
221	0x3e621b61	0.22080757
222	0xbd9aa365	-0.07550696
223	0xbe5deeb4	-0.2167309
224	0xbdc75e99	-0.0973484
225	0xbd0b2c9a	-0.033978082
226	0x3d1e8a8c	0.038706347
227	0xbe8c8c58	-0.27450824
228	0x3e874b6b	0.26424727
229	0xbdf39ce1	-0.11895157
230	0xbda48519	-0.08033199
231	0x3e52c664	0.20583493
232	0xbc088e44	-0.0083347
233	0x3d03f5a5	0.032216687
234	0x3bb70712	0.0055855596
235	0xbcca19bc	-0.024670474
236	0x3e9a6567	0.3015549
237	0xbdec50d6	-0.11538856
238	0x3e7230aa	0.23651376
239	0x3ddbcbea	0.10732253
240	0x3e929205	0.2862703
241	0xbd85b0f3	-0.06527891
242	0xbdb7234d	-0.0894228
243	0xbdc8a214	-0.09796539
244	0xbeb10844	-0.3457662
245	0x3d975d8a	0.07390888
246	0x3d805916	0.06266992
247	0xbc7f6598	-0.015588187
248	0x3e843fd7	0.25829956
249	0xbd2d5af3	-0.042323064
250	0xbde8a542	-0.113596454
251	0x3d8aa77e	0.06770228
252	0xbf045a2d	-0.517001
253	0xbe7f3432	-0.24922255
254	0x3e6c4586	0.23073396
255	0x3e17f87a	0.1484088

decoder.0.bias f4 [64]
0	0x3d92a9dd	0.07161305
1	0xbe0ba9f1	-0.13639046
2	0xbc9373e2	-0.017999593
3	0x3dd900de	0.105958685
4	0xbd323652	-0.043508835
5	0xbe9cbf9e	-0.30614942
6	0x3efb1317	0.49038002
7	0x3f47e672	0.78086007
8	0x3ebb0548	0.36527467
9	0x3ec46934	0.38361514
10	0xbee7e324	-0.45290482
11	0x3f2c1c76	0.6723093
12	0x3cbf95a6	0.023386788
13	0x3e23c638	0.15993583
14	0x3ebeacf9	0.37241343
15	0xbda19022	-0.07888819
16	0xbf31ad1a	-0.6940476
17	0x3cf87981	0.030331375
18	0x3e8ced04	0.2752458
19	0x3d0f3070	0.034958303
20	0xbc96814b	-0.018372199
21	0x3eb57b95	0.35445848
22	0x3d0cfb4b	0.03441934
23	0x3e70f9ef	0.23532842
24	0xbc05c222	-0.008163961
25	0xbe698ee3	-0.22808413
26	0x3e84925e	0.2589292
27	0xbe2faed9	-0.17156543
28	0xbe6db1f4	-0.23212415
29	0x3dd4da03	0.10393145
30	0xbda52bff	-0.08065032
31	0x3e4e53d9	0.20149173
32	0x3e260eda	0.16216603
33	0xbd0e0749	-0.034674916
34	0x3e267c72	0.1625841
35	0x3d304444	0.043033853
36	0xbf0b4e8d	-0.54416734
37	0xbe605cdc	-0.21910423
38	0xbe21c24a	-0.15796772
39	0x3e3d85f8	0.18508136
40	0x3e188a14	0.14896423
41	0xbdb6bea7	-0.08923083
42	0xbdde92b4	-0.10867825
43	0x3e3c78d3	0.18405466
44	0x3e7f0fe3	0.24908404
45	0xbe388eb3	-0.18023185
46	0xb1e158ba	-6.558449e-09
47	0x3e269bef	0.16270421
48	0x3d1278ce	0.03575974
49	0xbf1be3a4	-0.6089423
50	0x3d155687	0.036459472
51	0xbdee9df3	-0.1165122
52	0x3d38ed91	0.045148436
53	0x3f66ae60	0.90109825
54	0x3e75664c	0.23964804
55	0x3f038cc7	0.51386684
56	0xbdf9089f	-0.121598475
57	0xbde7a173	-0.11310091
58	0xbe8dd352	-0.27700287
59	0xbe45a956	-0.19302878
60	0xbe8ba63a	-0.27275258
61	0xbf05b841	-0.52234274
62	0x3f18e01a	0.5971695
63	0x3e282208	0.16419232

decoder.2.weight f4 [128, 64]
0	0x3d559bfa	0.052150704
1	0x3d96f089	0.07370097
2	0xbd5a57da	-0.053306438
3	0x3df096a7	0.11747485
4	0xbcc1eceb	-0.023672542
5	0xbe2662e3	-0.1624866
6	0xba6e38fa	-0.00090874697
7	0xbe1b2884	-0.15152174
8	0xbcdfcaf4	-0.027318455
9	0x3c1d81a3	0.009613427
10	0x3d4557b6	0.04817935
11	0x3d8aa3a8	0.06769496
12	0xbc8065f2	-0.015673611
13	0xbdc72620	-0.09724069
14	0x3d4131ce	0.047166638
15	0x3d98c6b3	0.07459774
16	0x3d9e3e85	0.077267684
17	0xbd9bcd02	-0.076074615
18	0x3e290791	0.16506793
19	0xbd117f65	-0.035521884
20	0x3d377213	0.044786524
21	0xbb19c487	-0.0023463087
22	0x3d2590aa	0.040421166
23	0x3dcc1087	0.0996409
24	0xbe2227d7	-0.1583551
25	0x3d9b2651	0.07575668
26	0x3c48c9c3	0.012255135
27	0xbdc97da7	-0.098384194
28	0x3e096580	0.13417625
29	0x3d14d387	0.03633454
30	0x3d7a2481	0.06106997
31	0xbddb0614	-0.10694519
32	0xbcdd8358	-0.027040169
33	0xbc573425	-0.013134991
34	0xbd566740	-0.05234456
35	0xbe035c5b	-0.128282
36	0x3dbeaa9f	0.09309887
37	0x3bfd35d8	0.007727366
38	0x3dc16236	0.094425604
39	0xbc5ee961	-0.013605447
40	0xbd85c6d1	-0.06532062
41	0x3da6970b	0.08134278
42	0xbcbd47c3	-0.023105508
43	0x3e16cdac	0.14726895
44	0x3db97480	0.09055424
45	0x3c066e9f	0.008205085
46	0xae8cf958	-6.410755e-11
47	0x3e0a1c26	0.134873
48	0xbd151c10	-0.036403716
49	0x3d0b23b9	0.033969615
50	0x3d6ebdb2	0.058286376
51	0xbcc81a3a	-0.024426568
52	0x3ce9b155	0.028526941
53	0x3d5dc4fd	0.05414294
54	0xbe2a2a63	-0.16617732
55	0xbc36ad20	-0.011149675
56	0xbdef0ef6	-0.116727754
57	0xbd96f542	-0.07370998
58	0x3c27d561	0.010243745
59	0xbcc59729	-0.02411993
60	0xbd17483b	-0.03693412
61	0x3dd4e399	0.10394973
62	0x3d00e0fb	0.031464558
63	0xbde0dcd0	-0.10979617
64	0xbe3d6d9c	-0.18498844
65	0x3deb1c98	0.11480063
66	0xbd58b521	-0.052907113
67	0xbd2dd106	-0.04243567
68	0x3d0ac5cc	0.03388004
69	0x3d8662fa	0.06561847
70	0x3b4f4fe7	0.003163332
71	0x3dffa6b7	0.1248297
72	0x3d6a13ff	0.057147976
73	0x3e2efea7	0.1708933
74	0xbdf8d1a6	-0.12149362
75	0x3cf514ab	0.029917082
76	0x3d65351f	0.055958863
77	0x3cefea17	0.029286427
78	0x3d52853e	0.0513966
79	0x3cfb52b1	0.030679079
80	0xbdeef046	-0.11666922
81	0xbdb0ef0d	-0.08639345
82	0x3e684a63	0.22684626
83	0x3ea71133	0.3263031
84	0x3db117ff	0.08647155
85	0x3d952a1f	0.072834246
86	0xbe20ab44	-0.15690333
87	0x3dc9b361	0.09848667
88	0xbcd7d44b	-0.026346346
89	0xbdebd8cc	-0.1151596
90	0x3d5ad2e8	0.053423792
91	0x3d7eb5c4	0.062185064
92	0xbd595d66	-0.053067587
93	0xbcc2ec2a	-0.023794252
94	0x3b8e1033	0.004335427
95	0x3dba4501	0.09095193
96	0x3c01a391	0.007912532
97	0xbd0d04d5	-0.034428436
98	0xbd7df612	-0.06200225
99	0x3d743133	0.059617233
100	0x3d6f1831	0.05837268
101	0x3cdb3694	0.026759423
102	0x3ac807ff	0.0015261172
103	0x3d90c5a1	0.07068945
104	0x3dd61dea	0.104549244
105	0x3de5c526	0.11219244
106	0x3e674955	0.22586568
107	0xbcf040f9	-0.029327856
108	0xbd1dd435	-0.038532455
109	0xbd44529c	-0.047930345
110	0x3903ed27	0.0001258148
111	0xbd3993e6	-0.045307063
112	0x3d321026	0.04347243
113	0xbccf95ec	-0.025340043
114	0x3e39e2ba	0.18152896
115	0xbd168f66	-0.03675785
116	0x3a732420	0.00092750974
117	0x3d9000f2	0.0703143
118	0xbdfcbb58	-0.123404205
119	0x3d8bc89e	0.06825374
120	0xbcb387f2	-0.02191541
121	0xbe140411	-0.14454676
122	0xbe3243a6	-0.17408618
123	0xbb055e56	-0.0020350418
124	0xbd847bd9	-0.064689346
125	0xbc0ad702	-0.008474113
126	0xbb19ef8b	-0.0023488726
127	0xbdaedbf7	-0.08538049
128	0xbcddb632	-0.027064417
129	0xbd00705b	-0.03135715
130	0xbd57004c	-0.052490517
131	0xbdecc221	-0.11560465
132	0x3c0e1e79	0.008674257
133	0x3c390ce6	0.011294579
134	0x3daf243e	0.085518345
135	0xbbcc281c	-0.0062303673
136	0xbd80a834	-0.06282082
137	0xbc9dd3da	-0.019266058
138	0x3e0c4b17	0.1370052
139	0x3dac9dcc	0.08428535
140	0x3b81d542	0.00396219
141	0x3cafd9f1	0.021466227
142	0xbda32573	-0.07966127
143	0x3d6b3d4d	0.057431508
144	0x3d3a9cb0	0.045559585
145	0xbd208fb5	-0.03919955
146	0x3cf8945f	0.030344186
147	0x3dcb37c9	0.099227495
148	0x3e08490f	0.1330912
149	0xbd554cda	-0.052075244
150	0xbbb5bc14	-0.0055461023
151	0x3da77292	0.081761494
152	0xbd8f615a	-0.0700099
153	0x3ca29039	0.019844161
154	0x3de3adad	0.111171104
155	0x3de20538	0.11036152
156	0x3cffdd19	0.031233357
157	0xbcf9c7e3	-0.030490821
158	0xbc9a4e91	-0.018836292
159	0x3d4df405	0.050281543
160	0x3df6b990	0.12047112
161	0x3d90005b	0.07031318
162	0xbbb17ee4	-0.005416738
163	0xbd7bee41	-0.061506514
164	0xbda5c03d	-0.08093307
165	0xbb25cd63	-0.0025299422
166	0x3df49938	0.11943287
167	0xbd522b5f	-0.051310893
168	0x3c2e9b7c	0.010657188
169	0x3d9510b4	0.072785765
170	0x3d9f3566	0.07773857
171	0xbdc538b0	-0.09629953
172	0xbcc70f94	-0.02429942
173	0xbc64cf0b	-0.0139653785
174	0xb0fb5ee9	-1.8289629e-09
175	0xba9f3fa2	-0.0012149701
176	0xbe115270	-0.14191604
177	0x3e26e689	0.1629888
178	0xbd664bd0	-0.056224644
179	0x3be7487c	0.0070582014
180	0xbd1b0f98	-0.03785667
181	0xbdcdacf9	-0.100427575
182	0xbe77c77f	-0.24197195
183	0xbcb874c3	-0.022516614
184	0xbdbb0ec1	-0.091336735
185	0xbcf2ff41	-0.02966273
186	0x3d47dbbf	0.04879355
187	0x3cd6e176	0.026230555
188	0x3cc5dce4	0.02415318
189	0x3e2a174b	0.16610448
190	0xbd8a4d3f	-0.06753015
191	0x3e2b987a	0.16757384
192	0xbe27be8e	-0.16381285
193	0x3bc4c052	0.0060043717
194	0xbe34f2d6	-0.1767076
195	0x3da898d9	0.082322784
196	0x3bdd1496	0.006746839
197	0x3dd5b063	0.10434034
198	0xbbdd3e7a	-0.0067518326
199	0x3dde5d01	0.10857583
200	0x3dc0f064	0.09420851
201	0xbc2c7f1a	-0.01052835
202	0x3d2a3dd3	0.041562866
203	0xbd11159d	-0.035421003
204	0x3d6c974e	0.057761483
205	0x3e42d4cd	0.1902649
206	0x3de24cef	0.1104983
207	0x3b5bc1d5	0.003353228
208	0xbd12731c	-0.035754308
209	0xbe219967	-0.15781175
210	0x3cd217eb	0.02564617
211	0xbc537e20	-0.0129084885
212	0xbbecbf60	-0.007224962
213	0x3d66f7c8	0.056388646
214	0x3de8fe21	0.11376596
215	0xbdcd90ff	-0.100374214
216	0x3cb8d916	0.022564452
217	0x3d762b89	0.060100112
218	0xbde20453	-0.11035981
219	0xbd95fce9	-0.073236294
220	0xbdaacf3e	-0.083403096
221	0x3ec46ad7	0.38362762
222	0x3db222be	0.08698033
223	0x3d6dc791	0.05805165
224	0x3dda9e0e	0.10674678
225	0xbb5db533	-0.0033829927
226	0x3e126622	0.14296773
227	0xbddb2f80	-0.10702419
228	0x3d8b32cc	0.06796798
229	0x3de21142	0.11038448
230	0x3c6992e6	0.014256215
231	0x3c3f3b0d	0.011671794
232	0xbd7c1241	-0.061540846
233	0x3ca4426a	0.0200512
234	0xbb9e44c3	-0.0048299744
235	0xbe4dced7	-0.20098434
236	0xbd14d5b2	-0.03633661
237	0xbe1b88b2	-0.15188864
238	0xb0db0029	-1.5934393e-09
239	0xbdcad5ab	-0.09904035
240	0xbe8d7eb2	-0.27635723
241	0x3de0e341	0.10980845
242	0xbb73be1e	-0.0037192176
243	0x3d7b615d	0.06137215
244	0xbdd748d3	-0.10511937
245	0xbdd1610b	-0.102235876
246	0xbe3894de	-0.18025538
247	0xbd78d268	-0.060747534
248	0x3e0cd092	0.13751438
249	0x3ce3fa35	0.027829269
250	0xbd468dbe	-0.04847502
251	0xbd542b54	-0.051799133
252	0x3d0e63ac	0.034763023
253	0x3c6dfc06	0.014525419
254	0x3cca5e22	0.02470309
255	0xbceee6c7	-0.029162778

decoder.2.bias f4 [128]
0	0xbebaab40	-0.36458778
1	0x3f1356fa	0.5755459
2	0xbee13d84	-0.43992245
3	0x3e44f515	0.19234116
4	0xbd0fc2fd	-0.035098065
5	0xbd100a98	-0.035166353
6	0x3dd97681	0.10618306
7	0xbd0bf7ea	-0.034171976
8	0x3d761827	0.060081627
9	0xbe1b3915	-0.15158494
10	0xbe5fce23	-0.21855979
11	0x3d621d79	0.05520389
12	0x3e5e5983	0.21713834
13	0xbe603fd2	-0.21899346
14	0x3c74846a	0.014924148
15	0xbd0012fb	-0.0312681
16	0xbdab06cc	-0.08350906
17	0xbf0335dc	-0.5125406
18	0xbec81b0d	-0.39083138
19	0x3e309ca3	0.17247252
20	0xbe62c3f1	-0.22145058
21	0xbe7ef128	-0.24896681
22	0x3c9cd7fc	0.019145958
23	0x3dcb92b8	0.09940094
24	0xbe21716d	-0.15765925
25	0xbe9c2a7e	-0.3050117
26	0xbdf84bbb	-0.121238194
27	0xb52f5406	-6.531485e-07
28	0x3e4b11ef	0.1983106
29	0x811a66b7	-2.8359027e-38
30	0x3ddd6cc1	0.10811759
31	0x3ed06c49	0.40707615
32	0x810ee11a	-2.6242783e-38
33	0x3e77cc71	0.24199082
34	0xbd121e59	-0.035673473
35	0x3f10f36c	0.5662143
36	0x3c94af5b	0.018150022
37	0x3d2a6cc7	0.041607644
38	0x3f0a9b31	0.54143053
39	0xbe370e18	-0.1787647
40	0x3e13298c	0.14371318
41	0x3d4bb88f	0.049736556
42	0xbc16b61d	-0.009198693
43	0xbd198177	-0.037476983
44	0xbde202de	-0.11035703
45	0x3d52e422	0.051487096
46	0xbee8e37a	-0.4548605
47	0x8114c988	-2.7327898e-38
48	0x3edb5a58	0.42842364
49	0x3e093057	0.13397346
50	0xbe08f3f2	-0.13374308
51	0x3da50e8d	0.08059416
52	0x3ec25247	0.37953398
53	0xbed2a13b	-0.41138634
54	0xbeb575cc	-0.35441434
55	0x3efb2268	0.49049687
56	0x0685382f	5.0111594e-35
57	0x17643055	7.3731777e-25
58	0xbf09ed80	-0.5387802
59	0x3d89d403	0.06729891
60	0xbe1b31bc	-0.15155691
61	0xbe1d5cb4	-0.15367395
62	0x3d08cd1f	0.033398744
63	0xbdbe29bd	-0.09285305
64	0x3d1962d5	0.03744777
65	0x3de0412c	0.109499305
66	0x81b2024b	-6.5390164e-38
67	0xbc090e42	-0.008365216
68	0x3cb19bfc	0.021680824
69	0x81bd50b6	-6.954345e-38
70	0xbe290411	-0.16505457
71	0xbda208c0	-0.07911825
72	0xbcc4425a	-0.02395742
73	0xbe8090df	-0.25110528
74	0x3c1c2267	0.0095296865
75	0x3e552642	0.20815375
76	0xbef18d26	-0.47178
77	0xbe357c2c	-0.17723149
78	0x3e033a13	0.12815122
79	0x3c97f2cf	0.018548397
80	0x81878f5e	-4.979689e-38
81	0x3ef45b46	0.47725886
82	0x3e182454	0.14857608
83	0xbe56d239	-0.20978631
84	0xbf1f0f21	-0.6213246
85	0xbee01dc2	-0.43772703
86	0xbe8d3617	-0.2758033
87	0xbef6c564	-0.48197472
88	0x3d3a9279	0.045549843
89	0x3e85d635	0.2613999
90	0xbe8b31a0	-0.27186298
91	0x3b9e308d	0.004827565
92	0x8190a215	-5.312982e-38
93	0xbd0e8b15	-0.034800608
94	0xbe6da7e3	-0.23208575
95	0x813201da	-3.2694765e-38
96	0x3e910f7d	0.2833213
97	0x3ecd364d	0.4008049
98	0x3f2aa583	0.666588
99	0x3ec7819b	0.3896607
100	0xbe1c786a	-0.1528031
101	0x3e356c48	0.17717087
102	0xbe397d9d	-0.18114324
103	0x3f09c7bd	0.538204
104	0xbd49ad0a	-0.04923729
105	0xbdf111cb	-0.11770972
106	0x3dc5fc1b	0.09667226
107	0x3d88b6e8	0.066755116
108	0x0884824c	7.975094e-34
109	0xbe9d355e	-0.30704778
110	0x3c4ae99e	0.0123848
111	0x3e1a9855	0.15097173
112	0xbe6aebb2	-0.22941473
113	0xbcfab942	-0.030605916
114	0x3e4e0463	0.20118861
115	0xbcaba0f2	-0.020950768
116	0xbdfe4c31	-0.12416876
117	0xbd5185cb	-0.051152986
118	0x3e6129d3	0.21988611
119	0x3ddf9f1f	0.10919022
120	0xbf374727	-0.71592945
121	0x81aec801	-6.4204497e-38
122	0x3dff4628	0.12464553
123	0x3d9e91b9	0.07742638
124	0x3e3fbf0b	0.18725221
125	0xbb7840bb	-0.003788038
126	0x815c8542	-4.0503226e-38
127	0x3da8f87d	0.082505204
