day3/solutions/simple_autoencoder/simple_autoencoder_6.pt (torch_old, 878145 bytes, 12 tensors)

encoder.0.weight f4 [128, 784]
000000 22 d4 7a bc 65 3e 7f bc 37 ea 8c bc b1 97 6a bc
       -0.0153093655 -0.015578841 -0.017201526 -0.014318393
000010 fb d5 97 bc c1 3c 91 bc a7 41 8d bc 43 43 6e bc
       -0.018534651 -0.017729165 -0.01724322 -0.014542404
000020 bc 9c 77 bc 1e 8f 97 bc 1a c8 7c bc 2e 3d 71 bc
       -0.015113052 -0.01850086 -0.015428567 -0.014724059
000030 ef 79 8a bc 9b 80 1c bc 73 8a 72 bc 46 3d 89 bc
       -0.016903846 -0.009552146 -0.014803517 -0.01675285
000040 7d 04 8f bc ff f1 96 bc 40 d2 8c bc 99 a4 7a bc
       -0.017458195 -0.01842594 -0.017190099 -0.015298032
000050 4c 60 96 bc b5 ed 73 bc 57 0c 87 bc 46 2e 8d bc
       -0.018356465 -0.014888217 -0.016485376 -0.017233979
000060 8e 58 a0 bc bf 48 8b bc 63 87 6b bc 83 c2 95 bc
       -0.019573476 -0.017002461 -0.01437554 -0.018281227
000070 c2 ea 9f bc 7d 7c 8a bc 4a 7d 80 bc 29 fe 70 bc
       -0.019521121 -0.016905064 -0.015684742 -0.014709034
000080 60 4b 90 bc e1 51 8e bc f1 46 8d bc e8 98 a2 bc
       -0.017614067 -0.017373027 -0.017245742 -0.019848302
000090 0d 1e 89 bc d2 61 4d bc 95 9d a1 bb 39 7d cf bb
       -0.016737962 -0.012535529 -0.0049321153 -0.0063320664
0000a0 4d d3 ee bb c3 10 0d 3c a7 cb 32 3c 58 ad 38 3b
       -0.0072883726 0.008609953 0.010912812 0.0028179493
0000b0 57 a8 64 bc de 88 f8 bb 00 c2 05 bc ef 27 23 bc
       -0.013956151 -0.007584675 -0.008163929 -0.009958251
0000c0 5d 9a 90 bc e2 84 6e bc 78 9d 3a bc 2f da 5f bc
       -0.017651731 -0.014558049 -0.011390083 -0.013662859
0000d0 f1 c0 84 bc f9 68 7b bc a5 ed 94 bc 4f fe 81 bc
       -0.016205283 -0.015344852 -0.018179724 -0.015868334
0000e0 f0 67 9d bc e8 0a 7f bc dd a9 89 bc eb 20 74 bc
       -0.0192146 -0.015566565 -0.01680463 -0.014900426
0000f0 3a 92 a3 bc 20 2e 80 bc 05 3f 9e bc 94 b7 03 bc
       -0.019967187 -0.015646994 -0.01931716 -0.008039374
000100 eb 1f 0a 3b e8 04 8d bb fb 76 03 3d 6c 51 7f 3c
       0.0021076153 -0.0043035634 0.03209589 0.015583377
000110 a2 0c b1 3c 29 cf 29 3d b2 a4 14 3d 32 14 cd 3c
       0.02161247 0.04145733 0.03628988 0.025034044
000120 4a ac 50 bb ce 6a b7 bc 65 8e 0d 3c 3f c3 8f 3c
       -0.0031840974 -0.022389796 0.0086399065 0.017549155
000130 59 90 95 3a 02 00 43 3c 7c 8b e6 ba aa 76 ac 3b
       0.0011410817 0.011901857 -0.0017589177 0.0052631693
000140 d4 3b 22 bc 49 ec 4e bc e1 e6 70 bc f8 f3 8a bc
       -0.009901959 -0.012629577 -0.014703483 -0.016962036
000150 bf ba 8f bc 99 11 82 bc 1c f1 95 bc c9 3b ab bc
       -0.017545102 -0.015877532 -0.018303446 -0.020902531
000160 e7 77 a5 bc a2 bf f0 bb 5e f6 46 3b f7 20 0f 3d
       -0.020198775 -0.007347063 0.0030359249 0.034943547
000170 1a 89 a5 3d b1 43 5c 3d ca 6f ab 3d 97 0d a0 3d
       0.08082791 0.053775493 0.083709314 0.07815092
000180 b9 a0 66 3d 27 95 cd 3d 40 f8 8f 3d d5 84 29 3d
       0.05630562 0.10038214 0.07029772 0.041386444
000190 4e 80 0a 3a 86 75 49 bc 23 a7 e2 bc 11 38 55 bc
       0.0005283401 -0.012296086 -0.027667588 -0.013013856
0001a0 dd 81 24 bd c6 a1 77 bd 4c 39 27 bd a7 b8 ab bc
       -0.04016291 -0.060457014 -0.040826127 -0.020962073
0001b0 70 ae 73 bc 69 bb 96 bc 33 6f a0 bc 03 f5 99 bc
       -0.014873132 -0.018399911 -0.019584274 -0.018793589
0001c0 4b 99 93 bc e7 9a 90 bc 6e 68 81 bc 2d ac 88 bc
       -0.018017432 -0.017651988 -0.015796866 -0.016683662
0001d0 3f 5b d9 bb bd d2 81 3b 38 2e c6 3c c2 e7 82 3d
       -0.006633192 0.0039618895 0.02419196 0.063918605
0001e0 2c 1d 5f 3d 5d 8c 26 3d 2e df 2d 3d bd 78 06 3d
       0.05447118 0.040661205 0.04244917 0.03282999
0001f0 38 4a c3 3d 34 c6 02 3e ea cd 9c 3d 49 20 4e 3c
       0.095356405 0.12770921 0.076564625 0.01258094
000200 21 14 9a 3c 5e e6 4f 3b ff 04 58 3a f3 bf 29 3c
       0.018808426 0.0031723003 0.00082404906 0.010360706
000210 2d 81 0b bc 4a b3 85 bd c6 84 90 bc 97 76 01 bd
       -0.008514685 -0.06528337 -0.017641436 -0.031607237
000220 52 9c 32 bd 7f 28 bb bc 3d b5 32 bc db 0e 7a bc
       -0.04360611 -0.022846458 -0.010907468 -0.015262331
000230 30 ff 7f bc 7e 67 8e bc 1e 2f 8c bc 36 ac 5e bc
       -0.015624806 -0.017383333 -0.017112311 -0.013590863
000240 47 79 5a 3c 2e f6 06 3d bf 73 04 3d 16 31 93 3c
       0.013334579 0.03294962 0.032336947 0.017967742
000250 1a 8f 25 3d 59 2e 18 3d 62 7a 8b 3d df 7c 71 3d
       0.040419675 0.037153576 0.06810452 0.058956977
000260 9f 50 8e 3d e9 af 98 3d 21 d8 ed 3d 13 1f 01 3e
       0.06948971 0.07455427 0.11613489 0.1260951
000270 e6 eb a1 3d 46 fe 61 3d 15 0c 56 bc 08 ea 36 bd
       0.07906322 0.055174135 -0.013064404 -0.044656783
000280 dd 33 01 bd 0d 7e a8 bd 1f 19 81 bd 1b 36 b2 bd
       -0.0315436 -0.08227167 -0.063036196 -0.08701726
000290 7d 36 82 bd 7b c7 f4 bc 92 78 a0 bc ee ff 8d bc
       -0.06358049 -0.029880276 -0.019588742 -0.01733395
0002a0 c7 7f 7c bc ba 75 82 bc bf 69 83 bc de 05 40 3a
       -0.015411324 -0.015925277 -0.016041635 0.0007325093
0002b0 52 2b bc 3c 45 67 56 3d af da 15 3c b4 1f e3 3b
       0.022969875 0.05234458 0.0091463765 0.0069312695
0002c0 67 7a 3e 3d a8 34 0c 3d 96 01 1c 3d 9b 1b 09 3d
       0.04650345 0.034229904 0.03808745 0.033473592
0002d0 23 f0 60 3d 35 f6 0b 3d 85 86 78 3d 5b 22 43 3d
       0.054916512 0.03417035 0.060675163 0.047640186
0002e0 ad 60 0b 3d a8 e6 54 bd 2a 8d 80 bd 2e 00 10 bd
       0.034027744 -0.051977783 -0.06276925 -0.03515642
0002f0 ee 16 c8 bd 1e 4f 18 be 3d ba f4 bd 16 3b d2 bd
       -0.097699985 -0.14873931 -0.11949585 -0.10265176
000300 5c cc 93 bd 52 a2 b6 bc 81 6e 56 bc aa 18 6e bc
       -0.07216713 -0.022294197 -0.01308787 -0.014532248
000310 23 24 6d bc 47 f5 8a bc 5d 84 be bb f3 3a 05 bc
       -0.014473948 -0.01696266 -0.005814119 -0.00813173
000320 37 89 61 3c 5a 85 8b 3d 23 1b 49 3d ee 22 0e 3d
       0.013765625 0.06812544 0.049098145 0.03470128
000330 29 0a 7b 3d 3c 04 bd 3c 09 64 2d 3b 72 4c 34 3d
       0.061288986 0.023073308 0.002645733 0.044018216
000340 15 69 4e bb 46 0c d0 bc e9 08 b7 bb f4 16 d8 3c
       -0.003149574 -0.025396477 -0.005585779 0.026378132
000350 1a fd 0e bb 36 d8 c7 bc 94 67 e1 bb 0c 5f b0 bc
       -0.002181834 -0.02439509 -0.0068788026 -0.021529697
000360 2c 5a 55 bd 42 77 ae bd d9 59 19 be 0d 65 28 be
       -0.052087948 -0.085188404 -0.1497568 -0.16444798
000370 de 21 04 be d2 d1 71 bd 00 51 66 bc ca 03 8d bc
       -0.12903544 -0.05903799 -0.014057398 -0.01721372
000380 91 06 80 bc 67 82 e9 bb 36 b3 c4 3b 19 15 ae bc
       -0.015628131 -0.007126141 0.006002809 -0.021250295
000390 e5 08 11 bc d8 da 6a 3d d2 4a 3f 3d 1a 51 f7 3a
       -0.008852218 0.057337612 0.046702214 0.0018868775
0003a0 27 2f 4e 3c 7b 19 2e 3d 27 14 eb 3c f0 be e6 3c
       0.012584484 0.04250477 0.028696133 0.028167218
0003b0 f8 c0 6d 3c 41 3f 56 3c b8 88 f5 bc ec 9b 59 3d
       0.014511339 0.013076604 -0.02997242 0.053127214
0003c0 78 be 74 3c 44 70 d8 3b a6 f3 89 3b a4 a7 88 bc
       0.014937989 0.00660518 0.0042099534 -0.0166815
0003d0 19 39 b5 bc 1b 7d 39 bd 10 0e df bd 35 ea 10 be
       -0.022121953 -0.045285325 -0.10891354 -0.14151843
0003e0 b9 d2 f7 bd 86 44 97 bd 4c d1 4c bc 79 3c 6f bc
       -0.12100739 -0.07386117 -0.012501072 -0.01460182
0003f0 3b d8 8c bc 68 5f 6b bb 04 27 d2 3b 05 a9 93 3b
       -0.01719295 -0.003591502 0.0064133424 0.0045062327

encoder.0.bias f4 [128]
000000 56 3e d4 3c 62 5d 74 bc 1d 76 03 3c a9 79 42 bd
       0.02590863 -0.014914842 0.008023766 -0.047479305
000010 ff 78 1a 3b e8 ae 9f 3b e3 4b a8 ba c6 8c 9e 3d
       0.0023570654 0.0048731454 -0.0012839999 0.07741694
000020 6d ce c1 3c e7 bf 88 3c f3 71 f9 3c 31 bb 2e bd
       0.023658002 0.016693069 0.030449843 -0.04265899
000030 b9 40 c9 3c 3b 02 02 3d e3 18 80 bb 73 65 29 bc
       0.024566995 0.03174041 -0.0039092167 -0.010339129
000040 de 7d 2f 3d 0b 58 73 bc a0 0e 05 bb d5 d6 a4 3c
       0.042844646 -0.014852534 -0.0020302907 0.020121971
000050 a8 e7 93 3c bc 1a 81 3c 7d 92 1e bc 8f 51 3d 3b
       0.018054798 0.015759818 -0.00967848 0.0028887724
000060 97 d4 0b 3d 04 c4 16 bc 24 e8 b0 3c d3 e5 17 3d
       0.03413829 -0.009202007 0.021595068 0.03708441
000070 d0 b0 c9 3c b7 bd 53 3c b8 71 39 3c 73 e0 2c 3c
       0.024620444 0.0129236495 0.011318617 0.01055156
000080 17 c7 60 bc de e6 f2 3b 17 c3 a1 3c 60 ac da bb
       -0.013719342 0.0074127754 0.019746346 -0.0066733807
000090 75 18 e7 bc 1f 41 f9 3b 18 23 fc bb 64 47 4b 3d
       -0.028209904 0.00760664 -0.007694613 0.04962863
0000a0 c5 01 8e bb 0b 4e b3 bb 56 ce 4a 3a 05 da 1e 3d
       -0.004333707 -0.00547195 0.0007736435 0.03878214
0000b0 52 24 3e bc cb 4c 66 3d b1 00 c4 ba 43 13 0a 3d
       -0.011605339 0.05622558 -0.0014953819 0.033709776
0000c0 0f 73 c4 bc f7 e0 72 bc fe 65 d0 bb cd 48 9a bb
       -0.023980645 -0.014824144 -0.0063598147 -0.0047083856
0000d0 4c 45 50 3c 9e 65 7a bc 82 0b 89 3c e8 1f cc bc
       0.012711834 -0.0152830165 0.01672912 -0.024917558
0000e0 9b 1c ef 3c c8 1b 37 3d c4 b3 12 bc d7 eb 8d 3b
       0.029188445 0.04470423 -0.008953992 0.004331093
0000f0 92 f5 07 bd 8d 73 b4 3d 75 62 d2 ba a4 b8 91 3b
       -0.03319318 0.08811102 -0.0016051071 0.0044470597
000100 bc 9d cc 3c 39 d1 25 bc fa db f4 bc ac d3 26 ba
       0.024977557 -0.010120683 -0.02989005 -0.0006363939
000110 56 5c ec ba 31 c2 d2 bc 57 da ed 3b ae 8f 8c 3c
       -0.0018032889 -0.025727363 0.007258694 0.017158356
000120 89 3c 60 bb 96 7b 0b bd b6 18 4b 3d f8 c5 ac bb
       -0.003421577 -0.034053408 0.049584113 -0.005272623
000130 d1 17 0a bd 8e 30 47 bc c2 4f 72 bc e0 a2 b2 bd
       -0.03371412 -0.012157572 -0.014789524 -0.08722472
000140 d7 de 96 bc bd 8b 52 bc d4 ff 06 3c ef e1 26 3d
       -0.018416805 -0.012850699 0.008239705 0.04074281
000150 f1 de c0 bc f7 f0 0a 3c 1d 13 b9 3d 55 84 93 3c
       -0.023543807 0.008480302 0.09036849 0.018007437
000160 4d 60 97 3c ed b6 8f bb 99 20 b8 bb 70 06 79 3c
       0.018478537 -0.00438582 -0.0056191203 0.015199289
000170 ee 20 f1 3c 09 1a aa bc 1f 03 af bb 6f a0 60 3b
       0.029434647 -0.020764368 -0.0053409482 0.0034275313
000180 6a a2 a4 bc 2c 7e 53 bd 4b 76 27 bc d5 8c 74 3c
       -0.020096976 -0.051634 -0.010221074 0.014926155
000190 32 a9 fb bc 27 7f f3 bb c6 fc 7b 3d fa 01 a9 bc
       -0.030720327 -0.007430929 0.06152036 -0.020630825
0001a0 c1 c6 1a bc 7c 26 81 ba 38 60 18 3d b7 02 0a bb
       -0.009446801 -0.0009853388 0.037201136 -0.0021058747
0001b0 96 50 87 bc 4a 75 0a 3b 93 56 b3 39 d2 a8 d8 ba
       -0.016517919 0.0021127039 0.00034206043 -0.0016529805
0001c0 33 bb af 3c 94 91 8e 3d e9 48 31 bd 48 fc 23 bd
       0.021451568 0.069613606 -0.043282423 -0.040035516
0001d0 e8 38 4a 3c 67 fc 2b 3d ab f8 e4 3c b1 cc 0a bd
       0.012342669 0.041988757 0.027950605 -0.033886615
0001e0 3a 6c 04 3c 9a 52 f6 3c f3 ad 38 3d bc 30 ab ba
       0.008082444 0.030068684 0.045087766 -0.0013060789
0001f0 e1 6e 9b bb 6e 16 9a bc 88 a1 0a bd f0 34 86 bc
       -0.0047434424 -0.018809523 -0.033845454 -0.016382664

encoder.2.weight f4 [64, 128]
000000 70 a6 2d 97 71 40 a7 a3 18 a0 75 00 e4 75 e7 80
       -5.610939e-25 -1.8133468e-17 1.0802184e-38 -2.1256291e-38
000010 37 ef d9 80 82 4e 0d 80 79 29 b5 a5 11 54 a9 a2
       -2.0014117e-38 -1.222025e-39 -3.1426598e-16 -4.589655e-18
000020 8b dd ef 92 db 5e 9c 00 bf 7d b4 a6 98 cc 05 81
       -1.5137635e-27 1.4360365e-38 -1.2524093e-15 -2.457503e-38
000030 00 7c ee a2 a7 5d 61 ab 74 85 76 81 2b ee 16 a0
       -6.464132e-18 -8.0066027e-13 -4.5278812e-38 -1.2784297e-19
000040 e5 00 80 99 e8 5a 20 80 21 11 50 00 1d 07 09 91
       -1.3235251e-23 -2.971347e-39 7.352984e-39 -1.0809586e-28
000050 3c 32 da 00 46 6d 87 81 e1 d2 81 8c 0b 93 ea 00
       2.0038159e-38 -4.974797e-38 -2.0002515e-31 2.1542255e-38
000060 f2 c2 c0 80 62 8b 83 01 14 96 12 80 2f c6 53 01
       -1.7702348e-38 4.8321805e-38 -1.706877e-39 3.889677e-38
000070 a5 0a 63 9c 44 e2 14 01 a0 a6 61 06 74 ad 81 81
       -7.5121757e-22 2.7345644e-38 4.2440213e-35 -4.763601e-38
000080 c9 48 c2 80 45 20 8d 93 8c 65 51 01 14 bb 67 81
       -1.7842197e-38 -3.5625224e-27 3.8460094e-38 -4.256222e-38
000090 15 27 45 80 78 54 ec a4 7c 42 39 80 a2 14 29 a4
       -6.350669e-39 -1.0249178e-16 -5.258473e-39 -3.666351e-17
0000a0 0c f9 18 00 e4 77 35 80 ce ef d1 00 58 89 2b 05
       2.293393e-39 -4.91029e-39 1.9279644e-38 8.0656074e-36
0000b0 2a a8 76 80 ae 6c d6 a5 86 b8 a1 81 c5 45 c1 94
       -1.0896914e-38 -3.7196727e-16 -5.940684e-38 -1.9515539e-26
0000c0 2e e0 dc 00 46 c2 a4 81 f0 01 b3 01 66 26 88 81
       2.028423e-38 -6.0522854e-38 6.5756995e-38 -5.001361e-38
0000d0 68 36 2b a2 33 d2 b2 80 c2 b9 24 01 0f cc 2d 81
       -2.3203624e-18 -1.6422124e-38 3.0255317e-38 -3.1921487e-38
0000e0 9d 89 77 8d 45 f6 55 ab 34 0f 0d 8a 28 4a 88 98
       -7.6278397e-31 -7.601457e-13 -6.7917624e-33 -3.5230055e-24
0000f0 35 41 5f 97 be 01 8f ac 8a 62 84 80 ae 22 b3 95
       -7.213749e-25 -4.064498e-12 -1.2157635e-38 -7.235224e-26
000100 51 93 a0 a6 4e 43 64 81 5e 33 a9 01 3e e7 86 01
       -1.114216e-15 -4.1925275e-38 6.2154504e-38 4.955564e-38
000110 d1 e0 25 81 33 fa 0d a2 8e 5c 23 9d 3c ba 8f a1
       -3.0467012e-38 -1.9241518e-18 -2.162072e-21 -9.739353e-19
000120 41 33 51 81 01 a1 d6 80 39 82 7d 80 7d ab a8 81
       -3.842401e-38 -1.9710553e-38 -1.1526152e-38 -6.1959527e-38
000130 4e 31 0b 00 cf d8 a1 00 ae 00 34 80 ef 90 95 01
       1.027878e-39 1.4863291e-38 -4.77569e-39 5.4941925e-38
000140 b0 69 57 81 50 c9 9f 01 72 ca ac 81 c1 ea 52 a8
       -3.956509e-38 5.8696245e-38 -6.3473316e-38 -1.1708246e-14
000150 cd 22 07 01 55 6a b9 81 79 8c be ad 32 74 a6 80
       2.4820552e-38 -6.8110846e-38 -2.1662882e-11 -1.5286375e-38
000160 a2 7e 51 00 14 97 09 01 f5 66 5a 80 06 ff 10 ac
       7.484102e-39 2.527132e-38 -8.302129e-39 -2.0605197e-12
000170 8a 4b 15 a9 5c 67 10 80 f4 26 ab 01 b8 c2 6a 01
       -3.3150166e-14 -1.506446e-39 6.2871374e-38 4.3118716e-38
000180 be 65 ba 80 fc 33 54 91 15 c4 83 80 71 08 b1 00
       -1.71179e-38 -1.673987e-28 -1.2100791e-38 1.6257911e-38
000190 b6 2e 0a 81 36 95 82 80 04 07 1b a7 36 aa 5b 09
       -2.538011e-38 -1.1992141e-38 -2.1514374e-15 2.6441199e-33
0001a0 90 2a 01 80 5c 5d a5 01 dc d5 84 01 ca 1e 73 81
       -1.07104e-40 6.074539e-38 4.8796015e-38 -4.465414e-38
0001b0 bd 6d d8 00 2b 7e 69 80 84 05 29 01 bb cc 1f 81
       1.9875834e-38 -9.687988e-39 3.1044355e-38 -2.9350575e-38
0001c0 09 e0 94 01 6d 34 1d 90 ec 92 b3 00 65 31 52 80
       5.468809e-38 -3.1003178e-29 1.649126e-38 -7.54823e-39
0001d0 a9 8e 6a 80 0f ee 07 9f bc a1 a8 00 df f8 89 81
       -9.78574e-39 -2.878428e-20 1.5486383e-38 -5.0682964e-38
0001e0 2e 8e b9 00 fb aa ad 8b 69 16 76 a2 6a c4 27 81
       1.7040571e-38 -6.689444e-32 -3.335108e-18 -3.0813976e-38
0001f0 4c 63 b1 01 1f 46 68 01 87 15 56 81 d4 04 6a 06
       6.5162015e-38 4.266198e-38 -3.9321037e-38 4.4014056e-35
000200 e0 23 99 3d c4 e0 ca bc fb ee 8c 3d b6 3a 84 be
       0.07477546 -0.02476538 0.068815194 -0.25826043
000210 8d a4 c5 3a 0a a9 4d bb 62 3d 28 3e 55 81 12 3d
       0.0015078947 -0.0031381273 0.16429666 0.035767872
000220 d5 10 49 be 80 d1 4d bd 09 59 a4 bd 69 56 74 3e
       -0.19635327 -0.050248623 -0.080247946 0.23861088
000230 e3 3e b0 3d 41 29 21 3c 25 1b 1c bc 64 b6 37 bd
       0.08605745 0.009836496 -0.009527956 -0.044851676
000240 86 4b 3f 3c 5a 12 94 be 34 69 33 be 28 72 95 bd
       0.011675721 -0.2892025 -0.175206 -0.07297164
000250 29 dd ec 3b 7e d6 06 bd d1 ab be 3d f0 38 78 3d
       0.007228513 -0.0329194 0.09310115 0.060601175
000260 af 28 e0 bd ab f8 29 bc f5 74 62 3d 6c 7b 89 bd
       -0.1094526 -0.0103742285 0.05528732 -0.06712994
000270 0a e3 06 3d d0 70 3e 3e c4 48 ca bc 3b ea 18 be
       0.032931365 0.18597722 -0.0246929 -0.14933102
000280 9a 55 b5 3d aa 66 86 bd 5d 7c 06 3e 7b c3 2e be
       0.08854218 -0.0656255 0.13133378 -0.17066757
000290 d3 8d 4d 3e 06 c7 9c bb 8e c7 82 be 7c c8 05 3e
       0.20073633 -0.0047844676 -0.25542873 0.1306476
0002a0 34 f7 23 be bf 48 55 be 07 bb 97 3d 0b 24 3d 3d
       -0.1601227 -0.20828532 0.074087195 0.04617695
0002b0 72 e4 2d 3d 8f 95 cd 3c d4 a3 25 ba 89 41 bc 3a
       0.04245419 0.02509573 -0.0006318663 0.0014362793
0002c0 c1 3c 95 bd 53 e1 91 bd 27 eb a3 3c 23 c0 81 3b
       -0.072869785 -0.07123055 0.02000959 0.003959672
0002d0 7c 4d 06 3e 1e 06 bb bd b2 c3 6c bd d0 d4 e0 bd
       0.13115495 -0.09132026 -0.057803817 -0.10978091
0002e0 00 cf e5 3d 87 53 b1 3c d5 12 6d 3d 7a 55 55 3a
       0.11221123 0.021646274 0.057879288 0.0008138042
0002f0 b6 dd fa bd 9c e9 2c 3d 1e be e8 3a de 76 fc 3d
       -0.12249319 0.042214975 0.0017756855 0.123273596
000300 04 65 aa 3b 80 0c 67 3c a1 f9 a9 3d 89 11 4d 3d
       0.0052000303 0.014102101 0.08299566 0.05006555
000310 bf 69 fd 3d c0 12 29 be bd 54 d7 bd 6c 5e 99 3d
       0.12373685 -0.16511059 -0.105142094 0.07488713
000320 1c ae b7 bc 3d 8b 97 bd 9f 70 c2 bd ca 22 18 be
       -0.022421889 -0.073996045 -0.09494137 -0.14857021
000330 5f 0f 03 3e 8b ce 64 3d 7d 35 df bd 2e 91 14 3e
       0.12798832 0.055861037 -0.10898874 0.14508507
000340 a6 03 ac ba 4f 01 1b 3e 40 8e 38 3e 57 5a bd 3d
       -0.0013123646 0.15137218 0.18023014 0.092457466
000350 d9 8e 94 be 1e 20 bf 39 88 9e 8e 3d 95 31 68 3d
       -0.29015234 0.00036454288 0.06963831 0.05668791
000360 86 24 07 be c3 c2 f1 bd 23 b0 bb bc 79 04 93 3d
       -0.13197526 -0.11804726 -0.022911137 0.071785875
000370 89 a3 bb 3c 2d 4d 4a bc 67 af ed bd 23 69 9d bc
       0.022905128 -0.012347502 -0.11605721 -0.019215172
000380 9d ab ba 3d 59 1d 35 be 1f 0c 9f bd 76 1b 9a be
       0.09114764 -0.17686976 -0.07765984 -0.30099076
000390 d6 ef 90 be 08 3c de bd 12 a3 2b 3d d9 bb 8e bd
       -0.2830798 -0.10851294 0.041903563 -0.06969423
0003a0 d9 48 49 3e 4d b2 0a 39 10 e1 27 bd 80 73 4c ba
       0.19656695 0.00013227128 -0.04098612 -0.0007799193
0003b0 bd 84 a2 bd be 5f 8f bc 41 a7 04 3e 2c 22 64 bb
       -0.07935474 -0.017501708 0.12954427 -0.0034810407
0003c0 f9 f3 d2 bd 4f b7 c1 bd 21 6b 9a bd e5 4f 52 bc
       -0.1030044 -0.094587915 -0.075399645 -0.012836431
0003d0 2d 7e 59 be ee ca da bd fc c9 97 3b 21 6a f1 3c
       -0.21239538 -0.10683237 0.0046322327 0.029469552
0003e0 b1 cb bd bd ee d9 dc 3c 5a c7 e5 3d 22 5a c0 ba
       -0.09267367 0.026959386 0.11219664 -0.0014675299
0003f0 c1 7d a9 3b bf 63 90 bb 72 b8 b8 3c 06 c0 2f be
       0.0051724617 -0.004406422 0.022548888 -0.17163095

encoder.2.bias f4 [64]
000000 b6 de 6d 00 29 70 42 3d 62 e1 2f 3d 94 10 fb 3d
       1.0089963e-38 0.047470246 0.04293955 0.122590214
000010 a2 4c 05 3d 14 40 ce 38 09 23 04 3c bb 1a f1 3b
       0.032543786 9.834781e-05 0.008064994 0.007357923
000020 da 88 26 26 29 fa 0f a9 5f fd 18 3b 81 40 9d 3d
       5.777829e-16 -3.1969358e-14 0.002334438 0.07678319
000030 48 6c 45 3d 22 32 1a 17 4f 74 22 3d db a3 2a ab
       0.04819897 4.982336e-25 0.0396617 -6.062353e-13
000040 56 00 d9 3d 9a f8 30 3d b6 ff fc 3a ea 63 4b 3d
       0.10595767 0.043205835 0.0019302282 0.049655832
000050 64 e4 27 bb be e3 bb 3d 1d b3 cb ba 46 32 4b 3d
       -0.002561831 0.09174298 -0.0015541051 0.04960849
000060 69 7a 9c 3d 40 dc 88 81 5e fd 03 3e 8d 1c e8 3b
       0.076405354 -5.0274553e-38 0.1288962 0.0070834816
000070 65 c4 a6 3d 9e 05 94 b7 25 53 74 bd ee 82 7b 01
       0.08142928 -1.764559e-05 -0.059649605 4.6195357e-38
000080 cd 82 90 9f cc 37 a6 b9 e7 26 8e 3c 76 2c 65 3d
       -6.1202764e-20 -0.0003170356 0.017352534 0.055950604
000090 c5 6e 96 bd 5c 01 db 3c 85 f1 c4 8a 5d 7f 6e 3d
       -0.07345346 0.026734047 -1.8964963e-32 0.05822693
0000a0 ac 9b 3f 3d a9 d2 96 3d d6 27 cc 3d b1 5c 81 3d
       0.04677932 0.07364399 0.099685356 0.063165076
0000b0 b8 ef a2 3b 62 8f 98 3c 51 0f e1 a0 0c 07 86 3d
       0.0049724244 0.018623058 -3.8126618e-19 0.06544313
0000c0 fe 12 4c 00 15 05 a0 3d 17 46 50 3b e2 2e b4 3d
       6.986311e-39 0.07813469 0.0031780058 0.08798005
0000d0 c5 c7 f7 3d 23 39 dd 3d 15 21 2d bb f6 f6 ff 3d
       0.1209865 0.108019136 -0.0026417424 0.12498276
0000e0 59 44 a5 b6 fe 2f 53 3a 4e 4a d0 3d 86 f9 ef bb
       -4.92534e-06 0.00080561626 0.101704225 -0.0073234467
0000f0 97 f8 8f 3d 8e 70 80 bc e6 7f 8a 3d da 21 1d 3d
       0.070298366 -0.01567867 0.06762676 0.03836236

encoder.4.weight f4 [6, 64]
000000 18 6f d5 3a 23 b8 35 3e 85 40 b5 3d 9f fc c9 3d
       0.0016283719 0.17746024 0.08850197 0.09862637
000010 6b 3a 5c 3d 30 2e 06 3c a5 d4 89 be 8d 54 84 be
       0.05376665 0.008189723 -0.26920047 -0.25845757
000020 36 59 56 bc 6e d8 ce 3b 70 e1 e0 be cf 1c f2 bc
       -0.013082793 0.0063124215 -0.43921995 -0.029554753
000030 dc b4 15 bd 86 84 2e 16 8d b5 e8 bd 44 18 22 ac
       -0.036549434 1.4097425e-25 -0.11362753 -2.3035055e-12
000040 fe 92 f5 3d 92 8b 69 bd 73 82 a2 bd de 0f 4a be
       0.11990927 -0.05701787 -0.079350375 -0.19732615
000050 a9 3e 15 3d b4 34 25 bd 3e db 37 3b 71 65 99 3e
       0.03643671 -0.040333465 0.0028054263 0.29960206
000060 7a c2 ce 3b 76 8b bb b2 6c 7c 63 3e 50 2e 27 bd
       0.0063098045 -2.1833085e-08 0.22215432 -0.04081565
000070 f6 cf 85 bc 79 31 3b bc 2d 31 4e be b7 57 a2 81
       -0.016334515 -0.011425369 -0.20135947 -5.9635266e-38
000080 33 4a 35 a1 ca 55 8d 3c b1 09 9d 3d 9d 57 9e 3d
       -6.1423387e-19 0.017252821 0.07667864 0.07731555
000090 3a 89 81 be ec 86 47 be 40 da 74 35 88 3f d3 3d
       -0.25300008 -0.19485062 9.121468e-07 0.10314852
0000a0 ef a6 2a 3e b5 cf 94 bd f5 85 4f 3d 3e ef 1d be
       0.16665243 -0.072661795 0.05066486 -0.15423295
0000b0 00 5b 86 be 5b e8 a9 3d c8 af 23 3b 10 1e a9 be
       -0.26241302 0.082962714 0.00249766 -0.33030748
0000c0 ce d1 51 b1 a1 bc 4d 3e fb cb 2f 3e 97 5c 70 bd
       -3.0532763e-09 0.20091487 0.17167656 -0.05868205
0000d0 39 c8 ea 3d 3a d6 53 3e 2f dc 4d 3e 6f e1 b8 bc
       0.11463971 0.2068719 0.20103525 -0.022568433
0000e0 ea de db 3c e8 6e 1e bd d1 db 6a bd ff ba 92 bc
       0.026839692 -0.038679987 -0.05733854 -0.017911432
0000f0 c9 d2 9e bc 30 d5 07 be 05 1d 20 3e 56 e3 e6 3d
       -0.01938762 -0.13264918 0.1563607 0.1127383
000100 6c 80 73 37 e6 a9 45 be 06 ef 85 bd ee 1b 02 3e
       1.4513829e-05 -0.19303092 -0.06539731 0.12705967
000110 e2 79 2a 3e 58 e1 05 3e 27 b4 93 3e 8f 38 ee bd
       0.16648057 0.13074243 0.28848383 -0.116318814
000120 f1 33 0b 3d 2d d9 02 bb 29 89 9e 3d 2f 66 f2 3d
       0.033985082 -0.0019965873 0.07741005 0.11835896
000130 40 a3 e2 3d f6 df 9f 16 85 ac 0b be 9c a3 75 ac
       0.11066294 2.5829175e-25 -0.1364003 -3.4907415e-12
000140 66 a2 e9 bd 64 df 64 3d f3 a4 59 be 5a b4 33 bd
       -0.11407928 0.055877104 -0.2125433 -0.04387317
000150 c6 dd 17 bd b4 a2 94 3d 5a ee ab 3c 2e 47 83 3d
       -0.037076734 0.07257596 0.020987678 0.06410061
000160 05 7d cc bd bc 10 ed 31 c1 cf fe 3d df c2 4f be
       -0.09984783 6.8995103e-09 0.1244197 -0.20289181
000170 78 37 96 3d 12 e4 17 3c 2c 48 45 be 9e 7a 6b 01
       0.073347986 0.009270685 -0.19265813 4.3250657e-38
000180 cb df 61 09 cf 30 1e bd 9c 6e cf 3d 34 40 2c 3e
       2.7188617e-33 -0.038620766 0.10128519 0.16821367
000190 46 2f fd bd d2 97 d3 3d 75 e8 01 b9 21 bb 08 be
       -0.12362532 0.10331692 -0.00012388996 -0.13352634
0001a0 cb e7 e4 bd 60 53 ec bd ff cd 31 3e 3d b0 5e 3e
       -0.111770235 -0.1153934 0.17363738 0.21746917
0001b0 e4 62 7a 3d 85 bf b9 be 6b 82 95 3c 81 c2 d7 3d
       0.061129466 -0.3627893 0.018250665 0.105351456
0001c0 9a 58 87 2b e6 69 73 bd b5 ed 1c 3e 1f c7 06 bc
       9.616919e-13 -0.059427164 0.15325053 -0.008226185
0001d0 53 0c a8 3c 95 67 69 bd 17 f3 dd bc 40 01 1c be
       0.02051369 -0.05698355 -0.027093453 -0.15234852
0001e0 e4 e3 e4 bc a8 9c dc be 28 f1 86 3d 10 39 85 bd
       -0.027940698 -0.4308827 0.06588966 -0.065050244
0001f0 d1 cc 74 3d 22 ed 7d 3d d2 25 cc bd 69 e4 c9 3d
       0.05976564 0.061993726 -0.09968151 0.09858019
000200 66 f7 08 3b 07 f7 2e 3e 5a e0 45 be 52 a0 b8 bd
       0.0020899414 0.17086421 -0.19323865 -0.09014954
000210 77 b4 7e 3b ae c4 d9 bd 70 9c b9 3e fb 2b 76 be
       0.003886489 -0.10633217 0.36252165 -0.24040215
000220 4a 46 d9 3c 3d d8 d8 b9 08 0e 18 be b5 e0 e5 3c
       0.026522774 -0.0004135984 -0.14849102 0.02806125
000230 77 69 10 be c3 5d c4 96 f9 82 08 be 0e a3 66 2c
       -0.14102732 -3.172468e-25 -0.13331212 3.277548e-12
000240 a8 77 5c bc 64 97 99 3c ad 0f 14 3f 17 de 0c 3e
       -0.013456263 0.018748946 0.5783642 0.13756596
000250 02 dc e3 3c 5d c0 17 bd 90 1b 75 3b 41 28 f4 bc
       0.027814869 -0.037048686 0.0037400462 -0.02980435
000260 7e b8 a4 bd 3a d7 db 30 56 25 34 3d 73 73 38 3d
       -0.080430016 1.5995518e-09 0.04398092 0.045031976
000270 5d e2 50 3e 7a 4e 1d bd 8b 3c 31 be ba f9 b9 81
       0.2039885 -0.03840492 -0.17308252 -6.831661e-38
000280 f7 c2 aa 91 2d e6 8d 3c 77 5c 0d be 7c 74 9d 3d
       -2.6941427e-28 0.01732167 -0.13804804 0.07688233
000290 3a 04 63 3e f2 06 ce 3d ea 53 23 35 63 60 90 bd
       0.22169581 0.100599185 6.0844343e-07 -0.07049634
0002a0 f0 a5 3a 3d a2 bc e6 3d e6 0d 19 bc f6 87 88 3e
       0.045568407 0.112664476 -0.009341693 0.2666623
0002b0 1c f0 9c be 06 39 b7 be d5 23 ba bb 16 28 f2 3e
       -0.3065194 -0.35785693 -0.005680541 0.47296208
0002c0 b3 7b cc 2f ca 97 ba 3e d8 aa 43 bd ae 32 a4 3d
       3.7195277e-10 0.3644393 -0.04777035 0.08017479
0002d0 a9 76 2a 3e 28 0f 31 bd 80 88 47 bb ee c7 64 3e
       0.16646828 -0.043227345 -0.003044635 0.22341892
0002e0 6a a8 e6 bc 30 99 83 be ea db a0 3d 55 60 a0 3c
       -0.028156478 -0.2570281 0.07854445 0.019577185
0002f0 a5 64 4b be e7 e1 05 3e ac 2e 02 3e ca d6 75 3e
       -0.19862612 0.13074456 0.12713116 0.24007717
000300 c8 2d 71 3b 94 f5 c6 3d de 96 a8 3d 8f 58 b0 bd
       0.003680097 0.09714809 0.08231901 -0.08610641
000310 ee 24 1e bd ca 3b 08 be c7 e7 1f 3d b4 ea 0d 3d
       -0.038609438 -0.13304058 0.0390394 0.03464766
000320 fd f2 1e bd eb 21 82 ba 93 7c 18 be 42 91 b4 bb
       -0.03880595 -0.0009928321 -0.14891271 -0.00551048
000330 af 5a 04 be d5 19 53 96 4b 47 40 3d 11 9b a4 2c
       -0.12925218 -1.7052595e-25 0.04694299 4.678376e-12
000340 62 3d 26 3d e8 8f 7b 3d f7 94 f0 bd 3c d5 0e be
       0.040585883 0.061416537 -0.11747163 -0.1394853
000350 29 ea 82 be 1d e0 2d be 85 60 a1 bb 93 ba dc bd
       -0.25569275 -0.16980024 -0.004924836 -0.10777774
000360 e0 5e 5f be 3a 42 f8 b7 be dd ae be 1d b9 5b 3c
       -0.21813536 -2.9594743e-05 -0.3415355 0.013410834
000370 e4 40 fd 3e 17 da 0a 3d d4 71 4e 3e e4 79 0f 80
       0.4946357 0.033899393 0.2016061 -1.421259e-39
000380 60 bd 7d 8a 5f 7a de bc 31 8b 06 3d c5 57 07 3e
       -1.22171244e-32 -0.02715796 0.032847587 0.13217075
000390 55 da 89 bd 34 82 b1 bc d4 da aa ac dd e2 8e 3c
       -0.06731097 -0.021668531 -4.8559854e-12 0.017442161
0003a0 b4 53 a4 3d d5 6d 42 be 5b 04 80 3d 22 b4 d0 bd
       0.080237776 -0.1898721 0.06250831 -0.101906076
0003b0 45 88 97 3e 2a c7 2d 3e fb e4 73 3c ca 17 0c 3e
       0.29596153 0.16970506 0.014886136 0.1368095
0003c0 f9 90 28 29 d3 68 a6 3e ee 23 a2 3d 05 08 af bc
       3.7429237e-14 0.3250185 0.07917009 -0.021366129
0003d0 56 f0 01 be f1 44 41 be f5 82 f8 3d 45 5a e3 bd
       -0.12689337 -0.18873955 0.12134353 -0.11101202
0003e0 ce 0d d9 3b 91 72 c0 bd c0 69 01 be 88 eb 07 bd
       0.00662396 -0.09396852 -0.12637997 -0.033183604
0003f0 eb af 7d be c5 38 b8 3d 16 58 55 be 52 1b 61 3d
       -0.24774139 0.08995203 -0.20834383 0.054957695

encoder.4.bias f4 [6]
000000 2e 67 38 3e c2 08 23 3c 45 b8 59 bd c7 57 0c be
       0.1800811 0.0099508185 -0.05315425 -0.1370536
000010 3a e2 cd 3c 3f 1b 00 ba
       0.025132287 -0.00048868725

decoder.0.weight f4 [64, 6]
000000 31 59 00 3e e0 41 9b b8 a0 68 1c 3f b6 a2 10 3f
       0.12534024 -7.403246e-05 0.61097145 0.5649828
000010 cb d5 ec be c2 cd d0 3d bf 23 2a 3c 48 2c 7c be
       -0.4625686 0.10195495 0.010384499 -0.24626267
000020 88 23 81 3d 76 8c b5 be 44 d0 b4 be 3d 1e 4b bd
       0.06305605 -0.35458726 -0.35315144 -0.049589384
000030 35 4c 12 bc c1 2b c4 bd a9 9f d9 be 51 f0 c3 3e
       -0.008929302 -0.09578658 -0.42504624 0.38269284
000040 f1 7a e2 be 9b 4d 01 3f 90 aa c4 3e 2a 3e ab 3e
       -0.44234422 0.5050904 0.3841138 0.33445865
000050 27 65 1c be 7f bf 8e bd 36 77 45 3e 66 7e cf bd
       -0.15272962 -0.06970119 0.19283757 -0.101315305
000060 a4 00 32 bd d6 14 b5 3e 88 36 d0 3e 10 c9 77 be
       -0.043457642 0.3536746 0.40666604 -0.24197793
000070 71 d8 df be 8d d8 6b 3e fc 6b 30 3e 85 74 88 3d
       -0.4371982 0.23031826 0.17228693 0.06662849
000080 d9 88 02 be 40 8e 85 be ae 38 06 3e 27 bf 8d be
       -0.12747516 -0.2608509 0.13107559 -0.276849
000090 36 82 9a 3e 03 50 71 3d 3d ff df 3d 01 48 c0 be
       0.30177468 0.058914196 0.10937355 -0.37554935
0000a0 4a 26 e9 3e e6 07 39 3d 64 7d df 3e 38 be 01 3d
       0.45537025 0.04517355 0.43650353 0.031675547
0000b0 28 4a c1 be bb c1 f2 3d f3 6d 1f 3e cf 33 0f 3f
       -0.3775189 0.118533574 0.15569286 0.5593843
0000c0 86 a4 a5 3e 1a 37 2f be d6 c9 4d be bf 5e 89 3b
       0.32352084 -0.17110863 -0.20096526 0.004192203
0000d0 63 b9 92 be 10 d4 a0 be b0 b9 ea 3e 5f f9 12 be
       -0.28657064 -0.3141179 0.45844793 -0.1435294
0000e0 46 1b 0a 3e d7 39 9d b9 e2 6c 4e be d6 c6 07 3e
       0.13486966 -0.00029988468 -0.20158723 0.13259444
0000f0 6c 53 2b be 87 86 08 3e 95 1c af be 09 4c fe be
       -0.16731042 0.13332568 -0.34201494 -0.49667385
000100 5a 7d 73 3e 5f 6c c6 3e fd 3f 74 3e e0 ad 5f be
       0.23778287 0.38754556 0.23852535 -0.21843672
000110 3c b1 c3 3e 13 f6 2e be 9a 6a 2f 3e 7c 88 5a be
       0.38221157 -0.17086057 0.17130509 -0.21341127
000120 74 88 40 bf 72 c0 02 3d 60 d8 2e 3e 32 12 eb bd
       -0.7520821 0.03192181 0.17074728 -0.1147808
000130 1f ce 7e be a8 bc 29 be 8c ff aa 3c 0b eb 79 3d
       -0.24883316 -0.16575873 0.020873807 0.06101517
000140 78 ed e2 3d 76 92 51 3f 15 1e ac 3e 5b a0 c1 3e
       0.1108045 0.81864107 0.336167 0.37817654
000150 e4 55 cd 3d 3b b6 10 3e 90 88 ab 3e 52 6f 80 3e
       0.10026148 0.14132015 0.33502626 0.2508493
000160 86 3e 85 3e e4 88 aa be 90 c4 b9 3e 2f ca 8f bd
       0.26024264 -0.33307564 0.36282778 -0.07020985
000170 10 88 11 3e 8f 58 d2 3d 28 c5 a9 3e aa d8 68 be
       0.1421206 0.102707975 0.3315823 -0.22738901
000180 54 34 1f 3e f2 15 06 3f 98 60 e8 3e d6 25 bc 3e
       0.15547305 0.52377236 0.45386195 0.36747617
000190 21 04 0d 3e b8 2d c0 3d ef e3 b2 3e b5 c3 57 bd
       0.13771106 0.0938372 0.34939525 -0.052676875
0001a0 b4 40 11 3e df c8 ac 3d 1d 7f 98 be 06 d0 b4 be
       0.14184839 0.084367506 -0.2978448 -0.3531496
0001b0 75 a3 ef be 3d 27 66 3e 7d ae 04 be 80 ae 67 be
       -0.46804395 0.22475906 -0.12957187 -0.2262516
0001c0 28 73 0b 3f c6 87 20 3d c7 64 38 3d 6a ce 41 be
       0.5447259 0.039191984 0.045017984 -0.18926397
0001d0 b0 ee e7 be 8f 51 d4 be c7 e1 11 bb 30 20 c6 bc
       -0.45299292 -0.41468474 -0.0022259818 -0.02418527
0001e0 70 b5 b0 bd cd 47 98 3e e1 4c 61 be ed 38 cf be
       -0.086283565 0.2974228 -0.22001983 -0.40473118
0001f0 a1 e3 a5 be de 2c 0c 3e 26 d4 5c bd 46 99 0d be
       -0.3240023 0.1368899 -0.053913258 -0.13828
000200 ec 4c 69 be 54 df ae be f1 71 cc be c3 f1 be 3e
       -0.2278325 -0.3415476 -0.3993068 0.37293825
000210 86 f5 11 bc fd ae 8b be 01 4f 30 be ae 71 bf 3e
       -0.008908635 -0.27281943 -0.17217638 0.37391418
000220 2f 81 9e 3e b0 13 c1 be aa 81 00 bf 4f 16 84 3e
       0.30957934 -0.37710333 -0.5019785 0.2579827
000230 f6 6a d2 be 30 58 a7 3e 77 d8 37 bd 07 44 4f be
       -0.4109723 0.3268447 -0.04488417 -0.20240794
000240 3f 11 64 3d f1 3d e8 3e cf 84 08 bc 1d 18 1b 3e
       0.05568051 0.45359758 -0.008332445 0.15145917
000250 fc 01 b2 be d2 c4 62 be 1d 07 1e 3e c7 da ac be
       -0.3476714 -0.22145393 0.15432401 -0.33760664
000260 b4 8c e6 be c9 97 b8 3d e6 90 23 3e f5 b4 50 be
       -0.45029223 0.09013326 0.15973243 -0.2038153
000270 1c e4 09 3e 2e fa 3a be 32 33 c8 bd ec 8f 60 be
       0.13465923 -0.18259498 -0.0977539 -0.21929902
000280 d4 e2 96 be 36 ef 53 3e 33 78 a0 be 63 fe 19 be
       -0.2946993 0.2069672 -0.31341705 -0.15038447
000290 2a c2 40 3e 72 52 20 be 85 bc 90 be b1 e6 82 be
       0.18824068 -0.1565645 -0.2826883 -0.2556663
0002a0 e2 59 ba 3e 0e 86 b2 3d d3 fb 75 3d 9d 33 33 bd
       0.363967 0.08716975 0.06005461 -0.043750394
0002b0 e9 21 59 be c2 94 ae 3b 77 3c 90 3e cb 00 9b 3e
       -0.21204342 0.005327792 0.2817113 0.30274042
0002c0 a0 ab 30 3e d4 3e 94 bd c1 96 b4 3e c6 59 e4 bd
       0.1725297 -0.07238546 0.35271266 -0.111499354
0002d0 c7 4e 6a 3d cc 90 19 3f 56 68 7b 3e 24 d7 e8 bb
       0.057204034 0.5998657 0.2455152 -0.007105725
0002e0 59 d2 04 3f b6 f3 c7 3e ed c8 f5 3d df aa 1a be
       0.51883465 0.39053124 0.12001214 -0.15104245
0002f0 fe 74 b9 bd 4b 5e 1b 3e bb ed 66 be d2 0f 4b be
       -0.090555176 0.15172689 -0.22551624 -0.19830254
000300 2a 68 d7 bc f8 2c 05 bf 2f ee 08 3f d2 d6 bc 3d
       -0.026294786 -0.5202174 0.5348844 0.09220661
000310 a4 bf f6 3c 6e b6 6a be e1 49 86 3e ce d0 b9 3d
       0.030120678 -0.22921154 0.2622824 0.090730295
000320 57 f5 d2 3e a2 71 ba bc c5 25 13 be 2b 35 0e 3f
       0.41202804 -0.022759262 -0.14369877 0.5554988
000330 77 7c b2 3e ea 41 7e 3e 8f c7 93 be cf 19 87 3e
       0.34860584 0.24829832 -0.2886319 0.26386878
000340 02 2c a4 3e c9 a6 3b bd a6 56 89 3d ea 3a b2 bd
       0.32064825 -0.045813356 0.0670598 -0.08702643
000350 14 01 0e bb a5 bd 5b bd 8a 33 5a 3d 1b d5 c2 bd
       -0.0021668123 -0.053647656 0.053271808 -0.09513303
000360 e6 12 96 be 54 a4 53 bd 30 2f e6 bd 28 ff 56 be
       -0.29311293 -0.051670387 -0.11239469 -0.20995772
000370 22 1c 96 be 95 ed fa 3d a9 2b 27 3e f3 4c 6e bd
       -0.2931834 0.122523464 0.16325249 -0.058178853
000380 9e 78 d7 bc 1e 67 cd 3a ec 7c 88 be d9 67 7a bd
       -0.026302632 0.001567099 -0.26657808 -0.061134193
000390 c9 c2 ec be 27 86 0d bd 4d f9 d3 3e 13 ed fe bd
       -0.4624236 -0.034551766 0.4140114 -0.12447562
0003a0 0e 84 f7 3e 99 33 d4 bd 45 9a 8a 3e e0 db ca 3e
       0.48342937 -0.10361404 0.27070823 0.39620876
0003b0 d2 4b f8 bd ae 05 86 be 30 42 45 be d3 6c 73 be
       -0.121238366 -0.26176208 -0.1926353 -0.23771982
0003c0 e9 59 76 3e 09 d5 e5 bd 21 cb ae bd 57 6a 6e bd
       0.24057736 -0.11222274 -0.085348375 -0.058206882
0003d0 83 43 f5 bd 49 1b 06 be f5 8f a5 3e aa 57 19 3c
       -0.119757675 -0.13096346 0.32336393 0.00935928
0003e0 e4 e7 57 be 82 26 99 be 95 02 a9 3d c4 c0 de bd
       -0.21084553 -0.29912192 0.082524456 -0.10876611
0003f0 6e b4 88 be e5 be c0 be 63 57 7d 3e b4 6a a2 3d
       -0.26700157 -0.3764564 0.24740367 0.07930508

decoder.0.bias f4 [64]
000000 76 15 cb be f5 72 80 bf 39 8f 2a bd cf 1a 3b bf
       -0.3966481 -1.0035082 -0.041640494 -0.7308778
000010 ab 62 bb 3e 25 44 f2 be 22 bc dd be 32 6f e5 3d
       0.36598715 -0.47317615 -0.43307596 0.112028494
000020 7f 15 2d bf bf 90 63 3e 32 a5 af 3e 80 49 59 bf
       -0.67610925 0.22223185 0.34305722 -0.8487778
000030 45 3f 11 bf df 9e 59 bc f9 df 96 3f 50 ff 3e 3f
       -0.56737167 -0.013282507 1.1787101 0.74608326
000040 46 00 09 be 9a 2b 2e bf 04 e7 a3 be a6 90 6b bf
       -0.1337901 -0.6803528 -0.32012188 -0.9201759
000050 ff f8 7d 3e 87 67 3e bf b2 33 90 3d 43 38 8a bd
       0.24802016 -0.7437672 0.0704111 -0.06749012
000060 33 c2 02 3e 53 53 4b 3d db 52 ee 3e 9c a6 e8 bd
       0.12769394 0.04964001 0.4654759 -0.11359903
000070 36 9c 71 3e be 25 8f be e5 d3 5a bf a8 ef 78 3f
       0.23594746 -0.27958483 -0.85479575 0.97240686
000080 97 b2 b2 3d 55 72 55 bd 3f fe 98 bf a0 4e 83 3f
       0.087254696 -0.05211099 -1.195259 1.025837
000090 d9 1c 33 3f a1 34 42 3f 5f b1 27 3d 31 62 d3 3e
       0.69965893 0.75861555 0.04094064 0.41285852
0000a0 6a 7a 8d 3d e2 c7 71 bf 77 b4 7c bd 27 8d 77 bf
       0.06908114 -0.9444562 -0.061695542 -0.96699756
0000b0 26 de d9 be 3d 66 10 3f bd 06 a1 3e b2 74 ce 3c
       -0.42552298 0.56406003 0.31450453 0.025202129
0000c0 9b c5 4c 3f 2b bb 48 bf ea 35 06 3f c5 6f 0e be
       0.7998902 -0.78410596 0.52426016 -0.13909824
0000d0 b0 4d 8b 3f f5 f6 45 bf 2a 34 33 3f a2 2d 3b 3f
       1.0883083 -0.7732995 0.7000147 0.73116505
0000e0 9c a7 b4 be fa 77 a2 3c 08 2e ec be ab cf d2 3e
       -0.35284126 0.0198326 -0.4612887 0.41174063
0000f0 6f 34 f4 3e 5b b2 4b 3f 59 71 99 be db 17 db be
       0.47696254 0.79569024 -0.2996929 -0.42791638

decoder.2.weight f4 [128, 64]
000000 85 cd b5 3d fc 83 ed 3c d6 41 01 3e cd 00 7d bd
       0.0887709 0.0289936 0.1262277 -0.06176834
000010 86 0a 43 be 80 a4 02 3e ec c7 19 3d 43 be 05 be
       -0.19046983 0.12758064 0.037544176 -0.1306086
000020 b2 1b a5 bb 0e bc 12 be 5e 9d 73 3e 1e 42 a1 3c
       -0.005038702 -0.1432955 0.237905 0.019684847
000030 e2 98 5e be a9 b8 98 3c 46 35 9c 3d a8 b7 17 be
       -0.21738008 0.01864274 0.076273486 -0.14816153
000040 f1 02 00 be a1 d9 a0 bd 7f db b2 3d 40 1c 00 3d
       -0.12501122 -0.078540094 0.08733272 0.03127694
000050 4c db 3a bd bb 88 23 3e 16 b5 19 3d ff 97 03 bd
       -0.045619294 0.15970127 0.037526213 -0.032127377
000060 87 ea 4e 3e 3a 4d 93 bc 92 e5 5f 3d 40 9a 6e 3d
       0.20206653 -0.01798116 0.054662295 0.058252573
000070 44 dd 01 bb 80 b0 93 bd 52 66 b9 3c 8d be 03 be
       -0.0019815722 -0.07211399 0.022631798 -0.12865658
000080 8c 08 6f 3e e4 7a 5c 3d 49 f9 92 bb 54 3b b4 bc
       0.23343104 0.053828135 -0.0044852835 -0.022000946
000090 6b 39 22 bd 3e 26 b0 bd 9a 6b e9 bc 28 47 48 3e
       -0.03960554 -0.08601044 -0.028493691 0.19558394
0000a0 15 6e a4 bd 10 75 a4 bd bd de c5 3b 2b 7f 53 3c
       -0.08028809 -0.080301404 0.0060385154 0.012908737
0000b0 e8 95 bd be 8c 09 e0 bd 54 28 e8 3d 54 f6 d9 bd
       -0.37028432 -0.10939321 0.11335817 -0.106426865
0000c0 bd 86 38 3d 79 08 8c 3d b8 28 8f 3d bb ed cf bd
       0.04505037 0.068375535 0.06990188 -0.10152765
0000d0 6d ec 27 be 9c 8f 4a 3d e1 f7 07 be 8a 08 45 3e
       -0.16398783 0.049453363 -0.13278152 0.19241539
0000e0 c8 86 3f 3d 36 9b da 3d 5a a1 77 be 30 4f 4f 3e
       0.046759397 0.106741354 -0.24182644 0.20245051
0000f0 bc 04 22 be f6 7e 9e bd ab e6 2b bd 39 59 bf bd
       -0.15822119 -0.077390596 -0.04196803 -0.0934319
000100 5c 58 29 be 54 e1 c6 bb 18 56 a4 be f1 8f 71 bc
       -0.16537613 -0.0060693417 -0.32096934 -0.014743791
000110 58 47 3d bd e5 53 73 bd 2a a8 9a bd 87 97 92 bd
       -0.046210617 -0.05940618 -0.07551606 -0.07157808
000120 98 10 1a bc 80 7a 48 38 e2 06 4c bd e8 dd 20 bd
       -0.00940337 4.7797803e-05 -0.04981125 -0.039274126
000130 36 39 e8 3d 9f 0e 36 3e b2 30 4a bd 2c ff 97 3d
       0.11339037 0.17779015 -0.049362846 0.07421717
000140 dc 68 74 bc 51 47 b2 3d ab 30 08 be 32 9e 01 3d
       -0.014917579 0.08705009 -0.13299815 0.031645007
000150 18 ae b6 3d b8 92 9d 3d 6c 30 4b bc 72 12 49 be
       0.089199245 0.07694 -0.012401681 -0.19635943
000160 cc 4d 5c bd f0 b3 3a 3d 58 c4 6c 3d 15 43 3e 3d
       -0.05378513 0.045581758 0.057804435 0.046450693
000170 6a 89 11 3e ee 5a af 3d 5f 3c e4 bd a6 99 37 3e
       0.14212576 0.08562265 -0.11144327 0.17929706
000180 57 e1 36 be 0b 2c 9a 3d 9a b1 0d be 80 a3 81 3c
       -0.17859398 0.07527932 -0.13837281 0.015825033
000190 0c 94 89 bc 27 fe 1b 3e 71 cc c4 3c 2f 9d 49 3d
       -0.016794227 0.1523367 0.024023267 0.049222168
0001a0 b4 b9 01 3c ea ce ac bd 10 a9 58 bd 72 ea 7e be
       0.00791781 -0.08437903 -0.052895606 -0.24894121
0001b0 11 36 c6 3d 67 fc 2d 3d e9 59 aa bc 2c 2c df bc
       0.09678281 0.042477038 -0.020794826 -0.027242742
0001c0 96 2e 68 3c 29 ab 16 be 62 a4 be bd ea 01 3f bd
       0.014171263 -0.1471373 -0.09308697 -0.046632685
0001d0 a2 c1 fa bd c0 90 fc be f8 5f 09 be 01 ad 6c bd
       -0.12243964 -0.49329185 -0.13415515 -0.057782177
0001e0 97 e9 8d be 48 2f 39 bd a0 cb 72 3d c8 be c9 3d
       -0.27717277 -0.045211107 0.059276223 0.09850842
0001f0 21 23 29 3e 91 5d 0b 3e c5 df 27 3e e5 0a c7 3c
       0.16517307 0.13609912 0.16393955 0.024297187
000200 58 85 68 3e 75 c4 9f bb b2 a8 6c 3c a6 b5 ad bd
       0.22707117 -0.0048757144 0.014444517 -0.08481912
000210 c1 28 1b 3d 9e 27 ce bd 69 ba 1b 3d 6b 66 ae 3d
       0.037880663 -0.1006615 0.03801957 0.085156284
000220 c7 90 23 3e df 53 d5 bd 41 a2 23 3e ce 03 e4 bc
       0.15973197 -0.10416388 0.15979864 -0.027833845
000230 37 66 94 3c 00 ff 88 ba 57 9a 21 3d 8e 4c 83 3d
       0.018115146 -0.0010451972 0.03945383 0.06411086
000240 5d 53 00 3e de 4e 6d 3e 20 cc 47 be bc 8f c4 bd
       0.125318 0.23174617 -0.19511461 -0.09597728
000250 32 3b 52 be f5 f9 28 bd df 74 00 3e 54 d9 0c be
       -0.20530394 -0.041254003 0.12544583 -0.13754779
000260 1a b4 2b 3d f4 d7 4d 3e 0a d7 94 bc 85 f7 cd 3d
       0.041919805 0.20101911 -0.018168945 0.10056976
000270 4e 18 9f bc a0 63 1c 3d 06 8e e6 bc 77 20 b5 3b
       -0.019420769 0.038180947 -0.028143894 0.0055275518
000280 23 c2 14 bd d5 39 c0 bd 7d 69 8a 3d 46 18 84 3c
       -0.036317956 -0.093860306 0.067584015 0.016124856
000290 90 8e 8e 3d f1 4c c2 3d 19 01 91 bd 0f f3 20 be
       0.069607854 0.09487332 -0.070802875 -0.1571772
0002a0 5a 45 a0 bc c7 d1 a1 be 3b fd 0e be f6 03 fe bd
       -0.01956432 -0.3160536 -0.13963787 -0.12403099
0002b0 02 81 49 be 85 11 c5 bd 7a 3f 6c be 55 ea 46 3e
       -0.19678119 -0.09622482 -0.2307109 0.19425328
0002c0 55 0a e2 bd 1c 9f f6 3d 0a 68 8c bd 52 ad 9b bc
       -0.11037127 0.120420665 -0.068557814 -0.019003544
0002d0 86 35 dc bd 3b 46 4c 3d 0a 88 ce bc 08 ab dd bc
       -0.10752396 0.049871664 -0.025211353 -0.027059093
0002e0 0e 2b 86 3c 9a d3 f8 bc 2c 69 6c 3e 30 97 9f 3d
       0.016377952 -0.030374337 0.23086995 0.077925086
0002f0 19 9e 2a 3d 36 04 92 bc 91 4f e9 bc ae 10 c6 3d
       0.04165468 -0.017824274 -0.028480323 0.0967115
000300 9f c1 8c bd a7 47 dd 3d f0 a8 6d 3e cb 18 ea 3d
       -0.06872868 0.10804682 0.23208976 0.1143051
000310 ed 40 1c 3e 31 d3 26 3e 4a 93 6b 3d ee 42 f1 bc
       0.15259142 0.162915 0.057513513 -0.02945086
000320 36 03 48 3e 58 22 15 bc 18 d2 dc 3c 22 b5 fc 3d
       0.19532475 -0.0091024265 0.02695565 0.12339236
000330 f1 e7 37 be f0 e8 26 be 67 23 1e 3d 6f 6e aa bd
       -0.17959572 -0.16299796 0.03860798 -0.08321845
000340 85 8f b7 3c 0a 19 81 3b 40 d4 d2 bd 7e 1b 33 bd
       0.022407303 0.0039397525 -0.1029439 -0.04372739
000350 de c0 61 3d 15 42 51 3d 59 eb ad 3d 69 54 55 bc
       0.055115573 0.05108841 0.08492155 -0.013020613
000360 29 b7 22 3d d9 8a 12 3e 7e fa 82 3d 6f 47 bc b9
       0.039725456 0.14310779 0.06395434 -0.00035911376
000370 52 8b 0d 3e 43 9b a4 bc ad 8b 18 3e ec b4 93 3c
       0.13822678 -0.020093566 0.14897032 0.018030606
000380 33 7d d6 bc 1b f6 e4 bd 84 5e a6 bd 9e 8e d7 bd
       -0.026182747 -0.111797534 -0.08123496 -0.10525249
000390 4f 0c 08 be f9 8c c3 bc 35 a9 2a 3e 7c 31 7a 3d
       -0.13285945 -0.023870932 0.1666611 0.06108235
0003a0 1f a6 87 3d 10 48 42 3d 49 17 13 3d d8 95 8f bd
       0.06623482 0.047432005 0.03591088 -0.07011002
0003b0 a3 66 8a bd e6 0b 00 3d 75 49 38 bd b3 8c d7 bd
       -0.06757858 0.031261347 -0.04499193 -0.10524883
0003c0 86 3a cb bd ce 9a 79 bc 3e 12 db 3d 2d 3c b7 bd
       -0.09923272 -0.015234662 0.10696839 -0.089470245
0003d0 14 89 e7 bd 35 a7 00 3d a1 86 43 bd 8e 50 cd bd
       -0.113054425 0.03140946 -0.047735814 -0.1002513
0003e0 a2 e9 79 3d 9a 5f ee 3d bd 61 0e 3a 77 73 69 bd
       0.061013825 0.11639328 0.0005431434 -0.05699488
0003f0 e1 7e 33 bd 53 45 26 be 1f 33 9b 3d bf 9c aa bc
       -0.043822173 -0.16237383 0.0757811 -0.020826695

decoder.2.bias f4 [128]
000000 b3 5e a9 bd 54 cc 1f 3e ca 71 06 be bd 8e 1b bf
       -0.082700156 0.15605289 -0.13129345 -0.60764676
000010 2b c9 33 be 51 0e fe bc 35 26 e8 be dc 8d 09 bd
       -0.17557208 -0.031012686 -0.4534165 -0.033582553
000020 ec 42 08 3c 04 ed 4e bf 2e a7 ec bd 0b b3 86 be
       0.008316737 -0.8083041 -0.115553245 -0.26308474
000030 54 f2 ac 3d 59 ee cf be b0 eb 42 3d dd e2 8e be
       0.08444658 -0.40611532 0.04758805 -0.27907458
000040 8f 4b cb 3d 76 2b a5 bd b1 df 79 3e c9 ef 9c bb
       0.09926521 -0.0806493 0.24401738 -0.004789327
000050 c8 d8 df 3b 15 2b 6a be 82 86 c4 be b4 91 3b 3f
       0.0068312623 -0.22867997 -0.3838387 0.732692
000060 53 03 d1 3e 61 ab cf 3e e7 23 67 bd b4 7f 8c 3e
       0.4082285 0.4056044 -0.056430724 0.2744118
000070 4c 23 a8 bd 86 f5 b5 be 91 4b 99 be 4a e1 01 3e
       -0.08209857 -0.35538882 -0.29940465 0.12683597
000080 0f c5 33 3e f2 bb a8 be 9d d1 32 bd c2 d3 02 be
       0.1755564 -0.3295589 -0.043656934 -0.12776092
000090 3c 1f a0 3c c2 52 27 bf c8 03 05 3e 45 7f d3 3b
       0.019546144 -0.65360653 0.12989724 0.0064543807
0000a0 68 05 a2 3e 86 f3 aa 3e 8e 8b ed bc ab 5d 57 bd
       0.3164475 0.3338892 -0.028997209 -0.052579563
0000b0 f2 67 6f bc 9e bf 22 be 3a d2 c7 bc 53 c1 1e be
       -0.014612185 -0.15893409 -0.024392236 -0.15503435
0000c0 0c 30 ef be 63 55 09 3f ef 6c 31 be 96 12 a3 3d
       -0.46716344 0.53645915 -0.17326711 0.07962529
0000d0 e0 e4 08 be ed 84 64 3e 02 fc d6 99 fa 56 5b be
       -0.13368559 0.22316332 -2.2228867e-23 -0.21419898
0000e0 c6 b9 8e be 86 7f 9e be 63 ac 84 81 5d 41 b5 3e
       -0.2787611 -0.30956668 -4.8736505e-38 0.3540143
0000f0 00 b6 a3 80 da df 39 bd 74 61 c9 be ea fe ab bd
       -1.5034475e-38 -0.045379497 -0.39332163 -0.083982304
000100 9e e5 09 bd 90 07 15 3f 93 ba db be e9 db a1 be
       -0.033666246 0.58214664 -0.42915782 -0.3161309
000110 94 d3 e8 3e 5b b6 7b bf 6b 26 20 bd cb 8c 15 bf
       0.4547392 -0.9832513 -0.03909914 -0.5841796
000120 b7 92 d6 3d 20 99 53 be 40 b1 01 b3 b0 99 e3 bd
       0.104772024 -0.20663881 -3.019636e-08 -0.11113298
000130 dd e2 b9 bd 9b fd 8e 3f 2c 47 87 3e c7 bc 69 3e
       -0.09076474 1.1171144 0.26421487 0.22825919
000140 9c 7a d7 be 14 9d 78 bd 50 ed 22 3e 7d 50 15 bf
       -0.4208573 -0.060696676 0.1591084 -0.5832594
000150 fa 08 8f be 37 e0 83 be 66 df e5 be 06 6a a3 3e
       -0.27936536 -0.25757 -0.44897002 0.31916827
000160 89 2d f6 3d 2d 14 bb 3c 1e a6 8d be ef aa ad 3e
       0.12020404 0.022836769 -0.276658 0.33919474
000170 a3 4f 88 3e 6b 5b f6 3d e4 b6 aa 3d 68 3e 2c be
       0.26623258 0.12029155 0.08335665 -0.16820681
000180 e6 3f 84 be b4 54 eb 3e 4f 68 c4 3d b6 ef fb 3e
       -0.2583 0.4596306 0.09590208 0.49206322
000190 63 32 49 3a 35 96 29 be e3 12 32 bf c6 22 ac 3e
       0.000767505 -0.16561206 -0.6956007 0.3362028
0001a0 ff f0 0e 3f 8f 81 46 bd 31 e0 1e 3f bd ee 50 3d
       0.5583648 -0.0484634 0.6206084 0.05100893
0001b0 33 41 ac bd ec b1 83 be 49 93 a7 3e b7 31 f0 bd
       -0.08410873 -0.2572168 0.32729557 -0.11728232
0001c0 e4 a3 47 3e 6d 91 a0 3e d7 22 8e be df 1d 10 bf
       0.19496113 0.3136095 -0.27760956 -0.5629558
0001d0 41 1a 99 be cc 1f d0 be 49 53 8d bd fc df 3b 3e
       -0.29902843 -0.4064926 -0.06900651 0.18347162
0001e0 70 2c c8 be fc 9b 11 3e 2d f8 b0 3d e1 88 2d 3e
       -0.39096403 0.1421966 0.08641086 0.16946746
0001f0 a3 38 d6 bd 62 3e 33 be e2 e5 ac be 75 b1 c1 3d
       -0.10460021 -0.17504266 -0.33769137 0.09457675
